#loc = loc("/home/mejiang/w1/test/fav3/triton/fa/flash-attention.py":466:1)
#loc1 = loc(unknown)
#loc74 = loc("/home/mejiang/w1/test/fav3/triton/fa/flash-attention.py":700:37)
#loc99 = loc("/home/mejiang/w1/test/fav3/triton/fa/flash-attention.py":335:32)
#loc107 = loc("/home/mejiang/w1/test/fav3/triton/fa/flash-attention.py":341:16)
#loc133 = loc("Q"(#loc))
#loc134 = loc("K"(#loc))
#loc135 = loc("V"(#loc))
#loc136 = loc("L"(#loc))
#loc137 = loc("Out"(#loc))
#loc138 = loc("stride_qz"(#loc))
#loc139 = loc("stride_qh"(#loc))
#loc140 = loc("stride_qm"(#loc))
#loc141 = loc("stride_kz"(#loc))
#loc142 = loc("stride_kh"(#loc))
#loc143 = loc("stride_kn"(#loc))
#loc144 = loc("stride_vz"(#loc))
#loc145 = loc("stride_vh"(#loc))
#loc146 = loc("stride_vk"(#loc))
#loc147 = loc("stride_oz"(#loc))
#loc148 = loc("stride_oh"(#loc))
#loc149 = loc("stride_om"(#loc))
#loc150 = loc("stride_bz"(#loc))
#loc151 = loc("stride_bh"(#loc))
#loc152 = loc("stride_bm"(#loc))
#loc153 = loc("stride_bn"(#loc))
#loc154 = loc("stride_az"(#loc))
#loc155 = loc("stride_ah"(#loc))
#loc156 = loc("dropout_p"(#loc))
#loc157 = loc("philox_seed"(#loc))
#loc158 = loc("atomic_counter"(#loc))
#loc159 = loc("philox_offset_base"(#loc))
#loc194 = loc("m_i"(#loc74))
#loc215 = loc("m_ij"(#loc99))
#loc221 = loc("l_ij"(#loc107))
#loc249 = loc("l_i"(#loc194))
#loc254 = loc("acc"(#loc249))
#loc263 = loc(callsite(#loc215 at #loc254))
#loc269 = loc(callsite(#loc221 at #loc254))
#loc282 = loc(callsite(#loc1 at #loc263))
#loc284 = loc(callsite(#loc1 at #loc269))
module {
  tt.func public @attn_fwd(%Q: !tt.ptr<bf16> {tt.divisibility = 16 : i32, tt.pointer_range = 32 : i32} loc("Q"(#loc)), %K: !tt.ptr<bf16> {tt.divisibility = 16 : i32, tt.pointer_range = 32 : i32} loc("K"(#loc)), %V: !tt.ptr<bf16> {tt.divisibility = 16 : i32, tt.pointer_range = 32 : i32} loc("V"(#loc)), %L: !tt.ptr<f32> {tt.divisibility = 16 : i32, tt.pointer_range = 32 : i32} loc("L"(#loc)), %Out: !tt.ptr<bf16> {tt.divisibility = 16 : i32, tt.pointer_range = 32 : i32} loc("Out"(#loc)), %stride_qz: i32 {tt.divisibility = 16 : i32} loc("stride_qz"(#loc)), %stride_qh: i32 {tt.divisibility = 16 : i32} loc("stride_qh"(#loc)), %stride_qm: i32 {tt.divisibility = 16 : i32} loc("stride_qm"(#loc)), %stride_kz: i32 {tt.divisibility = 16 : i32} loc("stride_kz"(#loc)), %stride_kh: i32 {tt.divisibility = 16 : i32} loc("stride_kh"(#loc)), %stride_kn: i32 {tt.divisibility = 16 : i32} loc("stride_kn"(#loc)), %stride_vz: i32 {tt.divisibility = 16 : i32} loc("stride_vz"(#loc)), %stride_vh: i32 {tt.divisibility = 16 : i32} loc("stride_vh"(#loc)), %stride_vk: i32 {tt.divisibility = 16 : i32} loc("stride_vk"(#loc)), %stride_oz: i32 {tt.divisibility = 16 : i32} loc("stride_oz"(#loc)), %stride_oh: i32 {tt.divisibility = 16 : i32} loc("stride_oh"(#loc)), %stride_om: i32 {tt.divisibility = 16 : i32} loc("stride_om"(#loc)), %stride_bz: i32 {tt.divisibility = 16 : i32} loc("stride_bz"(#loc)), %stride_bh: i32 {tt.divisibility = 16 : i32} loc("stride_bh"(#loc)), %stride_bm: i32 {tt.divisibility = 16 : i32} loc("stride_bm"(#loc)), %stride_bn: i32 {tt.divisibility = 16 : i32} loc("stride_bn"(#loc)), %stride_az: i32 {tt.divisibility = 16 : i32} loc("stride_az"(#loc)), %stride_ah: i32 {tt.divisibility = 16 : i32} loc("stride_ah"(#loc)), %dropout_p: f32 loc("dropout_p"(#loc)), %philox_seed: i32 loc("philox_seed"(#loc)), %atomic_counter: !tt.ptr<i32> {tt.divisibility = 16 : i32, tt.pointer_range = 32 : i32} loc("atomic_counter"(#loc)), %philox_offset_base: i32 loc("philox_offset_base"(#loc))) attributes {noinline = false} {
    %cst = arith.constant dense<0.000000e+00> : tensor<256x64xf32> loc(#loc1)
    %cst_0 = arith.constant dense<0.127517432> : tensor<256xf32> loc(#loc1)
    %cst_1 = arith.constant dense<0.127517432> : tensor<256x64xf32> loc(#loc1)
    %cst_2 = arith.constant dense<0.000000e+00> : tensor<256x128xf32> loc(#loc1)
    %c8_i32 = arith.constant 8 : i32 loc(#loc1)
    %c7_i32 = arith.constant 7 : i32 loc(#loc1)
    %c16640_i32 = arith.constant 16640 : i32 loc(#loc1)
    %c1048576_i32 = arith.constant 1048576 : i32 loc(#loc1)
    %cst_3 = arith.constant dense<0.000000e+00> : tensor<256x128xbf16> loc(#loc1)
    %cst_4 = arith.constant dense<true> : tensor<256x128xi1> loc(#loc1)
    %cst_5 = arith.constant dense<1.000000e+00> : tensor<256x1xf32> loc(#loc1)
    %cst_6 = arith.constant dense<16384> : tensor<256x1xi32> loc(#loc1)
    %cst_7 = arith.constant dense<1.000000e+00> : tensor<256xf32> loc(#loc1)
    %cst_8 = arith.constant dense<0xFF800000> : tensor<256xf32> loc(#loc1)
    %c64_i32 = arith.constant 64 : i32 loc(#loc1)
    %c16384_i32 = arith.constant 16384 : i32 loc(#loc1)
    %c256_i32 = arith.constant 256 : i32 loc(#loc1)
    %c1_i32 = arith.constant 1 : i32 loc(#loc1)
    %true = arith.constant true loc(#loc1)
    %c0_i32 = arith.constant 0 : i32 loc(#loc1)
    %0 = arith.cmpi sge, %stride_qz, %c0_i32 : i32 loc(#loc2)
    llvm.intr.assume %0 : i1 loc(#loc3)
    %1 = arith.cmpi sge, %stride_qh, %c0_i32 : i32 loc(#loc4)
    llvm.intr.assume %1 : i1 loc(#loc5)
    %2 = arith.cmpi sge, %stride_qm, %c0_i32 : i32 loc(#loc6)
    llvm.intr.assume %2 : i1 loc(#loc7)
    llvm.intr.assume %true : i1 loc(#loc8)
    %3 = arith.cmpi sge, %stride_kz, %c0_i32 : i32 loc(#loc9)
    llvm.intr.assume %3 : i1 loc(#loc10)
    %4 = arith.cmpi sge, %stride_kh, %c0_i32 : i32 loc(#loc11)
    llvm.intr.assume %4 : i1 loc(#loc12)
    %5 = arith.cmpi sge, %stride_kn, %c0_i32 : i32 loc(#loc13)
    llvm.intr.assume %5 : i1 loc(#loc14)
    llvm.intr.assume %true : i1 loc(#loc15)
    %6 = arith.cmpi sge, %stride_bz, %c0_i32 : i32 loc(#loc16)
    llvm.intr.assume %6 : i1 loc(#loc17)
    %7 = arith.cmpi sge, %stride_bh, %c0_i32 : i32 loc(#loc18)
    llvm.intr.assume %7 : i1 loc(#loc19)
    %8 = arith.cmpi sge, %stride_bm, %c0_i32 : i32 loc(#loc20)
    llvm.intr.assume %8 : i1 loc(#loc21)
    %9 = arith.cmpi sge, %stride_bn, %c0_i32 : i32 loc(#loc22)
    llvm.intr.assume %9 : i1 loc(#loc23)
    %10 = arith.cmpi sge, %stride_vz, %c0_i32 : i32 loc(#loc24)
    llvm.intr.assume %10 : i1 loc(#loc25)
    %11 = arith.cmpi sge, %stride_vh, %c0_i32 : i32 loc(#loc26)
    llvm.intr.assume %11 : i1 loc(#loc27)
    %12 = arith.cmpi sge, %stride_vk, %c0_i32 : i32 loc(#loc28)
    llvm.intr.assume %12 : i1 loc(#loc29)
    llvm.intr.assume %true : i1 loc(#loc30)
    %13 = arith.cmpi sge, %stride_oz, %c0_i32 : i32 loc(#loc31)
    llvm.intr.assume %13 : i1 loc(#loc32)
    %14 = arith.cmpi sge, %stride_oh, %c0_i32 : i32 loc(#loc33)
    llvm.intr.assume %14 : i1 loc(#loc34)
    %15 = arith.cmpi sge, %stride_om, %c0_i32 : i32 loc(#loc35)
    llvm.intr.assume %15 : i1 loc(#loc36)
    llvm.intr.assume %true : i1 loc(#loc37)
    %off_h_q = tt.get_program_id x : i32 loc(#loc160)
    %xcd = arith.remsi %off_h_q, %c8_i32 : i32 loc(#loc237)
    %local_pid = arith.divsi %off_h_q, %c8_i32 : i32 loc(#loc238)
    %off_h_q_9 = arith.cmpi slt, %xcd, %c8_i32 : i32 loc(#loc239)
    %off_h_q_10 = scf.if %off_h_q_9 -> (i32) {
      %pid = arith.muli %xcd, %c8_i32 : i32 loc(#loc241)
      %pid_64 = arith.addi %pid, %local_pid : i32 loc(#loc252)
      scf.yield %pid_64 : i32 loc(#loc252)
    } else {
      %pid = arith.subi %xcd, %c8_i32 : i32 loc(#loc243)
      %pid_64 = arith.muli %pid, %c7_i32 : i32 loc(#loc244)
      %pid_65 = arith.addi %pid_64, %c64_i32 : i32 loc(#loc245)
      %pid_66 = arith.addi %pid_65, %local_pid : i32 loc(#loc253)
      scf.yield %pid_66 : i32 loc(#loc245)
    } loc(#loc240)
    %start_m = tt.get_program_id y : i32 loc(#loc168)
    %off_z = tt.get_program_id z : i32 loc(#loc169)
    %offs_m = arith.muli %start_m, %c256_i32 : i32 loc(#loc170)
    %offs_m_11 = tt.make_range {end = 256 : i32, start = 0 : i32} : tensor<256xi32> loc(#loc171)
    %offs_m_12 = tt.splat %offs_m : i32 -> tensor<256xi32> loc(#loc170)
    %offs_m_13 = arith.addi %offs_m_12, %offs_m_11 : tensor<256xi32> loc(#loc170)
    %offs_n = tt.make_range {end = 64 : i32, start = 0 : i32} : tensor<64xi32> loc(#loc172)
    %offs_d = tt.make_range {end = 128 : i32, start = 0 : i32} : tensor<128xi32> loc(#loc173)
    %q_offset = arith.muli %off_z, %stride_qz : i32 loc(#loc174)
    %q_offset_14 = tt.addptr %Q, %q_offset : !tt.ptr<bf16>, i32 loc(#loc175)
    %q_offset_15 = arith.muli %off_h_q_10, %stride_qh : i32 loc(#loc176)
    %q_offset_16 = tt.addptr %q_offset_14, %q_offset_15 : !tt.ptr<bf16>, i32 loc(#loc175)
    %q_ptrs = tt.expand_dims %offs_m_13 {axis = 1 : i32} : tensor<256xi32> -> tensor<256x1xi32> loc(#loc177)
    %q_ptrs_17 = tt.splat %stride_qm : i32 -> tensor<256x1xi32> loc(#loc177)
    %q_ptrs_18 = arith.muli %q_ptrs, %q_ptrs_17 : tensor<256x1xi32> loc(#loc177)
    %q_ptrs_19 = tt.splat %q_offset_16 : !tt.ptr<bf16> -> tensor<256x1x!tt.ptr<bf16>> loc(#loc178)
    %q_ptrs_20 = tt.addptr %q_ptrs_19, %q_ptrs_18 : tensor<256x1x!tt.ptr<bf16>>, tensor<256x1xi32> loc(#loc178)
    %q_ptrs_21 = tt.expand_dims %offs_d {axis = 0 : i32} : tensor<128xi32> -> tensor<1x128xi32> loc(#loc179)
    %q_ptrs_22 = tt.broadcast %q_ptrs_20 : tensor<256x1x!tt.ptr<bf16>> -> tensor<256x128x!tt.ptr<bf16>> loc(#loc178)
    %q_ptrs_23 = tt.broadcast %q_ptrs_21 : tensor<1x128xi32> -> tensor<256x128xi32> loc(#loc178)
    %q_ptrs_24 = tt.addptr %q_ptrs_22, %q_ptrs_23 : tensor<256x128x!tt.ptr<bf16>>, tensor<256x128xi32> loc(#loc178)
    %k_offset = arith.muli %off_z, %stride_kz : i32 loc(#loc180)
    %k_offset_25 = tt.addptr %K, %k_offset : !tt.ptr<bf16>, i32 loc(#loc181)
    %k_offset_26 = arith.muli %off_h_q_10, %stride_kh : i32 loc(#loc182)
    %k_offset_27 = tt.addptr %k_offset_25, %k_offset_26 : !tt.ptr<bf16>, i32 loc(#loc181)
    %k_ptrs = tt.expand_dims %offs_d {axis = 1 : i32} : tensor<128xi32> -> tensor<128x1xi32> loc(#loc183)
    %k_ptrs_28 = tt.splat %k_offset_27 : !tt.ptr<bf16> -> tensor<128x1x!tt.ptr<bf16>> loc(#loc184)
    %k_ptrs_29 = tt.addptr %k_ptrs_28, %k_ptrs : tensor<128x1x!tt.ptr<bf16>>, tensor<128x1xi32> loc(#loc184)
    %k_ptrs_30 = tt.expand_dims %offs_n {axis = 0 : i32} : tensor<64xi32> -> tensor<1x64xi32> loc(#loc185)
    %k_ptrs_31 = tt.splat %stride_kn : i32 -> tensor<1x64xi32> loc(#loc185)
    %k_ptrs_32 = arith.muli %k_ptrs_30, %k_ptrs_31 : tensor<1x64xi32> loc(#loc185)
    %k_ptrs_33 = tt.broadcast %k_ptrs_29 : tensor<128x1x!tt.ptr<bf16>> -> tensor<128x64x!tt.ptr<bf16>> loc(#loc184)
    %k_ptrs_34 = tt.broadcast %k_ptrs_32 : tensor<1x64xi32> -> tensor<128x64xi32> loc(#loc184)
    %k_ptrs_35 = tt.addptr %k_ptrs_33, %k_ptrs_34 : tensor<128x64x!tt.ptr<bf16>>, tensor<128x64xi32> loc(#loc247)
    %v_offset = arith.muli %off_z, %stride_vz : i32 loc(#loc186)
    %v_offset_36 = tt.addptr %V, %v_offset : !tt.ptr<bf16>, i32 loc(#loc187)
    %v_offset_37 = arith.muli %off_h_q_10, %stride_vh : i32 loc(#loc188)
    %v_offset_38 = tt.addptr %v_offset_36, %v_offset_37 : !tt.ptr<bf16>, i32 loc(#loc187)
    %v_ptrs = tt.expand_dims %offs_n {axis = 1 : i32} : tensor<64xi32> -> tensor<64x1xi32> loc(#loc189)
    %v_ptrs_39 = tt.splat %stride_vk : i32 -> tensor<64x1xi32> loc(#loc189)
    %v_ptrs_40 = arith.muli %v_ptrs, %v_ptrs_39 : tensor<64x1xi32> loc(#loc189)
    %v_ptrs_41 = tt.splat %v_offset_38 : !tt.ptr<bf16> -> tensor<64x1x!tt.ptr<bf16>> loc(#loc190)
    %v_ptrs_42 = tt.addptr %v_ptrs_41, %v_ptrs_40 : tensor<64x1x!tt.ptr<bf16>>, tensor<64x1xi32> loc(#loc190)
    %v_ptrs_43 = tt.broadcast %v_ptrs_42 : tensor<64x1x!tt.ptr<bf16>> -> tensor<64x128x!tt.ptr<bf16>> loc(#loc190)
    %v_ptrs_44 = tt.broadcast %q_ptrs_21 : tensor<1x128xi32> -> tensor<64x128xi32> loc(#loc190)
    %v_ptrs_45 = tt.addptr %v_ptrs_43, %v_ptrs_44 : tensor<64x128x!tt.ptr<bf16>>, tensor<64x128xi32> loc(#loc248)
    %q_ptrs_mask = arith.cmpi slt, %q_ptrs, %cst_6 : tensor<256x1xi32> loc(#loc191)
    %q = tt.broadcast %q_ptrs_mask : tensor<256x1xi1> -> tensor<256x128xi1> loc(#loc192)
    %k_ptrs_46 = arith.muli %stride_kn, %c64_i32 : i32 loc(#loc256)
    %k_ptrs_47 = tt.splat %k_ptrs_46 : i32 -> tensor<128x64xi32> loc(#loc257)
    %v_ptrs_48 = arith.muli %stride_vk, %c64_i32 : i32 loc(#loc258)
    %v_ptrs_49 = tt.splat %v_ptrs_48 : i32 -> tensor<64x128xi32> loc(#loc259)
    %end_m_idx = arith.addi %start_m, %c1_i32 : i32 loc(#loc198)
    %end_m_idx_50 = arith.muli %end_m_idx, %c256_i32 : i32 loc(#loc199)
    %l_ptrs = arith.muli %off_z, %c1048576_i32 : i32 loc(#loc200)
    %l_ptrs_51 = tt.addptr %L, %l_ptrs : !tt.ptr<f32>, i32 loc(#loc201)
    %l_ptrs_52 = arith.muli %off_h_q_10, %c16384_i32 : i32 loc(#loc202)
    %l_ptrs_53 = tt.addptr %l_ptrs_51, %l_ptrs_52 : !tt.ptr<f32>, i32 loc(#loc201)
    %l_ptrs_54 = tt.splat %l_ptrs_53 : !tt.ptr<f32> -> tensor<256x!tt.ptr<f32>> loc(#loc201)
    %l_ptrs_55 = tt.addptr %l_ptrs_54, %offs_m_13 : tensor<256x!tt.ptr<f32>>, tensor<256xi32> loc(#loc201)
    %overflow_size = arith.subi %end_m_idx_50, %c16384_i32 : i32 loc(#loc203)
    %16 = arith.cmpi sgt, %overflow_size, %c0_i32 : i32 loc(#loc84)
    %o_offset = arith.muli %off_z, %stride_oz : i32 loc(#loc204)
    %o_offset_56 = tt.addptr %Out, %o_offset : !tt.ptr<bf16>, i32 loc(#loc205)
    %o_offset_57 = arith.muli %off_h_q_10, %stride_oh : i32 loc(#loc206)
    %o_offset_58 = tt.addptr %o_offset_56, %o_offset_57 : !tt.ptr<bf16>, i32 loc(#loc205)
    %o_ptrs = tt.splat %stride_om : i32 -> tensor<256x1xi32> loc(#loc207)
    %o_ptrs_59 = arith.muli %q_ptrs, %o_ptrs : tensor<256x1xi32> loc(#loc207)
    %o_ptrs_60 = tt.splat %o_offset_58 : !tt.ptr<bf16> -> tensor<256x1x!tt.ptr<bf16>> loc(#loc208)
    %o_ptrs_61 = tt.addptr %o_ptrs_60, %o_ptrs_59 : tensor<256x1x!tt.ptr<bf16>>, tensor<256x1xi32> loc(#loc208)
    %o_ptrs_62 = tt.broadcast %o_ptrs_61 : tensor<256x1x!tt.ptr<bf16>> -> tensor<256x128x!tt.ptr<bf16>> loc(#loc208)
    %o_ptrs_63 = tt.addptr %o_ptrs_62, %q_ptrs_23 : tensor<256x128x!tt.ptr<bf16>>, tensor<256x128xi32> loc(#loc208)
    %17 = scf.if %16 -> (tensor<256x128xi1>) {
      scf.yield %q : tensor<256x128xi1> loc(#loc250)
    } else {
      scf.yield %cst_4 : tensor<256x128xi1> loc(#loc90)
    } loc(#loc90)
    scf.while (%tile_id = %c0_i32) : (i32) -> () {
      %18 = arith.cmpi slt, %tile_id, %c1_i32 : i32 loc(#loc93)
      scf.condition(%18) loc(#loc93)
    } do {
      %q_64 = tt.load %q_ptrs_24, %q, %cst_3 : tensor<256x128x!tt.ptr<bf16>> loc(#loc192)
      %v_ptrs_65:5 = scf.for %start_n = %c0_i32 to %c16384_i32 step %c64_i32 iter_args(%acc_69 = %cst_2, %l_i = %cst_7, %m_i = %cst_8, %k_ptrs_70 = %k_ptrs_35, %v_ptrs_71 = %v_ptrs_45) -> (tensor<256x128xf32>, tensor<256xf32>, tensor<256xf32>, tensor<128x64x!tt.ptr<bf16>>, tensor<64x128x!tt.ptr<bf16>>)  : i32 {
        %tensor = tt.load %k_ptrs_70 : tensor<128x64x!tt.ptr<bf16>> loc(#loc280)
        %qk = tt.dot %q_64, %tensor, %cst : tensor<256x128xbf16> * tensor<128x64xbf16> -> tensor<256x64xf32> loc(#loc262)
        %m_ij = "tt.reduce"(%qk) <{axis = 1 : i32}> ({
        ^bb0(%m_ij_89: f32 loc(callsite(#loc1 at #loc263)), %m_ij_90: f32 loc(callsite(#loc1 at #loc263))):
          %m_ij_91 = arith.maxnumf %m_ij_89, %m_ij_90 : f32 loc(#loc287)
          tt.reduce.return %m_ij_91 : f32 loc(#loc281)
        }) : (tensor<256x64xf32>) -> tensor<256xf32> loc(#loc281)
        %m_ij_72 = arith.maxnumf %m_i, %m_ij : tensor<256xf32> loc(#loc264)
        %m_ij_scaled = arith.mulf %m_ij_72, %cst_0 : tensor<256xf32> loc(#loc265)
        %qk_73 = arith.mulf %qk, %cst_1 : tensor<256x64xf32> loc(#loc266)
        %qk_74 = tt.expand_dims %m_ij_scaled {axis = 1 : i32} : tensor<256xf32> -> tensor<256x1xf32> loc(#loc267)
        %qk_75 = tt.broadcast %qk_74 : tensor<256x1xf32> -> tensor<256x64xf32> loc(#loc266)
        %qk_76 = arith.subf %qk_73, %qk_75 : tensor<256x64xf32> loc(#loc266)
        %p = math.exp2 %qk_76 : tensor<256x64xf32> loc(#loc268)
        %l_ij = "tt.reduce"(%p) <{axis = 1 : i32}> ({
        ^bb0(%l_ij_89: f32 loc(callsite(#loc1 at #loc269)), %l_ij_90: f32 loc(callsite(#loc1 at #loc269))):
          %l_ij_91 = arith.addf %l_ij_89, %l_ij_90 : f32 loc(#loc288)
          tt.reduce.return %l_ij_91 : f32 loc(#loc283)
        }) : (tensor<256x64xf32>) -> tensor<256xf32> loc(#loc283)
        %alpha = arith.mulf %m_i, %cst_0 : tensor<256xf32> loc(#loc270)
        %alpha_77 = arith.subf %alpha, %m_ij_scaled : tensor<256xf32> loc(#loc270)
        %alpha_78 = math.exp2 %alpha_77 : tensor<256xf32> loc(#loc271)
        %acc_79 = tt.expand_dims %alpha_78 {axis = 1 : i32} : tensor<256xf32> -> tensor<256x1xf32> loc(#loc272)
        %acc_80 = tt.broadcast %acc_79 : tensor<256x1xf32> -> tensor<256x128xf32> loc(#loc273)
        %acc_81 = arith.mulf %acc_69, %acc_80 : tensor<256x128xf32> loc(#loc273)
        %tensor_82 = tt.load %v_ptrs_71 : tensor<64x128x!tt.ptr<bf16>> loc(#loc285)
        %l_i_83 = arith.mulf %l_i, %alpha_78 : tensor<256xf32> loc(#loc275)
        %l_i_84 = arith.addf %l_i_83, %l_ij : tensor<256xf32> loc(#loc275)
        %acc_85 = arith.truncf %p : tensor<256x64xf32> to tensor<256x64xbf16> loc(#loc276)
        %acc_86 = tt.dot %acc_85, %tensor_82, %acc_81 : tensor<256x64xbf16> * tensor<64x128xbf16> -> tensor<256x128xf32> loc(#loc277)
        %k_ptrs_87 = tt.addptr %k_ptrs_70, %k_ptrs_47 : tensor<128x64x!tt.ptr<bf16>>, tensor<128x64xi32> loc(#loc257)
        %v_ptrs_88 = tt.addptr %v_ptrs_71, %v_ptrs_49 : tensor<64x128x!tt.ptr<bf16>>, tensor<64x128xi32> loc(#loc259)
        scf.yield %acc_86, %l_i_84, %m_ij_72, %k_ptrs_87, %v_ptrs_88 : tensor<256x128xf32>, tensor<256xf32>, tensor<256xf32>, tensor<128x64x!tt.ptr<bf16>>, tensor<64x128x!tt.ptr<bf16>> loc(#loc278)
      } loc(#loc286)
      ttg.barrier all loc(#loc117)
      %l_recip = tt.expand_dims %v_ptrs_65#1 {axis = 1 : i32} : tensor<256xf32> -> tensor<256x1xf32> loc(#loc230)
      %l_recip_66 = arith.divf %cst_5, %l_recip : tensor<256x1xf32> loc(#loc231)
      %acc = tt.broadcast %l_recip_66 : tensor<256x1xf32> -> tensor<256x128xf32> loc(#loc232)
      %acc_67 = arith.mulf %v_ptrs_65#0, %acc : tensor<256x128xf32> loc(#loc232)
      %acc_68 = arith.truncf %acc_67 : tensor<256x128xf32> to tensor<256x128xbf16> loc(#loc233)
      scf.if %16 {
        %boundary = arith.subi %c16640_i32, %end_m_idx_50 : i32 loc(#loc234)
        %boundary_69 = tt.splat %boundary : i32 -> tensor<256xi32> loc(#loc235)
        %l_ptrs_mask = arith.cmpi slt, %offs_m_11, %boundary_69 : tensor<256xi32> loc(#loc236)
        %18 = math.log2 %v_ptrs_65#1 : tensor<256xf32> loc(#loc126)
        %19 = arith.addf %v_ptrs_65#2, %18 : tensor<256xf32> loc(#loc127)
        tt.store %l_ptrs_55, %19, %l_ptrs_mask : tensor<256x!tt.ptr<f32>> loc(#loc128)
      } else {
        %18 = math.log2 %v_ptrs_65#1 : tensor<256xf32> loc(#loc129)
        %19 = arith.addf %v_ptrs_65#2, %18 : tensor<256xf32> loc(#loc130)
        tt.store %l_ptrs_55, %19 : tensor<256x!tt.ptr<f32>> loc(#loc131)
      } loc(#loc122)
      tt.store %o_ptrs_63, %acc_68, %17 : tensor<256x128x!tt.ptr<bf16>> loc(#loc132)
      scf.yield %c1_i32 : i32 loc(#loc92)
    } loc(#loc210)
    tt.return loc(#loc)
  } loc(#loc)
} loc(#loc)
#loc2 = loc("/home/mejiang/w1/test/fav3/triton/fa/flash-attention.py":478:15)
#loc3 = loc("/home/mejiang/w1/test/fav3/triton/fa/flash-attention.py":478:5)
#loc4 = loc("/home/mejiang/w1/test/fav3/triton/fa/flash-attention.py":479:15)
#loc5 = loc("/home/mejiang/w1/test/fav3/triton/fa/flash-attention.py":479:5)
#loc6 = loc("/home/mejiang/w1/test/fav3/triton/fa/flash-attention.py":480:15)
#loc7 = loc("/home/mejiang/w1/test/fav3/triton/fa/flash-attention.py":480:5)
#loc8 = loc("/home/mejiang/w1/test/fav3/triton/fa/flash-attention.py":481:5)
#loc9 = loc("/home/mejiang/w1/test/fav3/triton/fa/flash-attention.py":482:15)
#loc10 = loc("/home/mejiang/w1/test/fav3/triton/fa/flash-attention.py":482:5)
#loc11 = loc("/home/mejiang/w1/test/fav3/triton/fa/flash-attention.py":483:15)
#loc12 = loc("/home/mejiang/w1/test/fav3/triton/fa/flash-attention.py":483:5)
#loc13 = loc("/home/mejiang/w1/test/fav3/triton/fa/flash-attention.py":484:15)
#loc14 = loc("/home/mejiang/w1/test/fav3/triton/fa/flash-attention.py":484:5)
#loc15 = loc("/home/mejiang/w1/test/fav3/triton/fa/flash-attention.py":485:5)
#loc16 = loc("/home/mejiang/w1/test/fav3/triton/fa/flash-attention.py":486:15)
#loc17 = loc("/home/mejiang/w1/test/fav3/triton/fa/flash-attention.py":486:5)
#loc18 = loc("/home/mejiang/w1/test/fav3/triton/fa/flash-attention.py":487:15)
#loc19 = loc("/home/mejiang/w1/test/fav3/triton/fa/flash-attention.py":487:5)
#loc20 = loc("/home/mejiang/w1/test/fav3/triton/fa/flash-attention.py":488:15)
#loc21 = loc("/home/mejiang/w1/test/fav3/triton/fa/flash-attention.py":488:5)
#loc22 = loc("/home/mejiang/w1/test/fav3/triton/fa/flash-attention.py":489:15)
#loc23 = loc("/home/mejiang/w1/test/fav3/triton/fa/flash-attention.py":489:5)
#loc24 = loc("/home/mejiang/w1/test/fav3/triton/fa/flash-attention.py":490:15)
#loc25 = loc("/home/mejiang/w1/test/fav3/triton/fa/flash-attention.py":490:5)
#loc26 = loc("/home/mejiang/w1/test/fav3/triton/fa/flash-attention.py":491:15)
#loc27 = loc("/home/mejiang/w1/test/fav3/triton/fa/flash-attention.py":491:5)
#loc28 = loc("/home/mejiang/w1/test/fav3/triton/fa/flash-attention.py":492:15)
#loc29 = loc("/home/mejiang/w1/test/fav3/triton/fa/flash-attention.py":492:5)
#loc30 = loc("/home/mejiang/w1/test/fav3/triton/fa/flash-attention.py":493:5)
#loc31 = loc("/home/mejiang/w1/test/fav3/triton/fa/flash-attention.py":494:15)
#loc32 = loc("/home/mejiang/w1/test/fav3/triton/fa/flash-attention.py":494:5)
#loc33 = loc("/home/mejiang/w1/test/fav3/triton/fa/flash-attention.py":495:15)
#loc34 = loc("/home/mejiang/w1/test/fav3/triton/fa/flash-attention.py":495:5)
#loc35 = loc("/home/mejiang/w1/test/fav3/triton/fa/flash-attention.py":496:15)
#loc36 = loc("/home/mejiang/w1/test/fav3/triton/fa/flash-attention.py":496:5)
#loc37 = loc("/home/mejiang/w1/test/fav3/triton/fa/flash-attention.py":497:5)
#loc38 = loc("/home/mejiang/w1/test/fav3/triton/fa/flash-attention.py":521:23)
#loc39 = loc("/home/mejiang/w1/test/fav3/triton/fa/flash-attention.py":45:11)
#loc40 = loc("/home/mejiang/w1/test/fav3/triton/fa/flash-attention.py":522:23)
#loc41 = loc("/home/mejiang/w1/test/fav3/triton/fa/flash-attention.py":46:17)
#loc42 = loc("/home/mejiang/w1/test/fav3/triton/fa/flash-attention.py":51:8)
#loc43 = loc("/home/mejiang/w1/test/fav3/triton/fa/flash-attention.py":51:5)
#loc44 = loc("/home/mejiang/w1/test/fav3/triton/fa/flash-attention.py":52:15)
#loc45 = loc("/home/mejiang/w1/test/fav3/triton/fa/flash-attention.py":56:16)
#loc46 = loc("/home/mejiang/w1/test/fav3/triton/fa/flash-attention.py":56:15)
#loc47 = loc("/home/mejiang/w1/test/fav3/triton/fa/flash-attention.py":55:13)
#loc48 = loc("/home/mejiang/w1/test/fav3/triton/fa/flash-attention.py":523:23)
#loc49 = loc("/home/mejiang/w1/test/fav3/triton/fa/flash-attention.py":524:21)
#loc50 = loc("/home/mejiang/w1/test/fav3/triton/fa/flash-attention.py":526:18)
#loc51 = loc("/home/mejiang/w1/test/fav3/triton/fa/flash-attention.py":526:38)
#loc52 = loc("/home/mejiang/w1/test/fav3/triton/fa/flash-attention.py":527:18)
#loc53 = loc("/home/mejiang/w1/test/fav3/triton/fa/flash-attention.py":528:18)
#loc54 = loc("/home/mejiang/w1/test/fav3/triton/fa/flash-attention.py":605:32)
#loc55 = loc("/home/mejiang/w1/test/fav3/triton/fa/flash-attention.py":605:28)
#loc56 = loc("/home/mejiang/w1/test/fav3/triton/fa/flash-attention.py":605:52)
#loc57 = loc("/home/mejiang/w1/test/fav3/triton/fa/flash-attention.py":606:37)
#loc58 = loc("/home/mejiang/w1/test/fav3/triton/fa/flash-attention.py":606:26)
#loc59 = loc("/home/mejiang/w1/test/fav3/triton/fa/flash-attention.py":606:67)
#loc60 = loc("/home/mejiang/w1/test/fav3/triton/fa/flash-attention.py":607:32)
#loc61 = loc("/home/mejiang/w1/test/fav3/triton/fa/flash-attention.py":607:28)
#loc62 = loc("/home/mejiang/w1/test/fav3/triton/fa/flash-attention.py":607:52)
#loc63 = loc("/home/mejiang/w1/test/fav3/triton/fa/flash-attention.py":608:37)
#loc64 = loc("/home/mejiang/w1/test/fav3/triton/fa/flash-attention.py":608:26)
#loc65 = loc("/home/mejiang/w1/test/fav3/triton/fa/flash-attention.py":608:67)
#loc66 = loc("/home/mejiang/w1/test/fav3/triton/fa/flash-attention.py":609:32)
#loc67 = loc("/home/mejiang/w1/test/fav3/triton/fa/flash-attention.py":609:28)
#loc68 = loc("/home/mejiang/w1/test/fav3/triton/fa/flash-attention.py":609:52)
#loc69 = loc("/home/mejiang/w1/test/fav3/triton/fa/flash-attention.py":610:37)
#loc70 = loc("/home/mejiang/w1/test/fav3/triton/fa/flash-attention.py":610:26)
#loc71 = loc("/home/mejiang/w1/test/fav3/triton/fa/flash-attention.py":656:31)
#loc72 = loc("/home/mejiang/w1/test/fav3/triton/fa/flash-attention.py":659:21)
#loc73 = loc("/home/mejiang/w1/test/fav3/triton/fa/flash-attention.py":373:19)
#loc75 = loc("/home/mejiang/w1/test/fav3/triton/fa/flash-attention.py":373:9)
#loc76 = loc("/home/mejiang/w1/test/fav3/triton/fa/flash-attention.py":374:19)
#loc77 = loc("/home/mejiang/w1/test/fav3/triton/fa/flash-attention.py":374:9)
#loc78 = loc("/home/mejiang/w1/test/fav3/triton/fa/flash-attention.py":753:30)
#loc79 = loc("/home/mejiang/w1/test/fav3/triton/fa/flash-attention.py":753:29)
#loc80 = loc("/home/mejiang/w1/test/fav3/triton/fa/flash-attention.py":765:30)
#loc81 = loc("/home/mejiang/w1/test/fav3/triton/fa/flash-attention.py":765:26)
#loc82 = loc("/home/mejiang/w1/test/fav3/triton/fa/flash-attention.py":765:59)
#loc83 = loc("/home/mejiang/w1/test/fav3/triton/fa/flash-attention.py":768:33)
#loc84 = loc("/home/mejiang/w1/test/fav3/triton/fa/flash-attention.py":769:20)
#loc85 = loc("/home/mejiang/w1/test/fav3/triton/fa/flash-attention.py":777:34)
#loc86 = loc("/home/mejiang/w1/test/fav3/triton/fa/flash-attention.py":777:28)
#loc87 = loc("/home/mejiang/w1/test/fav3/triton/fa/flash-attention.py":777:54)
#loc88 = loc("/home/mejiang/w1/test/fav3/triton/fa/flash-attention.py":778:37)
#loc89 = loc("/home/mejiang/w1/test/fav3/triton/fa/flash-attention.py":778:26)
#loc90 = loc("/home/mejiang/w1/test/fav3/triton/fa/flash-attention.py":780:17)
#loc91 = loc("/home/mejiang/w1/test/fav3/triton/fa/flash-attention.py":781:35)
#loc92 = loc("/home/mejiang/w1/test/fav3/triton/fa/flash-attention.py":512:5)
#loc93 = loc("/home/mejiang/w1/test/fav3/triton/fa/flash-attention.py":512:11)
#loc94 = loc("/home/mejiang/w1/test/fav3/triton/fa/flash-attention.py":279:5)
#loc95 = loc("/home/mejiang/w1/test/fav3/triton/fa/flash-attention.py":213:18)
#loc96 = loc("/home/mejiang/w1/test/fav3/triton/fa/flash-attention.py":287:13)
#loc97 = loc("/home/mejiang/w1/test/fav3/triton/fa/flash-attention.py":316:19)
#loc98 = loc("/home/mejiang/w1/test/triton/python/triton/language/standard.py":191:16)
#loc100 = loc("/home/mejiang/w1/test/triton/python/triton/language/standard.py":170:12)
#loc101 = loc("/home/mejiang/w1/test/fav3/triton/fa/flash-attention.py":335:16)
#loc102 = loc("/home/mejiang/w1/test/fav3/triton/fa/flash-attention.py":336:23)
#loc103 = loc("/home/mejiang/w1/test/fav3/triton/fa/flash-attention.py":337:14)
#loc104 = loc("/home/mejiang/w1/test/fav3/triton/fa/flash-attention.py":337:30)
#loc105 = loc("/home/mejiang/w1/test/fav3/triton/fa/flash-attention.py":338:13)
#loc106 = loc("/home/mejiang/w1/test/triton/python/triton/language/standard.py":293:12)
#loc108 = loc("/home/mejiang/w1/test/triton/python/triton/language/standard.py":263:12)
#loc109 = loc("/home/mejiang/w1/test/fav3/triton/fa/flash-attention.py":351:30)
#loc110 = loc("/home/mejiang/w1/test/fav3/triton/fa/flash-attention.py":351:17)
#loc111 = loc("/home/mejiang/w1/test/fav3/triton/fa/flash-attention.py":352:21)
#loc112 = loc("/home/mejiang/w1/test/fav3/triton/fa/flash-attention.py":352:15)
#loc113 = loc("/home/mejiang/w1/test/fav3/triton/fa/flash-attention.py":354:17)
#loc114 = loc("/home/mejiang/w1/test/fav3/triton/fa/flash-attention.py":356:15)
#loc115 = loc("/home/mejiang/w1/test/fav3/triton/fa/flash-attention.py":371:27)
#loc116 = loc("/home/mejiang/w1/test/fav3/triton/fa/flash-attention.py":371:20)
#loc117 = loc("/home/mejiang/w1/test/fav3/triton/fa/flash-attention.py":715:17)
#loc118 = loc("/home/mejiang/w1/test/fav3/triton/fa/flash-attention.py":744:31)
#loc119 = loc("/home/mejiang/w1/test/fav3/triton/fa/flash-attention.py":744:27)
#loc120 = loc("/home/mejiang/w1/test/fav3/triton/fa/flash-attention.py":745:23)
#loc121 = loc("/home/mejiang/w1/test/fav3/triton/fa/flash-attention.py":756:23)
#loc122 = loc("/home/mejiang/w1/test/fav3/triton/fa/flash-attention.py":769:17)
#loc123 = loc("/home/mejiang/w1/test/fav3/triton/fa/flash-attention.py":770:53)
#loc124 = loc("/home/mejiang/w1/test/fav3/triton/fa/flash-attention.py":770:32)
#loc125 = loc("/home/mejiang/w1/test/fav3/triton/fa/flash-attention.py":771:35)
#loc126 = loc("/home/mejiang/w1/test/fav3/triton/fa/flash-attention.py":772:44)
#loc127 = loc("/home/mejiang/w1/test/fav3/triton/fa/flash-attention.py":772:38)
#loc128 = loc("/home/mejiang/w1/test/fav3/triton/fa/flash-attention.py":772:21)
#loc129 = loc("/home/mejiang/w1/test/fav3/triton/fa/flash-attention.py":774:44)
#loc130 = loc("/home/mejiang/w1/test/fav3/triton/fa/flash-attention.py":774:38)
#loc131 = loc("/home/mejiang/w1/test/fav3/triton/fa/flash-attention.py":774:21)
#loc132 = loc("/home/mejiang/w1/test/fav3/triton/fa/flash-attention.py":784:17)
#loc160 = loc("off_h_q"(#loc38))
#loc161 = loc("xcd"(#loc39))
#loc162 = loc("off_h_q"(#loc40))
#loc163 = loc("local_pid"(#loc41))
#loc164 = loc("pid"(#loc44))
#loc165 = loc("pid"(#loc45))
#loc166 = loc("pid"(#loc46))
#loc167 = loc("pid"(#loc47))
#loc168 = loc("start_m"(#loc48))
#loc169 = loc("off_z"(#loc49))
#loc170 = loc("offs_m"(#loc50))
#loc171 = loc("offs_m"(#loc51))
#loc172 = loc("offs_n"(#loc52))
#loc173 = loc("offs_d"(#loc53))
#loc174 = loc("q_offset"(#loc54))
#loc175 = loc("q_offset"(#loc55))
#loc176 = loc("q_offset"(#loc56))
#loc177 = loc("q_ptrs"(#loc57))
#loc178 = loc("q_ptrs"(#loc58))
#loc179 = loc("q_ptrs"(#loc59))
#loc180 = loc("k_offset"(#loc60))
#loc181 = loc("k_offset"(#loc61))
#loc182 = loc("k_offset"(#loc62))
#loc183 = loc("k_ptrs"(#loc63))
#loc184 = loc("k_ptrs"(#loc64))
#loc185 = loc("k_ptrs"(#loc65))
#loc186 = loc("v_offset"(#loc66))
#loc187 = loc("v_offset"(#loc67))
#loc188 = loc("v_offset"(#loc68))
#loc189 = loc("v_ptrs"(#loc69))
#loc190 = loc("v_ptrs"(#loc70))
#loc191 = loc("q_ptrs_mask"(#loc71))
#loc192 = loc("q"(#loc72))
#loc193 = loc("k_ptrs"(#loc73))
#loc195 = loc("k_ptrs"(#loc75))
#loc196 = loc("v_ptrs"(#loc76))
#loc197 = loc("v_ptrs"(#loc77))
#loc198 = loc("end_m_idx"(#loc78))
#loc199 = loc("end_m_idx"(#loc79))
#loc200 = loc("l_ptrs"(#loc80))
#loc201 = loc("l_ptrs"(#loc81))
#loc202 = loc("l_ptrs"(#loc82))
#loc203 = loc("overflow_size"(#loc83))
#loc204 = loc("o_offset"(#loc85))
#loc205 = loc("o_offset"(#loc86))
#loc206 = loc("o_offset"(#loc87))
#loc207 = loc("o_ptrs"(#loc88))
#loc208 = loc("o_ptrs"(#loc89))
#loc209 = loc("o_ptrs_mask"(#loc91))
#loc210 = loc("tile_id"(#loc92))
#loc211 = loc("acc"(#loc94))
#loc212 = loc("tensor"(#loc95))
#loc213 = loc("k"(#loc96))
#loc214 = loc("qk"(#loc97))
#loc216 = loc("m_ij"(#loc101))
#loc217 = loc("m_ij_scaled"(#loc102))
#loc218 = loc("qk"(#loc103))
#loc219 = loc("qk"(#loc104))
#loc220 = loc("p"(#loc105))
#loc222 = loc("alpha"(#loc109))
#loc223 = loc("alpha"(#loc110))
#loc224 = loc("acc"(#loc111))
#loc225 = loc("acc"(#loc112))
#loc226 = loc("v"(#loc113))
#loc227 = loc("l_i"(#loc114))
#loc228 = loc("acc"(#loc115))
#loc229 = loc("acc"(#loc116))
#loc230 = loc("l_recip"(#loc118))
#loc231 = loc("l_recip"(#loc119))
#loc232 = loc("acc"(#loc120))
#loc233 = loc("acc"(#loc121))
#loc234 = loc("boundary"(#loc123))
#loc235 = loc("boundary"(#loc124))
#loc236 = loc("l_ptrs_mask"(#loc125))
#loc237 = loc(callsite(#loc161 at #loc162))
#loc238 = loc(callsite(#loc163 at #loc162))
#loc239 = loc(callsite(#loc42 at #loc162))
#loc240 = loc(callsite(#loc43 at #loc162))
#loc241 = loc(callsite(#loc164 at #loc162))
#loc242 = loc("pid"(#loc164))
#loc243 = loc(callsite(#loc165 at #loc162))
#loc244 = loc(callsite(#loc166 at #loc162))
#loc245 = loc(callsite(#loc167 at #loc162))
#loc246 = loc("pid"(#loc167))
#loc247 = loc("k_ptrs"(#loc184))
#loc248 = loc("v_ptrs"(#loc190))
#loc250 = loc("o_ptrs_mask"(#loc209))
#loc251 = loc("l_i"(#loc211))
#loc252 = loc(callsite(#loc242 at #loc162))
#loc253 = loc(callsite(#loc246 at #loc162))
#loc255 = loc("m_i"(#loc251))
#loc256 = loc(callsite(#loc193 at #loc254))
#loc257 = loc(callsite(#loc195 at #loc254))
#loc258 = loc(callsite(#loc196 at #loc254))
#loc259 = loc(callsite(#loc197 at #loc254))
#loc260 = loc("k_ptrs"(#loc255))
#loc261 = loc(callsite(#loc213 at #loc254))
#loc262 = loc(callsite(#loc214 at #loc254))
#loc264 = loc(callsite(#loc216 at #loc254))
#loc265 = loc(callsite(#loc217 at #loc254))
#loc266 = loc(callsite(#loc218 at #loc254))
#loc267 = loc(callsite(#loc219 at #loc254))
#loc268 = loc(callsite(#loc220 at #loc254))
#loc270 = loc(callsite(#loc222 at #loc254))
#loc271 = loc(callsite(#loc223 at #loc254))
#loc272 = loc(callsite(#loc224 at #loc254))
#loc273 = loc(callsite(#loc225 at #loc254))
#loc274 = loc(callsite(#loc226 at #loc254))
#loc275 = loc(callsite(#loc227 at #loc254))
#loc276 = loc(callsite(#loc228 at #loc254))
#loc277 = loc(callsite(#loc229 at #loc254))
#loc278 = loc(callsite(#loc94 at #loc254))
#loc279 = loc("v_ptrs"(#loc260))
#loc280 = loc(callsite(#loc212 at #loc261))
#loc281 = loc(callsite(#loc98 at #loc263))
#loc283 = loc(callsite(#loc106 at #loc269))
#loc285 = loc(callsite(#loc212 at #loc274))
#loc286 = loc(callsite(#loc279 at #loc254))
#loc287 = loc(callsite(#loc100 at #loc281))
#loc288 = loc(callsite(#loc108 at #loc283))
