#loc = loc("/home/mejiang/w1/test/triton/fa/flash-attention.py":465:0)
#loc1 = loc(unknown)
#loc122 = loc("/home/mejiang/w1/test/triton/fa/flash-attention.py":710:61)
#loc131 = loc("/home/mejiang/w1/test/triton/fa/flash-attention.py":334:42)
#loc140 = loc("/home/mejiang/w1/test/triton/fa/flash-attention.py":340:25)
#loc163 = loc("/home/mejiang/w1/test/triton/fa/flash-attention.py":734:67)
#loc230 = loc(callsite(#loc131 at #loc122))
#loc237 = loc(callsite(#loc140 at #loc122))
#loc259 = loc(callsite(#loc131 at #loc163))
#loc266 = loc(callsite(#loc140 at #loc163))
#loc280 = loc(callsite(#loc1 at #loc230))
#loc282 = loc(callsite(#loc1 at #loc237))
#loc288 = loc(callsite(#loc1 at #loc259))
#loc290 = loc(callsite(#loc1 at #loc266))
module {
  tt.func public @attn_fwd(%arg0: !tt.ptr<bf16> {tt.divisibility = 16 : i32} loc("/home/mejiang/w1/test/triton/fa/flash-attention.py":465:0), %arg1: !tt.ptr<bf16> {tt.divisibility = 16 : i32} loc("/home/mejiang/w1/test/triton/fa/flash-attention.py":465:0), %arg2: !tt.ptr<bf16> {tt.divisibility = 16 : i32} loc("/home/mejiang/w1/test/triton/fa/flash-attention.py":465:0), %arg3: !tt.ptr<f32> {tt.divisibility = 16 : i32} loc("/home/mejiang/w1/test/triton/fa/flash-attention.py":465:0), %arg4: !tt.ptr<bf16> {tt.divisibility = 16 : i32} loc("/home/mejiang/w1/test/triton/fa/flash-attention.py":465:0), %arg5: i32 {tt.divisibility = 16 : i32} loc("/home/mejiang/w1/test/triton/fa/flash-attention.py":465:0), %arg6: i32 {tt.divisibility = 16 : i32} loc("/home/mejiang/w1/test/triton/fa/flash-attention.py":465:0), %arg7: i32 {tt.divisibility = 16 : i32} loc("/home/mejiang/w1/test/triton/fa/flash-attention.py":465:0), %arg8: i32 {tt.divisibility = 16 : i32} loc("/home/mejiang/w1/test/triton/fa/flash-attention.py":465:0), %arg9: i32 {tt.divisibility = 16 : i32} loc("/home/mejiang/w1/test/triton/fa/flash-attention.py":465:0), %arg10: i32 {tt.divisibility = 16 : i32} loc("/home/mejiang/w1/test/triton/fa/flash-attention.py":465:0), %arg11: i32 {tt.divisibility = 16 : i32} loc("/home/mejiang/w1/test/triton/fa/flash-attention.py":465:0), %arg12: i32 {tt.divisibility = 16 : i32} loc("/home/mejiang/w1/test/triton/fa/flash-attention.py":465:0), %arg13: i32 {tt.divisibility = 16 : i32} loc("/home/mejiang/w1/test/triton/fa/flash-attention.py":465:0), %arg14: i32 {tt.divisibility = 16 : i32} loc("/home/mejiang/w1/test/triton/fa/flash-attention.py":465:0), %arg15: i32 {tt.divisibility = 16 : i32} loc("/home/mejiang/w1/test/triton/fa/flash-attention.py":465:0), %arg16: i32 {tt.divisibility = 16 : i32} loc("/home/mejiang/w1/test/triton/fa/flash-attention.py":465:0), %arg17: i32 {tt.divisibility = 16 : i32} loc("/home/mejiang/w1/test/triton/fa/flash-attention.py":465:0), %arg18: i32 {tt.divisibility = 16 : i32} loc("/home/mejiang/w1/test/triton/fa/flash-attention.py":465:0), %arg19: i32 {tt.divisibility = 16 : i32} loc("/home/mejiang/w1/test/triton/fa/flash-attention.py":465:0), %arg20: i32 {tt.divisibility = 16 : i32} loc("/home/mejiang/w1/test/triton/fa/flash-attention.py":465:0), %arg21: i32 {tt.divisibility = 16 : i32} loc("/home/mejiang/w1/test/triton/fa/flash-attention.py":465:0), %arg22: i32 {tt.divisibility = 16 : i32} loc("/home/mejiang/w1/test/triton/fa/flash-attention.py":465:0), %arg23: f32 loc("/home/mejiang/w1/test/triton/fa/flash-attention.py":465:0), %arg24: i32 loc("/home/mejiang/w1/test/triton/fa/flash-attention.py":465:0), %arg25: !tt.ptr<i32> {tt.divisibility = 16 : i32} loc("/home/mejiang/w1/test/triton/fa/flash-attention.py":465:0), %arg26: i32 loc("/home/mejiang/w1/test/triton/fa/flash-attention.py":465:0)) attributes {noinline = false} {
    %cst = arith.constant dense<0> : tensor<256x1xi32> loc(#loc1)
    %cst_0 = arith.constant dense<16384> : tensor<64x1xi32> loc(#loc1)
    %cst_1 = arith.constant dense<16384> : tensor<1x64xi32> loc(#loc1)
    %cst_2 = arith.constant dense<0xFF800000> : tensor<256x64xf32> loc(#loc1)
    %cst_3 = arith.constant dense<0.000000e+00> : tensor<128x64xbf16> loc(#loc1)
    %cst_4 = arith.constant dense<0.000000e+00> : tensor<64x128xbf16> loc(#loc1)
    %cst_5 = arith.constant dense<0.000000e+00> : tensor<256x64xf32> loc(#loc1)
    %cst_6 = arith.constant dense<0.127517432> : tensor<256xf32> loc(#loc1)
    %cst_7 = arith.constant dense<0.127517432> : tensor<256x64xf32> loc(#loc1)
    %cst_8 = arith.constant dense<0.000000e+00> : tensor<256x128xf32> loc(#loc1)
    %c63_i32 = arith.constant 63 : i32 loc(#loc1)
    %c8_i32 = arith.constant 8 : i32 loc(#loc1)
    %c7_i32 = arith.constant 7 : i32 loc(#loc1)
    %c16640_i32 = arith.constant 16640 : i32 loc(#loc1)
    %c4_i32 = arith.constant 4 : i32 loc(#loc1)
    %cst_9 = arith.constant dense<0.000000e+00> : tensor<256x128xbf16> loc(#loc1)
    %c1048576_i32 = arith.constant 1048576 : i32 loc(#loc1)
    %cst_10 = arith.constant dense<true> : tensor<256x128xi1> loc(#loc1)
    %cst_11 = arith.constant dense<1.000000e+00> : tensor<256x1xf32> loc(#loc1)
    %cst_12 = arith.constant dense<1.000000e+00> : tensor<256xf32> loc(#loc1)
    %cst_13 = arith.constant dense<0xFF800000> : tensor<256xf32> loc(#loc1)
    %cst_14 = arith.constant dense<16384> : tensor<256xi32> loc(#loc1)
    %cst_15 = arith.constant dense<0x7F800000> : tensor<256xf32> loc(#loc1)
    %c64_i32 = arith.constant 64 : i32 loc(#loc1)
    %cst_16 = arith.constant dense<16384> : tensor<256x1xi32> loc(#loc1)
    %c16384_i32 = arith.constant 16384 : i32 loc(#loc1)
    %c256_i32 = arith.constant 256 : i32 loc(#loc1)
    %c1_i32 = arith.constant 1 : i32 loc(#loc1)
    %true = arith.constant true loc(#loc1)
    %c0_i32 = arith.constant 0 : i32 loc(#loc1)
    %0 = arith.cmpi sge, %arg5, %c0_i32 : i32 loc(#loc2)
    llvm.intr.assume %0 : i1 loc(#loc3)
    %1 = arith.cmpi sge, %arg6, %c0_i32 : i32 loc(#loc4)
    llvm.intr.assume %1 : i1 loc(#loc5)
    %2 = arith.cmpi sge, %arg7, %c0_i32 : i32 loc(#loc6)
    llvm.intr.assume %2 : i1 loc(#loc7)
    llvm.intr.assume %true : i1 loc(#loc8)
    %3 = arith.cmpi sge, %arg8, %c0_i32 : i32 loc(#loc9)
    llvm.intr.assume %3 : i1 loc(#loc10)
    %4 = arith.cmpi sge, %arg9, %c0_i32 : i32 loc(#loc11)
    llvm.intr.assume %4 : i1 loc(#loc12)
    %5 = arith.cmpi sge, %arg10, %c0_i32 : i32 loc(#loc13)
    llvm.intr.assume %5 : i1 loc(#loc14)
    llvm.intr.assume %true : i1 loc(#loc15)
    %6 = arith.cmpi sge, %arg17, %c0_i32 : i32 loc(#loc16)
    llvm.intr.assume %6 : i1 loc(#loc17)
    %7 = arith.cmpi sge, %arg18, %c0_i32 : i32 loc(#loc18)
    llvm.intr.assume %7 : i1 loc(#loc19)
    %8 = arith.cmpi sge, %arg19, %c0_i32 : i32 loc(#loc20)
    llvm.intr.assume %8 : i1 loc(#loc21)
    %9 = arith.cmpi sge, %arg20, %c0_i32 : i32 loc(#loc22)
    llvm.intr.assume %9 : i1 loc(#loc23)
    %10 = arith.cmpi sge, %arg11, %c0_i32 : i32 loc(#loc24)
    llvm.intr.assume %10 : i1 loc(#loc25)
    %11 = arith.cmpi sge, %arg12, %c0_i32 : i32 loc(#loc26)
    llvm.intr.assume %11 : i1 loc(#loc27)
    %12 = arith.cmpi sge, %arg13, %c0_i32 : i32 loc(#loc28)
    llvm.intr.assume %12 : i1 loc(#loc29)
    llvm.intr.assume %true : i1 loc(#loc30)
    %13 = arith.cmpi sge, %arg14, %c0_i32 : i32 loc(#loc31)
    llvm.intr.assume %13 : i1 loc(#loc32)
    %14 = arith.cmpi sge, %arg15, %c0_i32 : i32 loc(#loc33)
    llvm.intr.assume %14 : i1 loc(#loc34)
    %15 = arith.cmpi sge, %arg16, %c0_i32 : i32 loc(#loc35)
    llvm.intr.assume %15 : i1 loc(#loc36)
    llvm.intr.assume %true : i1 loc(#loc37)
    %16 = tt.get_program_id x : i32 loc(#loc38)
    %17 = arith.remsi %16, %c8_i32 : i32 loc(#loc210)
    %18 = arith.divsi %16, %c8_i32 : i32 loc(#loc211)
    %19 = arith.cmpi slt, %17, %c8_i32 : i32 loc(#loc212)
    %20 = scf.if %19 -> (i32) {
      %36 = arith.muli %17, %c8_i32 : i32 loc(#loc214)
      %37 = arith.addi %36, %18 : i32 loc(#loc215)
      scf.yield %37 : i32 loc(#loc215)
    } else {
      %36 = arith.subi %17, %c8_i32 : i32 loc(#loc216)
      %37 = arith.muli %36, %c7_i32 : i32 loc(#loc217)
      %38 = arith.addi %37, %c64_i32 : i32 loc(#loc218)
      %39 = arith.addi %38, %18 : i32 loc(#loc219)
      scf.yield %39 : i32 loc(#loc219)
    } loc(#loc213)
    %21 = tt.get_program_id y : i32 loc(#loc50)
    %22 = tt.get_program_id z : i32 loc(#loc51)
    %23 = arith.muli %21, %c256_i32 : i32 loc(#loc52)
    %24 = tt.make_range {end = 256 : i32, start = 0 : i32} : tensor<256xi32> loc(#loc53)
    %25 = tt.splat %23 : i32 -> tensor<256xi32> loc(#loc54)
    %26 = arith.addi %25, %24 : tensor<256xi32> loc(#loc54)
    %27 = tt.make_range {end = 64 : i32, start = 0 : i32} : tensor<64xi32> loc(#loc55)
    %28 = tt.make_range {end = 128 : i32, start = 0 : i32} : tensor<128xi32> loc(#loc56)
    %29 = arith.addi %21, %c1_i32 : i32 loc(#loc57)
    %30 = arith.muli %29, %c256_i32 : i32 loc(#loc58)
    %31 = arith.addi %30, %c63_i32 : i32 loc(#loc220)
    %32 = arith.divsi %31, %c64_i32 : i32 loc(#loc221)
    %33 = arith.minsi %32, %c256_i32 : i32 loc(#loc62)
    %34 = arith.cmpi sle, %33, %c0_i32 : i32 loc(#loc63)
    %35 = arith.cmpi sgt, %33, %c0_i32 : i32 loc(#loc222)
    scf.while (%arg27 = %c0_i32) : (i32) -> () {
      %36 = arith.cmpi slt, %arg27, %c1_i32 : i32 loc(#loc66)
      scf.condition(%36) loc(#loc66)
    } do {
      scf.if %34 {
        %36 = arith.muli %22, %arg14 : i32 loc(#loc67)
        %37 = tt.addptr %arg4, %36 : !tt.ptr<bf16>, i32 loc(#loc68)
        %38 = arith.muli %20, %arg15 : i32 loc(#loc69)
        %39 = tt.addptr %37, %38 : !tt.ptr<bf16>, i32 loc(#loc70)
        %40 = tt.expand_dims %26 {axis = 1 : i32} : tensor<256xi32> -> tensor<256x1xi32> loc(#loc71)
        %41 = tt.splat %arg16 : i32 -> tensor<256x1xi32> loc(#loc72)
        %42 = arith.muli %40, %41 : tensor<256x1xi32> loc(#loc72)
        %43 = tt.splat %39 : !tt.ptr<bf16> -> tensor<256x1x!tt.ptr<bf16>> loc(#loc73)
        %44 = tt.addptr %43, %42 : tensor<256x1x!tt.ptr<bf16>>, tensor<256x1xi32> loc(#loc73)
        %45 = tt.expand_dims %28 {axis = 0 : i32} : tensor<128xi32> -> tensor<1x128xi32> loc(#loc74)
        %46 = tt.broadcast %44 : tensor<256x1x!tt.ptr<bf16>> -> tensor<256x128x!tt.ptr<bf16>> loc(#loc75)
        %47 = tt.broadcast %45 : tensor<1x128xi32> -> tensor<256x128xi32> loc(#loc75)
        %48 = tt.addptr %46, %47 : tensor<256x128x!tt.ptr<bf16>>, tensor<256x128xi32> loc(#loc75)
        %49 = arith.cmpi slt, %40, %cst_16 : tensor<256x1xi32> loc(#loc76)
        %50 = tt.broadcast %49 : tensor<256x1xi1> -> tensor<256x128xi1> loc(#loc77)
        tt.store %48, %cst_9, %50 : tensor<256x128x!tt.ptr<bf16>> loc(#loc78)
        %51 = arith.muli %22, %c1048576_i32 : i32 loc(#loc79)
        %52 = tt.addptr %arg3, %51 : !tt.ptr<f32>, i32 loc(#loc80)
        %53 = arith.muli %20, %c16384_i32 : i32 loc(#loc81)
        %54 = tt.addptr %52, %53 : !tt.ptr<f32>, i32 loc(#loc82)
        %55 = tt.splat %54 : !tt.ptr<f32> -> tensor<256x!tt.ptr<f32>> loc(#loc83)
        %56 = tt.addptr %55, %26 : tensor<256x!tt.ptr<f32>>, tensor<256xi32> loc(#loc83)
        %57 = arith.cmpi slt, %26, %cst_14 : tensor<256xi32> loc(#loc84)
        tt.store %56, %cst_15, %57 : tensor<256x!tt.ptr<f32>> loc(#loc85)
      } loc(#loc64)
      scf.if %35 {
        %36 = arith.muli %22, %arg5 : i32 loc(#loc87)
        %37 = tt.addptr %arg0, %36 : !tt.ptr<bf16>, i32 loc(#loc88)
        %38 = arith.muli %20, %arg6 : i32 loc(#loc89)
        %39 = tt.addptr %37, %38 : !tt.ptr<bf16>, i32 loc(#loc90)
        %40 = tt.expand_dims %26 {axis = 1 : i32} : tensor<256xi32> -> tensor<256x1xi32> loc(#loc91)
        %41 = tt.splat %arg7 : i32 -> tensor<256x1xi32> loc(#loc92)
        %42 = arith.muli %40, %41 : tensor<256x1xi32> loc(#loc92)
        %43 = tt.splat %39 : !tt.ptr<bf16> -> tensor<256x1x!tt.ptr<bf16>> loc(#loc93)
        %44 = tt.addptr %43, %42 : tensor<256x1x!tt.ptr<bf16>>, tensor<256x1xi32> loc(#loc93)
        %45 = tt.expand_dims %28 {axis = 0 : i32} : tensor<128xi32> -> tensor<1x128xi32> loc(#loc94)
        %46 = tt.broadcast %44 : tensor<256x1x!tt.ptr<bf16>> -> tensor<256x128x!tt.ptr<bf16>> loc(#loc95)
        %47 = tt.broadcast %45 : tensor<1x128xi32> -> tensor<256x128xi32> loc(#loc95)
        %48 = tt.addptr %46, %47 : tensor<256x128x!tt.ptr<bf16>>, tensor<256x128xi32> loc(#loc95)
        %49 = arith.muli %22, %arg8 : i32 loc(#loc96)
        %50 = tt.addptr %arg1, %49 : !tt.ptr<bf16>, i32 loc(#loc97)
        %51 = arith.muli %20, %arg9 : i32 loc(#loc98)
        %52 = tt.addptr %50, %51 : !tt.ptr<bf16>, i32 loc(#loc99)
        %53 = tt.expand_dims %28 {axis = 1 : i32} : tensor<128xi32> -> tensor<128x1xi32> loc(#loc100)
        %54 = tt.splat %52 : !tt.ptr<bf16> -> tensor<128x1x!tt.ptr<bf16>> loc(#loc101)
        %55 = tt.addptr %54, %53 : tensor<128x1x!tt.ptr<bf16>>, tensor<128x1xi32> loc(#loc101)
        %56 = tt.expand_dims %27 {axis = 0 : i32} : tensor<64xi32> -> tensor<1x64xi32> loc(#loc102)
        %57 = tt.splat %arg10 : i32 -> tensor<1x64xi32> loc(#loc103)
        %58 = arith.muli %56, %57 : tensor<1x64xi32> loc(#loc103)
        %59 = tt.broadcast %55 : tensor<128x1x!tt.ptr<bf16>> -> tensor<128x64x!tt.ptr<bf16>> loc(#loc104)
        %60 = tt.broadcast %58 : tensor<1x64xi32> -> tensor<128x64xi32> loc(#loc104)
        %61 = tt.addptr %59, %60 : tensor<128x64x!tt.ptr<bf16>>, tensor<128x64xi32> loc(#loc104)
        %62 = arith.muli %22, %arg11 : i32 loc(#loc105)
        %63 = tt.addptr %arg2, %62 : !tt.ptr<bf16>, i32 loc(#loc106)
        %64 = arith.muli %20, %arg12 : i32 loc(#loc107)
        %65 = tt.addptr %63, %64 : !tt.ptr<bf16>, i32 loc(#loc108)
        %66 = tt.expand_dims %27 {axis = 1 : i32} : tensor<64xi32> -> tensor<64x1xi32> loc(#loc109)
        %67 = tt.splat %arg13 : i32 -> tensor<64x1xi32> loc(#loc110)
        %68 = arith.muli %66, %67 : tensor<64x1xi32> loc(#loc110)
        %69 = tt.splat %65 : !tt.ptr<bf16> -> tensor<64x1x!tt.ptr<bf16>> loc(#loc111)
        %70 = tt.addptr %69, %68 : tensor<64x1x!tt.ptr<bf16>>, tensor<64x1xi32> loc(#loc111)
        %71 = tt.broadcast %70 : tensor<64x1x!tt.ptr<bf16>> -> tensor<64x128x!tt.ptr<bf16>> loc(#loc112)
        %72 = tt.broadcast %45 : tensor<1x128xi32> -> tensor<64x128xi32> loc(#loc112)
        %73 = tt.addptr %71, %72 : tensor<64x128x!tt.ptr<bf16>>, tensor<64x128xi32> loc(#loc112)
        %74 = arith.cmpi slt, %40, %cst_16 : tensor<256x1xi32> loc(#loc113)
        %75 = tt.broadcast %74 : tensor<256x1xi1> -> tensor<256x128xi1> loc(#loc114)
        %76 = tt.load %48, %75, %cst_9 : tensor<256x128x!tt.ptr<bf16>> loc(#loc114)
        %77 = arith.minsi %33, %c4_i32 : i32 loc(#loc115)
        %78 = arith.subi %33, %77 : i32 loc(#loc116)
        %79 = arith.muli %33, %c64_i32 : i32 loc(#loc117)
        %80 = arith.cmpi sgt, %78, %c0_i32 : i32 loc(#loc118)
        %81:5 = scf.if %80 -> (tensor<256xf32>, tensor<256xf32>, tensor<256x128xf32>, i32, i32) {
          %112 = arith.muli %78, %c64_i32 : i32 loc(#loc120)
          %113 = arith.muli %arg10, %c64_i32 : i32 loc(#loc223)
          %114 = tt.splat %113 : i32 -> tensor<128x64xi32> loc(#loc224)
          %115 = arith.muli %arg13, %c64_i32 : i32 loc(#loc225)
          %116 = tt.splat %115 : i32 -> tensor<64x128xi32> loc(#loc226)
          %117:5 = scf.for %arg27 = %c0_i32 to %112 step %c64_i32 iter_args(%arg28 = %cst_8, %arg29 = %cst_12, %arg30 = %cst_13, %arg31 = %61, %arg32 = %73) -> (tensor<256x128xf32>, tensor<256xf32>, tensor<256xf32>, tensor<128x64x!tt.ptr<bf16>>, tensor<64x128x!tt.ptr<bf16>>)  : i32 {
            %118 = tt.load %arg31 : tensor<128x64x!tt.ptr<bf16>> loc(#loc278)
            %119 = tt.dot %76, %118, %cst_5 : tensor<256x128xbf16> * tensor<128x64xbf16> -> tensor<256x64xf32> loc(#loc229)
            %120 = "tt.reduce"(%119) <{axis = 1 : i32}> ({
            ^bb0(%arg33: f32 loc(callsite(#loc1 at #loc230)), %arg34: f32 loc(callsite(#loc1 at #loc230))):
              %142 = arith.maxnumf %arg33, %arg34 : f32 loc(#loc294)
              tt.reduce.return %142 : f32 loc(#loc279)
            }) : (tensor<256x64xf32>) -> tensor<256xf32> loc(#loc279)
            %121 = arith.maxnumf %arg30, %120 : tensor<256xf32> loc(#loc231)
            %122 = arith.mulf %121, %cst_6 : tensor<256xf32> loc(#loc232)
            %123 = arith.mulf %119, %cst_7 : tensor<256x64xf32> loc(#loc233)
            %124 = tt.expand_dims %122 {axis = 1 : i32} : tensor<256xf32> -> tensor<256x1xf32> loc(#loc234)
            %125 = tt.broadcast %124 : tensor<256x1xf32> -> tensor<256x64xf32> loc(#loc235)
            %126 = arith.subf %123, %125 : tensor<256x64xf32> loc(#loc235)
            %127 = math.exp2 %126 : tensor<256x64xf32> loc(#loc236)
            %128 = "tt.reduce"(%127) <{axis = 1 : i32}> ({
            ^bb0(%arg33: f32 loc(callsite(#loc1 at #loc237)), %arg34: f32 loc(callsite(#loc1 at #loc237))):
              %142 = arith.addf %arg33, %arg34 : f32 loc(#loc295)
              tt.reduce.return %142 : f32 loc(#loc281)
            }) : (tensor<256x64xf32>) -> tensor<256xf32> loc(#loc281)
            %129 = arith.mulf %arg30, %cst_6 : tensor<256xf32> loc(#loc238)
            %130 = arith.subf %129, %122 : tensor<256xf32> loc(#loc239)
            %131 = math.exp2 %130 : tensor<256xf32> loc(#loc240)
            %132 = tt.expand_dims %131 {axis = 1 : i32} : tensor<256xf32> -> tensor<256x1xf32> loc(#loc241)
            %133 = tt.broadcast %132 : tensor<256x1xf32> -> tensor<256x128xf32> loc(#loc242)
            %134 = arith.mulf %arg28, %133 : tensor<256x128xf32> loc(#loc242)
            %135 = tt.load %arg32 : tensor<64x128x!tt.ptr<bf16>> loc(#loc283)
            %136 = arith.mulf %arg29, %131 : tensor<256xf32> loc(#loc244)
            %137 = arith.addf %136, %128 : tensor<256xf32> loc(#loc245)
            %138 = arith.truncf %127 : tensor<256x64xf32> to tensor<256x64xbf16> loc(#loc246)
            %139 = tt.dot %138, %135, %134 : tensor<256x64xbf16> * tensor<64x128xbf16> -> tensor<256x128xf32> loc(#loc247)
            %140 = tt.addptr %arg31, %114 : tensor<128x64x!tt.ptr<bf16>>, tensor<128x64xi32> loc(#loc224)
            %141 = tt.addptr %arg32, %116 : tensor<64x128x!tt.ptr<bf16>>, tensor<64x128xi32> loc(#loc226)
            scf.yield %139, %137, %121, %140, %141 : tensor<256x128xf32>, tensor<256xf32>, tensor<256xf32>, tensor<128x64x!tt.ptr<bf16>>, tensor<64x128x!tt.ptr<bf16>> loc(#loc248)
          } loc(#loc227)
          scf.yield %117#2, %117#1, %117#0, %112, %79 : tensor<256xf32>, tensor<256xf32>, tensor<256x128xf32>, i32, i32 loc(#loc153)
        } else {
          scf.yield %cst_13, %cst_12, %cst_8, %c0_i32, %79 : tensor<256xf32>, tensor<256xf32>, tensor<256x128xf32>, i32, i32 loc(#loc1)
        } loc(#loc119)
        gpu.barrier loc(#loc154)
        %82 = arith.cmpi sgt, %77, %c0_i32 : i32 loc(#loc155)
        %83:3 = scf.if %82 -> (tensor<256xf32>, tensor<256xf32>, tensor<256x128xf32>) {
          %112 = arith.muli %78, %c64_i32 : i32 loc(#loc157)
          %113 = arith.muli %112, %arg10 : i32 loc(#loc158)
          %114 = tt.splat %113 : i32 -> tensor<128x64xi32> loc(#loc159)
          %115 = tt.addptr %61, %114 : tensor<128x64x!tt.ptr<bf16>>, tensor<128x64xi32> loc(#loc159)
          %116 = arith.muli %112, %arg13 : i32 loc(#loc160)
          %117 = tt.splat %116 : i32 -> tensor<64x128xi32> loc(#loc161)
          %118 = tt.addptr %73, %117 : tensor<64x128x!tt.ptr<bf16>>, tensor<64x128xi32> loc(#loc161)
          %119 = tt.broadcast %40 : tensor<256x1xi32> -> tensor<256x64xi32> loc(#loc249)
          %120 = arith.muli %arg10, %c64_i32 : i32 loc(#loc250)
          %121 = tt.splat %120 : i32 -> tensor<128x64xi32> loc(#loc251)
          %122 = arith.muli %arg13, %c64_i32 : i32 loc(#loc252)
          %123 = tt.splat %122 : i32 -> tensor<64x128xi32> loc(#loc253)
          %124:5 = scf.for %arg27 = %81#3 to %81#4 step %c64_i32 iter_args(%arg28 = %81#2, %arg29 = %81#1, %arg30 = %81#0, %arg31 = %115, %arg32 = %118) -> (tensor<256x128xf32>, tensor<256xf32>, tensor<256xf32>, tensor<128x64x!tt.ptr<bf16>>, tensor<64x128x!tt.ptr<bf16>>)  : i32 {
            %125 = tt.splat %arg27 : i32 -> tensor<64xi32> loc(#loc255)
            %126 = arith.addi %125, %27 : tensor<64xi32> loc(#loc255)
            %127 = tt.expand_dims %126 {axis = 0 : i32} : tensor<64xi32> -> tensor<1x64xi32> loc(#loc284)
            %128 = arith.cmpi slt, %127, %cst_1 : tensor<1x64xi32> loc(#loc285)
            %129 = tt.broadcast %128 : tensor<1x64xi1> -> tensor<128x64xi1> loc(#loc286)
            %130 = tt.load %arg31, %129, %cst_3 : tensor<128x64x!tt.ptr<bf16>> loc(#loc286)
            %131 = tt.broadcast %127 : tensor<1x64xi32> -> tensor<256x64xi32> loc(#loc249)
            %132 = arith.cmpi sge, %119, %131 : tensor<256x64xi32> loc(#loc249)
            %133 = arith.select %132, %cst_5, %cst_2 : tensor<256x64xi1>, tensor<256x64xf32> loc(#loc257)
            %134 = tt.dot %76, %130, %133 : tensor<256x128xbf16> * tensor<128x64xbf16> -> tensor<256x64xf32> loc(#loc258)
            %135 = "tt.reduce"(%134) <{axis = 1 : i32}> ({
            ^bb0(%arg33: f32 loc(callsite(#loc1 at #loc259)), %arg34: f32 loc(callsite(#loc1 at #loc259))):
              %160 = arith.maxnumf %arg33, %arg34 : f32 loc(#loc296)
              tt.reduce.return %160 : f32 loc(#loc287)
            }) : (tensor<256x64xf32>) -> tensor<256xf32> loc(#loc287)
            %136 = arith.maxnumf %arg30, %135 : tensor<256xf32> loc(#loc260)
            %137 = arith.mulf %136, %cst_6 : tensor<256xf32> loc(#loc261)
            %138 = arith.mulf %134, %cst_7 : tensor<256x64xf32> loc(#loc262)
            %139 = tt.expand_dims %137 {axis = 1 : i32} : tensor<256xf32> -> tensor<256x1xf32> loc(#loc263)
            %140 = tt.broadcast %139 : tensor<256x1xf32> -> tensor<256x64xf32> loc(#loc264)
            %141 = arith.subf %138, %140 : tensor<256x64xf32> loc(#loc264)
            %142 = math.exp2 %141 : tensor<256x64xf32> loc(#loc265)
            %143 = "tt.reduce"(%142) <{axis = 1 : i32}> ({
            ^bb0(%arg33: f32 loc(callsite(#loc1 at #loc266)), %arg34: f32 loc(callsite(#loc1 at #loc266))):
              %160 = arith.addf %arg33, %arg34 : f32 loc(#loc297)
              tt.reduce.return %160 : f32 loc(#loc289)
            }) : (tensor<256x64xf32>) -> tensor<256xf32> loc(#loc289)
            %144 = arith.mulf %arg30, %cst_6 : tensor<256xf32> loc(#loc267)
            %145 = arith.subf %144, %137 : tensor<256xf32> loc(#loc268)
            %146 = math.exp2 %145 : tensor<256xf32> loc(#loc269)
            %147 = tt.expand_dims %146 {axis = 1 : i32} : tensor<256xf32> -> tensor<256x1xf32> loc(#loc270)
            %148 = tt.broadcast %147 : tensor<256x1xf32> -> tensor<256x128xf32> loc(#loc271)
            %149 = arith.mulf %arg28, %148 : tensor<256x128xf32> loc(#loc271)
            %150 = tt.expand_dims %126 {axis = 1 : i32} : tensor<64xi32> -> tensor<64x1xi32> loc(#loc291)
            %151 = arith.cmpi slt, %150, %cst_0 : tensor<64x1xi32> loc(#loc292)
            %152 = tt.broadcast %151 : tensor<64x1xi1> -> tensor<64x128xi1> loc(#loc293)
            %153 = tt.load %arg32, %152, %cst_4 : tensor<64x128x!tt.ptr<bf16>> loc(#loc293)
            %154 = arith.mulf %arg29, %146 : tensor<256xf32> loc(#loc273)
            %155 = arith.addf %154, %143 : tensor<256xf32> loc(#loc274)
            %156 = arith.truncf %142 : tensor<256x64xf32> to tensor<256x64xbf16> loc(#loc275)
            %157 = tt.dot %156, %153, %149 : tensor<256x64xbf16> * tensor<64x128xbf16> -> tensor<256x128xf32> loc(#loc276)
            %158 = tt.addptr %arg31, %121 : tensor<128x64x!tt.ptr<bf16>>, tensor<128x64xi32> loc(#loc251)
            %159 = tt.addptr %arg32, %123 : tensor<64x128x!tt.ptr<bf16>>, tensor<64x128xi32> loc(#loc253)
            scf.yield %157, %155, %136, %158, %159 : tensor<256x128xf32>, tensor<256xf32>, tensor<256xf32>, tensor<128x64x!tt.ptr<bf16>>, tensor<64x128x!tt.ptr<bf16>> loc(#loc277)
          } {tt.num_stages = 1 : i32} loc(#loc254)
          scf.yield %124#2, %124#1, %124#0 : tensor<256xf32>, tensor<256xf32>, tensor<256x128xf32> loc(#loc163)
        } else {
          scf.yield %81#0, %81#1, %81#2 : tensor<256xf32>, tensor<256xf32>, tensor<256x128xf32> loc(#loc1)
        } loc(#loc156)
        %84 = tt.expand_dims %83#1 {axis = 1 : i32} : tensor<256xf32> -> tensor<256x1xf32> loc(#loc172)
        %85 = arith.divf %cst_11, %84 : tensor<256x1xf32> loc(#loc173)
        %86 = tt.broadcast %85 : tensor<256x1xf32> -> tensor<256x128xf32> loc(#loc174)
        %87 = arith.mulf %83#2, %86 : tensor<256x128xf32> loc(#loc174)
        %88 = arith.truncf %87 : tensor<256x128xf32> to tensor<256x128xbf16> loc(#loc175)
        %89 = arith.cmpi slt, %23, %c0_i32 : i32 loc(#loc176)
        %90 = arith.cmpi sgt, %30, %c0_i32 : i32 loc(#loc177)
        %91 = arith.andi %89, %90 : i1 loc(#loc178)
        %92 = scf.if %91 -> (tensor<256x128xbf16>) {
          %112 = arith.cmpi sge, %40, %cst : tensor<256x1xi32> loc(#loc180)
          %113 = tt.broadcast %112 : tensor<256x1xi1> -> tensor<256x128xi1> loc(#loc180)
          %114 = arith.select %113, %88, %cst_9 : tensor<256x128xi1>, tensor<256x128xbf16> loc(#loc181)
          scf.yield %114 : tensor<256x128xbf16> loc(#loc181)
        } else {
          scf.yield %88 : tensor<256x128xbf16> loc(#loc1)
        } loc(#loc179)
        %93 = arith.muli %22, %c1048576_i32 : i32 loc(#loc182)
        %94 = tt.addptr %arg3, %93 : !tt.ptr<f32>, i32 loc(#loc183)
        %95 = arith.muli %20, %c16384_i32 : i32 loc(#loc184)
        %96 = tt.addptr %94, %95 : !tt.ptr<f32>, i32 loc(#loc185)
        %97 = tt.splat %96 : !tt.ptr<f32> -> tensor<256x!tt.ptr<f32>> loc(#loc186)
        %98 = tt.addptr %97, %26 : tensor<256x!tt.ptr<f32>>, tensor<256xi32> loc(#loc186)
        %99 = arith.subi %30, %c16384_i32 : i32 loc(#loc187)
        %100 = arith.cmpi sgt, %99, %c0_i32 : i32 loc(#loc188)
        scf.if %100 {
          %112 = arith.subi %c16640_i32, %30 : i32 loc(#loc190)
          %113 = tt.splat %112 : i32 -> tensor<256xi32> loc(#loc191)
          %114 = arith.cmpi slt, %24, %113 : tensor<256xi32> loc(#loc192)
          %115 = math.log2 %83#1 : tensor<256xf32> loc(#loc193)
          %116 = arith.addf %83#0, %115 : tensor<256xf32> loc(#loc194)
          tt.store %98, %116, %114 : tensor<256x!tt.ptr<f32>> loc(#loc195)
        } else {
          %112 = math.log2 %83#1 : tensor<256xf32> loc(#loc196)
          %113 = arith.addf %83#0, %112 : tensor<256xf32> loc(#loc197)
          tt.store %98, %113 : tensor<256x!tt.ptr<f32>> loc(#loc198)
        } loc(#loc189)
        %101 = arith.muli %22, %arg14 : i32 loc(#loc199)
        %102 = tt.addptr %arg4, %101 : !tt.ptr<bf16>, i32 loc(#loc200)
        %103 = arith.muli %20, %arg15 : i32 loc(#loc201)
        %104 = tt.addptr %102, %103 : !tt.ptr<bf16>, i32 loc(#loc202)
        %105 = tt.splat %arg16 : i32 -> tensor<256x1xi32> loc(#loc203)
        %106 = arith.muli %40, %105 : tensor<256x1xi32> loc(#loc203)
        %107 = tt.splat %104 : !tt.ptr<bf16> -> tensor<256x1x!tt.ptr<bf16>> loc(#loc204)
        %108 = tt.addptr %107, %106 : tensor<256x1x!tt.ptr<bf16>>, tensor<256x1xi32> loc(#loc204)
        %109 = tt.broadcast %108 : tensor<256x1x!tt.ptr<bf16>> -> tensor<256x128x!tt.ptr<bf16>> loc(#loc205)
        %110 = tt.addptr %109, %47 : tensor<256x128x!tt.ptr<bf16>>, tensor<256x128xi32> loc(#loc205)
        %111 = scf.if %100 -> (tensor<256x128xi1>) {
          scf.yield %75 : tensor<256x128xi1> loc(#loc207)
        } else {
          scf.yield %cst_10 : tensor<256x128xi1> loc(#loc1)
        } loc(#loc206)
        tt.store %110, %92, %111 : tensor<256x128x!tt.ptr<bf16>> loc(#loc208)
      } loc(#loc86)
      scf.yield %c1_i32 : i32 loc(#loc209)
    } loc(#loc65)
    tt.return loc(#loc65)
  } loc(#loc)
} loc(#loc)
#loc2 = loc("/home/mejiang/w1/test/triton/fa/flash-attention.py":477:27)
#loc3 = loc("/home/mejiang/w1/test/triton/fa/flash-attention.py":477:14)
#loc4 = loc("/home/mejiang/w1/test/triton/fa/flash-attention.py":478:27)
#loc5 = loc("/home/mejiang/w1/test/triton/fa/flash-attention.py":478:14)
#loc6 = loc("/home/mejiang/w1/test/triton/fa/flash-attention.py":479:27)
#loc7 = loc("/home/mejiang/w1/test/triton/fa/flash-attention.py":479:14)
#loc8 = loc("/home/mejiang/w1/test/triton/fa/flash-attention.py":480:14)
#loc9 = loc("/home/mejiang/w1/test/triton/fa/flash-attention.py":481:27)
#loc10 = loc("/home/mejiang/w1/test/triton/fa/flash-attention.py":481:14)
#loc11 = loc("/home/mejiang/w1/test/triton/fa/flash-attention.py":482:27)
#loc12 = loc("/home/mejiang/w1/test/triton/fa/flash-attention.py":482:14)
#loc13 = loc("/home/mejiang/w1/test/triton/fa/flash-attention.py":483:27)
#loc14 = loc("/home/mejiang/w1/test/triton/fa/flash-attention.py":483:14)
#loc15 = loc("/home/mejiang/w1/test/triton/fa/flash-attention.py":484:14)
#loc16 = loc("/home/mejiang/w1/test/triton/fa/flash-attention.py":485:27)
#loc17 = loc("/home/mejiang/w1/test/triton/fa/flash-attention.py":485:14)
#loc18 = loc("/home/mejiang/w1/test/triton/fa/flash-attention.py":486:27)
#loc19 = loc("/home/mejiang/w1/test/triton/fa/flash-attention.py":486:14)
#loc20 = loc("/home/mejiang/w1/test/triton/fa/flash-attention.py":487:27)
#loc21 = loc("/home/mejiang/w1/test/triton/fa/flash-attention.py":487:14)
#loc22 = loc("/home/mejiang/w1/test/triton/fa/flash-attention.py":488:27)
#loc23 = loc("/home/mejiang/w1/test/triton/fa/flash-attention.py":488:14)
#loc24 = loc("/home/mejiang/w1/test/triton/fa/flash-attention.py":489:27)
#loc25 = loc("/home/mejiang/w1/test/triton/fa/flash-attention.py":489:14)
#loc26 = loc("/home/mejiang/w1/test/triton/fa/flash-attention.py":490:27)
#loc27 = loc("/home/mejiang/w1/test/triton/fa/flash-attention.py":490:14)
#loc28 = loc("/home/mejiang/w1/test/triton/fa/flash-attention.py":491:27)
#loc29 = loc("/home/mejiang/w1/test/triton/fa/flash-attention.py":491:14)
#loc30 = loc("/home/mejiang/w1/test/triton/fa/flash-attention.py":492:14)
#loc31 = loc("/home/mejiang/w1/test/triton/fa/flash-attention.py":493:27)
#loc32 = loc("/home/mejiang/w1/test/triton/fa/flash-attention.py":493:14)
#loc33 = loc("/home/mejiang/w1/test/triton/fa/flash-attention.py":494:27)
#loc34 = loc("/home/mejiang/w1/test/triton/fa/flash-attention.py":494:14)
#loc35 = loc("/home/mejiang/w1/test/triton/fa/flash-attention.py":495:27)
#loc36 = loc("/home/mejiang/w1/test/triton/fa/flash-attention.py":495:14)
#loc37 = loc("/home/mejiang/w1/test/triton/fa/flash-attention.py":496:14)
#loc38 = loc("/home/mejiang/w1/test/triton/fa/flash-attention.py":520:36)
#loc39 = loc("/home/mejiang/w1/test/triton/fa/flash-attention.py":45:16)
#loc40 = loc("/home/mejiang/w1/test/triton/fa/flash-attention.py":521:41)
#loc41 = loc("/home/mejiang/w1/test/triton/fa/flash-attention.py":46:23)
#loc42 = loc("/home/mejiang/w1/test/triton/fa/flash-attention.py":51:13)
#loc43 = loc("/home/mejiang/w1/test/triton/fa/flash-attention.py":51:7)
#loc44 = loc("/home/mejiang/w1/test/triton/fa/flash-attention.py":52:20)
#loc45 = loc("/home/mejiang/w1/test/triton/fa/flash-attention.py":52:35)
#loc46 = loc("/home/mejiang/w1/test/triton/fa/flash-attention.py":56:21)
#loc47 = loc("/home/mejiang/w1/test/triton/fa/flash-attention.py":56:35)
#loc48 = loc("/home/mejiang/w1/test/triton/fa/flash-attention.py":56:14)
#loc49 = loc("/home/mejiang/w1/test/triton/fa/flash-attention.py":57:14)
#loc50 = loc("/home/mejiang/w1/test/triton/fa/flash-attention.py":522:36)
#loc51 = loc("/home/mejiang/w1/test/triton/fa/flash-attention.py":523:34)
#loc52 = loc("/home/mejiang/w1/test/triton/fa/flash-attention.py":525:27)
#loc53 = loc("/home/mejiang/w1/test/triton/fa/flash-attention.py":525:50)
#loc54 = loc("/home/mejiang/w1/test/triton/fa/flash-attention.py":525:37)
#loc55 = loc("/home/mejiang/w1/test/triton/fa/flash-attention.py":526:30)
#loc56 = loc("/home/mejiang/w1/test/triton/fa/flash-attention.py":527:30)
#loc57 = loc("/home/mejiang/w1/test/triton/fa/flash-attention.py":563:53)
#loc58 = loc("/home/mejiang/w1/test/triton/fa/flash-attention.py":563:58)
#loc59 = loc("/home/mejiang/w1/test/triton/fa/flash-attention.py":169:20)
#loc60 = loc("/home/mejiang/w1/test/triton/fa/flash-attention.py":563:89)
#loc61 = loc("/home/mejiang/w1/test/triton/fa/flash-attention.py":169:26)
#loc62 = loc("/home/mejiang/w1/test/triton/fa/flash-attention.py":566:41)
#loc63 = loc("/home/mejiang/w1/test/triton/fa/flash-attention.py":569:31)
#loc64 = loc("/home/mejiang/w1/test/triton/fa/flash-attention.py":569:19)
#loc65 = loc("/home/mejiang/w1/test/triton/fa/flash-attention.py":511:4)
#loc66 = loc("/home/mejiang/w1/test/triton/fa/flash-attention.py":511:20)
#loc67 = loc("/home/mejiang/w1/test/triton/fa/flash-attention.py":570:45)
#loc68 = loc("/home/mejiang/w1/test/triton/fa/flash-attention.py":570:37)
#loc69 = loc("/home/mejiang/w1/test/triton/fa/flash-attention.py":570:67)
#loc70 = loc("/home/mejiang/w1/test/triton/fa/flash-attention.py":570:57)
#loc71 = loc("/home/mejiang/w1/test/triton/fa/flash-attention.py":571:47)
#loc72 = loc("/home/mejiang/w1/test/triton/fa/flash-attention.py":571:58)
#loc73 = loc("/home/mejiang/w1/test/triton/fa/flash-attention.py":571:40)
#loc74 = loc("/home/mejiang/w1/test/triton/fa/flash-attention.py":571:77)
#loc75 = loc("/home/mejiang/w1/test/triton/fa/flash-attention.py":571:70)
#loc76 = loc("/home/mejiang/w1/test/triton/fa/flash-attention.py":573:53)
#loc77 = loc("/home/mejiang/w1/test/triton/fa/flash-attention.py":573:76)
#loc78 = loc("/home/mejiang/w1/test/triton/fa/flash-attention.py":575:37)
#loc79 = loc("/home/mejiang/w1/test/triton/fa/flash-attention.py":578:46)
#loc80 = loc("/home/mejiang/w1/test/triton/fa/flash-attention.py":578:33)
#loc81 = loc("/home/mejiang/w1/test/triton/fa/flash-attention.py":578:72)
#loc82 = loc("/home/mejiang/w1/test/triton/fa/flash-attention.py":578:62)
#loc83 = loc("/home/mejiang/w1/test/triton/fa/flash-attention.py":578:88)
#loc84 = loc("/home/mejiang/w1/test/triton/fa/flash-attention.py":582:43)
#loc85 = loc("/home/mejiang/w1/test/triton/fa/flash-attention.py":583:37)
#loc86 = loc("/home/mejiang/w1/test/triton/fa/flash-attention.py":588:15)
#loc87 = loc("/home/mejiang/w1/test/triton/fa/flash-attention.py":604:39)
#loc88 = loc("/home/mejiang/w1/test/triton/fa/flash-attention.py":604:31)
#loc89 = loc("/home/mejiang/w1/test/triton/fa/flash-attention.py":604:61)
#loc90 = loc("/home/mejiang/w1/test/triton/fa/flash-attention.py":604:51)
#loc91 = loc("/home/mejiang/w1/test/triton/fa/flash-attention.py":605:43)
#loc92 = loc("/home/mejiang/w1/test/triton/fa/flash-attention.py":605:54)
#loc93 = loc("/home/mejiang/w1/test/triton/fa/flash-attention.py":605:36)
#loc94 = loc("/home/mejiang/w1/test/triton/fa/flash-attention.py":605:73)
#loc95 = loc("/home/mejiang/w1/test/triton/fa/flash-attention.py":605:66)
#loc96 = loc("/home/mejiang/w1/test/triton/fa/flash-attention.py":606:39)
#loc97 = loc("/home/mejiang/w1/test/triton/fa/flash-attention.py":606:31)
#loc98 = loc("/home/mejiang/w1/test/triton/fa/flash-attention.py":606:61)
#loc99 = loc("/home/mejiang/w1/test/triton/fa/flash-attention.py":606:51)
#loc100 = loc("/home/mejiang/w1/test/triton/fa/flash-attention.py":607:43)
#loc101 = loc("/home/mejiang/w1/test/triton/fa/flash-attention.py":607:36)
#loc102 = loc("/home/mejiang/w1/test/triton/fa/flash-attention.py":607:73)
#loc103 = loc("/home/mejiang/w1/test/triton/fa/flash-attention.py":607:84)
#loc104 = loc("/home/mejiang/w1/test/triton/fa/flash-attention.py":607:66)
#loc105 = loc("/home/mejiang/w1/test/triton/fa/flash-attention.py":608:39)
#loc106 = loc("/home/mejiang/w1/test/triton/fa/flash-attention.py":608:31)
#loc107 = loc("/home/mejiang/w1/test/triton/fa/flash-attention.py":608:61)
#loc108 = loc("/home/mejiang/w1/test/triton/fa/flash-attention.py":608:51)
#loc109 = loc("/home/mejiang/w1/test/triton/fa/flash-attention.py":609:43)
#loc110 = loc("/home/mejiang/w1/test/triton/fa/flash-attention.py":609:54)
#loc111 = loc("/home/mejiang/w1/test/triton/fa/flash-attention.py":609:36)
#loc112 = loc("/home/mejiang/w1/test/triton/fa/flash-attention.py":609:66)
#loc113 = loc("/home/mejiang/w1/test/triton/fa/flash-attention.py":655:48)
#loc114 = loc("/home/mejiang/w1/test/triton/fa/flash-attention.py":658:28)
#loc115 = loc("/home/mejiang/w1/test/triton/fa/flash-attention.py":691:51)
#loc116 = loc("/home/mejiang/w1/test/triton/fa/flash-attention.py":692:43)
#loc117 = loc("/home/mejiang/w1/test/triton/fa/flash-attention.py":694:39)
#loc118 = loc("/home/mejiang/w1/test/triton/fa/flash-attention.py":697:35)
#loc119 = loc("/home/mejiang/w1/test/triton/fa/flash-attention.py":697:19)
#loc120 = loc("/home/mejiang/w1/test/triton/fa/flash-attention.py":698:61)
#loc121 = loc("/home/mejiang/w1/test/triton/fa/flash-attention.py":372:28)
#loc123 = loc("/home/mejiang/w1/test/triton/fa/flash-attention.py":372:18)
#loc124 = loc("/home/mejiang/w1/test/triton/fa/flash-attention.py":373:28)
#loc125 = loc("/home/mejiang/w1/test/triton/fa/flash-attention.py":373:18)
#loc126 = loc("/home/mejiang/w1/test/triton/fa/flash-attention.py":278:59)
#loc127 = loc("/home/mejiang/w1/test/triton/fa/flash-attention.py":213:25)
#loc128 = loc("/home/mejiang/w1/test/triton/fa/flash-attention.py":286:69)
#loc129 = loc("/home/mejiang/w1/test/triton/fa/flash-attention.py":315:28)
#loc130 = loc("/opt/venv/lib/python3.10/site-packages/triton/language/standard.py":188:40)
#loc132 = loc("/opt/venv/lib/python3.10/site-packages/triton/language/standard.py":167:27)
#loc133 = loc("/home/mejiang/w1/test/triton/fa/flash-attention.py":334:31)
#loc134 = loc("/home/mejiang/w1/test/triton/fa/flash-attention.py":335:29)
#loc135 = loc("/home/mejiang/w1/test/triton/fa/flash-attention.py":336:18)
#loc136 = loc("/home/mejiang/w1/test/triton/fa/flash-attention.py":336:41)
#loc137 = loc("/home/mejiang/w1/test/triton/fa/flash-attention.py":336:29)
#loc138 = loc("/home/mejiang/w1/test/triton/fa/flash-attention.py":337:25)
#loc139 = loc("/opt/venv/lib/python3.10/site-packages/triton/language/standard.py":290:36)
#loc141 = loc("/opt/venv/lib/python3.10/site-packages/triton/language/standard.py":260:15)
#loc142 = loc("/home/mejiang/w1/test/triton/fa/flash-attention.py":350:35)
#loc143 = loc("/home/mejiang/w1/test/triton/fa/flash-attention.py":350:46)
#loc144 = loc("/home/mejiang/w1/test/triton/fa/flash-attention.py":350:29)
#loc145 = loc("/home/mejiang/w1/test/triton/fa/flash-attention.py":351:26)
#loc146 = loc("/home/mejiang/w1/test/triton/fa/flash-attention.py":351:20)
#loc147 = loc("/home/mejiang/w1/test/triton/fa/flash-attention.py":353:69)
#loc148 = loc("/home/mejiang/w1/test/triton/fa/flash-attention.py":355:20)
#loc149 = loc("/home/mejiang/w1/test/triton/fa/flash-attention.py":355:28)
#loc150 = loc("/home/mejiang/w1/test/triton/fa/flash-attention.py":370:31)
#loc151 = loc("/home/mejiang/w1/test/triton/fa/flash-attention.py":370:51)
#loc152 = loc("/home/mejiang/w1/test/triton/fa/flash-attention.py":376:8)
#loc153 = loc("/home/mejiang/w1/test/triton/fa/flash-attention.py":712:43)
#loc154 = loc("/home/mejiang/w1/test/triton/fa/flash-attention.py":714:16)
#loc155 = loc("/home/mejiang/w1/test/triton/fa/flash-attention.py":716:36)
#loc156 = loc("/home/mejiang/w1/test/triton/fa/flash-attention.py":716:20)
#loc157 = loc("/home/mejiang/w1/test/triton/fa/flash-attention.py":721:46)
#loc158 = loc("/home/mejiang/w1/test/triton/fa/flash-attention.py":721:56)
#loc159 = loc("/home/mejiang/w1/test/triton/fa/flash-attention.py":721:30)
#loc160 = loc("/home/mejiang/w1/test/triton/fa/flash-attention.py":722:56)
#loc161 = loc("/home/mejiang/w1/test/triton/fa/flash-attention.py":722:30)
#loc162 = loc("/home/mejiang/w1/test/triton/fa/flash-attention.py":307:45)
#loc164 = loc("/home/mejiang/w1/test/triton/fa/flash-attention.py":282:33)
#loc165 = loc("/home/mejiang/w1/test/triton/fa/flash-attention.py":210:29)
#loc166 = loc("/home/mejiang/w1/test/triton/fa/flash-attention.py":210:40)
#loc167 = loc("/home/mejiang/w1/test/triton/fa/flash-attention.py":211:25)
#loc168 = loc("/home/mejiang/w1/test/triton/fa/flash-attention.py":308:43)
#loc169 = loc("/home/mejiang/w1/test/triton/fa/flash-attention.py":207:28)
#loc170 = loc("/home/mejiang/w1/test/triton/fa/flash-attention.py":207:39)
#loc171 = loc("/home/mejiang/w1/test/triton/fa/flash-attention.py":208:25)
#loc172 = loc("/home/mejiang/w1/test/triton/fa/flash-attention.py":743:34)
#loc173 = loc("/home/mejiang/w1/test/triton/fa/flash-attention.py":743:30)
#loc174 = loc("/home/mejiang/w1/test/triton/fa/flash-attention.py":744:28)
#loc175 = loc("/home/mejiang/w1/test/triton/fa/flash-attention.py":755:29)
#loc176 = loc("/home/mejiang/w1/test/triton/fa/flash-attention.py":757:42)
#loc177 = loc("/home/mejiang/w1/test/triton/fa/flash-attention.py":757:77)
#loc178 = loc("/home/mejiang/w1/test/triton/fa/flash-attention.py":757:58)
#loc179 = loc("/home/mejiang/w1/test/triton/fa/flash-attention.py":757:23)
#loc180 = loc("/home/mejiang/w1/test/triton/fa/flash-attention.py":760:67)
#loc181 = loc("/home/mejiang/w1/test/triton/fa/flash-attention.py":762:59)
#loc182 = loc("/home/mejiang/w1/test/triton/fa/flash-attention.py":764:42)
#loc183 = loc("/home/mejiang/w1/test/triton/fa/flash-attention.py":764:29)
#loc184 = loc("/home/mejiang/w1/test/triton/fa/flash-attention.py":764:68)
#loc185 = loc("/home/mejiang/w1/test/triton/fa/flash-attention.py":764:58)
#loc186 = loc("/home/mejiang/w1/test/triton/fa/flash-attention.py":764:84)
#loc187 = loc("/home/mejiang/w1/test/triton/fa/flash-attention.py":767:44)
#loc188 = loc("/home/mejiang/w1/test/triton/fa/flash-attention.py":768:35)
#loc189 = loc("/home/mejiang/w1/test/triton/fa/flash-attention.py":768:19)
#loc190 = loc("/home/mejiang/w1/test/triton/fa/flash-attention.py":769:62)
#loc191 = loc("/home/mejiang/w1/test/triton/fa/flash-attention.py":769:52)
#loc192 = loc("/home/mejiang/w1/test/triton/fa/flash-attention.py":770:58)
#loc193 = loc("/home/mejiang/w1/test/triton/fa/flash-attention.py":771:56)
#loc194 = loc("/home/mejiang/w1/test/triton/fa/flash-attention.py":771:43)
#loc195 = loc("/home/mejiang/w1/test/triton/fa/flash-attention.py":771:37)
#loc196 = loc("/home/mejiang/w1/test/triton/fa/flash-attention.py":773:56)
#loc197 = loc("/home/mejiang/w1/test/triton/fa/flash-attention.py":773:43)
#loc198 = loc("/home/mejiang/w1/test/triton/fa/flash-attention.py":773:37)
#loc199 = loc("/home/mejiang/w1/test/triton/fa/flash-attention.py":776:41)
#loc200 = loc("/home/mejiang/w1/test/triton/fa/flash-attention.py":776:33)
#loc201 = loc("/home/mejiang/w1/test/triton/fa/flash-attention.py":776:63)
#loc202 = loc("/home/mejiang/w1/test/triton/fa/flash-attention.py":776:53)
#loc203 = loc("/home/mejiang/w1/test/triton/fa/flash-attention.py":777:54)
#loc204 = loc("/home/mejiang/w1/test/triton/fa/flash-attention.py":777:36)
#loc205 = loc("/home/mejiang/w1/test/triton/fa/flash-attention.py":777:66)
#loc206 = loc("/home/mejiang/w1/test/triton/fa/flash-attention.py":779:19)
#loc207 = loc("/home/mejiang/w1/test/triton/fa/flash-attention.py":780:49)
#loc208 = loc("/home/mejiang/w1/test/triton/fa/flash-attention.py":783:33)
#loc209 = loc("/home/mejiang/w1/test/triton/fa/flash-attention.py":785:8)
#loc210 = loc(callsite(#loc39 at #loc40))
#loc211 = loc(callsite(#loc41 at #loc40))
#loc212 = loc(callsite(#loc42 at #loc40))
#loc213 = loc(callsite(#loc43 at #loc40))
#loc214 = loc(callsite(#loc44 at #loc40))
#loc215 = loc(callsite(#loc45 at #loc40))
#loc216 = loc(callsite(#loc46 at #loc40))
#loc217 = loc(callsite(#loc47 at #loc40))
#loc218 = loc(callsite(#loc48 at #loc40))
#loc219 = loc(callsite(#loc49 at #loc40))
#loc220 = loc(callsite(#loc59 at #loc60))
#loc221 = loc(callsite(#loc61 at #loc60))
#loc222 = loc(fused[#loc64, #loc63])
#loc223 = loc(callsite(#loc121 at #loc122))
#loc224 = loc(callsite(#loc123 at #loc122))
#loc225 = loc(callsite(#loc124 at #loc122))
#loc226 = loc(callsite(#loc125 at #loc122))
#loc227 = loc(callsite(#loc126 at #loc122))
#loc228 = loc(callsite(#loc128 at #loc122))
#loc229 = loc(callsite(#loc129 at #loc122))
#loc231 = loc(callsite(#loc133 at #loc122))
#loc232 = loc(callsite(#loc134 at #loc122))
#loc233 = loc(callsite(#loc135 at #loc122))
#loc234 = loc(callsite(#loc136 at #loc122))
#loc235 = loc(callsite(#loc137 at #loc122))
#loc236 = loc(callsite(#loc138 at #loc122))
#loc238 = loc(callsite(#loc142 at #loc122))
#loc239 = loc(callsite(#loc143 at #loc122))
#loc240 = loc(callsite(#loc144 at #loc122))
#loc241 = loc(callsite(#loc145 at #loc122))
#loc242 = loc(callsite(#loc146 at #loc122))
#loc243 = loc(callsite(#loc147 at #loc122))
#loc244 = loc(callsite(#loc148 at #loc122))
#loc245 = loc(callsite(#loc149 at #loc122))
#loc246 = loc(callsite(#loc150 at #loc122))
#loc247 = loc(callsite(#loc151 at #loc122))
#loc248 = loc(callsite(#loc152 at #loc122))
#loc249 = loc(callsite(#loc162 at #loc163))
#loc250 = loc(callsite(#loc121 at #loc163))
#loc251 = loc(callsite(#loc123 at #loc163))
#loc252 = loc(callsite(#loc124 at #loc163))
#loc253 = loc(callsite(#loc125 at #loc163))
#loc254 = loc(callsite(#loc126 at #loc163))
#loc255 = loc(callsite(#loc164 at #loc163))
#loc256 = loc(callsite(#loc128 at #loc163))
#loc257 = loc(callsite(#loc168 at #loc163))
#loc258 = loc(callsite(#loc129 at #loc163))
#loc260 = loc(callsite(#loc133 at #loc163))
#loc261 = loc(callsite(#loc134 at #loc163))
#loc262 = loc(callsite(#loc135 at #loc163))
#loc263 = loc(callsite(#loc136 at #loc163))
#loc264 = loc(callsite(#loc137 at #loc163))
#loc265 = loc(callsite(#loc138 at #loc163))
#loc267 = loc(callsite(#loc142 at #loc163))
#loc268 = loc(callsite(#loc143 at #loc163))
#loc269 = loc(callsite(#loc144 at #loc163))
#loc270 = loc(callsite(#loc145 at #loc163))
#loc271 = loc(callsite(#loc146 at #loc163))
#loc272 = loc(callsite(#loc147 at #loc163))
#loc273 = loc(callsite(#loc148 at #loc163))
#loc274 = loc(callsite(#loc149 at #loc163))
#loc275 = loc(callsite(#loc150 at #loc163))
#loc276 = loc(callsite(#loc151 at #loc163))
#loc277 = loc(callsite(#loc152 at #loc163))
#loc278 = loc(callsite(#loc127 at #loc228))
#loc279 = loc(callsite(#loc130 at #loc230))
#loc281 = loc(callsite(#loc139 at #loc237))
#loc283 = loc(callsite(#loc127 at #loc243))
#loc284 = loc(callsite(#loc165 at #loc256))
#loc285 = loc(callsite(#loc166 at #loc256))
#loc286 = loc(callsite(#loc167 at #loc256))
#loc287 = loc(callsite(#loc130 at #loc259))
#loc289 = loc(callsite(#loc139 at #loc266))
#loc291 = loc(callsite(#loc169 at #loc272))
#loc292 = loc(callsite(#loc170 at #loc272))
#loc293 = loc(callsite(#loc171 at #loc272))
#loc294 = loc(callsite(#loc132 at #loc279))
#loc295 = loc(callsite(#loc141 at #loc281))
#loc296 = loc(callsite(#loc132 at #loc287))
#loc297 = loc(callsite(#loc141 at #loc289))
