#loc = loc("/home/mejiang/w1/test/fav3/triton/fa/flash-attention.py":465:1)
#loc41 = loc("tile_id")
#loc150 = loc("/home/mejiang/w1/test/fav3/triton/fa/flash-attention.py":34:1)
#loc165 = loc("/home/mejiang/w1/test/fav3/triton/fa/flash-attention.py":168:1)
#loc172 = loc("/home/mejiang/w1/test/fav3/triton/fa/flash-attention.py":267:1)
#loc199 = loc("/home/mejiang/w1/test/fav3/triton/fa/flash-attention.py":201:1)
#loc202 = loc("/home/mejiang/w1/test/triton/python/triton/language/standard.py":177:1)
#loc204 = loc(unknown)
#loc206 = loc("/home/mejiang/w1/test/triton/python/triton/language/standard.py":169:1)
#loc209 = loc("/home/mejiang/w1/test/triton/python/triton/language/standard.py":287:1)
#loc212 = loc("/home/mejiang/w1/test/triton/python/triton/language/standard.py":262:1)
#loc231 = loc("Q"(#loc))
#loc232 = loc("K"(#loc))
#loc233 = loc("V"(#loc))
#loc234 = loc("L"(#loc))
#loc235 = loc("Out"(#loc))
#loc236 = loc("stride_qz"(#loc))
#loc237 = loc("stride_qh"(#loc))
#loc238 = loc("stride_qm"(#loc))
#loc239 = loc("stride_kz"(#loc))
#loc240 = loc("stride_kh"(#loc))
#loc241 = loc("stride_kn"(#loc))
#loc242 = loc("stride_vz"(#loc))
#loc243 = loc("stride_vh"(#loc))
#loc244 = loc("stride_vk"(#loc))
#loc245 = loc("stride_oz"(#loc))
#loc246 = loc("stride_oh"(#loc))
#loc247 = loc("stride_om"(#loc))
#loc248 = loc("stride_bz"(#loc))
#loc249 = loc("stride_bh"(#loc))
#loc250 = loc("stride_bm"(#loc))
#loc251 = loc("stride_bn"(#loc))
#loc252 = loc("stride_az"(#loc))
#loc253 = loc("stride_ah"(#loc))
#loc254 = loc("dropout_p"(#loc))
#loc255 = loc("philox_seed"(#loc))
#loc256 = loc("atomic_counter"(#loc))
#loc257 = loc("philox_offset_base"(#loc))
#loc349 = loc("pid"(#loc150))
#loc362 = loc("x"(#loc165))
#loc363 = loc("acc"(#loc172))
#loc364 = loc("l_i"(#loc172))
#loc365 = loc("m_i"(#loc172))
#loc366 = loc("q"(#loc172))
#loc367 = loc("k_ptrs"(#loc172))
#loc368 = loc("v_ptrs"(#loc172))
#loc369 = loc("stride_kn"(#loc172))
#loc370 = loc("stride_vk"(#loc172))
#loc371 = loc("stride_bn"(#loc172))
#loc372 = loc("start_m"(#loc172))
#loc373 = loc("actual_seqlen_k"(#loc172))
#loc374 = loc("actual_seqlen_q"(#loc172))
#loc375 = loc("dropout_p"(#loc172))
#loc376 = loc("philox_seed"(#loc172))
#loc377 = loc("batch_philox_offset"(#loc172))
#loc378 = loc("block_min"(#loc172))
#loc379 = loc("block_max"(#loc172))
#loc380 = loc("OFFS_M"(#loc172))
#loc381 = loc("OFFS_N"(#loc172))
#loc407 = loc("ptrs"(#loc199))
#loc408 = loc("boundary_second"(#loc199))
#loc410 = loc("input"(#loc202))
#loc411 = loc("a"(#loc206))
#loc412 = loc("b"(#loc206))
#loc413 = loc("input"(#loc209))
#loc414 = loc("a"(#loc212))
#loc415 = loc("b"(#loc212))
#loc416 = loc("boundary_first"(#loc199))
#loc417 = loc("offs_n_causal"(#loc172))
#loc418 = loc("masked_blocks"(#loc172))
#loc419 = loc("n_extra_tokens"(#loc172))
#loc428 = loc("offset_second"(#loc199))
#loc431 = loc("offset_first"(#loc199))
module {
  tt.func public @attn_fwd(%Q: !tt.ptr<bf16> {tt.divisibility = 16 : i32, tt.pointer_range = 32 : i32} loc("Q"(#loc)), %K: !tt.ptr<bf16> {tt.divisibility = 16 : i32, tt.pointer_range = 32 : i32} loc("K"(#loc)), %V: !tt.ptr<bf16> {tt.divisibility = 16 : i32, tt.pointer_range = 32 : i32} loc("V"(#loc)), %L: !tt.ptr<f32> {tt.divisibility = 16 : i32, tt.pointer_range = 32 : i32} loc("L"(#loc)), %Out: !tt.ptr<bf16> {tt.divisibility = 16 : i32, tt.pointer_range = 32 : i32} loc("Out"(#loc)), %stride_qz: i32 {tt.divisibility = 16 : i32} loc("stride_qz"(#loc)), %stride_qh: i32 {tt.divisibility = 16 : i32} loc("stride_qh"(#loc)), %stride_qm: i32 {tt.divisibility = 16 : i32} loc("stride_qm"(#loc)), %stride_kz: i32 {tt.divisibility = 16 : i32} loc("stride_kz"(#loc)), %stride_kh: i32 {tt.divisibility = 16 : i32} loc("stride_kh"(#loc)), %stride_kn: i32 {tt.divisibility = 16 : i32} loc("stride_kn"(#loc)), %stride_vz: i32 {tt.divisibility = 16 : i32} loc("stride_vz"(#loc)), %stride_vh: i32 {tt.divisibility = 16 : i32} loc("stride_vh"(#loc)), %stride_vk: i32 {tt.divisibility = 16 : i32} loc("stride_vk"(#loc)), %stride_oz: i32 {tt.divisibility = 16 : i32} loc("stride_oz"(#loc)), %stride_oh: i32 {tt.divisibility = 16 : i32} loc("stride_oh"(#loc)), %stride_om: i32 {tt.divisibility = 16 : i32} loc("stride_om"(#loc)), %stride_bz: i32 {tt.divisibility = 16 : i32} loc("stride_bz"(#loc)), %stride_bh: i32 {tt.divisibility = 16 : i32} loc("stride_bh"(#loc)), %stride_bm: i32 {tt.divisibility = 16 : i32} loc("stride_bm"(#loc)), %stride_bn: i32 {tt.divisibility = 16 : i32} loc("stride_bn"(#loc)), %stride_az: i32 {tt.divisibility = 16 : i32} loc("stride_az"(#loc)), %stride_ah: i32 {tt.divisibility = 16 : i32} loc("stride_ah"(#loc)), %dropout_p: f32 loc("dropout_p"(#loc)), %philox_seed: i32 loc("philox_seed"(#loc)), %atomic_counter: !tt.ptr<i32> {tt.divisibility = 16 : i32, tt.pointer_range = 32 : i32} loc("atomic_counter"(#loc)), %philox_offset_base: i32 loc("philox_offset_base"(#loc))) attributes {noinline = false} {
    %c0_i32 = arith.constant 0 : i32 loc(#loc1)
    %0 = arith.cmpi sge, %stride_qz, %c0_i32 : i32 loc(#loc1)
    llvm.intr.assume %0 : i1 loc(#loc2)
    %c0_i32_0 = arith.constant 0 : i32 loc(#loc3)
    %1 = arith.cmpi sge, %stride_qh, %c0_i32_0 : i32 loc(#loc3)
    llvm.intr.assume %1 : i1 loc(#loc4)
    %c0_i32_1 = arith.constant 0 : i32 loc(#loc5)
    %2 = arith.cmpi sge, %stride_qm, %c0_i32_1 : i32 loc(#loc5)
    llvm.intr.assume %2 : i1 loc(#loc6)
    %true = arith.constant true loc(#loc7)
    llvm.intr.assume %true : i1 loc(#loc7)
    %c0_i32_2 = arith.constant 0 : i32 loc(#loc8)
    %3 = arith.cmpi sge, %stride_kz, %c0_i32_2 : i32 loc(#loc8)
    llvm.intr.assume %3 : i1 loc(#loc9)
    %c0_i32_3 = arith.constant 0 : i32 loc(#loc10)
    %4 = arith.cmpi sge, %stride_kh, %c0_i32_3 : i32 loc(#loc10)
    llvm.intr.assume %4 : i1 loc(#loc11)
    %c0_i32_4 = arith.constant 0 : i32 loc(#loc12)
    %5 = arith.cmpi sge, %stride_kn, %c0_i32_4 : i32 loc(#loc12)
    llvm.intr.assume %5 : i1 loc(#loc13)
    %true_5 = arith.constant true loc(#loc14)
    llvm.intr.assume %true_5 : i1 loc(#loc14)
    %c0_i32_6 = arith.constant 0 : i32 loc(#loc15)
    %6 = arith.cmpi sge, %stride_bz, %c0_i32_6 : i32 loc(#loc15)
    llvm.intr.assume %6 : i1 loc(#loc16)
    %c0_i32_7 = arith.constant 0 : i32 loc(#loc17)
    %7 = arith.cmpi sge, %stride_bh, %c0_i32_7 : i32 loc(#loc17)
    llvm.intr.assume %7 : i1 loc(#loc18)
    %c0_i32_8 = arith.constant 0 : i32 loc(#loc19)
    %8 = arith.cmpi sge, %stride_bm, %c0_i32_8 : i32 loc(#loc19)
    llvm.intr.assume %8 : i1 loc(#loc20)
    %c0_i32_9 = arith.constant 0 : i32 loc(#loc21)
    %9 = arith.cmpi sge, %stride_bn, %c0_i32_9 : i32 loc(#loc21)
    llvm.intr.assume %9 : i1 loc(#loc22)
    %c0_i32_10 = arith.constant 0 : i32 loc(#loc23)
    %10 = arith.cmpi sge, %stride_vz, %c0_i32_10 : i32 loc(#loc23)
    llvm.intr.assume %10 : i1 loc(#loc24)
    %c0_i32_11 = arith.constant 0 : i32 loc(#loc25)
    %11 = arith.cmpi sge, %stride_vh, %c0_i32_11 : i32 loc(#loc25)
    llvm.intr.assume %11 : i1 loc(#loc26)
    %c0_i32_12 = arith.constant 0 : i32 loc(#loc27)
    %12 = arith.cmpi sge, %stride_vk, %c0_i32_12 : i32 loc(#loc27)
    llvm.intr.assume %12 : i1 loc(#loc28)
    %true_13 = arith.constant true loc(#loc29)
    llvm.intr.assume %true_13 : i1 loc(#loc29)
    %c0_i32_14 = arith.constant 0 : i32 loc(#loc30)
    %13 = arith.cmpi sge, %stride_oz, %c0_i32_14 : i32 loc(#loc30)
    llvm.intr.assume %13 : i1 loc(#loc31)
    %c0_i32_15 = arith.constant 0 : i32 loc(#loc32)
    %14 = arith.cmpi sge, %stride_oh, %c0_i32_15 : i32 loc(#loc32)
    llvm.intr.assume %14 : i1 loc(#loc33)
    %c0_i32_16 = arith.constant 0 : i32 loc(#loc34)
    %15 = arith.cmpi sge, %stride_om, %c0_i32_16 : i32 loc(#loc34)
    llvm.intr.assume %15 : i1 loc(#loc35)
    %true_17 = arith.constant true loc(#loc36)
    llvm.intr.assume %true_17 : i1 loc(#loc36)
    %tile_id = arith.constant 0 : i32 loc(#loc258)
    %num_tiles_total = arith.constant 1 : i32 loc(#loc259)
    %tile_id_18 = scf.while (%tile_id_19 = %tile_id) : (i32) -> i32 {
      %16 = arith.cmpi slt, %tile_id_19, %num_tiles_total : i32 loc(#loc40)
      scf.condition(%16) %tile_id_19 : i32 loc(#loc40)
    } do {
    ^bb0(%tile_id_19: i32 loc("tile_id")):
      %off_h_q = tt.get_program_id x : i32 loc(#loc261)
      %off_h_q_20 = tt.call @__main__.remap_xcd__i32_c64_c8(%off_h_q) : (i32) -> i32 loc(#loc262)
      %start_m = tt.get_program_id y : i32 loc(#loc263)
      %off_z = tt.get_program_id z : i32 loc(#loc264)
      %offs_m = arith.constant 256 : i32 loc(#loc265)
      %offs_m_21 = arith.constant 256 : i32 loc(#loc265)
      %offs_m_22 = arith.extsi %start_m : i32 to i64 loc(#loc265)
      %offs_m_23 = arith.extsi %offs_m_21 : i32 to i64 loc(#loc265)
      %offs_m_24 = arith.muli %offs_m_22, %offs_m_23 : i64 loc(#loc265)
      %offs_m_25 = arith.constant 2147483647 : i64 loc(#loc265)
      %offs_m_26 = arith.constant -2147483648 : i64 loc(#loc265)
      %offs_m_27 = arith.cmpi sle, %offs_m_24, %offs_m_25 : i64 loc(#loc265)
      %offs_m_28 = arith.cmpi sge, %offs_m_24, %offs_m_26 : i64 loc(#loc265)
      %offs_m_29 = arith.andi %offs_m_27, %offs_m_28 : i1 loc(#loc265)
      %offs_m_30 = arith.muli %start_m, %offs_m_21 : i32 loc(#loc265)
      %offs_m_31 = tt.make_range {end = 256 : i32, start = 0 : i32} : tensor<256xi32> loc(#loc266)
      %offs_m_32 = tt.splat %offs_m_30 : i32 -> tensor<256xi32> loc(#loc265)
      %offs_m_33 = arith.extsi %offs_m_32 : tensor<256xi32> to tensor<256xi64> loc(#loc265)
      %offs_m_34 = arith.extsi %offs_m_31 : tensor<256xi32> to tensor<256xi64> loc(#loc265)
      %offs_m_35 = arith.addi %offs_m_33, %offs_m_34 : tensor<256xi64> loc(#loc265)
      %offs_m_36 = arith.constant 2147483647 : i64 loc(#loc265)
      %offs_m_37 = arith.constant -2147483648 : i64 loc(#loc265)
      %offs_m_38 = arith.constant dense<2147483647> : tensor<256xi64> loc(#loc265)
      %offs_m_39 = arith.cmpi sle, %offs_m_35, %offs_m_38 : tensor<256xi64> loc(#loc265)
      %offs_m_40 = arith.constant dense<-2147483648> : tensor<256xi64> loc(#loc265)
      %offs_m_41 = arith.cmpi sge, %offs_m_35, %offs_m_40 : tensor<256xi64> loc(#loc265)
      %offs_m_42 = arith.andi %offs_m_39, %offs_m_41 : tensor<256xi1> loc(#loc265)
      %offs_m_43 = arith.addi %offs_m_32, %offs_m_31 : tensor<256xi32> loc(#loc265)
      %offs_n = tt.make_range {end = 64 : i32, start = 0 : i32} : tensor<64xi32> loc(#loc267)
      %offs_d = tt.make_range {end = 128 : i32, start = 0 : i32} : tensor<128xi32> loc(#loc268)
      %continue_condition = arith.constant true loc(#loc269)
      %cu_seqlens_q_start = arith.constant 0 : i32 loc(#loc270)
      %cu_seqlens_k_start = arith.constant 0 : i32 loc(#loc271)
      %seqlen_q = arith.constant 16384 : i32 loc(#loc272)
      %seqlen_k = arith.constant 16384 : i32 loc(#loc273)
      scf.if %continue_condition {
        %n_blocks = tt.call @__main__.cdiv_fn__i32_c64(%seqlen_k) : (i32) -> i32 loc(#loc274)
        scf.if %continue_condition {
          %n_extra_tokens = arith.constant 0 : i32 loc(#loc434)
          %c64_i32 = arith.constant 64 : i32 loc(#loc59)
          %16 = arith.cmpi slt, %seqlen_k, %c64_i32 : i32 loc(#loc59)
          %17 = scf.if %16 -> (i32) {
            %n_extra_tokens_419 = arith.constant 64 : i32 loc(#loc276)
            %n_extra_tokens_420 = arith.constant 64 : i32 loc(#loc276)
            %n_extra_tokens_421 = arith.extsi %n_extra_tokens_420 : i32 to i64 loc(#loc276)
            %n_extra_tokens_422 = arith.extsi %seqlen_k : i32 to i64 loc(#loc276)
            %n_extra_tokens_423 = arith.subi %n_extra_tokens_421, %n_extra_tokens_422 : i64 loc(#loc276)
            %n_extra_tokens_424 = arith.constant 2147483647 : i64 loc(#loc276)
            %n_extra_tokens_425 = arith.constant -2147483648 : i64 loc(#loc276)
            %n_extra_tokens_426 = arith.cmpi sle, %n_extra_tokens_423, %n_extra_tokens_424 : i64 loc(#loc276)
            %n_extra_tokens_427 = arith.cmpi sge, %n_extra_tokens_423, %n_extra_tokens_425 : i64 loc(#loc276)
            %n_extra_tokens_428 = arith.andi %n_extra_tokens_426, %n_extra_tokens_427 : i1 loc(#loc276)
            %n_extra_tokens_429 = arith.subi %n_extra_tokens_420, %seqlen_k : i32 loc(#loc435)
            scf.yield %n_extra_tokens_429 : i32 loc(#loc435)
          } else {
            %c64_i32_419 = arith.constant 64 : i32 loc(#loc62)
            %c64_i32_420 = arith.constant 64 : i32 loc(#loc62)
            %24 = arith.remsi %seqlen_k, %c64_i32_420 : i32 loc(#loc62)
            %c0_i32_421 = arith.constant 0 : i32 loc(#loc63)
            %25 = arith.cmpi ne, %24, %c0_i32_421 : i32 loc(#loc63)
            %n_extra_tokens_422 = scf.if %25 -> (i32) {
              %n_extra_tokens_423 = arith.constant 64 : i32 loc(#loc278)
              %n_extra_tokens_424 = arith.constant 64 : i32 loc(#loc278)
              %n_extra_tokens_425 = arith.remsi %seqlen_k, %n_extra_tokens_424 : i32 loc(#loc436)
              scf.yield %n_extra_tokens_425 : i32 loc(#loc436)
            } else {
              scf.yield %n_extra_tokens : i32 loc(#loc63)
            } loc(#loc277)
            scf.yield %n_extra_tokens_422 : i32 loc(#loc63)
          } loc(#loc60)
          %q_offset = arith.extsi %off_z : i32 to i64 loc(#loc279)
          %q_offset_44 = arith.extsi %stride_qz : i32 to i64 loc(#loc279)
          %q_offset_45 = arith.muli %q_offset, %q_offset_44 : i64 loc(#loc279)
          %q_offset_46 = arith.constant 2147483647 : i64 loc(#loc279)
          %q_offset_47 = arith.constant -2147483648 : i64 loc(#loc279)
          %q_offset_48 = arith.cmpi sle, %q_offset_45, %q_offset_46 : i64 loc(#loc279)
          %q_offset_49 = arith.cmpi sge, %q_offset_45, %q_offset_47 : i64 loc(#loc279)
          %q_offset_50 = arith.andi %q_offset_48, %q_offset_49 : i1 loc(#loc279)
          %q_offset_51 = arith.muli %off_z, %stride_qz : i32 loc(#loc279)
          %q_offset_52 = tt.addptr %Q, %q_offset_51 : !tt.ptr<bf16>, i32 loc(#loc280)
          %q_offset_53 = arith.extsi %off_h_q_20 : i32 to i64 loc(#loc281)
          %q_offset_54 = arith.extsi %stride_qh : i32 to i64 loc(#loc281)
          %q_offset_55 = arith.muli %q_offset_53, %q_offset_54 : i64 loc(#loc281)
          %q_offset_56 = arith.constant 2147483647 : i64 loc(#loc281)
          %q_offset_57 = arith.constant -2147483648 : i64 loc(#loc281)
          %q_offset_58 = arith.cmpi sle, %q_offset_55, %q_offset_56 : i64 loc(#loc281)
          %q_offset_59 = arith.cmpi sge, %q_offset_55, %q_offset_57 : i64 loc(#loc281)
          %q_offset_60 = arith.andi %q_offset_58, %q_offset_59 : i1 loc(#loc281)
          %q_offset_61 = arith.muli %off_h_q_20, %stride_qh : i32 loc(#loc281)
          %q_offset_62 = tt.addptr %q_offset_52, %q_offset_61 : !tt.ptr<bf16>, i32 loc(#loc280)
          %q_offset_63 = arith.extsi %cu_seqlens_q_start : i32 to i64 loc(#loc282)
          %q_offset_64 = arith.extsi %stride_qm : i32 to i64 loc(#loc282)
          %q_offset_65 = arith.muli %q_offset_63, %q_offset_64 : i64 loc(#loc282)
          %q_offset_66 = arith.constant 2147483647 : i64 loc(#loc282)
          %q_offset_67 = arith.constant -2147483648 : i64 loc(#loc282)
          %q_offset_68 = arith.cmpi sle, %q_offset_65, %q_offset_66 : i64 loc(#loc282)
          %q_offset_69 = arith.cmpi sge, %q_offset_65, %q_offset_67 : i64 loc(#loc282)
          %q_offset_70 = arith.andi %q_offset_68, %q_offset_69 : i1 loc(#loc282)
          %q_offset_71 = arith.muli %cu_seqlens_q_start, %stride_qm : i32 loc(#loc282)
          %q_offset_72 = tt.addptr %q_offset_62, %q_offset_71 : !tt.ptr<bf16>, i32 loc(#loc280)
          %q_ptrs = tt.expand_dims %offs_m_43 {axis = 1 : i32} : tensor<256xi32> -> tensor<256x1xi32> loc(#loc283)
          %q_ptrs_73 = tt.splat %stride_qm : i32 -> tensor<256x1xi32> loc(#loc283)
          %q_ptrs_74 = arith.extsi %q_ptrs : tensor<256x1xi32> to tensor<256x1xi64> loc(#loc283)
          %q_ptrs_75 = arith.extsi %q_ptrs_73 : tensor<256x1xi32> to tensor<256x1xi64> loc(#loc283)
          %q_ptrs_76 = arith.muli %q_ptrs_74, %q_ptrs_75 : tensor<256x1xi64> loc(#loc283)
          %q_ptrs_77 = arith.constant 2147483647 : i64 loc(#loc283)
          %q_ptrs_78 = arith.constant -2147483648 : i64 loc(#loc283)
          %q_ptrs_79 = arith.constant dense<2147483647> : tensor<256x1xi64> loc(#loc283)
          %q_ptrs_80 = arith.cmpi sle, %q_ptrs_76, %q_ptrs_79 : tensor<256x1xi64> loc(#loc283)
          %q_ptrs_81 = arith.constant dense<-2147483648> : tensor<256x1xi64> loc(#loc283)
          %q_ptrs_82 = arith.cmpi sge, %q_ptrs_76, %q_ptrs_81 : tensor<256x1xi64> loc(#loc283)
          %q_ptrs_83 = arith.andi %q_ptrs_80, %q_ptrs_82 : tensor<256x1xi1> loc(#loc283)
          %q_ptrs_84 = arith.muli %q_ptrs, %q_ptrs_73 : tensor<256x1xi32> loc(#loc283)
          %q_ptrs_85 = tt.splat %q_offset_72 : !tt.ptr<bf16> -> tensor<256x1x!tt.ptr<bf16>> loc(#loc284)
          %q_ptrs_86 = tt.addptr %q_ptrs_85, %q_ptrs_84 : tensor<256x1x!tt.ptr<bf16>>, tensor<256x1xi32> loc(#loc284)
          %q_ptrs_87 = tt.expand_dims %offs_d {axis = 0 : i32} : tensor<128xi32> -> tensor<1x128xi32> loc(#loc285)
          %q_ptrs_88 = arith.constant 1 : i32 loc(#loc285)
          %q_ptrs_89 = arith.constant 1 : i32 loc(#loc285)
          %q_ptrs_90 = arith.constant dense<1> : tensor<1x128xi32> loc(#loc285)
          %q_ptrs_91 = arith.extsi %q_ptrs_87 : tensor<1x128xi32> to tensor<1x128xi64> loc(#loc285)
          %q_ptrs_92 = arith.extsi %q_ptrs_90 : tensor<1x128xi32> to tensor<1x128xi64> loc(#loc285)
          %q_ptrs_93 = arith.muli %q_ptrs_91, %q_ptrs_92 : tensor<1x128xi64> loc(#loc285)
          %q_ptrs_94 = arith.constant 2147483647 : i64 loc(#loc285)
          %q_ptrs_95 = arith.constant -2147483648 : i64 loc(#loc285)
          %q_ptrs_96 = arith.constant dense<2147483647> : tensor<1x128xi64> loc(#loc285)
          %q_ptrs_97 = arith.cmpi sle, %q_ptrs_93, %q_ptrs_96 : tensor<1x128xi64> loc(#loc285)
          %q_ptrs_98 = arith.constant dense<-2147483648> : tensor<1x128xi64> loc(#loc285)
          %q_ptrs_99 = arith.cmpi sge, %q_ptrs_93, %q_ptrs_98 : tensor<1x128xi64> loc(#loc285)
          %q_ptrs_100 = arith.andi %q_ptrs_97, %q_ptrs_99 : tensor<1x128xi1> loc(#loc285)
          %q_ptrs_101 = arith.muli %q_ptrs_87, %q_ptrs_90 : tensor<1x128xi32> loc(#loc285)
          %q_ptrs_102 = tt.broadcast %q_ptrs_86 : tensor<256x1x!tt.ptr<bf16>> -> tensor<256x128x!tt.ptr<bf16>> loc(#loc284)
          %q_ptrs_103 = tt.broadcast %q_ptrs_101 : tensor<1x128xi32> -> tensor<256x128xi32> loc(#loc284)
          %q_ptrs_104 = tt.addptr %q_ptrs_102, %q_ptrs_103 : tensor<256x128x!tt.ptr<bf16>>, tensor<256x128xi32> loc(#loc284)
          %k_offset = arith.extsi %off_z : i32 to i64 loc(#loc286)
          %k_offset_105 = arith.extsi %stride_kz : i32 to i64 loc(#loc286)
          %k_offset_106 = arith.muli %k_offset, %k_offset_105 : i64 loc(#loc286)
          %k_offset_107 = arith.constant 2147483647 : i64 loc(#loc286)
          %k_offset_108 = arith.constant -2147483648 : i64 loc(#loc286)
          %k_offset_109 = arith.cmpi sle, %k_offset_106, %k_offset_107 : i64 loc(#loc286)
          %k_offset_110 = arith.cmpi sge, %k_offset_106, %k_offset_108 : i64 loc(#loc286)
          %k_offset_111 = arith.andi %k_offset_109, %k_offset_110 : i1 loc(#loc286)
          %k_offset_112 = arith.muli %off_z, %stride_kz : i32 loc(#loc286)
          %k_offset_113 = tt.addptr %K, %k_offset_112 : !tt.ptr<bf16>, i32 loc(#loc287)
          %k_offset_114 = arith.extsi %off_h_q_20 : i32 to i64 loc(#loc288)
          %k_offset_115 = arith.extsi %stride_kh : i32 to i64 loc(#loc288)
          %k_offset_116 = arith.muli %k_offset_114, %k_offset_115 : i64 loc(#loc288)
          %k_offset_117 = arith.constant 2147483647 : i64 loc(#loc288)
          %k_offset_118 = arith.constant -2147483648 : i64 loc(#loc288)
          %k_offset_119 = arith.cmpi sle, %k_offset_116, %k_offset_117 : i64 loc(#loc288)
          %k_offset_120 = arith.cmpi sge, %k_offset_116, %k_offset_118 : i64 loc(#loc288)
          %k_offset_121 = arith.andi %k_offset_119, %k_offset_120 : i1 loc(#loc288)
          %k_offset_122 = arith.muli %off_h_q_20, %stride_kh : i32 loc(#loc288)
          %k_offset_123 = tt.addptr %k_offset_113, %k_offset_122 : !tt.ptr<bf16>, i32 loc(#loc287)
          %k_offset_124 = arith.extsi %cu_seqlens_k_start : i32 to i64 loc(#loc289)
          %k_offset_125 = arith.extsi %stride_kn : i32 to i64 loc(#loc289)
          %k_offset_126 = arith.muli %k_offset_124, %k_offset_125 : i64 loc(#loc289)
          %k_offset_127 = arith.constant 2147483647 : i64 loc(#loc289)
          %k_offset_128 = arith.constant -2147483648 : i64 loc(#loc289)
          %k_offset_129 = arith.cmpi sle, %k_offset_126, %k_offset_127 : i64 loc(#loc289)
          %k_offset_130 = arith.cmpi sge, %k_offset_126, %k_offset_128 : i64 loc(#loc289)
          %k_offset_131 = arith.andi %k_offset_129, %k_offset_130 : i1 loc(#loc289)
          %k_offset_132 = arith.muli %cu_seqlens_k_start, %stride_kn : i32 loc(#loc289)
          %k_offset_133 = tt.addptr %k_offset_123, %k_offset_132 : !tt.ptr<bf16>, i32 loc(#loc287)
          %k_ptrs = tt.expand_dims %offs_d {axis = 1 : i32} : tensor<128xi32> -> tensor<128x1xi32> loc(#loc290)
          %k_ptrs_134 = arith.constant 1 : i32 loc(#loc290)
          %k_ptrs_135 = arith.constant 1 : i32 loc(#loc290)
          %k_ptrs_136 = arith.constant dense<1> : tensor<128x1xi32> loc(#loc290)
          %k_ptrs_137 = arith.extsi %k_ptrs : tensor<128x1xi32> to tensor<128x1xi64> loc(#loc290)
          %k_ptrs_138 = arith.extsi %k_ptrs_136 : tensor<128x1xi32> to tensor<128x1xi64> loc(#loc290)
          %k_ptrs_139 = arith.muli %k_ptrs_137, %k_ptrs_138 : tensor<128x1xi64> loc(#loc290)
          %k_ptrs_140 = arith.constant 2147483647 : i64 loc(#loc290)
          %k_ptrs_141 = arith.constant -2147483648 : i64 loc(#loc290)
          %k_ptrs_142 = arith.constant dense<2147483647> : tensor<128x1xi64> loc(#loc290)
          %k_ptrs_143 = arith.cmpi sle, %k_ptrs_139, %k_ptrs_142 : tensor<128x1xi64> loc(#loc290)
          %k_ptrs_144 = arith.constant dense<-2147483648> : tensor<128x1xi64> loc(#loc290)
          %k_ptrs_145 = arith.cmpi sge, %k_ptrs_139, %k_ptrs_144 : tensor<128x1xi64> loc(#loc290)
          %k_ptrs_146 = arith.andi %k_ptrs_143, %k_ptrs_145 : tensor<128x1xi1> loc(#loc290)
          %k_ptrs_147 = arith.muli %k_ptrs, %k_ptrs_136 : tensor<128x1xi32> loc(#loc290)
          %k_ptrs_148 = tt.splat %k_offset_133 : !tt.ptr<bf16> -> tensor<128x1x!tt.ptr<bf16>> loc(#loc291)
          %k_ptrs_149 = tt.addptr %k_ptrs_148, %k_ptrs_147 : tensor<128x1x!tt.ptr<bf16>>, tensor<128x1xi32> loc(#loc291)
          %k_ptrs_150 = tt.expand_dims %offs_n {axis = 0 : i32} : tensor<64xi32> -> tensor<1x64xi32> loc(#loc292)
          %k_ptrs_151 = tt.splat %stride_kn : i32 -> tensor<1x64xi32> loc(#loc292)
          %k_ptrs_152 = arith.extsi %k_ptrs_150 : tensor<1x64xi32> to tensor<1x64xi64> loc(#loc292)
          %k_ptrs_153 = arith.extsi %k_ptrs_151 : tensor<1x64xi32> to tensor<1x64xi64> loc(#loc292)
          %k_ptrs_154 = arith.muli %k_ptrs_152, %k_ptrs_153 : tensor<1x64xi64> loc(#loc292)
          %k_ptrs_155 = arith.constant 2147483647 : i64 loc(#loc292)
          %k_ptrs_156 = arith.constant -2147483648 : i64 loc(#loc292)
          %k_ptrs_157 = arith.constant dense<2147483647> : tensor<1x64xi64> loc(#loc292)
          %k_ptrs_158 = arith.cmpi sle, %k_ptrs_154, %k_ptrs_157 : tensor<1x64xi64> loc(#loc292)
          %k_ptrs_159 = arith.constant dense<-2147483648> : tensor<1x64xi64> loc(#loc292)
          %k_ptrs_160 = arith.cmpi sge, %k_ptrs_154, %k_ptrs_159 : tensor<1x64xi64> loc(#loc292)
          %k_ptrs_161 = arith.andi %k_ptrs_158, %k_ptrs_160 : tensor<1x64xi1> loc(#loc292)
          %k_ptrs_162 = arith.muli %k_ptrs_150, %k_ptrs_151 : tensor<1x64xi32> loc(#loc292)
          %k_ptrs_163 = tt.broadcast %k_ptrs_149 : tensor<128x1x!tt.ptr<bf16>> -> tensor<128x64x!tt.ptr<bf16>> loc(#loc291)
          %k_ptrs_164 = tt.broadcast %k_ptrs_162 : tensor<1x64xi32> -> tensor<128x64xi32> loc(#loc291)
          %k_ptrs_165 = tt.addptr %k_ptrs_163, %k_ptrs_164 : tensor<128x64x!tt.ptr<bf16>>, tensor<128x64xi32> loc(#loc437)
          %v_offset = arith.extsi %off_z : i32 to i64 loc(#loc293)
          %v_offset_166 = arith.extsi %stride_vz : i32 to i64 loc(#loc293)
          %v_offset_167 = arith.muli %v_offset, %v_offset_166 : i64 loc(#loc293)
          %v_offset_168 = arith.constant 2147483647 : i64 loc(#loc293)
          %v_offset_169 = arith.constant -2147483648 : i64 loc(#loc293)
          %v_offset_170 = arith.cmpi sle, %v_offset_167, %v_offset_168 : i64 loc(#loc293)
          %v_offset_171 = arith.cmpi sge, %v_offset_167, %v_offset_169 : i64 loc(#loc293)
          %v_offset_172 = arith.andi %v_offset_170, %v_offset_171 : i1 loc(#loc293)
          %v_offset_173 = arith.muli %off_z, %stride_vz : i32 loc(#loc293)
          %v_offset_174 = tt.addptr %V, %v_offset_173 : !tt.ptr<bf16>, i32 loc(#loc294)
          %v_offset_175 = arith.extsi %off_h_q_20 : i32 to i64 loc(#loc295)
          %v_offset_176 = arith.extsi %stride_vh : i32 to i64 loc(#loc295)
          %v_offset_177 = arith.muli %v_offset_175, %v_offset_176 : i64 loc(#loc295)
          %v_offset_178 = arith.constant 2147483647 : i64 loc(#loc295)
          %v_offset_179 = arith.constant -2147483648 : i64 loc(#loc295)
          %v_offset_180 = arith.cmpi sle, %v_offset_177, %v_offset_178 : i64 loc(#loc295)
          %v_offset_181 = arith.cmpi sge, %v_offset_177, %v_offset_179 : i64 loc(#loc295)
          %v_offset_182 = arith.andi %v_offset_180, %v_offset_181 : i1 loc(#loc295)
          %v_offset_183 = arith.muli %off_h_q_20, %stride_vh : i32 loc(#loc295)
          %v_offset_184 = tt.addptr %v_offset_174, %v_offset_183 : !tt.ptr<bf16>, i32 loc(#loc294)
          %v_offset_185 = arith.extsi %cu_seqlens_k_start : i32 to i64 loc(#loc296)
          %v_offset_186 = arith.extsi %stride_vk : i32 to i64 loc(#loc296)
          %v_offset_187 = arith.muli %v_offset_185, %v_offset_186 : i64 loc(#loc296)
          %v_offset_188 = arith.constant 2147483647 : i64 loc(#loc296)
          %v_offset_189 = arith.constant -2147483648 : i64 loc(#loc296)
          %v_offset_190 = arith.cmpi sle, %v_offset_187, %v_offset_188 : i64 loc(#loc296)
          %v_offset_191 = arith.cmpi sge, %v_offset_187, %v_offset_189 : i64 loc(#loc296)
          %v_offset_192 = arith.andi %v_offset_190, %v_offset_191 : i1 loc(#loc296)
          %v_offset_193 = arith.muli %cu_seqlens_k_start, %stride_vk : i32 loc(#loc296)
          %v_offset_194 = tt.addptr %v_offset_184, %v_offset_193 : !tt.ptr<bf16>, i32 loc(#loc294)
          %v_ptrs = tt.expand_dims %offs_n {axis = 1 : i32} : tensor<64xi32> -> tensor<64x1xi32> loc(#loc297)
          %v_ptrs_195 = tt.splat %stride_vk : i32 -> tensor<64x1xi32> loc(#loc297)
          %v_ptrs_196 = arith.extsi %v_ptrs : tensor<64x1xi32> to tensor<64x1xi64> loc(#loc297)
          %v_ptrs_197 = arith.extsi %v_ptrs_195 : tensor<64x1xi32> to tensor<64x1xi64> loc(#loc297)
          %v_ptrs_198 = arith.muli %v_ptrs_196, %v_ptrs_197 : tensor<64x1xi64> loc(#loc297)
          %v_ptrs_199 = arith.constant 2147483647 : i64 loc(#loc297)
          %v_ptrs_200 = arith.constant -2147483648 : i64 loc(#loc297)
          %v_ptrs_201 = arith.constant dense<2147483647> : tensor<64x1xi64> loc(#loc297)
          %v_ptrs_202 = arith.cmpi sle, %v_ptrs_198, %v_ptrs_201 : tensor<64x1xi64> loc(#loc297)
          %v_ptrs_203 = arith.constant dense<-2147483648> : tensor<64x1xi64> loc(#loc297)
          %v_ptrs_204 = arith.cmpi sge, %v_ptrs_198, %v_ptrs_203 : tensor<64x1xi64> loc(#loc297)
          %v_ptrs_205 = arith.andi %v_ptrs_202, %v_ptrs_204 : tensor<64x1xi1> loc(#loc297)
          %v_ptrs_206 = arith.muli %v_ptrs, %v_ptrs_195 : tensor<64x1xi32> loc(#loc297)
          %v_ptrs_207 = tt.splat %v_offset_194 : !tt.ptr<bf16> -> tensor<64x1x!tt.ptr<bf16>> loc(#loc298)
          %v_ptrs_208 = tt.addptr %v_ptrs_207, %v_ptrs_206 : tensor<64x1x!tt.ptr<bf16>>, tensor<64x1xi32> loc(#loc298)
          %v_ptrs_209 = tt.expand_dims %offs_d {axis = 0 : i32} : tensor<128xi32> -> tensor<1x128xi32> loc(#loc299)
          %v_ptrs_210 = arith.constant 1 : i32 loc(#loc299)
          %v_ptrs_211 = arith.constant 1 : i32 loc(#loc299)
          %v_ptrs_212 = arith.constant dense<1> : tensor<1x128xi32> loc(#loc299)
          %v_ptrs_213 = arith.extsi %v_ptrs_209 : tensor<1x128xi32> to tensor<1x128xi64> loc(#loc299)
          %v_ptrs_214 = arith.extsi %v_ptrs_212 : tensor<1x128xi32> to tensor<1x128xi64> loc(#loc299)
          %v_ptrs_215 = arith.muli %v_ptrs_213, %v_ptrs_214 : tensor<1x128xi64> loc(#loc299)
          %v_ptrs_216 = arith.constant 2147483647 : i64 loc(#loc299)
          %v_ptrs_217 = arith.constant -2147483648 : i64 loc(#loc299)
          %v_ptrs_218 = arith.constant dense<2147483647> : tensor<1x128xi64> loc(#loc299)
          %v_ptrs_219 = arith.cmpi sle, %v_ptrs_215, %v_ptrs_218 : tensor<1x128xi64> loc(#loc299)
          %v_ptrs_220 = arith.constant dense<-2147483648> : tensor<1x128xi64> loc(#loc299)
          %v_ptrs_221 = arith.cmpi sge, %v_ptrs_215, %v_ptrs_220 : tensor<1x128xi64> loc(#loc299)
          %v_ptrs_222 = arith.andi %v_ptrs_219, %v_ptrs_221 : tensor<1x128xi1> loc(#loc299)
          %v_ptrs_223 = arith.muli %v_ptrs_209, %v_ptrs_212 : tensor<1x128xi32> loc(#loc299)
          %v_ptrs_224 = tt.broadcast %v_ptrs_208 : tensor<64x1x!tt.ptr<bf16>> -> tensor<64x128x!tt.ptr<bf16>> loc(#loc298)
          %v_ptrs_225 = tt.broadcast %v_ptrs_223 : tensor<1x128xi32> -> tensor<64x128xi32> loc(#loc298)
          %v_ptrs_226 = tt.addptr %v_ptrs_224, %v_ptrs_225 : tensor<64x128x!tt.ptr<bf16>>, tensor<64x128xi32> loc(#loc438)
          %batch_philox_offset = arith.constant 0 : i32 loc(#loc300)
          %m_i = arith.constant 0xFF800000 : f32 loc(#loc301)
          %m_i_227 = arith.constant dense<0xFF800000> : tensor<256xf32> loc(#loc439)
          %l_i = arith.constant 1.000000e+00 : f32 loc(#loc302)
          %l_i_228 = arith.constant dense<1.000000e+00> : tensor<256xf32> loc(#loc440)
          %acc = tt.call @triton.language.standard.zeros__Tc256_c128T_cfp32() : () -> tensor<256x128xf32> loc(#loc441)
          %q_ptrs_mask = tt.expand_dims %offs_m_43 {axis = 1 : i32} : tensor<256xi32> -> tensor<256x1xi32> loc(#loc304)
          %q_ptrs_mask_229 = arith.constant dense<16384> : tensor<256x1xi32> loc(#loc304)
          %q_ptrs_mask_230 = arith.cmpi slt, %q_ptrs_mask, %q_ptrs_mask_229 : tensor<256x1xi32> loc(#loc304)
          %q = arith.constant 0.000000e+00 : f32 loc(#loc305)
          %q_231 = tt.broadcast %q_ptrs_mask_230 : tensor<256x1xi1> -> tensor<256x128xi1> loc(#loc305)
          %q_232 = arith.constant dense<0.000000e+00> : tensor<256x128xf32> loc(#loc305)
          %q_233 = arith.truncf %q_232 : tensor<256x128xf32> to tensor<256x128xbf16> loc(#loc305)
          %q_234 = tt.load %q_ptrs_104, %q_231, %q_233 : tensor<256x128x!tt.ptr<bf16>> loc(#loc305)
          %padded_block_k = arith.constant 0 : i32 loc(#loc306)
          %padded_block_k_235 = arith.cmpi ne, %17, %padded_block_k : i32 loc(#loc306)
          %is_modulo_mn = arith.constant true loc(#loc307)
          %is_modulo_mn_236 = arith.xori %padded_block_k_235, %is_modulo_mn : i1 loc(#loc307)
          %is_modulo_mn_237 = arith.constant 256 : i32 loc(#loc308)
          %is_modulo_mn_238 = arith.constant 256 : i32 loc(#loc308)
          %is_modulo_mn_239 = arith.remsi %seqlen_q, %is_modulo_mn_238 : i32 loc(#loc308)
          %is_modulo_mn_240 = arith.constant 0 : i32 loc(#loc308)
          %is_modulo_mn_241 = arith.cmpi eq, %is_modulo_mn_239, %is_modulo_mn_240 : i32 loc(#loc308)
          %is_modulo_mn_242 = arith.andi %is_modulo_mn_236, %is_modulo_mn_241 : i1 loc(#loc307)
          %masked_blocks = arith.extui %padded_block_k_235 : i1 to i32 loc(#loc309)
          %masked_blocks_243 = arith.minsi %masked_blocks, %n_blocks : i32 loc(#loc309)
          %n_full_blocks = arith.extsi %n_blocks : i32 to i64 loc(#loc310)
          %n_full_blocks_244 = arith.extsi %masked_blocks_243 : i32 to i64 loc(#loc310)
          %n_full_blocks_245 = arith.subi %n_full_blocks, %n_full_blocks_244 : i64 loc(#loc310)
          %n_full_blocks_246 = arith.constant 2147483647 : i64 loc(#loc310)
          %n_full_blocks_247 = arith.constant -2147483648 : i64 loc(#loc310)
          %n_full_blocks_248 = arith.cmpi sle, %n_full_blocks_245, %n_full_blocks_246 : i64 loc(#loc310)
          %n_full_blocks_249 = arith.cmpi sge, %n_full_blocks_245, %n_full_blocks_247 : i64 loc(#loc310)
          %n_full_blocks_250 = arith.andi %n_full_blocks_248, %n_full_blocks_249 : i1 loc(#loc310)
          %n_full_blocks_251 = arith.subi %n_blocks, %masked_blocks_243 : i32 loc(#loc310)
          %block_min = arith.constant 0 : i32 loc(#loc442)
          %block_max = arith.constant 64 : i32 loc(#loc312)
          %block_max_252 = arith.constant 64 : i32 loc(#loc312)
          %block_max_253 = arith.extsi %n_blocks : i32 to i64 loc(#loc312)
          %block_max_254 = arith.extsi %block_max_252 : i32 to i64 loc(#loc312)
          %block_max_255 = arith.muli %block_max_253, %block_max_254 : i64 loc(#loc312)
          %block_max_256 = arith.constant 2147483647 : i64 loc(#loc312)
          %block_max_257 = arith.constant -2147483648 : i64 loc(#loc312)
          %block_max_258 = arith.cmpi sle, %block_max_255, %block_max_256 : i64 loc(#loc312)
          %block_max_259 = arith.cmpi sge, %block_max_255, %block_max_257 : i64 loc(#loc312)
          %block_max_260 = arith.andi %block_max_258, %block_max_259 : i1 loc(#loc312)
          %block_max_261 = arith.muli %n_blocks, %block_max_252 : i32 loc(#loc443)
          %c0_i32_262 = arith.constant 0 : i32 loc(#loc99)
          %18 = arith.cmpi sgt, %n_full_blocks_251, %c0_i32_262 : i32 loc(#loc99)
          %acc_263:5 = scf.if %18 -> (tensor<256xf32>, tensor<256xf32>, tensor<256x128xf32>, i32, i32) {
            %block_max_419 = arith.extsi %n_blocks : i32 to i64 loc(#loc314)
            %block_max_420 = arith.extsi %masked_blocks_243 : i32 to i64 loc(#loc314)
            %block_max_421 = arith.subi %block_max_419, %block_max_420 : i64 loc(#loc314)
            %block_max_422 = arith.constant 2147483647 : i64 loc(#loc314)
            %block_max_423 = arith.constant -2147483648 : i64 loc(#loc314)
            %block_max_424 = arith.cmpi sle, %block_max_421, %block_max_422 : i64 loc(#loc314)
            %block_max_425 = arith.cmpi sge, %block_max_421, %block_max_423 : i64 loc(#loc314)
            %block_max_426 = arith.andi %block_max_424, %block_max_425 : i1 loc(#loc314)
            %block_max_427 = arith.subi %n_blocks, %masked_blocks_243 : i32 loc(#loc314)
            %block_max_428 = arith.constant 64 : i32 loc(#loc315)
            %block_max_429 = arith.constant 64 : i32 loc(#loc315)
            %block_max_430 = arith.extsi %block_max_427 : i32 to i64 loc(#loc315)
            %block_max_431 = arith.extsi %block_max_429 : i32 to i64 loc(#loc315)
            %block_max_432 = arith.muli %block_max_430, %block_max_431 : i64 loc(#loc315)
            %block_max_433 = arith.constant 2147483647 : i64 loc(#loc315)
            %block_max_434 = arith.constant -2147483648 : i64 loc(#loc315)
            %block_max_435 = arith.cmpi sle, %block_max_432, %block_max_433 : i64 loc(#loc315)
            %block_max_436 = arith.cmpi sge, %block_max_432, %block_max_434 : i64 loc(#loc315)
            %block_max_437 = arith.andi %block_max_435, %block_max_436 : i1 loc(#loc315)
            %block_min_438 = arith.muli %block_max_427, %block_max_429 : i32 loc(#loc445)
            %acc_439:3 = tt.call @__main__._attn_fwd_inner__fp32S256_128S_fp32S256S_fp32S256S_bf16S256_128S_Pbf16S128_64S_Pbf16S64_128S_cNone_i32_i32_i32_i32_i32_i32_fp32_i32_i32_cNone_i32_i32_c0_c0_c0_cNone_cNone_cNone_cNone_cNone_cFalse_c256_c128_c64_i32S256S_i32S64S_cFalse_cFalse_cFalse_cFalse_cFalse_c128_c0.1275174308246903_cFalse_cFalse_cFalse_cTrue(%acc, %l_i_228, %m_i_227, %q_234, %k_ptrs_165, %v_ptrs_226, %stride_kn, %stride_vk, %stride_bn, %start_m, %seqlen_k, %seqlen_q, %dropout_p, %philox_seed, %batch_philox_offset, %block_min, %block_min_438, %offs_m_43, %offs_n) : (tensor<256x128xf32>, tensor<256xf32>, tensor<256xf32>, tensor<256x128xbf16>, tensor<128x64x!tt.ptr<bf16>>, tensor<64x128x!tt.ptr<bf16>>, i32, i32, i32, i32, i32, i32, f32, i32, i32, i32, i32, tensor<256xi32>, tensor<64xi32>) -> (tensor<256x128xf32>, tensor<256xf32>, tensor<256xf32>) loc(#loc459)
            %block_max_440 = arith.constant 64 : i32 loc(#loc317)
            %block_max_441 = arith.constant 64 : i32 loc(#loc317)
            %block_max_442 = arith.extsi %n_blocks : i32 to i64 loc(#loc317)
            %block_max_443 = arith.extsi %block_max_441 : i32 to i64 loc(#loc317)
            %block_max_444 = arith.muli %block_max_442, %block_max_443 : i64 loc(#loc317)
            %block_max_445 = arith.constant 2147483647 : i64 loc(#loc317)
            %block_max_446 = arith.constant -2147483648 : i64 loc(#loc317)
            %block_max_447 = arith.cmpi sle, %block_max_444, %block_max_445 : i64 loc(#loc317)
            %block_max_448 = arith.cmpi sge, %block_max_444, %block_max_446 : i64 loc(#loc317)
            %block_max_449 = arith.andi %block_max_447, %block_max_448 : i1 loc(#loc317)
            %block_max_450 = arith.muli %n_blocks, %block_max_441 : i32 loc(#loc447)
            scf.yield %acc_439#2, %acc_439#1, %acc_439#0, %block_min_438, %block_max_450 : tensor<256xf32>, tensor<256xf32>, tensor<256x128xf32>, i32, i32 loc(#loc447)
          } else {
            scf.yield %m_i_227, %l_i_228, %acc, %block_min, %block_max_261 : tensor<256xf32>, tensor<256xf32>, tensor<256x128xf32>, i32, i32 loc(#loc100)
          } loc(#loc458)
          ttg.barrier all loc(#loc105)
          %c0_i32_264 = arith.constant 0 : i32 loc(#loc106)
          %19 = arith.cmpi sgt, %masked_blocks_243, %c0_i32_264 : i32 loc(#loc106)
          %20:5 = scf.if %19 -> (tensor<128x64x!tt.ptr<bf16>>, tensor<64x128x!tt.ptr<bf16>>, tensor<256xf32>, tensor<256xf32>, tensor<256x128xf32>) {
            %offs_n_causal = arith.constant 0 : i32 loc(#loc318)
            %k_ptrs_419 = arith.constant 64 : i32 loc(#loc319)
            %k_ptrs_420 = arith.constant 64 : i32 loc(#loc319)
            %k_ptrs_421 = arith.extsi %n_full_blocks_251 : i32 to i64 loc(#loc319)
            %k_ptrs_422 = arith.extsi %k_ptrs_420 : i32 to i64 loc(#loc319)
            %k_ptrs_423 = arith.muli %k_ptrs_421, %k_ptrs_422 : i64 loc(#loc319)
            %k_ptrs_424 = arith.constant 2147483647 : i64 loc(#loc319)
            %k_ptrs_425 = arith.constant -2147483648 : i64 loc(#loc319)
            %k_ptrs_426 = arith.cmpi sle, %k_ptrs_423, %k_ptrs_424 : i64 loc(#loc319)
            %k_ptrs_427 = arith.cmpi sge, %k_ptrs_423, %k_ptrs_425 : i64 loc(#loc319)
            %k_ptrs_428 = arith.andi %k_ptrs_426, %k_ptrs_427 : i1 loc(#loc319)
            %k_ptrs_429 = arith.muli %n_full_blocks_251, %k_ptrs_420 : i32 loc(#loc319)
            %k_ptrs_430 = arith.extsi %k_ptrs_429 : i32 to i64 loc(#loc319)
            %k_ptrs_431 = arith.extsi %stride_kn : i32 to i64 loc(#loc319)
            %k_ptrs_432 = arith.muli %k_ptrs_430, %k_ptrs_431 : i64 loc(#loc319)
            %k_ptrs_433 = arith.constant 2147483647 : i64 loc(#loc319)
            %k_ptrs_434 = arith.constant -2147483648 : i64 loc(#loc319)
            %k_ptrs_435 = arith.cmpi sle, %k_ptrs_432, %k_ptrs_433 : i64 loc(#loc319)
            %k_ptrs_436 = arith.cmpi sge, %k_ptrs_432, %k_ptrs_434 : i64 loc(#loc319)
            %k_ptrs_437 = arith.andi %k_ptrs_435, %k_ptrs_436 : i1 loc(#loc319)
            %k_ptrs_438 = arith.muli %k_ptrs_429, %stride_kn : i32 loc(#loc319)
            %k_ptrs_439 = tt.splat %k_ptrs_438 : i32 -> tensor<128x64xi32> loc(#loc320)
            %k_ptrs_440 = tt.addptr %k_ptrs_165, %k_ptrs_439 : tensor<128x64x!tt.ptr<bf16>>, tensor<128x64xi32> loc(#loc448)
            %v_ptrs_441 = arith.constant 64 : i32 loc(#loc321)
            %v_ptrs_442 = arith.constant 64 : i32 loc(#loc321)
            %v_ptrs_443 = arith.extsi %n_full_blocks_251 : i32 to i64 loc(#loc321)
            %v_ptrs_444 = arith.extsi %v_ptrs_442 : i32 to i64 loc(#loc321)
            %v_ptrs_445 = arith.muli %v_ptrs_443, %v_ptrs_444 : i64 loc(#loc321)
            %v_ptrs_446 = arith.constant 2147483647 : i64 loc(#loc321)
            %v_ptrs_447 = arith.constant -2147483648 : i64 loc(#loc321)
            %v_ptrs_448 = arith.cmpi sle, %v_ptrs_445, %v_ptrs_446 : i64 loc(#loc321)
            %v_ptrs_449 = arith.cmpi sge, %v_ptrs_445, %v_ptrs_447 : i64 loc(#loc321)
            %v_ptrs_450 = arith.andi %v_ptrs_448, %v_ptrs_449 : i1 loc(#loc321)
            %v_ptrs_451 = arith.muli %n_full_blocks_251, %v_ptrs_442 : i32 loc(#loc321)
            %v_ptrs_452 = arith.extsi %v_ptrs_451 : i32 to i64 loc(#loc321)
            %v_ptrs_453 = arith.extsi %stride_vk : i32 to i64 loc(#loc321)
            %v_ptrs_454 = arith.muli %v_ptrs_452, %v_ptrs_453 : i64 loc(#loc321)
            %v_ptrs_455 = arith.constant 2147483647 : i64 loc(#loc321)
            %v_ptrs_456 = arith.constant -2147483648 : i64 loc(#loc321)
            %v_ptrs_457 = arith.cmpi sle, %v_ptrs_454, %v_ptrs_455 : i64 loc(#loc321)
            %v_ptrs_458 = arith.cmpi sge, %v_ptrs_454, %v_ptrs_456 : i64 loc(#loc321)
            %v_ptrs_459 = arith.andi %v_ptrs_457, %v_ptrs_458 : i1 loc(#loc321)
            %v_ptrs_460 = arith.muli %v_ptrs_451, %stride_vk : i32 loc(#loc321)
            %v_ptrs_461 = tt.splat %v_ptrs_460 : i32 -> tensor<64x128xi32> loc(#loc322)
            %v_ptrs_462 = tt.addptr %v_ptrs_226, %v_ptrs_461 : tensor<64x128x!tt.ptr<bf16>>, tensor<64x128xi32> loc(#loc449)
            %acc_463:3 = tt.call @__main__._attn_fwd_inner__fp32S256_128S_fp32S256S_fp32S256S_bf16S256_128S_Pbf16S128_64S_Pbf16S64_128S_cNone_i32_i32_i32_i32_i32_i32_fp32_i32_i32_cNone_i32_i32_i32_i32_i32_cNone_cNone_cNone_cNone_cNone_cFalse_c256_c128_c64_i32S256S_i32S64S_cFalse_cTrue_cFalse_cFalse_cFalse_c128_c0.1275174308246903_cFalse_cFalse_cFalse_cFalse(%acc_263#2, %acc_263#1, %acc_263#0, %q_234, %k_ptrs_440, %v_ptrs_462, %stride_kn, %stride_vk, %stride_bn, %start_m, %seqlen_k, %seqlen_q, %dropout_p, %philox_seed, %batch_philox_offset, %acc_263#3, %acc_263#4, %offs_n_causal, %masked_blocks_243, %17, %offs_m_43, %offs_n) : (tensor<256x128xf32>, tensor<256xf32>, tensor<256xf32>, tensor<256x128xbf16>, tensor<128x64x!tt.ptr<bf16>>, tensor<64x128x!tt.ptr<bf16>>, i32, i32, i32, i32, i32, i32, f32, i32, i32, i32, i32, i32, i32, i32, tensor<256xi32>, tensor<64xi32>) -> (tensor<256x128xf32>, tensor<256xf32>, tensor<256xf32>) loc(#loc460)
            scf.yield %k_ptrs_440, %v_ptrs_462, %acc_463#2, %acc_463#1, %acc_463#0 : tensor<128x64x!tt.ptr<bf16>>, tensor<64x128x!tt.ptr<bf16>>, tensor<256xf32>, tensor<256xf32>, tensor<256x128xf32> loc(#loc460)
          } else {
            scf.yield %k_ptrs_165, %v_ptrs_226, %acc_263#0, %acc_263#1, %acc_263#2 : tensor<128x64x!tt.ptr<bf16>>, tensor<64x128x!tt.ptr<bf16>>, tensor<256xf32>, tensor<256xf32>, tensor<256x128xf32> loc(#loc107)
          } loc(#loc107)
          %l_recip = tt.expand_dims %20#3 {axis = 1 : i32} : tensor<256xf32> -> tensor<256x1xf32> loc(#loc324)
          %l_recip_265 = arith.constant 1 : i32 loc(#loc325)
          %l_recip_266 = arith.constant 1.000000e+00 : f32 loc(#loc325)
          %l_recip_267 = arith.constant dense<1.000000e+00> : tensor<256x1xf32> loc(#loc325)
          %l_recip_268 = arith.divf %l_recip_267, %l_recip : tensor<256x1xf32> loc(#loc325)
          %acc_269 = tt.broadcast %l_recip_268 : tensor<256x1xf32> -> tensor<256x128xf32> loc(#loc326)
          %acc_270 = arith.mulf %20#4, %acc_269 : tensor<256x128xf32> loc(#loc326)
          %end_m_idx = arith.constant 1 : i32 loc(#loc327)
          %end_m_idx_271 = arith.constant 1 : i32 loc(#loc327)
          %end_m_idx_272 = arith.extsi %start_m : i32 to i64 loc(#loc327)
          %end_m_idx_273 = arith.extsi %end_m_idx_271 : i32 to i64 loc(#loc327)
          %end_m_idx_274 = arith.addi %end_m_idx_272, %end_m_idx_273 : i64 loc(#loc327)
          %end_m_idx_275 = arith.constant 2147483647 : i64 loc(#loc327)
          %end_m_idx_276 = arith.constant -2147483648 : i64 loc(#loc327)
          %end_m_idx_277 = arith.cmpi sle, %end_m_idx_274, %end_m_idx_275 : i64 loc(#loc327)
          %end_m_idx_278 = arith.cmpi sge, %end_m_idx_274, %end_m_idx_276 : i64 loc(#loc327)
          %end_m_idx_279 = arith.andi %end_m_idx_277, %end_m_idx_278 : i1 loc(#loc327)
          %end_m_idx_280 = arith.addi %start_m, %end_m_idx_271 : i32 loc(#loc327)
          %end_m_idx_281 = arith.constant 256 : i32 loc(#loc328)
          %end_m_idx_282 = arith.constant 256 : i32 loc(#loc328)
          %end_m_idx_283 = arith.extsi %end_m_idx_280 : i32 to i64 loc(#loc328)
          %end_m_idx_284 = arith.extsi %end_m_idx_282 : i32 to i64 loc(#loc328)
          %end_m_idx_285 = arith.muli %end_m_idx_283, %end_m_idx_284 : i64 loc(#loc328)
          %end_m_idx_286 = arith.constant 2147483647 : i64 loc(#loc328)
          %end_m_idx_287 = arith.constant -2147483648 : i64 loc(#loc328)
          %end_m_idx_288 = arith.cmpi sle, %end_m_idx_285, %end_m_idx_286 : i64 loc(#loc328)
          %end_m_idx_289 = arith.cmpi sge, %end_m_idx_285, %end_m_idx_287 : i64 loc(#loc328)
          %end_m_idx_290 = arith.andi %end_m_idx_288, %end_m_idx_289 : i1 loc(#loc328)
          %end_m_idx_291 = arith.muli %end_m_idx_280, %end_m_idx_282 : i32 loc(#loc328)
          %start_m_idx = arith.constant 256 : i32 loc(#loc329)
          %start_m_idx_292 = arith.constant 256 : i32 loc(#loc329)
          %start_m_idx_293 = arith.extsi %start_m : i32 to i64 loc(#loc329)
          %start_m_idx_294 = arith.extsi %start_m_idx_292 : i32 to i64 loc(#loc329)
          %start_m_idx_295 = arith.muli %start_m_idx_293, %start_m_idx_294 : i64 loc(#loc329)
          %start_m_idx_296 = arith.constant 2147483647 : i64 loc(#loc329)
          %start_m_idx_297 = arith.constant -2147483648 : i64 loc(#loc329)
          %start_m_idx_298 = arith.cmpi sle, %start_m_idx_295, %start_m_idx_296 : i64 loc(#loc329)
          %start_m_idx_299 = arith.cmpi sge, %start_m_idx_295, %start_m_idx_297 : i64 loc(#loc329)
          %start_m_idx_300 = arith.andi %start_m_idx_298, %start_m_idx_299 : i1 loc(#loc329)
          %start_m_idx_301 = arith.muli %start_m, %start_m_idx_292 : i32 loc(#loc329)
          %causal_start_idx = arith.extsi %seqlen_q : i32 to i64 loc(#loc330)
          %causal_start_idx_302 = arith.extsi %seqlen_k : i32 to i64 loc(#loc330)
          %causal_start_idx_303 = arith.subi %causal_start_idx, %causal_start_idx_302 : i64 loc(#loc330)
          %causal_start_idx_304 = arith.constant 2147483647 : i64 loc(#loc330)
          %causal_start_idx_305 = arith.constant -2147483648 : i64 loc(#loc330)
          %causal_start_idx_306 = arith.cmpi sle, %causal_start_idx_303, %causal_start_idx_304 : i64 loc(#loc330)
          %causal_start_idx_307 = arith.cmpi sge, %causal_start_idx_303, %causal_start_idx_305 : i64 loc(#loc330)
          %causal_start_idx_308 = arith.andi %causal_start_idx_306, %causal_start_idx_307 : i1 loc(#loc330)
          %causal_start_idx_309 = arith.subi %seqlen_q, %seqlen_k : i32 loc(#loc330)
          %acc_310 = arith.truncf %acc_270 : tensor<256x128xf32> to tensor<256x128xbf16> loc(#loc331)
          %l_ptrs = arith.constant 64 : i32 loc(#loc332)
          %l_ptrs_311 = arith.constant 64 : i32 loc(#loc332)
          %l_ptrs_312 = arith.extsi %off_z : i32 to i64 loc(#loc332)
          %l_ptrs_313 = arith.extsi %l_ptrs_311 : i32 to i64 loc(#loc332)
          %l_ptrs_314 = arith.muli %l_ptrs_312, %l_ptrs_313 : i64 loc(#loc332)
          %l_ptrs_315 = arith.constant 2147483647 : i64 loc(#loc332)
          %l_ptrs_316 = arith.constant -2147483648 : i64 loc(#loc332)
          %l_ptrs_317 = arith.cmpi sle, %l_ptrs_314, %l_ptrs_315 : i64 loc(#loc332)
          %l_ptrs_318 = arith.cmpi sge, %l_ptrs_314, %l_ptrs_316 : i64 loc(#loc332)
          %l_ptrs_319 = arith.andi %l_ptrs_317, %l_ptrs_318 : i1 loc(#loc332)
          %l_ptrs_320 = arith.muli %off_z, %l_ptrs_311 : i32 loc(#loc332)
          %l_ptrs_321 = arith.constant 16384 : i32 loc(#loc332)
          %l_ptrs_322 = arith.constant 16384 : i32 loc(#loc332)
          %l_ptrs_323 = arith.extsi %l_ptrs_320 : i32 to i64 loc(#loc332)
          %l_ptrs_324 = arith.extsi %l_ptrs_322 : i32 to i64 loc(#loc332)
          %l_ptrs_325 = arith.muli %l_ptrs_323, %l_ptrs_324 : i64 loc(#loc332)
          %l_ptrs_326 = arith.constant 2147483647 : i64 loc(#loc332)
          %l_ptrs_327 = arith.constant -2147483648 : i64 loc(#loc332)
          %l_ptrs_328 = arith.cmpi sle, %l_ptrs_325, %l_ptrs_326 : i64 loc(#loc332)
          %l_ptrs_329 = arith.cmpi sge, %l_ptrs_325, %l_ptrs_327 : i64 loc(#loc332)
          %l_ptrs_330 = arith.andi %l_ptrs_328, %l_ptrs_329 : i1 loc(#loc332)
          %l_ptrs_331 = arith.muli %l_ptrs_320, %l_ptrs_322 : i32 loc(#loc332)
          %l_ptrs_332 = tt.addptr %L, %l_ptrs_331 : !tt.ptr<f32>, i32 loc(#loc333)
          %l_ptrs_333 = arith.constant 16384 : i32 loc(#loc334)
          %l_ptrs_334 = arith.constant 16384 : i32 loc(#loc334)
          %l_ptrs_335 = arith.extsi %off_h_q_20 : i32 to i64 loc(#loc334)
          %l_ptrs_336 = arith.extsi %l_ptrs_334 : i32 to i64 loc(#loc334)
          %l_ptrs_337 = arith.muli %l_ptrs_335, %l_ptrs_336 : i64 loc(#loc334)
          %l_ptrs_338 = arith.constant 2147483647 : i64 loc(#loc334)
          %l_ptrs_339 = arith.constant -2147483648 : i64 loc(#loc334)
          %l_ptrs_340 = arith.cmpi sle, %l_ptrs_337, %l_ptrs_338 : i64 loc(#loc334)
          %l_ptrs_341 = arith.cmpi sge, %l_ptrs_337, %l_ptrs_339 : i64 loc(#loc334)
          %l_ptrs_342 = arith.andi %l_ptrs_340, %l_ptrs_341 : i1 loc(#loc334)
          %l_ptrs_343 = arith.muli %off_h_q_20, %l_ptrs_334 : i32 loc(#loc334)
          %l_ptrs_344 = tt.addptr %l_ptrs_332, %l_ptrs_343 : !tt.ptr<f32>, i32 loc(#loc333)
          %l_ptrs_345 = tt.splat %l_ptrs_344 : !tt.ptr<f32> -> tensor<256x!tt.ptr<f32>> loc(#loc333)
          %l_ptrs_346 = tt.addptr %l_ptrs_345, %offs_m_43 : tensor<256x!tt.ptr<f32>>, tensor<256xi32> loc(#loc333)
          %overflow_size = arith.extsi %end_m_idx_291 : i32 to i64 loc(#loc335)
          %overflow_size_347 = arith.extsi %seqlen_q : i32 to i64 loc(#loc335)
          %overflow_size_348 = arith.subi %overflow_size, %overflow_size_347 : i64 loc(#loc335)
          %overflow_size_349 = arith.constant 2147483647 : i64 loc(#loc335)
          %overflow_size_350 = arith.constant -2147483648 : i64 loc(#loc335)
          %overflow_size_351 = arith.cmpi sle, %overflow_size_348, %overflow_size_349 : i64 loc(#loc335)
          %overflow_size_352 = arith.cmpi sge, %overflow_size_348, %overflow_size_350 : i64 loc(#loc335)
          %overflow_size_353 = arith.andi %overflow_size_351, %overflow_size_352 : i1 loc(#loc335)
          %overflow_size_354 = arith.subi %end_m_idx_291, %seqlen_q : i32 loc(#loc335)
          %c0_i32_355 = arith.constant 0 : i32 loc(#loc126)
          %21 = arith.cmpi sgt, %overflow_size_354, %c0_i32_355 : i32 loc(#loc126)
          scf.if %21 {
            %boundary = arith.constant 256 : i32 loc(#loc336)
            %boundary_419 = arith.constant 256 : i32 loc(#loc336)
            %boundary_420 = arith.extsi %boundary_419 : i32 to i64 loc(#loc336)
            %boundary_421 = arith.extsi %overflow_size_354 : i32 to i64 loc(#loc336)
            %boundary_422 = arith.subi %boundary_420, %boundary_421 : i64 loc(#loc336)
            %boundary_423 = arith.constant 2147483647 : i64 loc(#loc336)
            %boundary_424 = arith.constant -2147483648 : i64 loc(#loc336)
            %boundary_425 = arith.cmpi sle, %boundary_422, %boundary_423 : i64 loc(#loc336)
            %boundary_426 = arith.cmpi sge, %boundary_422, %boundary_424 : i64 loc(#loc336)
            %boundary_427 = arith.andi %boundary_425, %boundary_426 : i1 loc(#loc336)
            %boundary_428 = arith.subi %boundary_419, %overflow_size_354 : i32 loc(#loc336)
            %boundary_429 = tt.splat %boundary_428 : i32 -> tensor<256xi32> loc(#loc337)
            %l_ptrs_mask = tt.make_range {end = 256 : i32, start = 0 : i32} : tensor<256xi32> loc(#loc338)
            %l_ptrs_mask_430 = arith.cmpi slt, %l_ptrs_mask, %boundary_429 : tensor<256xi32> loc(#loc338)
            %24 = math.log2 %20#3 : tensor<256xf32> loc(#loc131)
            %25 = arith.addf %20#2, %24 : tensor<256xf32> loc(#loc132)
            tt.store %l_ptrs_346, %25, %l_ptrs_mask_430 : tensor<256x!tt.ptr<f32>> loc(#loc133)
          } else {
            %24 = math.log2 %20#3 : tensor<256xf32> loc(#loc134)
            %25 = arith.addf %20#2, %24 : tensor<256xf32> loc(#loc135)
            tt.store %l_ptrs_346, %25 : tensor<256x!tt.ptr<f32>> loc(#loc136)
          } loc(#loc127)
          %o_offset = arith.extsi %off_z : i32 to i64 loc(#loc339)
          %o_offset_356 = arith.extsi %stride_oz : i32 to i64 loc(#loc339)
          %o_offset_357 = arith.muli %o_offset, %o_offset_356 : i64 loc(#loc339)
          %o_offset_358 = arith.constant 2147483647 : i64 loc(#loc339)
          %o_offset_359 = arith.constant -2147483648 : i64 loc(#loc339)
          %o_offset_360 = arith.cmpi sle, %o_offset_357, %o_offset_358 : i64 loc(#loc339)
          %o_offset_361 = arith.cmpi sge, %o_offset_357, %o_offset_359 : i64 loc(#loc339)
          %o_offset_362 = arith.andi %o_offset_360, %o_offset_361 : i1 loc(#loc339)
          %o_offset_363 = arith.muli %off_z, %stride_oz : i32 loc(#loc339)
          %o_offset_364 = tt.addptr %Out, %o_offset_363 : !tt.ptr<bf16>, i32 loc(#loc340)
          %o_offset_365 = arith.extsi %off_h_q_20 : i32 to i64 loc(#loc341)
          %o_offset_366 = arith.extsi %stride_oh : i32 to i64 loc(#loc341)
          %o_offset_367 = arith.muli %o_offset_365, %o_offset_366 : i64 loc(#loc341)
          %o_offset_368 = arith.constant 2147483647 : i64 loc(#loc341)
          %o_offset_369 = arith.constant -2147483648 : i64 loc(#loc341)
          %o_offset_370 = arith.cmpi sle, %o_offset_367, %o_offset_368 : i64 loc(#loc341)
          %o_offset_371 = arith.cmpi sge, %o_offset_367, %o_offset_369 : i64 loc(#loc341)
          %o_offset_372 = arith.andi %o_offset_370, %o_offset_371 : i1 loc(#loc341)
          %o_offset_373 = arith.muli %off_h_q_20, %stride_oh : i32 loc(#loc341)
          %o_offset_374 = tt.addptr %o_offset_364, %o_offset_373 : !tt.ptr<bf16>, i32 loc(#loc340)
          %o_offset_375 = arith.extsi %cu_seqlens_q_start : i32 to i64 loc(#loc342)
          %o_offset_376 = arith.extsi %stride_om : i32 to i64 loc(#loc342)
          %o_offset_377 = arith.muli %o_offset_375, %o_offset_376 : i64 loc(#loc342)
          %o_offset_378 = arith.constant 2147483647 : i64 loc(#loc342)
          %o_offset_379 = arith.constant -2147483648 : i64 loc(#loc342)
          %o_offset_380 = arith.cmpi sle, %o_offset_377, %o_offset_378 : i64 loc(#loc342)
          %o_offset_381 = arith.cmpi sge, %o_offset_377, %o_offset_379 : i64 loc(#loc342)
          %o_offset_382 = arith.andi %o_offset_380, %o_offset_381 : i1 loc(#loc342)
          %o_offset_383 = arith.muli %cu_seqlens_q_start, %stride_om : i32 loc(#loc342)
          %o_offset_384 = tt.addptr %o_offset_374, %o_offset_383 : !tt.ptr<bf16>, i32 loc(#loc340)
          %o_ptrs = tt.expand_dims %offs_m_43 {axis = 1 : i32} : tensor<256xi32> -> tensor<256x1xi32> loc(#loc343)
          %o_ptrs_385 = tt.splat %stride_om : i32 -> tensor<256x1xi32> loc(#loc343)
          %o_ptrs_386 = arith.extsi %o_ptrs : tensor<256x1xi32> to tensor<256x1xi64> loc(#loc343)
          %o_ptrs_387 = arith.extsi %o_ptrs_385 : tensor<256x1xi32> to tensor<256x1xi64> loc(#loc343)
          %o_ptrs_388 = arith.muli %o_ptrs_386, %o_ptrs_387 : tensor<256x1xi64> loc(#loc343)
          %o_ptrs_389 = arith.constant 2147483647 : i64 loc(#loc343)
          %o_ptrs_390 = arith.constant -2147483648 : i64 loc(#loc343)
          %o_ptrs_391 = arith.constant dense<2147483647> : tensor<256x1xi64> loc(#loc343)
          %o_ptrs_392 = arith.cmpi sle, %o_ptrs_388, %o_ptrs_391 : tensor<256x1xi64> loc(#loc343)
          %o_ptrs_393 = arith.constant dense<-2147483648> : tensor<256x1xi64> loc(#loc343)
          %o_ptrs_394 = arith.cmpi sge, %o_ptrs_388, %o_ptrs_393 : tensor<256x1xi64> loc(#loc343)
          %o_ptrs_395 = arith.andi %o_ptrs_392, %o_ptrs_394 : tensor<256x1xi1> loc(#loc343)
          %o_ptrs_396 = arith.muli %o_ptrs, %o_ptrs_385 : tensor<256x1xi32> loc(#loc343)
          %o_ptrs_397 = tt.splat %o_offset_384 : !tt.ptr<bf16> -> tensor<256x1x!tt.ptr<bf16>> loc(#loc344)
          %o_ptrs_398 = tt.addptr %o_ptrs_397, %o_ptrs_396 : tensor<256x1x!tt.ptr<bf16>>, tensor<256x1xi32> loc(#loc344)
          %o_ptrs_399 = tt.expand_dims %offs_d {axis = 0 : i32} : tensor<128xi32> -> tensor<1x128xi32> loc(#loc345)
          %o_ptrs_400 = arith.constant 1 : i32 loc(#loc345)
          %o_ptrs_401 = arith.constant 1 : i32 loc(#loc345)
          %o_ptrs_402 = arith.constant dense<1> : tensor<1x128xi32> loc(#loc345)
          %o_ptrs_403 = arith.extsi %o_ptrs_399 : tensor<1x128xi32> to tensor<1x128xi64> loc(#loc345)
          %o_ptrs_404 = arith.extsi %o_ptrs_402 : tensor<1x128xi32> to tensor<1x128xi64> loc(#loc345)
          %o_ptrs_405 = arith.muli %o_ptrs_403, %o_ptrs_404 : tensor<1x128xi64> loc(#loc345)
          %o_ptrs_406 = arith.constant 2147483647 : i64 loc(#loc345)
          %o_ptrs_407 = arith.constant -2147483648 : i64 loc(#loc345)
          %o_ptrs_408 = arith.constant dense<2147483647> : tensor<1x128xi64> loc(#loc345)
          %o_ptrs_409 = arith.cmpi sle, %o_ptrs_405, %o_ptrs_408 : tensor<1x128xi64> loc(#loc345)
          %o_ptrs_410 = arith.constant dense<-2147483648> : tensor<1x128xi64> loc(#loc345)
          %o_ptrs_411 = arith.cmpi sge, %o_ptrs_405, %o_ptrs_410 : tensor<1x128xi64> loc(#loc345)
          %o_ptrs_412 = arith.andi %o_ptrs_409, %o_ptrs_411 : tensor<1x128xi1> loc(#loc345)
          %o_ptrs_413 = arith.muli %o_ptrs_399, %o_ptrs_402 : tensor<1x128xi32> loc(#loc345)
          %o_ptrs_414 = tt.broadcast %o_ptrs_398 : tensor<256x1x!tt.ptr<bf16>> -> tensor<256x128x!tt.ptr<bf16>> loc(#loc344)
          %o_ptrs_415 = tt.broadcast %o_ptrs_413 : tensor<1x128xi32> -> tensor<256x128xi32> loc(#loc344)
          %o_ptrs_416 = tt.addptr %o_ptrs_414, %o_ptrs_415 : tensor<256x128x!tt.ptr<bf16>>, tensor<256x128xi32> loc(#loc344)
          %o_ptrs_mask = arith.constant true loc(#loc346)
          %o_ptrs_mask_417 = arith.constant dense<true> : tensor<256x128xi1> loc(#loc451)
          %c0_i32_418 = arith.constant 0 : i32 loc(#loc145)
          %22 = arith.cmpi sgt, %overflow_size_354, %c0_i32_418 : i32 loc(#loc145)
          %23 = scf.if %22 -> (tensor<256x128xi1>) {
            %o_ptrs_mask_419 = tt.expand_dims %offs_m_43 {axis = 1 : i32} : tensor<256xi32> -> tensor<256x1xi32> loc(#loc347)
            %o_ptrs_mask_420 = arith.constant dense<16384> : tensor<256x1xi32> loc(#loc347)
            %o_ptrs_mask_421 = arith.cmpi slt, %o_ptrs_mask_419, %o_ptrs_mask_420 : tensor<256x1xi32> loc(#loc347)
            %o_ptrs_mask_422 = tt.broadcast %o_ptrs_mask_421 : tensor<256x1xi1> -> tensor<256x128xi1> loc(#loc348)
            %o_ptrs_mask_423 = arith.andi %o_ptrs_mask_417, %o_ptrs_mask_422 : tensor<256x128xi1> loc(#loc452)
            scf.yield %o_ptrs_mask_423 : tensor<256x128xi1> loc(#loc452)
          } else {
            scf.yield %o_ptrs_mask_417 : tensor<256x128xi1> loc(#loc146)
          } loc(#loc146)
          tt.store %o_ptrs_416, %acc_310, %23 : tensor<256x128x!tt.ptr<bf16>> loc(#loc149)
        } else {
        } loc(#loc57)
      } else {
      } loc(#loc55)
      scf.yield %num_tiles_total : i32 loc(#loc39)
    } loc(#loc260)
    tt.return loc(#loc)
  } loc(#loc)
  tt.func private @__main__.remap_xcd__i32_c64_c8(%pid: i32 loc("pid"(#loc150))) -> i32 attributes {noinline = false} {
    %pids_per_xcd = arith.constant 8 : i32 loc(#loc350)
    %tall_xcds = arith.constant 0 : i32 loc(#loc351)
    %tall_xcds_0 = arith.constant 0 : i32 loc(#loc352)
    %tall_xcds_1 = arith.cmpi eq, %tall_xcds, %tall_xcds_0 : i32 loc(#loc352)
    %tall_xcds_2 = scf.if %tall_xcds_1 -> (i32) {
      %tall_xcds_7 = arith.constant 8 : i32 loc(#loc354)
      scf.yield %tall_xcds_7 : i32 loc(#loc354)
    } else {
      scf.yield %tall_xcds : i32 loc(#loc353)
    } loc(#loc353)
    %xcd = arith.constant 8 : i32 loc(#loc355)
    %xcd_3 = arith.constant 8 : i32 loc(#loc355)
    %xcd_4 = arith.remsi %pid, %xcd_3 : i32 loc(#loc355)
    %local_pid = arith.constant 8 : i32 loc(#loc356)
    %local_pid_5 = arith.constant 8 : i32 loc(#loc356)
    %local_pid_6 = arith.divsi %pid, %local_pid_5 : i32 loc(#loc356)
    %0 = arith.cmpi slt, %xcd_4, %tall_xcds_2 : i32 loc(#loc157)
    %1 = scf.if %0 -> (i32) {
      %pid_7 = arith.extsi %xcd_4 : i32 to i64 loc(#loc357)
      %pid_8 = arith.extsi %pids_per_xcd : i32 to i64 loc(#loc357)
      %pid_9 = arith.muli %pid_7, %pid_8 : i64 loc(#loc357)
      %pid_10 = arith.constant 2147483647 : i64 loc(#loc357)
      %pid_11 = arith.constant -2147483648 : i64 loc(#loc357)
      %pid_12 = arith.cmpi sle, %pid_9, %pid_10 : i64 loc(#loc357)
      %pid_13 = arith.cmpi sge, %pid_9, %pid_11 : i64 loc(#loc357)
      %pid_14 = arith.andi %pid_12, %pid_13 : i1 loc(#loc357)
      %pid_15 = arith.muli %xcd_4, %pids_per_xcd : i32 loc(#loc357)
      %pid_16 = arith.extsi %pid_15 : i32 to i64 loc(#loc357)
      %pid_17 = arith.extsi %local_pid_6 : i32 to i64 loc(#loc357)
      %pid_18 = arith.addi %pid_16, %pid_17 : i64 loc(#loc357)
      %pid_19 = arith.constant 2147483647 : i64 loc(#loc357)
      %pid_20 = arith.constant -2147483648 : i64 loc(#loc357)
      %pid_21 = arith.cmpi sle, %pid_18, %pid_19 : i64 loc(#loc357)
      %pid_22 = arith.cmpi sge, %pid_18, %pid_20 : i64 loc(#loc357)
      %pid_23 = arith.andi %pid_21, %pid_22 : i1 loc(#loc357)
      %pid_24 = arith.addi %pid_15, %local_pid_6 : i32 loc(#loc453)
      scf.yield %pid_24 : i32 loc(#loc453)
    } else {
      %pid_7 = arith.extsi %tall_xcds_2 : i32 to i64 loc(#loc358)
      %pid_8 = arith.extsi %pids_per_xcd : i32 to i64 loc(#loc358)
      %pid_9 = arith.muli %pid_7, %pid_8 : i64 loc(#loc358)
      %pid_10 = arith.constant 2147483647 : i64 loc(#loc358)
      %pid_11 = arith.constant -2147483648 : i64 loc(#loc358)
      %pid_12 = arith.cmpi sle, %pid_9, %pid_10 : i64 loc(#loc358)
      %pid_13 = arith.cmpi sge, %pid_9, %pid_11 : i64 loc(#loc358)
      %pid_14 = arith.andi %pid_12, %pid_13 : i1 loc(#loc358)
      %pid_15 = arith.muli %tall_xcds_2, %pids_per_xcd : i32 loc(#loc358)
      %pid_16 = arith.extsi %xcd_4 : i32 to i64 loc(#loc359)
      %pid_17 = arith.extsi %tall_xcds_2 : i32 to i64 loc(#loc359)
      %pid_18 = arith.subi %pid_16, %pid_17 : i64 loc(#loc359)
      %pid_19 = arith.constant 2147483647 : i64 loc(#loc359)
      %pid_20 = arith.constant -2147483648 : i64 loc(#loc359)
      %pid_21 = arith.cmpi sle, %pid_18, %pid_19 : i64 loc(#loc359)
      %pid_22 = arith.cmpi sge, %pid_18, %pid_20 : i64 loc(#loc359)
      %pid_23 = arith.andi %pid_21, %pid_22 : i1 loc(#loc359)
      %pid_24 = arith.subi %xcd_4, %tall_xcds_2 : i32 loc(#loc359)
      %pid_25 = arith.constant 1 : i32 loc(#loc360)
      %pid_26 = arith.constant 1 : i32 loc(#loc360)
      %pid_27 = arith.extsi %pids_per_xcd : i32 to i64 loc(#loc360)
      %pid_28 = arith.extsi %pid_26 : i32 to i64 loc(#loc360)
      %pid_29 = arith.subi %pid_27, %pid_28 : i64 loc(#loc360)
      %pid_30 = arith.constant 2147483647 : i64 loc(#loc360)
      %pid_31 = arith.constant -2147483648 : i64 loc(#loc360)
      %pid_32 = arith.cmpi sle, %pid_29, %pid_30 : i64 loc(#loc360)
      %pid_33 = arith.cmpi sge, %pid_29, %pid_31 : i64 loc(#loc360)
      %pid_34 = arith.andi %pid_32, %pid_33 : i1 loc(#loc360)
      %pid_35 = arith.subi %pids_per_xcd, %pid_26 : i32 loc(#loc360)
      %pid_36 = arith.extsi %pid_24 : i32 to i64 loc(#loc361)
      %pid_37 = arith.extsi %pid_35 : i32 to i64 loc(#loc361)
      %pid_38 = arith.muli %pid_36, %pid_37 : i64 loc(#loc361)
      %pid_39 = arith.constant 2147483647 : i64 loc(#loc361)
      %pid_40 = arith.constant -2147483648 : i64 loc(#loc361)
      %pid_41 = arith.cmpi sle, %pid_38, %pid_39 : i64 loc(#loc361)
      %pid_42 = arith.cmpi sge, %pid_38, %pid_40 : i64 loc(#loc361)
      %pid_43 = arith.andi %pid_41, %pid_42 : i1 loc(#loc361)
      %pid_44 = arith.muli %pid_24, %pid_35 : i32 loc(#loc361)
      %pid_45 = arith.extsi %pid_15 : i32 to i64 loc(#loc358)
      %pid_46 = arith.extsi %pid_44 : i32 to i64 loc(#loc358)
      %pid_47 = arith.addi %pid_45, %pid_46 : i64 loc(#loc358)
      %pid_48 = arith.constant 2147483647 : i64 loc(#loc358)
      %pid_49 = arith.constant -2147483648 : i64 loc(#loc358)
      %pid_50 = arith.cmpi sle, %pid_47, %pid_48 : i64 loc(#loc358)
      %pid_51 = arith.cmpi sge, %pid_47, %pid_49 : i64 loc(#loc358)
      %pid_52 = arith.andi %pid_50, %pid_51 : i1 loc(#loc358)
      %pid_53 = arith.addi %pid_15, %pid_44 : i32 loc(#loc358)
      %pid_54 = arith.extsi %pid_53 : i32 to i64 loc(#loc358)
      %pid_55 = arith.extsi %local_pid_6 : i32 to i64 loc(#loc358)
      %pid_56 = arith.addi %pid_54, %pid_55 : i64 loc(#loc358)
      %pid_57 = arith.constant 2147483647 : i64 loc(#loc358)
      %pid_58 = arith.constant -2147483648 : i64 loc(#loc358)
      %pid_59 = arith.cmpi sle, %pid_56, %pid_57 : i64 loc(#loc358)
      %pid_60 = arith.cmpi sge, %pid_56, %pid_58 : i64 loc(#loc358)
      %pid_61 = arith.andi %pid_59, %pid_60 : i1 loc(#loc358)
      %pid_62 = arith.addi %pid_53, %local_pid_6 : i32 loc(#loc454)
      scf.yield %pid_62 : i32 loc(#loc358)
    } loc(#loc158)
    tt.return %1 : i32 loc(#loc164)
  ^bb1:  // no predecessors
    %2 = ub.poison : i32 loc(#loc150)
    tt.return %2 : i32 loc(#loc150)
  } loc(#loc150)
  tt.func private @__main__.cdiv_fn__i32_c64(%x: i32 loc("x"(#loc165))) -> i32 attributes {noinline = false} {
    %c64_i32 = arith.constant 64 : i32 loc(#loc166)
    %c64_i32_0 = arith.constant 64 : i32 loc(#loc166)
    %0 = arith.extsi %x : i32 to i64 loc(#loc166)
    %1 = arith.extsi %c64_i32_0 : i32 to i64 loc(#loc166)
    %2 = arith.addi %0, %1 : i64 loc(#loc166)
    %c2147483647_i64 = arith.constant 2147483647 : i64 loc(#loc166)
    %c-2147483648_i64 = arith.constant -2147483648 : i64 loc(#loc166)
    %3 = arith.cmpi sle, %2, %c2147483647_i64 : i64 loc(#loc166)
    %4 = arith.cmpi sge, %2, %c-2147483648_i64 : i64 loc(#loc166)
    %5 = arith.andi %3, %4 : i1 loc(#loc166)
    %6 = arith.addi %x, %c64_i32_0 : i32 loc(#loc166)
    %c1_i32 = arith.constant 1 : i32 loc(#loc166)
    %c1_i32_1 = arith.constant 1 : i32 loc(#loc166)
    %7 = arith.extsi %6 : i32 to i64 loc(#loc166)
    %8 = arith.extsi %c1_i32_1 : i32 to i64 loc(#loc166)
    %9 = arith.subi %7, %8 : i64 loc(#loc166)
    %c2147483647_i64_2 = arith.constant 2147483647 : i64 loc(#loc166)
    %c-2147483648_i64_3 = arith.constant -2147483648 : i64 loc(#loc166)
    %10 = arith.cmpi sle, %9, %c2147483647_i64_2 : i64 loc(#loc166)
    %11 = arith.cmpi sge, %9, %c-2147483648_i64_3 : i64 loc(#loc166)
    %12 = arith.andi %10, %11 : i1 loc(#loc166)
    %13 = arith.subi %6, %c1_i32_1 : i32 loc(#loc166)
    %c64_i32_4 = arith.constant 64 : i32 loc(#loc167)
    %c64_i32_5 = arith.constant 64 : i32 loc(#loc167)
    %14 = arith.divsi %13, %c64_i32_5 : i32 loc(#loc167)
    tt.return %14 : i32 loc(#loc168)
  ^bb1:  // no predecessors
    %15 = ub.poison : i32 loc(#loc165)
    tt.return %15 : i32 loc(#loc165)
  } loc(#loc165)
  tt.func private @triton.language.standard.zeros__Tc256_c128T_cfp32() -> tensor<256x128xf32> attributes {noinline = false} {
    %cst = arith.constant 0.000000e+00 : f32 loc(#loc170)
    %cst_0 = arith.constant dense<0.000000e+00> : tensor<256x128xf32> loc(#loc170)
    tt.return %cst_0 : tensor<256x128xf32> loc(#loc171)
  ^bb1:  // no predecessors
    %0 = ub.poison : tensor<256x128xf32> loc(#loc169)
    tt.return %0 : tensor<256x128xf32> loc(#loc169)
  } loc(#loc169)
  tt.func private @__main__._attn_fwd_inner__fp32S256_128S_fp32S256S_fp32S256S_bf16S256_128S_Pbf16S128_64S_Pbf16S64_128S_cNone_i32_i32_i32_i32_i32_i32_fp32_i32_i32_cNone_i32_i32_c0_c0_c0_cNone_cNone_cNone_cNone_cNone_cFalse_c256_c128_c64_i32S256S_i32S64S_cFalse_cFalse_cFalse_cFalse_cFalse_c128_c0.1275174308246903_cFalse_cFalse_cFalse_cTrue(%acc: tensor<256x128xf32> loc("acc"(#loc172)), %l_i: tensor<256xf32> loc("l_i"(#loc172)), %m_i: tensor<256xf32> loc("m_i"(#loc172)), %q: tensor<256x128xbf16> loc("q"(#loc172)), %k_ptrs: tensor<128x64x!tt.ptr<bf16>> loc("k_ptrs"(#loc172)), %v_ptrs: tensor<64x128x!tt.ptr<bf16>> loc("v_ptrs"(#loc172)), %stride_kn: i32 loc("stride_kn"(#loc172)), %stride_vk: i32 loc("stride_vk"(#loc172)), %stride_bn: i32 loc("stride_bn"(#loc172)), %start_m: i32 loc("start_m"(#loc172)), %actual_seqlen_k: i32 loc("actual_seqlen_k"(#loc172)), %actual_seqlen_q: i32 loc("actual_seqlen_q"(#loc172)), %dropout_p: f32 loc("dropout_p"(#loc172)), %philox_seed: i32 loc("philox_seed"(#loc172)), %batch_philox_offset: i32 loc("batch_philox_offset"(#loc172)), %block_min: i32 loc("block_min"(#loc172)), %block_max: i32 loc("block_max"(#loc172)), %OFFS_M: tensor<256xi32> loc("OFFS_M"(#loc172)), %OFFS_N: tensor<64xi32> loc("OFFS_N"(#loc172))) -> (tensor<256x128xf32>, tensor<256xf32>, tensor<256xf32>) attributes {noinline = false} {
    %c64_i32 = arith.constant 64 : i32 loc(#loc173)
    %0 = arith.bitcast %block_min : i32 to i32 loc(#loc173)
    %1 = arith.bitcast %block_max : i32 to i32 loc(#loc173)
    %2 = arith.bitcast %c64_i32 : i32 to i32 loc(#loc173)
    %3 = ub.poison : i32 loc(#loc173)
    %v_ptrs_0:5 = scf.for %start_n = %0 to %1 step %2 iter_args(%acc_1 = %acc, %l_i_2 = %l_i, %m_i_3 = %m_i, %k_ptrs_4 = %k_ptrs, %v_ptrs_5 = %v_ptrs) -> (tensor<256x128xf32>, tensor<256xf32>, tensor<256xf32>, tensor<128x64x!tt.ptr<bf16>>, tensor<64x128x!tt.ptr<bf16>>)  : i32 {
      %k = tt.call @__main__.load_fn__Pbf16S128_64S_cNone_cNone_c128_i32(%k_ptrs_4, %actual_seqlen_k) : (tensor<128x64x!tt.ptr<bf16>>, i32) -> tensor<128x64xbf16> loc(#loc383)
      %qk = tt.call @triton.language.standard.zeros__Tc256_c64T_cfp32() : () -> tensor<256x64xf32> loc(#loc384)
      %qk_6 = arith.constant 0.000000e+00 : f32 loc(#loc385)
      %qk_7 = arith.constant dense<0.000000e+00> : tensor<256x64xf32> loc(#loc385)
      %qk_8 = tt.dot %q, %k, %qk_7 : tensor<256x128xbf16> * tensor<128x64xbf16> -> tensor<256x64xf32> loc(#loc385)
      %qk_9 = arith.addf %qk, %qk_8 : tensor<256x64xf32> loc(#loc386)
      %m_ij = tt.call @triton.language.standard.max__fp32S256_64S_c1_cFalse_cTrue_cFalse(%qk_9) : (tensor<256x64xf32>) -> tensor<256xf32> loc(#loc387)
      %m_ij_10 = arith.maxnumf %m_i_3, %m_ij : tensor<256xf32> loc(#loc388)
      %m_ij_scaled = arith.constant 0.127517432 : f32 loc(#loc389)
      %m_ij_scaled_11 = arith.constant 0.127517432 : f32 loc(#loc389)
      %m_ij_scaled_12 = arith.constant dense<0.127517432> : tensor<256xf32> loc(#loc389)
      %m_ij_scaled_13 = arith.mulf %m_ij_10, %m_ij_scaled_12 : tensor<256xf32> loc(#loc389)
      %qk_14 = arith.constant 0.127517432 : f32 loc(#loc390)
      %qk_15 = arith.constant 0.127517432 : f32 loc(#loc390)
      %qk_16 = arith.constant dense<0.127517432> : tensor<256x64xf32> loc(#loc390)
      %qk_17 = arith.mulf %qk_9, %qk_16 : tensor<256x64xf32> loc(#loc390)
      %qk_18 = tt.expand_dims %m_ij_scaled_13 {axis = 1 : i32} : tensor<256xf32> -> tensor<256x1xf32> loc(#loc391)
      %qk_19 = tt.broadcast %qk_18 : tensor<256x1xf32> -> tensor<256x64xf32> loc(#loc390)
      %qk_20 = arith.subf %qk_17, %qk_19 : tensor<256x64xf32> loc(#loc390)
      %p = math.exp2 %qk_20 : tensor<256x64xf32> loc(#loc392)
      %l_ij = tt.call @triton.language.standard.sum__fp32S256_64S_c1_cFalse_cNone(%p) : (tensor<256x64xf32>) -> tensor<256xf32> loc(#loc393)
      %alpha = arith.constant 0.127517432 : f32 loc(#loc394)
      %alpha_21 = arith.constant 0.127517432 : f32 loc(#loc394)
      %alpha_22 = arith.constant dense<0.127517432> : tensor<256xf32> loc(#loc394)
      %alpha_23 = arith.mulf %m_i_3, %alpha_22 : tensor<256xf32> loc(#loc394)
      %alpha_24 = arith.subf %alpha_23, %m_ij_scaled_13 : tensor<256xf32> loc(#loc394)
      %alpha_25 = math.exp2 %alpha_24 : tensor<256xf32> loc(#loc395)
      %acc_26 = tt.expand_dims %alpha_25 {axis = 1 : i32} : tensor<256xf32> -> tensor<256x1xf32> loc(#loc396)
      %acc_27 = tt.broadcast %acc_26 : tensor<256x1xf32> -> tensor<256x128xf32> loc(#loc397)
      %acc_28 = arith.mulf %acc_1, %acc_27 : tensor<256x128xf32> loc(#loc397)
      %v = tt.call @__main__.load_fn__Pbf16S64_128S_cNone_cNone_i32_c128(%v_ptrs_5, %actual_seqlen_k) : (tensor<64x128x!tt.ptr<bf16>>, i32) -> tensor<64x128xbf16> loc(#loc398)
      %l_i_29 = arith.mulf %l_i_2, %alpha_25 : tensor<256xf32> loc(#loc399)
      %l_i_30 = arith.addf %l_i_29, %l_ij : tensor<256xf32> loc(#loc399)
      %acc_31 = arith.truncf %p : tensor<256x64xf32> to tensor<256x64xbf16> loc(#loc400)
      %acc_32 = arith.constant 0.000000e+00 : f32 loc(#loc401)
      %acc_33 = arith.constant dense<0.000000e+00> : tensor<256x128xf32> loc(#loc401)
      %acc_34 = tt.dot %acc_31, %v, %acc_33 : tensor<256x64xbf16> * tensor<64x128xbf16> -> tensor<256x128xf32> loc(#loc401)
      %acc_35 = arith.addf %acc_28, %acc_34 : tensor<256x128xf32> loc(#loc402)
      %k_ptrs_36 = arith.constant 64 : i32 loc(#loc403)
      %k_ptrs_37 = arith.constant 64 : i32 loc(#loc403)
      %k_ptrs_38 = arith.extsi %k_ptrs_37 : i32 to i64 loc(#loc403)
      %k_ptrs_39 = arith.extsi %stride_kn : i32 to i64 loc(#loc403)
      %k_ptrs_40 = arith.muli %k_ptrs_38, %k_ptrs_39 : i64 loc(#loc403)
      %k_ptrs_41 = arith.constant 2147483647 : i64 loc(#loc403)
      %k_ptrs_42 = arith.constant -2147483648 : i64 loc(#loc403)
      %k_ptrs_43 = arith.cmpi sle, %k_ptrs_40, %k_ptrs_41 : i64 loc(#loc403)
      %k_ptrs_44 = arith.cmpi sge, %k_ptrs_40, %k_ptrs_42 : i64 loc(#loc403)
      %k_ptrs_45 = arith.andi %k_ptrs_43, %k_ptrs_44 : i1 loc(#loc403)
      %k_ptrs_46 = arith.muli %k_ptrs_37, %stride_kn : i32 loc(#loc403)
      %k_ptrs_47 = tt.splat %k_ptrs_46 : i32 -> tensor<128x64xi32> loc(#loc404)
      %k_ptrs_48 = tt.addptr %k_ptrs_4, %k_ptrs_47 : tensor<128x64x!tt.ptr<bf16>>, tensor<128x64xi32> loc(#loc404)
      %v_ptrs_49 = arith.constant 64 : i32 loc(#loc405)
      %v_ptrs_50 = arith.constant 64 : i32 loc(#loc405)
      %v_ptrs_51 = arith.extsi %v_ptrs_50 : i32 to i64 loc(#loc405)
      %v_ptrs_52 = arith.extsi %stride_vk : i32 to i64 loc(#loc405)
      %v_ptrs_53 = arith.muli %v_ptrs_51, %v_ptrs_52 : i64 loc(#loc405)
      %v_ptrs_54 = arith.constant 2147483647 : i64 loc(#loc405)
      %v_ptrs_55 = arith.constant -2147483648 : i64 loc(#loc405)
      %v_ptrs_56 = arith.cmpi sle, %v_ptrs_53, %v_ptrs_54 : i64 loc(#loc405)
      %v_ptrs_57 = arith.cmpi sge, %v_ptrs_53, %v_ptrs_55 : i64 loc(#loc405)
      %v_ptrs_58 = arith.andi %v_ptrs_56, %v_ptrs_57 : i1 loc(#loc405)
      %v_ptrs_59 = arith.muli %v_ptrs_50, %stride_vk : i32 loc(#loc405)
      %v_ptrs_60 = tt.splat %v_ptrs_59 : i32 -> tensor<64x128xi32> loc(#loc406)
      %v_ptrs_61 = tt.addptr %v_ptrs_5, %v_ptrs_60 : tensor<64x128x!tt.ptr<bf16>>, tensor<64x128xi32> loc(#loc406)
      scf.yield %acc_35, %l_i_30, %m_ij_10, %k_ptrs_48, %v_ptrs_61 : tensor<256x128xf32>, tensor<256xf32>, tensor<256xf32>, tensor<128x64x!tt.ptr<bf16>>, tensor<64x128x!tt.ptr<bf16>> loc(#loc173)
    } loc(#loc463)
    tt.return %v_ptrs_0#0, %v_ptrs_0#1, %v_ptrs_0#2 : tensor<256x128xf32>, tensor<256xf32>, tensor<256xf32> loc(#loc198)
  ^bb1:  // no predecessors
    %4 = ub.poison : tensor<256x128xf32> loc(#loc172)
    %5 = ub.poison : tensor<256xf32> loc(#loc172)
    %6 = ub.poison : tensor<256xf32> loc(#loc172)
    tt.return %4, %5, %6 : tensor<256x128xf32>, tensor<256xf32>, tensor<256xf32> loc(#loc172)
  } loc(#loc172)
  tt.func private @__main__.load_fn__Pbf16S128_64S_cNone_cNone_c128_i32(%ptrs: tensor<128x64x!tt.ptr<bf16>> loc("ptrs"(#loc199)), %boundary_second: i32 loc("boundary_second"(#loc199))) -> tensor<128x64xbf16> attributes {noinline = false} {
    %tensor = tt.load %ptrs : tensor<128x64x!tt.ptr<bf16>> loc(#loc409)
    tt.return %tensor : tensor<128x64xbf16> loc(#loc201)
  ^bb1:  // no predecessors
    %0 = ub.poison : tensor<128x64xbf16> loc(#loc199)
    tt.return %0 : tensor<128x64xbf16> loc(#loc199)
  } loc(#loc199)
  tt.func private @triton.language.standard.zeros__Tc256_c64T_cfp32() -> tensor<256x64xf32> attributes {noinline = false} {
    %cst = arith.constant 0.000000e+00 : f32 loc(#loc170)
    %cst_0 = arith.constant dense<0.000000e+00> : tensor<256x64xf32> loc(#loc170)
    tt.return %cst_0 : tensor<256x64xf32> loc(#loc171)
  ^bb1:  // no predecessors
    %0 = ub.poison : tensor<256x64xf32> loc(#loc169)
    tt.return %0 : tensor<256x64xf32> loc(#loc169)
  } loc(#loc169)
  tt.func private @triton.language.standard.max__fp32S256_64S_c1_cFalse_cTrue_cFalse(%input: tensor<256x64xf32> loc("input"(#loc202))) -> tensor<256xf32> attributes {noinline = false} {
    %0 = "tt.reduce"(%input) <{axis = 1 : i32}> ({
    ^bb0(%arg1: f32 loc(unknown), %arg2: f32 loc(unknown)):
      %2 = tt.call @triton.language.standard._elementwise_max__fp32_fp32(%arg1, %arg2) : (f32, f32) -> f32 loc(#loc203)
      tt.reduce.return %2 : f32 loc(#loc203)
    }) : (tensor<256x64xf32>) -> tensor<256xf32> loc(#loc203)
    tt.return %0 : tensor<256xf32> loc(#loc205)
  ^bb1:  // no predecessors
    %1 = ub.poison : tensor<256xf32> loc(#loc202)
    tt.return %1 : tensor<256xf32> loc(#loc202)
  } loc(#loc202)
  tt.func private @triton.language.standard._elementwise_max__fp32_fp32(%a: f32 loc("a"(#loc206)), %b: f32 loc("b"(#loc206))) -> f32 attributes {noinline = false} {
    %0 = arith.maxnumf %a, %b : f32 loc(#loc207)
    tt.return %0 : f32 loc(#loc208)
  ^bb1:  // no predecessors
    %1 = ub.poison : f32 loc(#loc206)
    tt.return %1 : f32 loc(#loc206)
  } loc(#loc206)
  tt.func private @triton.language.standard.sum__fp32S256_64S_c1_cFalse_cNone(%input: tensor<256x64xf32> loc("input"(#loc209))) -> tensor<256xf32> attributes {noinline = false} {
    %0 = "tt.reduce"(%input) <{axis = 1 : i32}> ({
    ^bb0(%arg1: f32 loc(unknown), %arg2: f32 loc(unknown)):
      %2 = tt.call @triton.language.standard._sum_combine__fp32_fp32(%arg1, %arg2) : (f32, f32) -> f32 loc(#loc210)
      tt.reduce.return %2 : f32 loc(#loc210)
    }) : (tensor<256x64xf32>) -> tensor<256xf32> loc(#loc210)
    tt.return %0 : tensor<256xf32> loc(#loc211)
  ^bb1:  // no predecessors
    %1 = ub.poison : tensor<256xf32> loc(#loc209)
    tt.return %1 : tensor<256xf32> loc(#loc209)
  } loc(#loc209)
  tt.func private @triton.language.standard._sum_combine__fp32_fp32(%a: f32 loc("a"(#loc212)), %b: f32 loc("b"(#loc212))) -> f32 attributes {noinline = false} {
    %0 = arith.addf %a, %b : f32 loc(#loc213)
    tt.return %0 : f32 loc(#loc214)
  ^bb1:  // no predecessors
    %1 = ub.poison : f32 loc(#loc212)
    tt.return %1 : f32 loc(#loc212)
  } loc(#loc212)
  tt.func private @__main__.load_fn__Pbf16S64_128S_cNone_cNone_i32_c128(%ptrs: tensor<64x128x!tt.ptr<bf16>> loc("ptrs"(#loc199)), %boundary_first: i32 loc("boundary_first"(#loc199))) -> tensor<64x128xbf16> attributes {noinline = false} {
    %tensor = tt.load %ptrs : tensor<64x128x!tt.ptr<bf16>> loc(#loc409)
    tt.return %tensor : tensor<64x128xbf16> loc(#loc201)
  ^bb1:  // no predecessors
    %0 = ub.poison : tensor<64x128xbf16> loc(#loc199)
    tt.return %0 : tensor<64x128xbf16> loc(#loc199)
  } loc(#loc199)
  tt.func private @__main__._attn_fwd_inner__fp32S256_128S_fp32S256S_fp32S256S_bf16S256_128S_Pbf16S128_64S_Pbf16S64_128S_cNone_i32_i32_i32_i32_i32_i32_fp32_i32_i32_cNone_i32_i32_i32_i32_i32_cNone_cNone_cNone_cNone_cNone_cFalse_c256_c128_c64_i32S256S_i32S64S_cFalse_cTrue_cFalse_cFalse_cFalse_c128_c0.1275174308246903_cFalse_cFalse_cFalse_cFalse(%acc: tensor<256x128xf32> loc("acc"(#loc172)), %l_i: tensor<256xf32> loc("l_i"(#loc172)), %m_i: tensor<256xf32> loc("m_i"(#loc172)), %q: tensor<256x128xbf16> loc("q"(#loc172)), %k_ptrs: tensor<128x64x!tt.ptr<bf16>> loc("k_ptrs"(#loc172)), %v_ptrs: tensor<64x128x!tt.ptr<bf16>> loc("v_ptrs"(#loc172)), %stride_kn: i32 loc("stride_kn"(#loc172)), %stride_vk: i32 loc("stride_vk"(#loc172)), %stride_bn: i32 loc("stride_bn"(#loc172)), %start_m: i32 loc("start_m"(#loc172)), %actual_seqlen_k: i32 loc("actual_seqlen_k"(#loc172)), %actual_seqlen_q: i32 loc("actual_seqlen_q"(#loc172)), %dropout_p: f32 loc("dropout_p"(#loc172)), %philox_seed: i32 loc("philox_seed"(#loc172)), %batch_philox_offset: i32 loc("batch_philox_offset"(#loc172)), %block_min: i32 loc("block_min"(#loc172)), %block_max: i32 loc("block_max"(#loc172)), %offs_n_causal: i32 loc("offs_n_causal"(#loc172)), %masked_blocks: i32 loc("masked_blocks"(#loc172)), %n_extra_tokens: i32 loc("n_extra_tokens"(#loc172)), %OFFS_M: tensor<256xi32> loc("OFFS_M"(#loc172)), %OFFS_N: tensor<64xi32> loc("OFFS_N"(#loc172))) -> (tensor<256x128xf32>, tensor<256xf32>, tensor<256xf32>) attributes {noinline = false} {
    %c64_i32 = arith.constant 64 : i32 loc(#loc173)
    %0 = arith.bitcast %block_min : i32 to i32 loc(#loc173)
    %1 = arith.bitcast %block_max : i32 to i32 loc(#loc173)
    %2 = arith.bitcast %c64_i32 : i32 to i32 loc(#loc173)
    %3 = ub.poison : i32 loc(#loc173)
    %v_ptrs_0:5 = scf.for %start_n = %0 to %1 step %2 iter_args(%acc_1 = %acc, %l_i_2 = %l_i, %m_i_3 = %m_i, %k_ptrs_4 = %k_ptrs, %v_ptrs_5 = %v_ptrs) -> (tensor<256x128xf32>, tensor<256xf32>, tensor<256xf32>, tensor<128x64x!tt.ptr<bf16>>, tensor<64x128x!tt.ptr<bf16>>)  : i32 {
      %k_offs_n = tt.make_range {end = 64 : i32, start = 0 : i32} : tensor<64xi32> loc(#loc420)
      %k_offs_n_6 = tt.splat %start_n : i32 -> tensor<64xi32> loc(#loc421)
      %k_offs_n_7 = arith.extsi %k_offs_n_6 : tensor<64xi32> to tensor<64xi64> loc(#loc421)
      %k_offs_n_8 = arith.extsi %k_offs_n : tensor<64xi32> to tensor<64xi64> loc(#loc421)
      %k_offs_n_9 = arith.addi %k_offs_n_7, %k_offs_n_8 : tensor<64xi64> loc(#loc421)
      %k_offs_n_10 = arith.constant 2147483647 : i64 loc(#loc421)
      %k_offs_n_11 = arith.constant -2147483648 : i64 loc(#loc421)
      %k_offs_n_12 = arith.constant dense<2147483647> : tensor<64xi64> loc(#loc421)
      %k_offs_n_13 = arith.cmpi sle, %k_offs_n_9, %k_offs_n_12 : tensor<64xi64> loc(#loc421)
      %k_offs_n_14 = arith.constant dense<-2147483648> : tensor<64xi64> loc(#loc421)
      %k_offs_n_15 = arith.cmpi sge, %k_offs_n_9, %k_offs_n_14 : tensor<64xi64> loc(#loc421)
      %k_offs_n_16 = arith.andi %k_offs_n_13, %k_offs_n_15 : tensor<64xi1> loc(#loc421)
      %k_offs_n_17 = arith.addi %k_offs_n_6, %k_offs_n : tensor<64xi32> loc(#loc421)
      %k = tt.call @__main__.load_fn__Pbf16S128_64S_cNone_i32S64S_c128_i32(%k_ptrs_4, %k_offs_n_17, %actual_seqlen_k) : (tensor<128x64x!tt.ptr<bf16>>, tensor<64xi32>, i32) -> tensor<128x64xbf16> loc(#loc383)
      %qk = tt.call @triton.language.standard.zeros__Tc256_c64T_cfp32() : () -> tensor<256x64xf32> loc(#loc456)
      %c64_i32_18 = arith.constant 64 : i32 loc(#loc217)
      %c64_i32_19 = arith.constant 64 : i32 loc(#loc217)
      %7 = arith.extsi %start_n : i32 to i64 loc(#loc217)
      %8 = arith.extsi %c64_i32_19 : i32 to i64 loc(#loc217)
      %9 = arith.addi %7, %8 : i64 loc(#loc217)
      %c2147483647_i64 = arith.constant 2147483647 : i64 loc(#loc217)
      %c-2147483648_i64 = arith.constant -2147483648 : i64 loc(#loc217)
      %10 = arith.cmpi sle, %9, %c2147483647_i64 : i64 loc(#loc217)
      %11 = arith.cmpi sge, %9, %c-2147483648_i64 : i64 loc(#loc217)
      %12 = arith.andi %10, %11 : i1 loc(#loc217)
      %13 = arith.addi %start_n, %c64_i32_19 : i32 loc(#loc217)
      %14 = arith.cmpi eq, %13, %block_max : i32 loc(#loc217)
      %c0_i32 = arith.constant 0 : i32 loc(#loc218)
      %15 = arith.cmpi ne, %n_extra_tokens, %c0_i32 : i32 loc(#loc218)
      %16 = arith.andi %14, %15 : i1 loc(#loc219)
      %17 = scf.if %16 -> (tensor<256x64xf32>) {
        %boundary_m = tt.splat %actual_seqlen_k : i32 -> tensor<256xi32> loc(#loc422)
        %size_n = tt.expand_dims %OFFS_N {axis = 0 : i32} : tensor<64xi32> -> tensor<1x64xi32> loc(#loc423)
        %size_n_76 = tt.splat %start_n : i32 -> tensor<1x64xi32> loc(#loc424)
        %size_n_77 = arith.extsi %size_n_76 : tensor<1x64xi32> to tensor<1x64xi64> loc(#loc424)
        %size_n_78 = arith.extsi %size_n : tensor<1x64xi32> to tensor<1x64xi64> loc(#loc424)
        %size_n_79 = arith.addi %size_n_77, %size_n_78 : tensor<1x64xi64> loc(#loc424)
        %size_n_80 = arith.constant 2147483647 : i64 loc(#loc424)
        %size_n_81 = arith.constant -2147483648 : i64 loc(#loc424)
        %size_n_82 = arith.constant dense<2147483647> : tensor<1x64xi64> loc(#loc424)
        %size_n_83 = arith.cmpi sle, %size_n_79, %size_n_82 : tensor<1x64xi64> loc(#loc424)
        %size_n_84 = arith.constant dense<-2147483648> : tensor<1x64xi64> loc(#loc424)
        %size_n_85 = arith.cmpi sge, %size_n_79, %size_n_84 : tensor<1x64xi64> loc(#loc424)
        %size_n_86 = arith.andi %size_n_83, %size_n_85 : tensor<1x64xi1> loc(#loc424)
        %size_n_87 = arith.addi %size_n_76, %size_n : tensor<1x64xi32> loc(#loc424)
        %mask = tt.expand_dims %boundary_m {axis = 1 : i32} : tensor<256xi32> -> tensor<256x1xi32> loc(#loc425)
        %mask_88 = tt.broadcast %size_n_87 : tensor<1x64xi32> -> tensor<256x64xi32> loc(#loc426)
        %mask_89 = tt.broadcast %mask : tensor<256x1xi32> -> tensor<256x64xi32> loc(#loc426)
        %mask_90 = arith.cmpi slt, %mask_88, %mask_89 : tensor<256x64xi32> loc(#loc426)
        %qk_91 = arith.constant 0xFF800000 : f32 loc(#loc427)
        %qk_92 = arith.constant 0xFF800000 : f32 loc(#loc427)
        %qk_93 = arith.constant dense<0xFF800000> : tensor<256x64xf32> loc(#loc427)
        %qk_94 = arith.select %mask_90, %qk, %qk_93 : tensor<256x64xi1>, tensor<256x64xf32> loc(#loc457)
        scf.yield %qk_94 : tensor<256x64xf32> loc(#loc457)
      } else {
        scf.yield %qk : tensor<256x64xf32> loc(#loc220)
      } loc(#loc220)
      %qk_20 = arith.constant 0.000000e+00 : f32 loc(#loc385)
      %qk_21 = arith.constant dense<0.000000e+00> : tensor<256x64xf32> loc(#loc385)
      %qk_22 = tt.dot %q, %k, %qk_21 : tensor<256x128xbf16> * tensor<128x64xbf16> -> tensor<256x64xf32> loc(#loc385)
      %qk_23 = arith.addf %17, %qk_22 : tensor<256x64xf32> loc(#loc386)
      %m_ij = tt.call @triton.language.standard.max__fp32S256_64S_c1_cFalse_cTrue_cFalse(%qk_23) : (tensor<256x64xf32>) -> tensor<256xf32> loc(#loc387)
      %m_ij_24 = arith.maxnumf %m_i_3, %m_ij : tensor<256xf32> loc(#loc388)
      %m_ij_scaled = arith.constant 0.127517432 : f32 loc(#loc389)
      %m_ij_scaled_25 = arith.constant 0.127517432 : f32 loc(#loc389)
      %m_ij_scaled_26 = arith.constant dense<0.127517432> : tensor<256xf32> loc(#loc389)
      %m_ij_scaled_27 = arith.mulf %m_ij_24, %m_ij_scaled_26 : tensor<256xf32> loc(#loc389)
      %qk_28 = arith.constant 0.127517432 : f32 loc(#loc390)
      %qk_29 = arith.constant 0.127517432 : f32 loc(#loc390)
      %qk_30 = arith.constant dense<0.127517432> : tensor<256x64xf32> loc(#loc390)
      %qk_31 = arith.mulf %qk_23, %qk_30 : tensor<256x64xf32> loc(#loc390)
      %qk_32 = tt.expand_dims %m_ij_scaled_27 {axis = 1 : i32} : tensor<256xf32> -> tensor<256x1xf32> loc(#loc391)
      %qk_33 = tt.broadcast %qk_32 : tensor<256x1xf32> -> tensor<256x64xf32> loc(#loc390)
      %qk_34 = arith.subf %qk_31, %qk_33 : tensor<256x64xf32> loc(#loc390)
      %p = math.exp2 %qk_34 : tensor<256x64xf32> loc(#loc392)
      %l_ij = tt.call @triton.language.standard.sum__fp32S256_64S_c1_cFalse_cNone(%p) : (tensor<256x64xf32>) -> tensor<256xf32> loc(#loc393)
      %alpha = arith.constant 0.127517432 : f32 loc(#loc394)
      %alpha_35 = arith.constant 0.127517432 : f32 loc(#loc394)
      %alpha_36 = arith.constant dense<0.127517432> : tensor<256xf32> loc(#loc394)
      %alpha_37 = arith.mulf %m_i_3, %alpha_36 : tensor<256xf32> loc(#loc394)
      %alpha_38 = arith.subf %alpha_37, %m_ij_scaled_27 : tensor<256xf32> loc(#loc394)
      %alpha_39 = math.exp2 %alpha_38 : tensor<256xf32> loc(#loc395)
      %acc_40 = tt.expand_dims %alpha_39 {axis = 1 : i32} : tensor<256xf32> -> tensor<256x1xf32> loc(#loc396)
      %acc_41 = tt.broadcast %acc_40 : tensor<256x1xf32> -> tensor<256x128xf32> loc(#loc397)
      %acc_42 = arith.mulf %acc_1, %acc_41 : tensor<256x128xf32> loc(#loc397)
      %v = tt.call @__main__.load_fn__Pbf16S64_128S_i32S64S_cNone_i32_c128(%v_ptrs_5, %k_offs_n_17, %actual_seqlen_k) : (tensor<64x128x!tt.ptr<bf16>>, tensor<64xi32>, i32) -> tensor<64x128xbf16> loc(#loc398)
      %l_i_43 = arith.mulf %l_i_2, %alpha_39 : tensor<256xf32> loc(#loc399)
      %l_i_44 = arith.addf %l_i_43, %l_ij : tensor<256xf32> loc(#loc399)
      %acc_45 = arith.truncf %p : tensor<256x64xf32> to tensor<256x64xbf16> loc(#loc400)
      %acc_46 = arith.constant 0.000000e+00 : f32 loc(#loc401)
      %acc_47 = arith.constant dense<0.000000e+00> : tensor<256x128xf32> loc(#loc401)
      %acc_48 = tt.dot %acc_45, %v, %acc_47 : tensor<256x64xbf16> * tensor<64x128xbf16> -> tensor<256x128xf32> loc(#loc401)
      %acc_49 = arith.addf %acc_42, %acc_48 : tensor<256x128xf32> loc(#loc402)
      %k_ptrs_50 = arith.constant 64 : i32 loc(#loc403)
      %k_ptrs_51 = arith.constant 64 : i32 loc(#loc403)
      %k_ptrs_52 = arith.extsi %k_ptrs_51 : i32 to i64 loc(#loc403)
      %k_ptrs_53 = arith.extsi %stride_kn : i32 to i64 loc(#loc403)
      %k_ptrs_54 = arith.muli %k_ptrs_52, %k_ptrs_53 : i64 loc(#loc403)
      %k_ptrs_55 = arith.constant 2147483647 : i64 loc(#loc403)
      %k_ptrs_56 = arith.constant -2147483648 : i64 loc(#loc403)
      %k_ptrs_57 = arith.cmpi sle, %k_ptrs_54, %k_ptrs_55 : i64 loc(#loc403)
      %k_ptrs_58 = arith.cmpi sge, %k_ptrs_54, %k_ptrs_56 : i64 loc(#loc403)
      %k_ptrs_59 = arith.andi %k_ptrs_57, %k_ptrs_58 : i1 loc(#loc403)
      %k_ptrs_60 = arith.muli %k_ptrs_51, %stride_kn : i32 loc(#loc403)
      %k_ptrs_61 = tt.splat %k_ptrs_60 : i32 -> tensor<128x64xi32> loc(#loc404)
      %k_ptrs_62 = tt.addptr %k_ptrs_4, %k_ptrs_61 : tensor<128x64x!tt.ptr<bf16>>, tensor<128x64xi32> loc(#loc404)
      %v_ptrs_63 = arith.constant 64 : i32 loc(#loc405)
      %v_ptrs_64 = arith.constant 64 : i32 loc(#loc405)
      %v_ptrs_65 = arith.extsi %v_ptrs_64 : i32 to i64 loc(#loc405)
      %v_ptrs_66 = arith.extsi %stride_vk : i32 to i64 loc(#loc405)
      %v_ptrs_67 = arith.muli %v_ptrs_65, %v_ptrs_66 : i64 loc(#loc405)
      %v_ptrs_68 = arith.constant 2147483647 : i64 loc(#loc405)
      %v_ptrs_69 = arith.constant -2147483648 : i64 loc(#loc405)
      %v_ptrs_70 = arith.cmpi sle, %v_ptrs_67, %v_ptrs_68 : i64 loc(#loc405)
      %v_ptrs_71 = arith.cmpi sge, %v_ptrs_67, %v_ptrs_69 : i64 loc(#loc405)
      %v_ptrs_72 = arith.andi %v_ptrs_70, %v_ptrs_71 : i1 loc(#loc405)
      %v_ptrs_73 = arith.muli %v_ptrs_64, %stride_vk : i32 loc(#loc405)
      %v_ptrs_74 = tt.splat %v_ptrs_73 : i32 -> tensor<64x128xi32> loc(#loc406)
      %v_ptrs_75 = tt.addptr %v_ptrs_5, %v_ptrs_74 : tensor<64x128x!tt.ptr<bf16>>, tensor<64x128xi32> loc(#loc406)
      scf.yield %acc_49, %l_i_44, %m_ij_24, %k_ptrs_62, %v_ptrs_75 : tensor<256x128xf32>, tensor<256xf32>, tensor<256xf32>, tensor<128x64x!tt.ptr<bf16>>, tensor<64x128x!tt.ptr<bf16>> loc(#loc173)
    } {tt.num_stages = 1 : i32} loc(#loc463)
    tt.return %v_ptrs_0#0, %v_ptrs_0#1, %v_ptrs_0#2 : tensor<256x128xf32>, tensor<256xf32>, tensor<256xf32> loc(#loc198)
  ^bb1:  // no predecessors
    %4 = ub.poison : tensor<256x128xf32> loc(#loc172)
    %5 = ub.poison : tensor<256xf32> loc(#loc172)
    %6 = ub.poison : tensor<256xf32> loc(#loc172)
    tt.return %4, %5, %6 : tensor<256x128xf32>, tensor<256xf32>, tensor<256xf32> loc(#loc172)
  } loc(#loc172)
  tt.func private @__main__.load_fn__Pbf16S128_64S_cNone_i32S64S_c128_i32(%ptrs: tensor<128x64x!tt.ptr<bf16>> loc("ptrs"(#loc199)), %offset_second: tensor<64xi32> loc("offset_second"(#loc199)), %boundary_second: i32 loc("boundary_second"(#loc199))) -> tensor<128x64xbf16> attributes {noinline = false} {
    %mask = tt.expand_dims %offset_second {axis = 0 : i32} : tensor<64xi32> -> tensor<1x64xi32> loc(#loc429)
    %mask_0 = tt.splat %boundary_second : i32 -> tensor<1x64xi32> loc(#loc429)
    %mask_1 = arith.cmpi slt, %mask, %mask_0 : tensor<1x64xi32> loc(#loc429)
    %tensor = arith.constant 0.000000e+00 : f32 loc(#loc430)
    %tensor_2 = tt.broadcast %mask_1 : tensor<1x64xi1> -> tensor<128x64xi1> loc(#loc430)
    %tensor_3 = arith.constant dense<0.000000e+00> : tensor<128x64xf32> loc(#loc430)
    %tensor_4 = arith.truncf %tensor_3 : tensor<128x64xf32> to tensor<128x64xbf16> loc(#loc430)
    %tensor_5 = tt.load %ptrs, %tensor_2, %tensor_4 : tensor<128x64x!tt.ptr<bf16>> loc(#loc430)
    tt.return %tensor_5 : tensor<128x64xbf16> loc(#loc201)
  ^bb1:  // no predecessors
    %0 = ub.poison : tensor<128x64xbf16> loc(#loc199)
    tt.return %0 : tensor<128x64xbf16> loc(#loc199)
  } loc(#loc199)
  tt.func private @__main__.load_fn__Pbf16S64_128S_i32S64S_cNone_i32_c128(%ptrs: tensor<64x128x!tt.ptr<bf16>> loc("ptrs"(#loc199)), %offset_first: tensor<64xi32> loc("offset_first"(#loc199)), %boundary_first: i32 loc("boundary_first"(#loc199))) -> tensor<64x128xbf16> attributes {noinline = false} {
    %mask = tt.expand_dims %offset_first {axis = 1 : i32} : tensor<64xi32> -> tensor<64x1xi32> loc(#loc432)
    %mask_0 = tt.splat %boundary_first : i32 -> tensor<64x1xi32> loc(#loc432)
    %mask_1 = arith.cmpi slt, %mask, %mask_0 : tensor<64x1xi32> loc(#loc432)
    %tensor = arith.constant 0.000000e+00 : f32 loc(#loc433)
    %tensor_2 = tt.broadcast %mask_1 : tensor<64x1xi1> -> tensor<64x128xi1> loc(#loc433)
    %tensor_3 = arith.constant dense<0.000000e+00> : tensor<64x128xf32> loc(#loc433)
    %tensor_4 = arith.truncf %tensor_3 : tensor<64x128xf32> to tensor<64x128xbf16> loc(#loc433)
    %tensor_5 = tt.load %ptrs, %tensor_2, %tensor_4 : tensor<64x128x!tt.ptr<bf16>> loc(#loc433)
    tt.return %tensor_5 : tensor<64x128xbf16> loc(#loc201)
  ^bb1:  // no predecessors
    %0 = ub.poison : tensor<64x128xbf16> loc(#loc199)
    tt.return %0 : tensor<64x128xbf16> loc(#loc199)
  } loc(#loc199)
} loc(#loc)
#loc1 = loc("/home/mejiang/w1/test/fav3/triton/fa/flash-attention.py":477:15)
#loc2 = loc("/home/mejiang/w1/test/fav3/triton/fa/flash-attention.py":477:5)
#loc3 = loc("/home/mejiang/w1/test/fav3/triton/fa/flash-attention.py":478:15)
#loc4 = loc("/home/mejiang/w1/test/fav3/triton/fa/flash-attention.py":478:5)
#loc5 = loc("/home/mejiang/w1/test/fav3/triton/fa/flash-attention.py":479:15)
#loc6 = loc("/home/mejiang/w1/test/fav3/triton/fa/flash-attention.py":479:5)
#loc7 = loc("/home/mejiang/w1/test/fav3/triton/fa/flash-attention.py":480:5)
#loc8 = loc("/home/mejiang/w1/test/fav3/triton/fa/flash-attention.py":481:15)
#loc9 = loc("/home/mejiang/w1/test/fav3/triton/fa/flash-attention.py":481:5)
#loc10 = loc("/home/mejiang/w1/test/fav3/triton/fa/flash-attention.py":482:15)
#loc11 = loc("/home/mejiang/w1/test/fav3/triton/fa/flash-attention.py":482:5)
#loc12 = loc("/home/mejiang/w1/test/fav3/triton/fa/flash-attention.py":483:15)
#loc13 = loc("/home/mejiang/w1/test/fav3/triton/fa/flash-attention.py":483:5)
#loc14 = loc("/home/mejiang/w1/test/fav3/triton/fa/flash-attention.py":484:5)
#loc15 = loc("/home/mejiang/w1/test/fav3/triton/fa/flash-attention.py":485:15)
#loc16 = loc("/home/mejiang/w1/test/fav3/triton/fa/flash-attention.py":485:5)
#loc17 = loc("/home/mejiang/w1/test/fav3/triton/fa/flash-attention.py":486:15)
#loc18 = loc("/home/mejiang/w1/test/fav3/triton/fa/flash-attention.py":486:5)
#loc19 = loc("/home/mejiang/w1/test/fav3/triton/fa/flash-attention.py":487:15)
#loc20 = loc("/home/mejiang/w1/test/fav3/triton/fa/flash-attention.py":487:5)
#loc21 = loc("/home/mejiang/w1/test/fav3/triton/fa/flash-attention.py":488:15)
#loc22 = loc("/home/mejiang/w1/test/fav3/triton/fa/flash-attention.py":488:5)
#loc23 = loc("/home/mejiang/w1/test/fav3/triton/fa/flash-attention.py":489:15)
#loc24 = loc("/home/mejiang/w1/test/fav3/triton/fa/flash-attention.py":489:5)
#loc25 = loc("/home/mejiang/w1/test/fav3/triton/fa/flash-attention.py":490:15)
#loc26 = loc("/home/mejiang/w1/test/fav3/triton/fa/flash-attention.py":490:5)
#loc27 = loc("/home/mejiang/w1/test/fav3/triton/fa/flash-attention.py":491:15)
#loc28 = loc("/home/mejiang/w1/test/fav3/triton/fa/flash-attention.py":491:5)
#loc29 = loc("/home/mejiang/w1/test/fav3/triton/fa/flash-attention.py":492:5)
#loc30 = loc("/home/mejiang/w1/test/fav3/triton/fa/flash-attention.py":493:15)
#loc31 = loc("/home/mejiang/w1/test/fav3/triton/fa/flash-attention.py":493:5)
#loc32 = loc("/home/mejiang/w1/test/fav3/triton/fa/flash-attention.py":494:15)
#loc33 = loc("/home/mejiang/w1/test/fav3/triton/fa/flash-attention.py":494:5)
#loc34 = loc("/home/mejiang/w1/test/fav3/triton/fa/flash-attention.py":495:15)
#loc35 = loc("/home/mejiang/w1/test/fav3/triton/fa/flash-attention.py":495:5)
#loc36 = loc("/home/mejiang/w1/test/fav3/triton/fa/flash-attention.py":496:5)
#loc37 = loc("/home/mejiang/w1/test/fav3/triton/fa/flash-attention.py":508:9)
#loc38 = loc("/home/mejiang/w1/test/fav3/triton/fa/flash-attention.py":509:9)
#loc39 = loc("/home/mejiang/w1/test/fav3/triton/fa/flash-attention.py":511:5)
#loc40 = loc("/home/mejiang/w1/test/fav3/triton/fa/flash-attention.py":511:11)
#loc42 = loc("/home/mejiang/w1/test/fav3/triton/fa/flash-attention.py":520:23)
#loc43 = loc("/home/mejiang/w1/test/fav3/triton/fa/flash-attention.py":521:23)
#loc44 = loc("/home/mejiang/w1/test/fav3/triton/fa/flash-attention.py":522:23)
#loc45 = loc("/home/mejiang/w1/test/fav3/triton/fa/flash-attention.py":523:21)
#loc46 = loc("/home/mejiang/w1/test/fav3/triton/fa/flash-attention.py":525:18)
#loc47 = loc("/home/mejiang/w1/test/fav3/triton/fa/flash-attention.py":525:38)
#loc48 = loc("/home/mejiang/w1/test/fav3/triton/fa/flash-attention.py":526:18)
#loc49 = loc("/home/mejiang/w1/test/fav3/triton/fa/flash-attention.py":527:18)
#loc50 = loc("/home/mejiang/w1/test/fav3/triton/fa/flash-attention.py":529:9)
#loc51 = loc("/home/mejiang/w1/test/fav3/triton/fa/flash-attention.py":544:13)
#loc52 = loc("/home/mejiang/w1/test/fav3/triton/fa/flash-attention.py":545:13)
#loc53 = loc("/home/mejiang/w1/test/fav3/triton/fa/flash-attention.py":546:13)
#loc54 = loc("/home/mejiang/w1/test/fav3/triton/fa/flash-attention.py":547:13)
#loc55 = loc("/home/mejiang/w1/test/fav3/triton/fa/flash-attention.py":549:9)
#loc56 = loc("/home/mejiang/w1/test/fav3/triton/fa/flash-attention.py":556:24)
#loc57 = loc("/home/mejiang/w1/test/fav3/triton/fa/flash-attention.py":588:13)
#loc58 = loc("/home/mejiang/w1/test/fav3/triton/fa/flash-attention.py":596:17)
#loc59 = loc("/home/mejiang/w1/test/fav3/triton/fa/flash-attention.py":597:20)
#loc60 = loc("/home/mejiang/w1/test/fav3/triton/fa/flash-attention.py":597:17)
#loc61 = loc("/home/mejiang/w1/test/fav3/triton/fa/flash-attention.py":598:38)
#loc62 = loc("/home/mejiang/w1/test/fav3/triton/fa/flash-attention.py":599:22)
#loc63 = loc("/home/mejiang/w1/test/fav3/triton/fa/flash-attention.py":599:17)
#loc64 = loc("/home/mejiang/w1/test/fav3/triton/fa/flash-attention.py":600:38)
#loc65 = loc("/home/mejiang/w1/test/fav3/triton/fa/flash-attention.py":604:32)
#loc66 = loc("/home/mejiang/w1/test/fav3/triton/fa/flash-attention.py":604:28)
#loc67 = loc("/home/mejiang/w1/test/fav3/triton/fa/flash-attention.py":604:52)
#loc68 = loc("/home/mejiang/w1/test/fav3/triton/fa/flash-attention.py":604:74)
#loc69 = loc("/home/mejiang/w1/test/fav3/triton/fa/flash-attention.py":605:37)
#loc70 = loc("/home/mejiang/w1/test/fav3/triton/fa/flash-attention.py":605:26)
#loc71 = loc("/home/mejiang/w1/test/fav3/triton/fa/flash-attention.py":605:67)
#loc72 = loc("/home/mejiang/w1/test/fav3/triton/fa/flash-attention.py":606:32)
#loc73 = loc("/home/mejiang/w1/test/fav3/triton/fa/flash-attention.py":606:28)
#loc74 = loc("/home/mejiang/w1/test/fav3/triton/fa/flash-attention.py":606:52)
#loc75 = loc("/home/mejiang/w1/test/fav3/triton/fa/flash-attention.py":606:74)
#loc76 = loc("/home/mejiang/w1/test/fav3/triton/fa/flash-attention.py":607:37)
#loc77 = loc("/home/mejiang/w1/test/fav3/triton/fa/flash-attention.py":607:26)
#loc78 = loc("/home/mejiang/w1/test/fav3/triton/fa/flash-attention.py":607:67)
#loc79 = loc("/home/mejiang/w1/test/fav3/triton/fa/flash-attention.py":608:32)
#loc80 = loc("/home/mejiang/w1/test/fav3/triton/fa/flash-attention.py":608:28)
#loc81 = loc("/home/mejiang/w1/test/fav3/triton/fa/flash-attention.py":608:52)
#loc82 = loc("/home/mejiang/w1/test/fav3/triton/fa/flash-attention.py":608:74)
#loc83 = loc("/home/mejiang/w1/test/fav3/triton/fa/flash-attention.py":609:37)
#loc84 = loc("/home/mejiang/w1/test/fav3/triton/fa/flash-attention.py":609:26)
#loc85 = loc("/home/mejiang/w1/test/fav3/triton/fa/flash-attention.py":609:67)
#loc86 = loc("/home/mejiang/w1/test/fav3/triton/fa/flash-attention.py":639:21)
#loc87 = loc("/home/mejiang/w1/test/fav3/triton/fa/flash-attention.py":648:23)
#loc88 = loc("/home/mejiang/w1/test/fav3/triton/fa/flash-attention.py":649:23)
#loc89 = loc("/home/mejiang/w1/test/fav3/triton/fa/flash-attention.py":650:23)
#loc90 = loc("/home/mejiang/w1/test/fav3/triton/fa/flash-attention.py":655:31)
#loc91 = loc("/home/mejiang/w1/test/fav3/triton/fa/flash-attention.py":658:21)
#loc92 = loc("/home/mejiang/w1/test/fav3/triton/fa/flash-attention.py":680:34)
#loc93 = loc("/home/mejiang/w1/test/fav3/triton/fa/flash-attention.py":681:32)
#loc94 = loc("/home/mejiang/w1/test/fav3/triton/fa/flash-attention.py":681:56)
#loc95 = loc("/home/mejiang/w1/test/fav3/triton/fa/flash-attention.py":691:33)
#loc96 = loc("/home/mejiang/w1/test/fav3/triton/fa/flash-attention.py":692:33)
#loc97 = loc("/home/mejiang/w1/test/fav3/triton/fa/flash-attention.py":693:17)
#loc98 = loc("/home/mejiang/w1/test/fav3/triton/fa/flash-attention.py":694:29)
#loc99 = loc("/home/mejiang/w1/test/fav3/triton/fa/flash-attention.py":697:20)
#loc100 = loc("/home/mejiang/w1/test/fav3/triton/fa/flash-attention.py":697:17)
#loc101 = loc("/home/mejiang/w1/test/fav3/triton/fa/flash-attention.py":698:34)
#loc102 = loc("/home/mejiang/w1/test/fav3/triton/fa/flash-attention.py":698:33)
#loc103 = loc("/home/mejiang/w1/test/fav3/triton/fa/flash-attention.py":699:37)
#loc104 = loc("/home/mejiang/w1/test/fav3/triton/fa/flash-attention.py":712:33)
#loc105 = loc("/home/mejiang/w1/test/fav3/triton/fa/flash-attention.py":714:17)
#loc106 = loc("/home/mejiang/w1/test/fav3/triton/fa/flash-attention.py":716:21)
#loc107 = loc("/home/mejiang/w1/test/fav3/triton/fa/flash-attention.py":716:17)
#loc108 = loc("/home/mejiang/w1/test/fav3/triton/fa/flash-attention.py":720:25)
#loc109 = loc("/home/mejiang/w1/test/fav3/triton/fa/flash-attention.py":721:31)
#loc110 = loc("/home/mejiang/w1/test/fav3/triton/fa/flash-attention.py":721:21)
#loc111 = loc("/home/mejiang/w1/test/fav3/triton/fa/flash-attention.py":722:31)
#loc112 = loc("/home/mejiang/w1/test/fav3/triton/fa/flash-attention.py":722:21)
#loc113 = loc("/home/mejiang/w1/test/fav3/triton/fa/flash-attention.py":727:37)
#loc114 = loc("/home/mejiang/w1/test/fav3/triton/fa/flash-attention.py":743:31)
#loc115 = loc("/home/mejiang/w1/test/fav3/triton/fa/flash-attention.py":743:27)
#loc116 = loc("/home/mejiang/w1/test/fav3/triton/fa/flash-attention.py":744:23)
#loc117 = loc("/home/mejiang/w1/test/fav3/triton/fa/flash-attention.py":752:30)
#loc118 = loc("/home/mejiang/w1/test/fav3/triton/fa/flash-attention.py":752:29)
#loc119 = loc("/home/mejiang/w1/test/fav3/triton/fa/flash-attention.py":753:31)
#loc120 = loc("/home/mejiang/w1/test/fav3/triton/fa/flash-attention.py":754:36)
#loc121 = loc("/home/mejiang/w1/test/fav3/triton/fa/flash-attention.py":755:23)
#loc122 = loc("/home/mejiang/w1/test/fav3/triton/fa/flash-attention.py":764:30)
#loc123 = loc("/home/mejiang/w1/test/fav3/triton/fa/flash-attention.py":764:26)
#loc124 = loc("/home/mejiang/w1/test/fav3/triton/fa/flash-attention.py":764:59)
#loc125 = loc("/home/mejiang/w1/test/fav3/triton/fa/flash-attention.py":767:33)
#loc126 = loc("/home/mejiang/w1/test/fav3/triton/fa/flash-attention.py":768:20)
#loc127 = loc("/home/mejiang/w1/test/fav3/triton/fa/flash-attention.py":768:17)
#loc128 = loc("/home/mejiang/w1/test/fav3/triton/fa/flash-attention.py":769:53)
#loc129 = loc("/home/mejiang/w1/test/fav3/triton/fa/flash-attention.py":769:32)
#loc130 = loc("/home/mejiang/w1/test/fav3/triton/fa/flash-attention.py":770:35)
#loc131 = loc("/home/mejiang/w1/test/fav3/triton/fa/flash-attention.py":771:44)
#loc132 = loc("/home/mejiang/w1/test/fav3/triton/fa/flash-attention.py":771:38)
#loc133 = loc("/home/mejiang/w1/test/fav3/triton/fa/flash-attention.py":771:21)
#loc134 = loc("/home/mejiang/w1/test/fav3/triton/fa/flash-attention.py":773:44)
#loc135 = loc("/home/mejiang/w1/test/fav3/triton/fa/flash-attention.py":773:38)
#loc136 = loc("/home/mejiang/w1/test/fav3/triton/fa/flash-attention.py":773:21)
#loc137 = loc("/home/mejiang/w1/test/fav3/triton/fa/flash-attention.py":776:34)
#loc138 = loc("/home/mejiang/w1/test/fav3/triton/fa/flash-attention.py":776:28)
#loc139 = loc("/home/mejiang/w1/test/fav3/triton/fa/flash-attention.py":776:54)
#loc140 = loc("/home/mejiang/w1/test/fav3/triton/fa/flash-attention.py":776:76)
#loc141 = loc("/home/mejiang/w1/test/fav3/triton/fa/flash-attention.py":777:37)
#loc142 = loc("/home/mejiang/w1/test/fav3/triton/fa/flash-attention.py":777:26)
#loc143 = loc("/home/mejiang/w1/test/fav3/triton/fa/flash-attention.py":777:67)
#loc144 = loc("/home/mejiang/w1/test/fav3/triton/fa/flash-attention.py":778:31)
#loc145 = loc("/home/mejiang/w1/test/fav3/triton/fa/flash-attention.py":779:20)
#loc146 = loc("/home/mejiang/w1/test/fav3/triton/fa/flash-attention.py":779:17)
#loc147 = loc("/home/mejiang/w1/test/fav3/triton/fa/flash-attention.py":780:50)
#loc148 = loc("/home/mejiang/w1/test/fav3/triton/fa/flash-attention.py":780:35)
#loc149 = loc("/home/mejiang/w1/test/fav3/triton/fa/flash-attention.py":783:17)
#loc151 = loc("/home/mejiang/w1/test/fav3/triton/fa/flash-attention.py":37:5)
#loc152 = loc("/home/mejiang/w1/test/fav3/triton/fa/flash-attention.py":42:5)
#loc153 = loc("/home/mejiang/w1/test/fav3/triton/fa/flash-attention.py":43:29)
#loc154 = loc("/home/mejiang/w1/test/fav3/triton/fa/flash-attention.py":43:17)
#loc155 = loc("/home/mejiang/w1/test/fav3/triton/fa/flash-attention.py":45:11)
#loc156 = loc("/home/mejiang/w1/test/fav3/triton/fa/flash-attention.py":46:17)
#loc157 = loc("/home/mejiang/w1/test/fav3/triton/fa/flash-attention.py":51:8)
#loc158 = loc("/home/mejiang/w1/test/fav3/triton/fa/flash-attention.py":51:5)
#loc159 = loc("/home/mejiang/w1/test/fav3/triton/fa/flash-attention.py":52:15)
#loc160 = loc("/home/mejiang/w1/test/fav3/triton/fa/flash-attention.py":55:13)
#loc161 = loc("/home/mejiang/w1/test/fav3/triton/fa/flash-attention.py":56:16)
#loc162 = loc("/home/mejiang/w1/test/fav3/triton/fa/flash-attention.py":56:36)
#loc163 = loc("/home/mejiang/w1/test/fav3/triton/fa/flash-attention.py":56:15)
#loc164 = loc("/home/mejiang/w1/test/fav3/triton/fa/flash-attention.py":60:5)
#loc166 = loc("/home/mejiang/w1/test/fav3/triton/fa/flash-attention.py":169:13)
#loc167 = loc("/home/mejiang/w1/test/fav3/triton/fa/flash-attention.py":169:12)
#loc168 = loc("/home/mejiang/w1/test/fav3/triton/fa/flash-attention.py":169:5)
#loc169 = loc("/home/mejiang/w1/test/triton/python/triton/language/standard.py":120:1)
#loc170 = loc("/home/mejiang/w1/test/triton/python/triton/language/standard.py":129:12)
#loc171 = loc("/home/mejiang/w1/test/triton/python/triton/language/standard.py":129:5)
#loc173 = loc("/home/mejiang/w1/test/fav3/triton/fa/flash-attention.py":278:5)
#loc174 = loc("/home/mejiang/w1/test/fav3/triton/fa/flash-attention.py":286:13)
#loc175 = loc("/home/mejiang/w1/test/fav3/triton/fa/flash-attention.py":290:14)
#loc176 = loc("/home/mejiang/w1/test/fav3/triton/fa/flash-attention.py":315:19)
#loc177 = loc("/home/mejiang/w1/test/fav3/triton/fa/flash-attention.py":315:13)
#loc178 = loc("/home/mejiang/w1/test/fav3/triton/fa/flash-attention.py":334:32)
#loc179 = loc("/home/mejiang/w1/test/fav3/triton/fa/flash-attention.py":334:16)
#loc180 = loc("/home/mejiang/w1/test/fav3/triton/fa/flash-attention.py":335:23)
#loc181 = loc("/home/mejiang/w1/test/fav3/triton/fa/flash-attention.py":336:14)
#loc182 = loc("/home/mejiang/w1/test/fav3/triton/fa/flash-attention.py":336:30)
#loc183 = loc("/home/mejiang/w1/test/fav3/triton/fa/flash-attention.py":337:13)
#loc184 = loc("/home/mejiang/w1/test/fav3/triton/fa/flash-attention.py":340:16)
#loc185 = loc("/home/mejiang/w1/test/fav3/triton/fa/flash-attention.py":350:30)
#loc186 = loc("/home/mejiang/w1/test/fav3/triton/fa/flash-attention.py":350:17)
#loc187 = loc("/home/mejiang/w1/test/fav3/triton/fa/flash-attention.py":351:21)
#loc188 = loc("/home/mejiang/w1/test/fav3/triton/fa/flash-attention.py":351:15)
#loc189 = loc("/home/mejiang/w1/test/fav3/triton/fa/flash-attention.py":353:17)
#loc190 = loc("/home/mejiang/w1/test/fav3/triton/fa/flash-attention.py":355:15)
#loc191 = loc("/home/mejiang/w1/test/fav3/triton/fa/flash-attention.py":370:27)
#loc192 = loc("/home/mejiang/w1/test/fav3/triton/fa/flash-attention.py":370:20)
#loc193 = loc("/home/mejiang/w1/test/fav3/triton/fa/flash-attention.py":370:13)
#loc194 = loc("/home/mejiang/w1/test/fav3/triton/fa/flash-attention.py":372:19)
#loc195 = loc("/home/mejiang/w1/test/fav3/triton/fa/flash-attention.py":372:9)
#loc196 = loc("/home/mejiang/w1/test/fav3/triton/fa/flash-attention.py":373:19)
#loc197 = loc("/home/mejiang/w1/test/fav3/triton/fa/flash-attention.py":373:9)
#loc198 = loc("/home/mejiang/w1/test/fav3/triton/fa/flash-attention.py":378:5)
#loc200 = loc("/home/mejiang/w1/test/fav3/triton/fa/flash-attention.py":213:18)
#loc201 = loc("/home/mejiang/w1/test/fav3/triton/fa/flash-attention.py":214:5)
#loc203 = loc("/home/mejiang/w1/test/triton/python/triton/language/standard.py":191:16)
#loc205 = loc("/home/mejiang/w1/test/triton/python/triton/language/standard.py":191:9)
#loc207 = loc("/home/mejiang/w1/test/triton/python/triton/language/standard.py":170:12)
#loc208 = loc("/home/mejiang/w1/test/triton/python/triton/language/standard.py":170:5)
#loc210 = loc("/home/mejiang/w1/test/triton/python/triton/language/standard.py":293:12)
#loc211 = loc("/home/mejiang/w1/test/triton/python/triton/language/standard.py":293:5)
#loc213 = loc("/home/mejiang/w1/test/triton/python/triton/language/standard.py":263:12)
#loc214 = loc("/home/mejiang/w1/test/triton/python/triton/language/standard.py":263:5)
#loc215 = loc("/home/mejiang/w1/test/fav3/triton/fa/flash-attention.py":282:34)
#loc216 = loc("/home/mejiang/w1/test/fav3/triton/fa/flash-attention.py":282:24)
#loc217 = loc("/home/mejiang/w1/test/fav3/triton/fa/flash-attention.py":300:17)
#loc218 = loc("/home/mejiang/w1/test/fav3/triton/fa/flash-attention.py":300:54)
#loc219 = loc("/home/mejiang/w1/test/fav3/triton/fa/flash-attention.py":300:16)
#loc220 = loc("/home/mejiang/w1/test/fav3/triton/fa/flash-attention.py":300:13)
#loc221 = loc("/home/mejiang/w1/test/fav3/triton/fa/flash-attention.py":301:30)
#loc222 = loc("/home/mejiang/w1/test/fav3/triton/fa/flash-attention.py":302:36)
#loc223 = loc("/home/mejiang/w1/test/fav3/triton/fa/flash-attention.py":302:26)
#loc224 = loc("/home/mejiang/w1/test/fav3/triton/fa/flash-attention.py":303:33)
#loc225 = loc("/home/mejiang/w1/test/fav3/triton/fa/flash-attention.py":303:24)
#loc226 = loc("/home/mejiang/w1/test/fav3/triton/fa/flash-attention.py":304:22)
#loc227 = loc("/home/mejiang/w1/test/fav3/triton/fa/flash-attention.py":210:16)
#loc228 = loc("/home/mejiang/w1/test/fav3/triton/fa/flash-attention.py":211:18)
#loc229 = loc("/home/mejiang/w1/test/fav3/triton/fa/flash-attention.py":207:16)
#loc230 = loc("/home/mejiang/w1/test/fav3/triton/fa/flash-attention.py":208:18)
#loc258 = loc("tile_id"(#loc37))
#loc259 = loc("num_tiles_total"(#loc38))
#loc260 = loc("tile_id"(#loc39))
#loc261 = loc("off_h_q"(#loc42))
#loc262 = loc("off_h_q"(#loc43))
#loc263 = loc("start_m"(#loc44))
#loc264 = loc("off_z"(#loc45))
#loc265 = loc("offs_m"(#loc46))
#loc266 = loc("offs_m"(#loc47))
#loc267 = loc("offs_n"(#loc48))
#loc268 = loc("offs_d"(#loc49))
#loc269 = loc("continue_condition"(#loc50))
#loc270 = loc("cu_seqlens_q_start"(#loc51))
#loc271 = loc("cu_seqlens_k_start"(#loc52))
#loc272 = loc("seqlen_q"(#loc53))
#loc273 = loc("seqlen_k"(#loc54))
#loc274 = loc("n_blocks"(#loc56))
#loc275 = loc("n_extra_tokens"(#loc58))
#loc276 = loc("n_extra_tokens"(#loc61))
#loc277 = loc("n_extra_tokens"(#loc63))
#loc278 = loc("n_extra_tokens"(#loc64))
#loc279 = loc("q_offset"(#loc65))
#loc280 = loc("q_offset"(#loc66))
#loc281 = loc("q_offset"(#loc67))
#loc282 = loc("q_offset"(#loc68))
#loc283 = loc("q_ptrs"(#loc69))
#loc284 = loc("q_ptrs"(#loc70))
#loc285 = loc("q_ptrs"(#loc71))
#loc286 = loc("k_offset"(#loc72))
#loc287 = loc("k_offset"(#loc73))
#loc288 = loc("k_offset"(#loc74))
#loc289 = loc("k_offset"(#loc75))
#loc290 = loc("k_ptrs"(#loc76))
#loc291 = loc("k_ptrs"(#loc77))
#loc292 = loc("k_ptrs"(#loc78))
#loc293 = loc("v_offset"(#loc79))
#loc294 = loc("v_offset"(#loc80))
#loc295 = loc("v_offset"(#loc81))
#loc296 = loc("v_offset"(#loc82))
#loc297 = loc("v_ptrs"(#loc83))
#loc298 = loc("v_ptrs"(#loc84))
#loc299 = loc("v_ptrs"(#loc85))
#loc300 = loc("batch_philox_offset"(#loc86))
#loc301 = loc("m_i"(#loc87))
#loc302 = loc("l_i"(#loc88))
#loc303 = loc("acc"(#loc89))
#loc304 = loc("q_ptrs_mask"(#loc90))
#loc305 = loc("q"(#loc91))
#loc306 = loc("padded_block_k"(#loc92))
#loc307 = loc("is_modulo_mn"(#loc93))
#loc308 = loc("is_modulo_mn"(#loc94))
#loc309 = loc("masked_blocks"(#loc95))
#loc310 = loc("n_full_blocks"(#loc96))
#loc311 = loc("block_min"(#loc97))
#loc312 = loc("block_max"(#loc98))
#loc313 = loc("m_i"(#loc100))
#loc314 = loc("block_max"(#loc101))
#loc315 = loc("block_max"(#loc102))
#loc316 = loc("m_i"(#loc103))
#loc317 = loc("block_max"(#loc104))
#loc318 = loc("offs_n_causal"(#loc108))
#loc319 = loc("k_ptrs"(#loc109))
#loc320 = loc("k_ptrs"(#loc110))
#loc321 = loc("v_ptrs"(#loc111))
#loc322 = loc("v_ptrs"(#loc112))
#loc323 = loc("m_i"(#loc113))
#loc324 = loc("l_recip"(#loc114))
#loc325 = loc("l_recip"(#loc115))
#loc326 = loc("acc"(#loc116))
#loc327 = loc("end_m_idx"(#loc117))
#loc328 = loc("end_m_idx"(#loc118))
#loc329 = loc("start_m_idx"(#loc119))
#loc330 = loc("causal_start_idx"(#loc120))
#loc331 = loc("acc"(#loc121))
#loc332 = loc("l_ptrs"(#loc122))
#loc333 = loc("l_ptrs"(#loc123))
#loc334 = loc("l_ptrs"(#loc124))
#loc335 = loc("overflow_size"(#loc125))
#loc336 = loc("boundary"(#loc128))
#loc337 = loc("boundary"(#loc129))
#loc338 = loc("l_ptrs_mask"(#loc130))
#loc339 = loc("o_offset"(#loc137))
#loc340 = loc("o_offset"(#loc138))
#loc341 = loc("o_offset"(#loc139))
#loc342 = loc("o_offset"(#loc140))
#loc343 = loc("o_ptrs"(#loc141))
#loc344 = loc("o_ptrs"(#loc142))
#loc345 = loc("o_ptrs"(#loc143))
#loc346 = loc("o_ptrs_mask"(#loc144))
#loc347 = loc("o_ptrs_mask"(#loc147))
#loc348 = loc("o_ptrs_mask"(#loc148))
#loc350 = loc("pids_per_xcd"(#loc151))
#loc351 = loc("tall_xcds"(#loc152))
#loc352 = loc("tall_xcds"(#loc153))
#loc353 = loc("tall_xcds"(#loc154))
#loc354 = loc("tall_xcds"(#loc150))
#loc355 = loc("xcd"(#loc155))
#loc356 = loc("local_pid"(#loc156))
#loc357 = loc("pid"(#loc159))
#loc358 = loc("pid"(#loc160))
#loc359 = loc("pid"(#loc161))
#loc360 = loc("pid"(#loc162))
#loc361 = loc("pid"(#loc163))
#loc382 = loc("acc"(#loc173))
#loc383 = loc("k"(#loc174))
#loc384 = loc("qk"(#loc175))
#loc385 = loc("qk"(#loc176))
#loc386 = loc("qk"(#loc177))
#loc387 = loc("m_ij"(#loc178))
#loc388 = loc("m_ij"(#loc179))
#loc389 = loc("m_ij_scaled"(#loc180))
#loc390 = loc("qk"(#loc181))
#loc391 = loc("qk"(#loc182))
#loc392 = loc("p"(#loc183))
#loc393 = loc("l_ij"(#loc184))
#loc394 = loc("alpha"(#loc185))
#loc395 = loc("alpha"(#loc186))
#loc396 = loc("acc"(#loc187))
#loc397 = loc("acc"(#loc188))
#loc398 = loc("v"(#loc189))
#loc399 = loc("l_i"(#loc190))
#loc400 = loc("acc"(#loc191))
#loc401 = loc("acc"(#loc192))
#loc402 = loc("acc"(#loc193))
#loc403 = loc("k_ptrs"(#loc194))
#loc404 = loc("k_ptrs"(#loc195))
#loc405 = loc("v_ptrs"(#loc196))
#loc406 = loc("v_ptrs"(#loc197))
#loc409 = loc("tensor"(#loc200))
#loc420 = loc("k_offs_n"(#loc215))
#loc421 = loc("k_offs_n"(#loc216))
#loc422 = loc("boundary_m"(#loc221))
#loc423 = loc("size_n"(#loc222))
#loc424 = loc("size_n"(#loc223))
#loc425 = loc("mask"(#loc224))
#loc426 = loc("mask"(#loc225))
#loc427 = loc("qk"(#loc226))
#loc429 = loc("mask"(#loc227))
#loc430 = loc("tensor"(#loc228))
#loc432 = loc("mask"(#loc229))
#loc433 = loc("tensor"(#loc230))
#loc434 = loc("n_extra_tokens"(#loc275))
#loc435 = loc("n_extra_tokens"(#loc276))
#loc436 = loc("n_extra_tokens"(#loc278))
#loc437 = loc("k_ptrs"(#loc291))
#loc438 = loc("v_ptrs"(#loc298))
#loc439 = loc("m_i"(#loc301))
#loc440 = loc("l_i"(#loc302))
#loc441 = loc("acc"(#loc303))
#loc442 = loc("block_min"(#loc311))
#loc443 = loc("block_max"(#loc312))
#loc444 = loc("l_i"(#loc313))
#loc445 = loc("block_min"(#loc315))
#loc446 = loc("l_i"(#loc316))
#loc447 = loc("block_max"(#loc317))
#loc448 = loc("k_ptrs"(#loc320))
#loc449 = loc("v_ptrs"(#loc322))
#loc450 = loc("l_i"(#loc323))
#loc451 = loc("o_ptrs_mask"(#loc346))
#loc452 = loc("o_ptrs_mask"(#loc348))
#loc453 = loc("pid"(#loc357))
#loc454 = loc("pid"(#loc358))
#loc455 = loc("l_i"(#loc382))
#loc456 = loc("qk"(#loc384))
#loc457 = loc("qk"(#loc427))
#loc458 = loc("acc"(#loc444))
#loc459 = loc("acc"(#loc446))
#loc460 = loc("acc"(#loc450))
#loc461 = loc("m_i"(#loc455))
#loc462 = loc("k_ptrs"(#loc461))
#loc463 = loc("v_ptrs"(#loc462))
