#loc = loc("/home/mejiang/w1/test/triton/fa/flash-attention.py":465:0)
#loc41 = loc(unknown)
#loc233 = loc("/home/mejiang/w1/test/triton/fa/flash-attention.py":34:0)
#loc253 = loc("/home/mejiang/w1/test/triton/fa/flash-attention.py":168:0)
#loc263 = loc("/home/mejiang/w1/test/triton/fa/flash-attention.py":267:0)
#loc295 = loc("/home/mejiang/w1/test/triton/fa/flash-attention.py":201:0)
#loc299 = loc("/opt/venv/lib/python3.10/site-packages/triton/language/standard.py":174:0)
#loc303 = loc("/opt/venv/lib/python3.10/site-packages/triton/language/standard.py":166:0)
#loc307 = loc("/opt/venv/lib/python3.10/site-packages/triton/language/standard.py":284:0)
#loc311 = loc("/opt/venv/lib/python3.10/site-packages/triton/language/standard.py":259:0)
module {
  tt.func public @attn_fwd(%arg0: !tt.ptr<f16> {tt.divisibility = 16 : i32} loc("/home/mejiang/w1/test/triton/fa/flash-attention.py":465:0), %arg1: !tt.ptr<f16> {tt.divisibility = 16 : i32} loc("/home/mejiang/w1/test/triton/fa/flash-attention.py":465:0), %arg2: !tt.ptr<f16> {tt.divisibility = 16 : i32} loc("/home/mejiang/w1/test/triton/fa/flash-attention.py":465:0), %arg3: !tt.ptr<f32> {tt.divisibility = 16 : i32} loc("/home/mejiang/w1/test/triton/fa/flash-attention.py":465:0), %arg4: !tt.ptr<f16> {tt.divisibility = 16 : i32} loc("/home/mejiang/w1/test/triton/fa/flash-attention.py":465:0), %arg5: i32 {tt.divisibility = 16 : i32} loc("/home/mejiang/w1/test/triton/fa/flash-attention.py":465:0), %arg6: i32 {tt.divisibility = 16 : i32} loc("/home/mejiang/w1/test/triton/fa/flash-attention.py":465:0), %arg7: i32 {tt.divisibility = 16 : i32} loc("/home/mejiang/w1/test/triton/fa/flash-attention.py":465:0), %arg8: i32 {tt.divisibility = 16 : i32} loc("/home/mejiang/w1/test/triton/fa/flash-attention.py":465:0), %arg9: i32 {tt.divisibility = 16 : i32} loc("/home/mejiang/w1/test/triton/fa/flash-attention.py":465:0), %arg10: i32 {tt.divisibility = 16 : i32} loc("/home/mejiang/w1/test/triton/fa/flash-attention.py":465:0), %arg11: i32 {tt.divisibility = 16 : i32} loc("/home/mejiang/w1/test/triton/fa/flash-attention.py":465:0), %arg12: i32 {tt.divisibility = 16 : i32} loc("/home/mejiang/w1/test/triton/fa/flash-attention.py":465:0), %arg13: i32 {tt.divisibility = 16 : i32} loc("/home/mejiang/w1/test/triton/fa/flash-attention.py":465:0), %arg14: i32 {tt.divisibility = 16 : i32} loc("/home/mejiang/w1/test/triton/fa/flash-attention.py":465:0), %arg15: i32 {tt.divisibility = 16 : i32} loc("/home/mejiang/w1/test/triton/fa/flash-attention.py":465:0), %arg16: i32 {tt.divisibility = 16 : i32} loc("/home/mejiang/w1/test/triton/fa/flash-attention.py":465:0), %arg17: i32 {tt.divisibility = 16 : i32} loc("/home/mejiang/w1/test/triton/fa/flash-attention.py":465:0), %arg18: i32 {tt.divisibility = 16 : i32} loc("/home/mejiang/w1/test/triton/fa/flash-attention.py":465:0), %arg19: i32 {tt.divisibility = 16 : i32} loc("/home/mejiang/w1/test/triton/fa/flash-attention.py":465:0), %arg20: i32 {tt.divisibility = 16 : i32} loc("/home/mejiang/w1/test/triton/fa/flash-attention.py":465:0), %arg21: i32 {tt.divisibility = 16 : i32} loc("/home/mejiang/w1/test/triton/fa/flash-attention.py":465:0), %arg22: i32 {tt.divisibility = 16 : i32} loc("/home/mejiang/w1/test/triton/fa/flash-attention.py":465:0), %arg23: f32 loc("/home/mejiang/w1/test/triton/fa/flash-attention.py":465:0), %arg24: i32 loc("/home/mejiang/w1/test/triton/fa/flash-attention.py":465:0), %arg25: !tt.ptr<i32> {tt.divisibility = 16 : i32} loc("/home/mejiang/w1/test/triton/fa/flash-attention.py":465:0), %arg26: i32 loc("/home/mejiang/w1/test/triton/fa/flash-attention.py":465:0)) attributes {noinline = false} {
    %c0_i32 = arith.constant 0 : i32 loc(#loc1)
    %0 = arith.cmpi sge, %arg5, %c0_i32 : i32 loc(#loc1)
    llvm.intr.assume %0 : i1 loc(#loc2)
    %c0_i32_0 = arith.constant 0 : i32 loc(#loc3)
    %1 = arith.cmpi sge, %arg6, %c0_i32_0 : i32 loc(#loc3)
    llvm.intr.assume %1 : i1 loc(#loc4)
    %c0_i32_1 = arith.constant 0 : i32 loc(#loc5)
    %2 = arith.cmpi sge, %arg7, %c0_i32_1 : i32 loc(#loc5)
    llvm.intr.assume %2 : i1 loc(#loc6)
    %true = arith.constant true loc(#loc7)
    llvm.intr.assume %true : i1 loc(#loc7)
    %c0_i32_2 = arith.constant 0 : i32 loc(#loc8)
    %3 = arith.cmpi sge, %arg8, %c0_i32_2 : i32 loc(#loc8)
    llvm.intr.assume %3 : i1 loc(#loc9)
    %c0_i32_3 = arith.constant 0 : i32 loc(#loc10)
    %4 = arith.cmpi sge, %arg9, %c0_i32_3 : i32 loc(#loc10)
    llvm.intr.assume %4 : i1 loc(#loc11)
    %c0_i32_4 = arith.constant 0 : i32 loc(#loc12)
    %5 = arith.cmpi sge, %arg10, %c0_i32_4 : i32 loc(#loc12)
    llvm.intr.assume %5 : i1 loc(#loc13)
    %true_5 = arith.constant true loc(#loc14)
    llvm.intr.assume %true_5 : i1 loc(#loc14)
    %c0_i32_6 = arith.constant 0 : i32 loc(#loc15)
    %6 = arith.cmpi sge, %arg17, %c0_i32_6 : i32 loc(#loc15)
    llvm.intr.assume %6 : i1 loc(#loc16)
    %c0_i32_7 = arith.constant 0 : i32 loc(#loc17)
    %7 = arith.cmpi sge, %arg18, %c0_i32_7 : i32 loc(#loc17)
    llvm.intr.assume %7 : i1 loc(#loc18)
    %c0_i32_8 = arith.constant 0 : i32 loc(#loc19)
    %8 = arith.cmpi sge, %arg19, %c0_i32_8 : i32 loc(#loc19)
    llvm.intr.assume %8 : i1 loc(#loc20)
    %c0_i32_9 = arith.constant 0 : i32 loc(#loc21)
    %9 = arith.cmpi sge, %arg20, %c0_i32_9 : i32 loc(#loc21)
    llvm.intr.assume %9 : i1 loc(#loc22)
    %c0_i32_10 = arith.constant 0 : i32 loc(#loc23)
    %10 = arith.cmpi sge, %arg11, %c0_i32_10 : i32 loc(#loc23)
    llvm.intr.assume %10 : i1 loc(#loc24)
    %c0_i32_11 = arith.constant 0 : i32 loc(#loc25)
    %11 = arith.cmpi sge, %arg12, %c0_i32_11 : i32 loc(#loc25)
    llvm.intr.assume %11 : i1 loc(#loc26)
    %c0_i32_12 = arith.constant 0 : i32 loc(#loc27)
    %12 = arith.cmpi sge, %arg13, %c0_i32_12 : i32 loc(#loc27)
    llvm.intr.assume %12 : i1 loc(#loc28)
    %true_13 = arith.constant true loc(#loc29)
    llvm.intr.assume %true_13 : i1 loc(#loc29)
    %c0_i32_14 = arith.constant 0 : i32 loc(#loc30)
    %13 = arith.cmpi sge, %arg14, %c0_i32_14 : i32 loc(#loc30)
    llvm.intr.assume %13 : i1 loc(#loc31)
    %c0_i32_15 = arith.constant 0 : i32 loc(#loc32)
    %14 = arith.cmpi sge, %arg15, %c0_i32_15 : i32 loc(#loc32)
    llvm.intr.assume %14 : i1 loc(#loc33)
    %c0_i32_16 = arith.constant 0 : i32 loc(#loc34)
    %15 = arith.cmpi sge, %arg16, %c0_i32_16 : i32 loc(#loc34)
    llvm.intr.assume %15 : i1 loc(#loc35)
    %true_17 = arith.constant true loc(#loc36)
    llvm.intr.assume %true_17 : i1 loc(#loc36)
    %c0_i32_18 = arith.constant 0 : i32 loc(#loc37)
    %c1_i32 = arith.constant 1 : i32 loc(#loc38)
    %16 = scf.while (%arg27 = %c0_i32_18) : (i32) -> i32 {
      %17 = arith.cmpi slt, %arg27, %c1_i32 : i32 loc(#loc40)
      scf.condition(%17) %arg27 : i32 loc(#loc40)
    } do {
    ^bb0(%arg27: i32 loc(unknown)):
      %17 = tt.get_program_id x : i32 loc(#loc42)
      %18 = tt.call @"__main__.remap_xcd__i32__(1,)cconstexpr_64__(2,)cconstexpr_8_"(%17) : (i32) -> i32 loc(#loc43)
      %19 = tt.get_program_id y : i32 loc(#loc44)
      %20 = tt.get_program_id z : i32 loc(#loc45)
      %c256_i32 = arith.constant 256 : i32 loc(#loc46)
      %c256_i32_19 = arith.constant 256 : i32 loc(#loc46)
      %21 = arith.extsi %19 : i32 to i64 loc(#loc46)
      %22 = arith.extsi %c256_i32_19 : i32 to i64 loc(#loc46)
      %23 = arith.muli %21, %22 : i64 loc(#loc46)
      %c2147483647_i64 = arith.constant 2147483647 : i64 loc(#loc46)
      %c-2147483648_i64 = arith.constant -2147483648 : i64 loc(#loc46)
      %24 = arith.cmpi sle, %23, %c2147483647_i64 : i64 loc(#loc46)
      %25 = arith.cmpi sge, %23, %c-2147483648_i64 : i64 loc(#loc46)
      %26 = arith.andi %24, %25 : i1 loc(#loc46)
      %27 = arith.muli %19, %c256_i32_19 : i32 loc(#loc46)
      %28 = tt.make_range {end = 256 : i32, start = 0 : i32} : tensor<256xi32> loc(#loc47)
      %29 = tt.splat %27 : i32 -> tensor<256xi32> loc(#loc48)
      %30 = arith.extsi %29 : tensor<256xi32> to tensor<256xi64> loc(#loc48)
      %31 = arith.extsi %28 : tensor<256xi32> to tensor<256xi64> loc(#loc48)
      %32 = arith.addi %30, %31 : tensor<256xi64> loc(#loc48)
      %c2147483647_i64_20 = arith.constant 2147483647 : i64 loc(#loc48)
      %c-2147483648_i64_21 = arith.constant -2147483648 : i64 loc(#loc48)
      %cst = arith.constant dense<2147483647> : tensor<256xi64> loc(#loc48)
      %33 = arith.cmpi sle, %32, %cst : tensor<256xi64> loc(#loc48)
      %cst_22 = arith.constant dense<-2147483648> : tensor<256xi64> loc(#loc48)
      %34 = arith.cmpi sge, %32, %cst_22 : tensor<256xi64> loc(#loc48)
      %35 = arith.andi %33, %34 : tensor<256xi1> loc(#loc48)
      %36 = arith.addi %29, %28 : tensor<256xi32> loc(#loc48)
      %37 = tt.make_range {end = 64 : i32, start = 0 : i32} : tensor<64xi32> loc(#loc49)
      %38 = tt.make_range {end = 128 : i32, start = 0 : i32} : tensor<128xi32> loc(#loc50)
      %true_23 = arith.constant true loc(#loc51)
      %c0_i32_24 = arith.constant 0 : i32 loc(#loc52)
      %c0_i32_25 = arith.constant 0 : i32 loc(#loc53)
      %c16384_i32 = arith.constant 16384 : i32 loc(#loc54)
      %c16384_i32_26 = arith.constant 16384 : i32 loc(#loc55)
      %39 = scf.if %true_23 -> (i1) {
        %40 = tt.call @"__main__.cdiv_fn__i32__(1,)cconstexpr_64_"(%c16384_i32_26) : (i32) -> i32 loc(#loc57)
        %c1_i32_27 = arith.constant 1 : i32 loc(#loc58)
        %c1_i32_28 = arith.constant 1 : i32 loc(#loc58)
        %41 = arith.extsi %19 : i32 to i64 loc(#loc58)
        %42 = arith.extsi %c1_i32_28 : i32 to i64 loc(#loc58)
        %43 = arith.addi %41, %42 : i64 loc(#loc58)
        %c2147483647_i64_29 = arith.constant 2147483647 : i64 loc(#loc58)
        %c-2147483648_i64_30 = arith.constant -2147483648 : i64 loc(#loc58)
        %44 = arith.cmpi sle, %43, %c2147483647_i64_29 : i64 loc(#loc58)
        %45 = arith.cmpi sge, %43, %c-2147483648_i64_30 : i64 loc(#loc58)
        %46 = arith.andi %44, %45 : i1 loc(#loc58)
        %47 = arith.addi %19, %c1_i32_28 : i32 loc(#loc58)
        %c256_i32_31 = arith.constant 256 : i32 loc(#loc59)
        %c256_i32_32 = arith.constant 256 : i32 loc(#loc59)
        %48 = arith.extsi %47 : i32 to i64 loc(#loc59)
        %49 = arith.extsi %c256_i32_32 : i32 to i64 loc(#loc59)
        %50 = arith.muli %48, %49 : i64 loc(#loc59)
        %c2147483647_i64_33 = arith.constant 2147483647 : i64 loc(#loc59)
        %c-2147483648_i64_34 = arith.constant -2147483648 : i64 loc(#loc59)
        %51 = arith.cmpi sle, %50, %c2147483647_i64_33 : i64 loc(#loc59)
        %52 = arith.cmpi sge, %50, %c-2147483648_i64_34 : i64 loc(#loc59)
        %53 = arith.andi %51, %52 : i1 loc(#loc59)
        %54 = arith.muli %47, %c256_i32_32 : i32 loc(#loc59)
        %55 = arith.extsi %54 : i32 to i64 loc(#loc60)
        %56 = arith.extsi %c16384_i32_26 : i32 to i64 loc(#loc60)
        %57 = arith.addi %55, %56 : i64 loc(#loc60)
        %c2147483647_i64_35 = arith.constant 2147483647 : i64 loc(#loc60)
        %c-2147483648_i64_36 = arith.constant -2147483648 : i64 loc(#loc60)
        %58 = arith.cmpi sle, %57, %c2147483647_i64_35 : i64 loc(#loc60)
        %59 = arith.cmpi sge, %57, %c-2147483648_i64_36 : i64 loc(#loc60)
        %60 = arith.andi %58, %59 : i1 loc(#loc60)
        %61 = arith.addi %54, %c16384_i32_26 : i32 loc(#loc60)
        %62 = arith.extsi %61 : i32 to i64 loc(#loc61)
        %63 = arith.extsi %c16384_i32 : i32 to i64 loc(#loc61)
        %64 = arith.subi %62, %63 : i64 loc(#loc61)
        %c2147483647_i64_37 = arith.constant 2147483647 : i64 loc(#loc61)
        %c-2147483648_i64_38 = arith.constant -2147483648 : i64 loc(#loc61)
        %65 = arith.cmpi sle, %64, %c2147483647_i64_37 : i64 loc(#loc61)
        %66 = arith.cmpi sge, %64, %c-2147483648_i64_38 : i64 loc(#loc61)
        %67 = arith.andi %65, %66 : i1 loc(#loc61)
        %68 = arith.subi %61, %c16384_i32 : i32 loc(#loc61)
        %69 = tt.call @"__main__.cdiv_fn__i32__(1,)cconstexpr_64_"(%68) : (i32) -> i32 loc(#loc62)
        %70 = arith.minsi %40, %69 : i32 loc(#loc63)
        %c0_i32_39 = arith.constant 0 : i32 loc(#loc64)
        %71 = arith.cmpi sle, %70, %c0_i32_39 : i32 loc(#loc64)
        %72 = scf.if %71 -> (i1) {
          %73 = arith.extsi %20 : i32 to i64 loc(#loc66)
          %74 = arith.extsi %arg14 : i32 to i64 loc(#loc66)
          %75 = arith.muli %73, %74 : i64 loc(#loc66)
          %c2147483647_i64_40 = arith.constant 2147483647 : i64 loc(#loc66)
          %c-2147483648_i64_41 = arith.constant -2147483648 : i64 loc(#loc66)
          %76 = arith.cmpi sle, %75, %c2147483647_i64_40 : i64 loc(#loc66)
          %77 = arith.cmpi sge, %75, %c-2147483648_i64_41 : i64 loc(#loc66)
          %78 = arith.andi %76, %77 : i1 loc(#loc66)
          %79 = arith.muli %20, %arg14 : i32 loc(#loc66)
          %80 = tt.addptr %arg4, %79 : !tt.ptr<f16>, i32 loc(#loc67)
          %81 = arith.extsi %18 : i32 to i64 loc(#loc68)
          %82 = arith.extsi %arg15 : i32 to i64 loc(#loc68)
          %83 = arith.muli %81, %82 : i64 loc(#loc68)
          %c2147483647_i64_42 = arith.constant 2147483647 : i64 loc(#loc68)
          %c-2147483648_i64_43 = arith.constant -2147483648 : i64 loc(#loc68)
          %84 = arith.cmpi sle, %83, %c2147483647_i64_42 : i64 loc(#loc68)
          %85 = arith.cmpi sge, %83, %c-2147483648_i64_43 : i64 loc(#loc68)
          %86 = arith.andi %84, %85 : i1 loc(#loc68)
          %87 = arith.muli %18, %arg15 : i32 loc(#loc68)
          %88 = tt.addptr %80, %87 : !tt.ptr<f16>, i32 loc(#loc69)
          %89 = arith.extsi %c0_i32_24 : i32 to i64 loc(#loc70)
          %90 = arith.extsi %arg16 : i32 to i64 loc(#loc70)
          %91 = arith.muli %89, %90 : i64 loc(#loc70)
          %c2147483647_i64_44 = arith.constant 2147483647 : i64 loc(#loc70)
          %c-2147483648_i64_45 = arith.constant -2147483648 : i64 loc(#loc70)
          %92 = arith.cmpi sle, %91, %c2147483647_i64_44 : i64 loc(#loc70)
          %93 = arith.cmpi sge, %91, %c-2147483648_i64_45 : i64 loc(#loc70)
          %94 = arith.andi %92, %93 : i1 loc(#loc70)
          %95 = arith.muli %c0_i32_24, %arg16 : i32 loc(#loc70)
          %96 = tt.addptr %88, %95 : !tt.ptr<f16>, i32 loc(#loc71)
          %97 = tt.expand_dims %36 {axis = 1 : i32} : tensor<256xi32> -> tensor<256x1xi32> loc(#loc72)
          %98 = tt.splat %arg16 : i32 -> tensor<256x1xi32> loc(#loc73)
          %99 = arith.extsi %97 : tensor<256x1xi32> to tensor<256x1xi64> loc(#loc73)
          %100 = arith.extsi %98 : tensor<256x1xi32> to tensor<256x1xi64> loc(#loc73)
          %101 = arith.muli %99, %100 : tensor<256x1xi64> loc(#loc73)
          %c2147483647_i64_46 = arith.constant 2147483647 : i64 loc(#loc73)
          %c-2147483648_i64_47 = arith.constant -2147483648 : i64 loc(#loc73)
          %cst_48 = arith.constant dense<2147483647> : tensor<256x1xi64> loc(#loc73)
          %102 = arith.cmpi sle, %101, %cst_48 : tensor<256x1xi64> loc(#loc73)
          %cst_49 = arith.constant dense<-2147483648> : tensor<256x1xi64> loc(#loc73)
          %103 = arith.cmpi sge, %101, %cst_49 : tensor<256x1xi64> loc(#loc73)
          %104 = arith.andi %102, %103 : tensor<256x1xi1> loc(#loc73)
          %105 = arith.muli %97, %98 : tensor<256x1xi32> loc(#loc73)
          %106 = tt.splat %96 : !tt.ptr<f16> -> tensor<256x1x!tt.ptr<f16>> loc(#loc74)
          %107 = tt.addptr %106, %105 : tensor<256x1x!tt.ptr<f16>>, tensor<256x1xi32> loc(#loc74)
          %108 = tt.expand_dims %38 {axis = 0 : i32} : tensor<128xi32> -> tensor<1x128xi32> loc(#loc75)
          %c1_i32_50 = arith.constant 1 : i32 loc(#loc76)
          %c1_i32_51 = arith.constant 1 : i32 loc(#loc76)
          %cst_52 = arith.constant dense<1> : tensor<1x128xi32> loc(#loc76)
          %109 = arith.extsi %108 : tensor<1x128xi32> to tensor<1x128xi64> loc(#loc76)
          %110 = arith.extsi %cst_52 : tensor<1x128xi32> to tensor<1x128xi64> loc(#loc76)
          %111 = arith.muli %109, %110 : tensor<1x128xi64> loc(#loc76)
          %c2147483647_i64_53 = arith.constant 2147483647 : i64 loc(#loc76)
          %c-2147483648_i64_54 = arith.constant -2147483648 : i64 loc(#loc76)
          %cst_55 = arith.constant dense<2147483647> : tensor<1x128xi64> loc(#loc76)
          %112 = arith.cmpi sle, %111, %cst_55 : tensor<1x128xi64> loc(#loc76)
          %cst_56 = arith.constant dense<-2147483648> : tensor<1x128xi64> loc(#loc76)
          %113 = arith.cmpi sge, %111, %cst_56 : tensor<1x128xi64> loc(#loc76)
          %114 = arith.andi %112, %113 : tensor<1x128xi1> loc(#loc76)
          %115 = arith.muli %108, %cst_52 : tensor<1x128xi32> loc(#loc76)
          %116 = tt.broadcast %107 : tensor<256x1x!tt.ptr<f16>> -> tensor<256x128x!tt.ptr<f16>> loc(#loc77)
          %117 = tt.broadcast %115 : tensor<1x128xi32> -> tensor<256x128xi32> loc(#loc77)
          %118 = tt.addptr %116, %117 : tensor<256x128x!tt.ptr<f16>>, tensor<256x128xi32> loc(#loc77)
          %119 = tt.call @"triton.language.standard.zeros____(0, 0)cconstexpr_256__(0, 1)cconstexpr_128__(1,)cconstexpr_fp16_"() : () -> tensor<256x128xf16> loc(#loc78)
          %120 = tt.expand_dims %36 {axis = 1 : i32} : tensor<256xi32> -> tensor<256x1xi32> loc(#loc79)
          %cst_57 = arith.constant dense<16384> : tensor<256x1xi32> loc(#loc80)
          %121 = arith.cmpi slt, %120, %cst_57 : tensor<256x1xi32> loc(#loc80)
          %122 = tt.broadcast %121 : tensor<256x1xi1> -> tensor<256x128xi1> loc(#loc81)
          tt.store %118, %119, %122 : tensor<256x128x!tt.ptr<f16>> loc(#loc82)
          %c64_i32 = arith.constant 64 : i32 loc(#loc83)
          %c64_i32_58 = arith.constant 64 : i32 loc(#loc83)
          %123 = arith.extsi %20 : i32 to i64 loc(#loc83)
          %124 = arith.extsi %c64_i32_58 : i32 to i64 loc(#loc83)
          %125 = arith.muli %123, %124 : i64 loc(#loc83)
          %c2147483647_i64_59 = arith.constant 2147483647 : i64 loc(#loc83)
          %c-2147483648_i64_60 = arith.constant -2147483648 : i64 loc(#loc83)
          %126 = arith.cmpi sle, %125, %c2147483647_i64_59 : i64 loc(#loc83)
          %127 = arith.cmpi sge, %125, %c-2147483648_i64_60 : i64 loc(#loc83)
          %128 = arith.andi %126, %127 : i1 loc(#loc83)
          %129 = arith.muli %20, %c64_i32_58 : i32 loc(#loc83)
          %c16384_i32_61 = arith.constant 16384 : i32 loc(#loc84)
          %c16384_i32_62 = arith.constant 16384 : i32 loc(#loc84)
          %130 = arith.extsi %129 : i32 to i64 loc(#loc84)
          %131 = arith.extsi %c16384_i32_62 : i32 to i64 loc(#loc84)
          %132 = arith.muli %130, %131 : i64 loc(#loc84)
          %c2147483647_i64_63 = arith.constant 2147483647 : i64 loc(#loc84)
          %c-2147483648_i64_64 = arith.constant -2147483648 : i64 loc(#loc84)
          %133 = arith.cmpi sle, %132, %c2147483647_i64_63 : i64 loc(#loc84)
          %134 = arith.cmpi sge, %132, %c-2147483648_i64_64 : i64 loc(#loc84)
          %135 = arith.andi %133, %134 : i1 loc(#loc84)
          %136 = arith.muli %129, %c16384_i32_62 : i32 loc(#loc84)
          %137 = tt.addptr %arg3, %136 : !tt.ptr<f32>, i32 loc(#loc85)
          %c16384_i32_65 = arith.constant 16384 : i32 loc(#loc86)
          %c16384_i32_66 = arith.constant 16384 : i32 loc(#loc86)
          %138 = arith.extsi %18 : i32 to i64 loc(#loc86)
          %139 = arith.extsi %c16384_i32_66 : i32 to i64 loc(#loc86)
          %140 = arith.muli %138, %139 : i64 loc(#loc86)
          %c2147483647_i64_67 = arith.constant 2147483647 : i64 loc(#loc86)
          %c-2147483648_i64_68 = arith.constant -2147483648 : i64 loc(#loc86)
          %141 = arith.cmpi sle, %140, %c2147483647_i64_67 : i64 loc(#loc86)
          %142 = arith.cmpi sge, %140, %c-2147483648_i64_68 : i64 loc(#loc86)
          %143 = arith.andi %141, %142 : i1 loc(#loc86)
          %144 = arith.muli %18, %c16384_i32_66 : i32 loc(#loc86)
          %145 = tt.addptr %137, %144 : !tt.ptr<f32>, i32 loc(#loc87)
          %146 = tt.splat %145 : !tt.ptr<f32> -> tensor<256x!tt.ptr<f32>> loc(#loc88)
          %147 = tt.addptr %146, %36 : tensor<256x!tt.ptr<f32>>, tensor<256xi32> loc(#loc88)
          %cst_69 = arith.constant 0x7F800000 : f32 loc(#loc89)
          %cst_70 = arith.constant dense<0x7F800000> : tensor<256xf32> loc(#loc89)
          %c16384_i32_71 = arith.constant 16384 : i32 loc(#loc90)
          %cst_72 = arith.constant dense<16384> : tensor<256xi32> loc(#loc90)
          %148 = arith.cmpi slt, %36, %cst_72 : tensor<256xi32> loc(#loc90)
          tt.store %147, %cst_70, %148 : tensor<256x!tt.ptr<f32>> loc(#loc91)
          %false = arith.constant false loc(#loc92)
          scf.yield %false : i1 loc(#loc92)
        } else {
          scf.yield %true_23 : i1 loc(#loc41)
        } loc(#loc65)
        scf.if %72 {
          %c0_i32_40 = arith.constant 0 : i32 loc(#loc94)
          %c64_i32 = arith.constant 64 : i32 loc(#loc95)
          %73 = arith.cmpi slt, %c16384_i32_26, %c64_i32 : i32 loc(#loc95)
          %74 = scf.if %73 -> (i32) {
            %c64_i32_170 = arith.constant 64 : i32 loc(#loc97)
            %c64_i32_171 = arith.constant 64 : i32 loc(#loc97)
            %370 = arith.extsi %c64_i32_171 : i32 to i64 loc(#loc97)
            %371 = arith.extsi %c16384_i32_26 : i32 to i64 loc(#loc97)
            %372 = arith.subi %370, %371 : i64 loc(#loc97)
            %c2147483647_i64_172 = arith.constant 2147483647 : i64 loc(#loc97)
            %c-2147483648_i64_173 = arith.constant -2147483648 : i64 loc(#loc97)
            %373 = arith.cmpi sle, %372, %c2147483647_i64_172 : i64 loc(#loc97)
            %374 = arith.cmpi sge, %372, %c-2147483648_i64_173 : i64 loc(#loc97)
            %375 = arith.andi %373, %374 : i1 loc(#loc97)
            %376 = arith.subi %c64_i32_171, %c16384_i32_26 : i32 loc(#loc97)
            scf.yield %376 : i32 loc(#loc97)
          } else {
            %c64_i32_170 = arith.constant 64 : i32 loc(#loc98)
            %c64_i32_171 = arith.constant 64 : i32 loc(#loc98)
            %370 = arith.remsi %c16384_i32_26, %c64_i32_171 : i32 loc(#loc98)
            %c0_i32_172 = arith.constant 0 : i32 loc(#loc99)
            %371 = arith.cmpi ne, %370, %c0_i32_172 : i32 loc(#loc99)
            %372 = scf.if %371 -> (i32) {
              %c64_i32_173 = arith.constant 64 : i32 loc(#loc100)
              %c64_i32_174 = arith.constant 64 : i32 loc(#loc100)
              %373 = arith.remsi %c16384_i32_26, %c64_i32_174 : i32 loc(#loc100)
              scf.yield %373 : i32 loc(#loc100)
            } else {
              scf.yield %c0_i32_40 : i32 loc(#loc41)
            } loc(#loc99)
            scf.yield %372 : i32 loc(#loc99)
          } loc(#loc96)
          %75 = arith.extsi %20 : i32 to i64 loc(#loc101)
          %76 = arith.extsi %arg5 : i32 to i64 loc(#loc101)
          %77 = arith.muli %75, %76 : i64 loc(#loc101)
          %c2147483647_i64_41 = arith.constant 2147483647 : i64 loc(#loc101)
          %c-2147483648_i64_42 = arith.constant -2147483648 : i64 loc(#loc101)
          %78 = arith.cmpi sle, %77, %c2147483647_i64_41 : i64 loc(#loc101)
          %79 = arith.cmpi sge, %77, %c-2147483648_i64_42 : i64 loc(#loc101)
          %80 = arith.andi %78, %79 : i1 loc(#loc101)
          %81 = arith.muli %20, %arg5 : i32 loc(#loc101)
          %82 = tt.addptr %arg0, %81 : !tt.ptr<f16>, i32 loc(#loc102)
          %83 = arith.extsi %18 : i32 to i64 loc(#loc103)
          %84 = arith.extsi %arg6 : i32 to i64 loc(#loc103)
          %85 = arith.muli %83, %84 : i64 loc(#loc103)
          %c2147483647_i64_43 = arith.constant 2147483647 : i64 loc(#loc103)
          %c-2147483648_i64_44 = arith.constant -2147483648 : i64 loc(#loc103)
          %86 = arith.cmpi sle, %85, %c2147483647_i64_43 : i64 loc(#loc103)
          %87 = arith.cmpi sge, %85, %c-2147483648_i64_44 : i64 loc(#loc103)
          %88 = arith.andi %86, %87 : i1 loc(#loc103)
          %89 = arith.muli %18, %arg6 : i32 loc(#loc103)
          %90 = tt.addptr %82, %89 : !tt.ptr<f16>, i32 loc(#loc104)
          %91 = arith.extsi %c0_i32_24 : i32 to i64 loc(#loc105)
          %92 = arith.extsi %arg7 : i32 to i64 loc(#loc105)
          %93 = arith.muli %91, %92 : i64 loc(#loc105)
          %c2147483647_i64_45 = arith.constant 2147483647 : i64 loc(#loc105)
          %c-2147483648_i64_46 = arith.constant -2147483648 : i64 loc(#loc105)
          %94 = arith.cmpi sle, %93, %c2147483647_i64_45 : i64 loc(#loc105)
          %95 = arith.cmpi sge, %93, %c-2147483648_i64_46 : i64 loc(#loc105)
          %96 = arith.andi %94, %95 : i1 loc(#loc105)
          %97 = arith.muli %c0_i32_24, %arg7 : i32 loc(#loc105)
          %98 = tt.addptr %90, %97 : !tt.ptr<f16>, i32 loc(#loc106)
          %99 = tt.expand_dims %36 {axis = 1 : i32} : tensor<256xi32> -> tensor<256x1xi32> loc(#loc107)
          %100 = tt.splat %arg7 : i32 -> tensor<256x1xi32> loc(#loc108)
          %101 = arith.extsi %99 : tensor<256x1xi32> to tensor<256x1xi64> loc(#loc108)
          %102 = arith.extsi %100 : tensor<256x1xi32> to tensor<256x1xi64> loc(#loc108)
          %103 = arith.muli %101, %102 : tensor<256x1xi64> loc(#loc108)
          %c2147483647_i64_47 = arith.constant 2147483647 : i64 loc(#loc108)
          %c-2147483648_i64_48 = arith.constant -2147483648 : i64 loc(#loc108)
          %cst_49 = arith.constant dense<2147483647> : tensor<256x1xi64> loc(#loc108)
          %104 = arith.cmpi sle, %103, %cst_49 : tensor<256x1xi64> loc(#loc108)
          %cst_50 = arith.constant dense<-2147483648> : tensor<256x1xi64> loc(#loc108)
          %105 = arith.cmpi sge, %103, %cst_50 : tensor<256x1xi64> loc(#loc108)
          %106 = arith.andi %104, %105 : tensor<256x1xi1> loc(#loc108)
          %107 = arith.muli %99, %100 : tensor<256x1xi32> loc(#loc108)
          %108 = tt.splat %98 : !tt.ptr<f16> -> tensor<256x1x!tt.ptr<f16>> loc(#loc109)
          %109 = tt.addptr %108, %107 : tensor<256x1x!tt.ptr<f16>>, tensor<256x1xi32> loc(#loc109)
          %110 = tt.expand_dims %38 {axis = 0 : i32} : tensor<128xi32> -> tensor<1x128xi32> loc(#loc110)
          %c1_i32_51 = arith.constant 1 : i32 loc(#loc111)
          %c1_i32_52 = arith.constant 1 : i32 loc(#loc111)
          %cst_53 = arith.constant dense<1> : tensor<1x128xi32> loc(#loc111)
          %111 = arith.extsi %110 : tensor<1x128xi32> to tensor<1x128xi64> loc(#loc111)
          %112 = arith.extsi %cst_53 : tensor<1x128xi32> to tensor<1x128xi64> loc(#loc111)
          %113 = arith.muli %111, %112 : tensor<1x128xi64> loc(#loc111)
          %c2147483647_i64_54 = arith.constant 2147483647 : i64 loc(#loc111)
          %c-2147483648_i64_55 = arith.constant -2147483648 : i64 loc(#loc111)
          %cst_56 = arith.constant dense<2147483647> : tensor<1x128xi64> loc(#loc111)
          %114 = arith.cmpi sle, %113, %cst_56 : tensor<1x128xi64> loc(#loc111)
          %cst_57 = arith.constant dense<-2147483648> : tensor<1x128xi64> loc(#loc111)
          %115 = arith.cmpi sge, %113, %cst_57 : tensor<1x128xi64> loc(#loc111)
          %116 = arith.andi %114, %115 : tensor<1x128xi1> loc(#loc111)
          %117 = arith.muli %110, %cst_53 : tensor<1x128xi32> loc(#loc111)
          %118 = tt.broadcast %109 : tensor<256x1x!tt.ptr<f16>> -> tensor<256x128x!tt.ptr<f16>> loc(#loc112)
          %119 = tt.broadcast %117 : tensor<1x128xi32> -> tensor<256x128xi32> loc(#loc112)
          %120 = tt.addptr %118, %119 : tensor<256x128x!tt.ptr<f16>>, tensor<256x128xi32> loc(#loc112)
          %121 = arith.extsi %20 : i32 to i64 loc(#loc113)
          %122 = arith.extsi %arg8 : i32 to i64 loc(#loc113)
          %123 = arith.muli %121, %122 : i64 loc(#loc113)
          %c2147483647_i64_58 = arith.constant 2147483647 : i64 loc(#loc113)
          %c-2147483648_i64_59 = arith.constant -2147483648 : i64 loc(#loc113)
          %124 = arith.cmpi sle, %123, %c2147483647_i64_58 : i64 loc(#loc113)
          %125 = arith.cmpi sge, %123, %c-2147483648_i64_59 : i64 loc(#loc113)
          %126 = arith.andi %124, %125 : i1 loc(#loc113)
          %127 = arith.muli %20, %arg8 : i32 loc(#loc113)
          %128 = tt.addptr %arg1, %127 : !tt.ptr<f16>, i32 loc(#loc114)
          %129 = arith.extsi %18 : i32 to i64 loc(#loc115)
          %130 = arith.extsi %arg9 : i32 to i64 loc(#loc115)
          %131 = arith.muli %129, %130 : i64 loc(#loc115)
          %c2147483647_i64_60 = arith.constant 2147483647 : i64 loc(#loc115)
          %c-2147483648_i64_61 = arith.constant -2147483648 : i64 loc(#loc115)
          %132 = arith.cmpi sle, %131, %c2147483647_i64_60 : i64 loc(#loc115)
          %133 = arith.cmpi sge, %131, %c-2147483648_i64_61 : i64 loc(#loc115)
          %134 = arith.andi %132, %133 : i1 loc(#loc115)
          %135 = arith.muli %18, %arg9 : i32 loc(#loc115)
          %136 = tt.addptr %128, %135 : !tt.ptr<f16>, i32 loc(#loc116)
          %137 = arith.extsi %c0_i32_25 : i32 to i64 loc(#loc117)
          %138 = arith.extsi %arg10 : i32 to i64 loc(#loc117)
          %139 = arith.muli %137, %138 : i64 loc(#loc117)
          %c2147483647_i64_62 = arith.constant 2147483647 : i64 loc(#loc117)
          %c-2147483648_i64_63 = arith.constant -2147483648 : i64 loc(#loc117)
          %140 = arith.cmpi sle, %139, %c2147483647_i64_62 : i64 loc(#loc117)
          %141 = arith.cmpi sge, %139, %c-2147483648_i64_63 : i64 loc(#loc117)
          %142 = arith.andi %140, %141 : i1 loc(#loc117)
          %143 = arith.muli %c0_i32_25, %arg10 : i32 loc(#loc117)
          %144 = tt.addptr %136, %143 : !tt.ptr<f16>, i32 loc(#loc118)
          %145 = tt.expand_dims %38 {axis = 1 : i32} : tensor<128xi32> -> tensor<128x1xi32> loc(#loc119)
          %c1_i32_64 = arith.constant 1 : i32 loc(#loc120)
          %c1_i32_65 = arith.constant 1 : i32 loc(#loc120)
          %cst_66 = arith.constant dense<1> : tensor<128x1xi32> loc(#loc120)
          %146 = arith.extsi %145 : tensor<128x1xi32> to tensor<128x1xi64> loc(#loc120)
          %147 = arith.extsi %cst_66 : tensor<128x1xi32> to tensor<128x1xi64> loc(#loc120)
          %148 = arith.muli %146, %147 : tensor<128x1xi64> loc(#loc120)
          %c2147483647_i64_67 = arith.constant 2147483647 : i64 loc(#loc120)
          %c-2147483648_i64_68 = arith.constant -2147483648 : i64 loc(#loc120)
          %cst_69 = arith.constant dense<2147483647> : tensor<128x1xi64> loc(#loc120)
          %149 = arith.cmpi sle, %148, %cst_69 : tensor<128x1xi64> loc(#loc120)
          %cst_70 = arith.constant dense<-2147483648> : tensor<128x1xi64> loc(#loc120)
          %150 = arith.cmpi sge, %148, %cst_70 : tensor<128x1xi64> loc(#loc120)
          %151 = arith.andi %149, %150 : tensor<128x1xi1> loc(#loc120)
          %152 = arith.muli %145, %cst_66 : tensor<128x1xi32> loc(#loc120)
          %153 = tt.splat %144 : !tt.ptr<f16> -> tensor<128x1x!tt.ptr<f16>> loc(#loc121)
          %154 = tt.addptr %153, %152 : tensor<128x1x!tt.ptr<f16>>, tensor<128x1xi32> loc(#loc121)
          %155 = tt.expand_dims %37 {axis = 0 : i32} : tensor<64xi32> -> tensor<1x64xi32> loc(#loc122)
          %156 = tt.splat %arg10 : i32 -> tensor<1x64xi32> loc(#loc123)
          %157 = arith.extsi %155 : tensor<1x64xi32> to tensor<1x64xi64> loc(#loc123)
          %158 = arith.extsi %156 : tensor<1x64xi32> to tensor<1x64xi64> loc(#loc123)
          %159 = arith.muli %157, %158 : tensor<1x64xi64> loc(#loc123)
          %c2147483647_i64_71 = arith.constant 2147483647 : i64 loc(#loc123)
          %c-2147483648_i64_72 = arith.constant -2147483648 : i64 loc(#loc123)
          %cst_73 = arith.constant dense<2147483647> : tensor<1x64xi64> loc(#loc123)
          %160 = arith.cmpi sle, %159, %cst_73 : tensor<1x64xi64> loc(#loc123)
          %cst_74 = arith.constant dense<-2147483648> : tensor<1x64xi64> loc(#loc123)
          %161 = arith.cmpi sge, %159, %cst_74 : tensor<1x64xi64> loc(#loc123)
          %162 = arith.andi %160, %161 : tensor<1x64xi1> loc(#loc123)
          %163 = arith.muli %155, %156 : tensor<1x64xi32> loc(#loc123)
          %164 = tt.broadcast %154 : tensor<128x1x!tt.ptr<f16>> -> tensor<128x64x!tt.ptr<f16>> loc(#loc124)
          %165 = tt.broadcast %163 : tensor<1x64xi32> -> tensor<128x64xi32> loc(#loc124)
          %166 = tt.addptr %164, %165 : tensor<128x64x!tt.ptr<f16>>, tensor<128x64xi32> loc(#loc124)
          %167 = arith.extsi %20 : i32 to i64 loc(#loc125)
          %168 = arith.extsi %arg11 : i32 to i64 loc(#loc125)
          %169 = arith.muli %167, %168 : i64 loc(#loc125)
          %c2147483647_i64_75 = arith.constant 2147483647 : i64 loc(#loc125)
          %c-2147483648_i64_76 = arith.constant -2147483648 : i64 loc(#loc125)
          %170 = arith.cmpi sle, %169, %c2147483647_i64_75 : i64 loc(#loc125)
          %171 = arith.cmpi sge, %169, %c-2147483648_i64_76 : i64 loc(#loc125)
          %172 = arith.andi %170, %171 : i1 loc(#loc125)
          %173 = arith.muli %20, %arg11 : i32 loc(#loc125)
          %174 = tt.addptr %arg2, %173 : !tt.ptr<f16>, i32 loc(#loc126)
          %175 = arith.extsi %18 : i32 to i64 loc(#loc127)
          %176 = arith.extsi %arg12 : i32 to i64 loc(#loc127)
          %177 = arith.muli %175, %176 : i64 loc(#loc127)
          %c2147483647_i64_77 = arith.constant 2147483647 : i64 loc(#loc127)
          %c-2147483648_i64_78 = arith.constant -2147483648 : i64 loc(#loc127)
          %178 = arith.cmpi sle, %177, %c2147483647_i64_77 : i64 loc(#loc127)
          %179 = arith.cmpi sge, %177, %c-2147483648_i64_78 : i64 loc(#loc127)
          %180 = arith.andi %178, %179 : i1 loc(#loc127)
          %181 = arith.muli %18, %arg12 : i32 loc(#loc127)
          %182 = tt.addptr %174, %181 : !tt.ptr<f16>, i32 loc(#loc128)
          %183 = arith.extsi %c0_i32_25 : i32 to i64 loc(#loc129)
          %184 = arith.extsi %arg13 : i32 to i64 loc(#loc129)
          %185 = arith.muli %183, %184 : i64 loc(#loc129)
          %c2147483647_i64_79 = arith.constant 2147483647 : i64 loc(#loc129)
          %c-2147483648_i64_80 = arith.constant -2147483648 : i64 loc(#loc129)
          %186 = arith.cmpi sle, %185, %c2147483647_i64_79 : i64 loc(#loc129)
          %187 = arith.cmpi sge, %185, %c-2147483648_i64_80 : i64 loc(#loc129)
          %188 = arith.andi %186, %187 : i1 loc(#loc129)
          %189 = arith.muli %c0_i32_25, %arg13 : i32 loc(#loc129)
          %190 = tt.addptr %182, %189 : !tt.ptr<f16>, i32 loc(#loc130)
          %191 = tt.expand_dims %37 {axis = 1 : i32} : tensor<64xi32> -> tensor<64x1xi32> loc(#loc131)
          %192 = tt.splat %arg13 : i32 -> tensor<64x1xi32> loc(#loc132)
          %193 = arith.extsi %191 : tensor<64x1xi32> to tensor<64x1xi64> loc(#loc132)
          %194 = arith.extsi %192 : tensor<64x1xi32> to tensor<64x1xi64> loc(#loc132)
          %195 = arith.muli %193, %194 : tensor<64x1xi64> loc(#loc132)
          %c2147483647_i64_81 = arith.constant 2147483647 : i64 loc(#loc132)
          %c-2147483648_i64_82 = arith.constant -2147483648 : i64 loc(#loc132)
          %cst_83 = arith.constant dense<2147483647> : tensor<64x1xi64> loc(#loc132)
          %196 = arith.cmpi sle, %195, %cst_83 : tensor<64x1xi64> loc(#loc132)
          %cst_84 = arith.constant dense<-2147483648> : tensor<64x1xi64> loc(#loc132)
          %197 = arith.cmpi sge, %195, %cst_84 : tensor<64x1xi64> loc(#loc132)
          %198 = arith.andi %196, %197 : tensor<64x1xi1> loc(#loc132)
          %199 = arith.muli %191, %192 : tensor<64x1xi32> loc(#loc132)
          %200 = tt.splat %190 : !tt.ptr<f16> -> tensor<64x1x!tt.ptr<f16>> loc(#loc133)
          %201 = tt.addptr %200, %199 : tensor<64x1x!tt.ptr<f16>>, tensor<64x1xi32> loc(#loc133)
          %202 = tt.expand_dims %38 {axis = 0 : i32} : tensor<128xi32> -> tensor<1x128xi32> loc(#loc134)
          %c1_i32_85 = arith.constant 1 : i32 loc(#loc135)
          %c1_i32_86 = arith.constant 1 : i32 loc(#loc135)
          %cst_87 = arith.constant dense<1> : tensor<1x128xi32> loc(#loc135)
          %203 = arith.extsi %202 : tensor<1x128xi32> to tensor<1x128xi64> loc(#loc135)
          %204 = arith.extsi %cst_87 : tensor<1x128xi32> to tensor<1x128xi64> loc(#loc135)
          %205 = arith.muli %203, %204 : tensor<1x128xi64> loc(#loc135)
          %c2147483647_i64_88 = arith.constant 2147483647 : i64 loc(#loc135)
          %c-2147483648_i64_89 = arith.constant -2147483648 : i64 loc(#loc135)
          %cst_90 = arith.constant dense<2147483647> : tensor<1x128xi64> loc(#loc135)
          %206 = arith.cmpi sle, %205, %cst_90 : tensor<1x128xi64> loc(#loc135)
          %cst_91 = arith.constant dense<-2147483648> : tensor<1x128xi64> loc(#loc135)
          %207 = arith.cmpi sge, %205, %cst_91 : tensor<1x128xi64> loc(#loc135)
          %208 = arith.andi %206, %207 : tensor<1x128xi1> loc(#loc135)
          %209 = arith.muli %202, %cst_87 : tensor<1x128xi32> loc(#loc135)
          %210 = tt.broadcast %201 : tensor<64x1x!tt.ptr<f16>> -> tensor<64x128x!tt.ptr<f16>> loc(#loc136)
          %211 = tt.broadcast %209 : tensor<1x128xi32> -> tensor<64x128xi32> loc(#loc136)
          %212 = tt.addptr %210, %211 : tensor<64x128x!tt.ptr<f16>>, tensor<64x128xi32> loc(#loc136)
          %c0_i32_92 = arith.constant 0 : i32 loc(#loc137)
          %cst_93 = arith.constant 0xFF800000 : f32 loc(#loc138)
          %cst_94 = arith.constant dense<0xFF800000> : tensor<256xf32> loc(#loc138)
          %cst_95 = arith.constant 1.000000e+00 : f32 loc(#loc139)
          %cst_96 = arith.constant dense<1.000000e+00> : tensor<256xf32> loc(#loc139)
          %213 = tt.call @"triton.language.standard.zeros____(0, 0)cconstexpr_256__(0, 1)cconstexpr_128__(1,)cconstexpr_fp32_"() : () -> tensor<256x128xf32> loc(#loc140)
          %214 = tt.expand_dims %36 {axis = 1 : i32} : tensor<256xi32> -> tensor<256x1xi32> loc(#loc141)
          %cst_97 = arith.constant dense<16384> : tensor<256x1xi32> loc(#loc142)
          %215 = arith.cmpi slt, %214, %cst_97 : tensor<256x1xi32> loc(#loc142)
          %cst_98 = arith.constant 0.000000e+00 : f32 loc(#loc143)
          %216 = tt.broadcast %215 : tensor<256x1xi1> -> tensor<256x128xi1> loc(#loc143)
          %cst_99 = arith.constant dense<0.000000e+00> : tensor<256x128xf32> loc(#loc143)
          %217 = arith.truncf %cst_99 : tensor<256x128xf32> to tensor<256x128xf16> loc(#loc143)
          %218 = tt.load %120, %216, %217 : tensor<256x128x!tt.ptr<f16>> loc(#loc143)
          %c0_i32_100 = arith.constant 0 : i32 loc(#loc144)
          %219 = arith.cmpi ne, %74, %c0_i32_100 : i32 loc(#loc144)
          %true_101 = arith.constant true loc(#loc145)
          %220 = arith.xori %219, %true_101 : i1 loc(#loc145)
          %c256_i32_102 = arith.constant 256 : i32 loc(#loc146)
          %c256_i32_103 = arith.constant 256 : i32 loc(#loc146)
          %221 = arith.remsi %c16384_i32, %c256_i32_103 : i32 loc(#loc146)
          %c0_i32_104 = arith.constant 0 : i32 loc(#loc147)
          %222 = arith.cmpi eq, %221, %c0_i32_104 : i32 loc(#loc147)
          %223 = arith.andi %220, %222 : i1 loc(#loc148)
          %true_105 = arith.constant true loc(#loc149)
          %224 = arith.xori %223, %true_105 : i1 loc(#loc149)
          %c4_i32 = arith.constant 4 : i32 loc(#loc150)
          %c4_i32_106 = arith.constant 4 : i32 loc(#loc150)
          %225 = arith.extui %224 : i1 to i32 loc(#loc150)
          %226 = arith.extsi %c4_i32_106 : i32 to i64 loc(#loc150)
          %227 = arith.extsi %225 : i32 to i64 loc(#loc150)
          %228 = arith.addi %226, %227 : i64 loc(#loc150)
          %c2147483647_i64_107 = arith.constant 2147483647 : i64 loc(#loc150)
          %c-2147483648_i64_108 = arith.constant -2147483648 : i64 loc(#loc150)
          %229 = arith.cmpi sle, %228, %c2147483647_i64_107 : i64 loc(#loc150)
          %230 = arith.cmpi sge, %228, %c-2147483648_i64_108 : i64 loc(#loc150)
          %231 = arith.andi %229, %230 : i1 loc(#loc150)
          %232 = arith.addi %c4_i32_106, %225 : i32 loc(#loc150)
          %233 = arith.minsi %232, %70 : i32 loc(#loc151)
          %234 = arith.extsi %70 : i32 to i64 loc(#loc152)
          %235 = arith.extsi %233 : i32 to i64 loc(#loc152)
          %236 = arith.subi %234, %235 : i64 loc(#loc152)
          %c2147483647_i64_109 = arith.constant 2147483647 : i64 loc(#loc152)
          %c-2147483648_i64_110 = arith.constant -2147483648 : i64 loc(#loc152)
          %237 = arith.cmpi sle, %236, %c2147483647_i64_109 : i64 loc(#loc152)
          %238 = arith.cmpi sge, %236, %c-2147483648_i64_110 : i64 loc(#loc152)
          %239 = arith.andi %237, %238 : i1 loc(#loc152)
          %240 = arith.subi %70, %233 : i32 loc(#loc152)
          %c0_i32_111 = arith.constant 0 : i32 loc(#loc153)
          %c64_i32_112 = arith.constant 64 : i32 loc(#loc154)
          %c64_i32_113 = arith.constant 64 : i32 loc(#loc154)
          %241 = arith.extsi %70 : i32 to i64 loc(#loc154)
          %242 = arith.extsi %c64_i32_113 : i32 to i64 loc(#loc154)
          %243 = arith.muli %241, %242 : i64 loc(#loc154)
          %c2147483647_i64_114 = arith.constant 2147483647 : i64 loc(#loc154)
          %c-2147483648_i64_115 = arith.constant -2147483648 : i64 loc(#loc154)
          %244 = arith.cmpi sle, %243, %c2147483647_i64_114 : i64 loc(#loc154)
          %245 = arith.cmpi sge, %243, %c-2147483648_i64_115 : i64 loc(#loc154)
          %246 = arith.andi %244, %245 : i1 loc(#loc154)
          %247 = arith.muli %70, %c64_i32_113 : i32 loc(#loc154)
          %c0_i32_116 = arith.constant 0 : i32 loc(#loc155)
          %248 = arith.cmpi sgt, %240, %c0_i32_116 : i32 loc(#loc155)
          %249:5 = scf.if %248 -> (tensor<256xf32>, tensor<256xf32>, tensor<256x128xf32>, i32, i32) {
            %370 = arith.extsi %70 : i32 to i64 loc(#loc157)
            %371 = arith.extsi %233 : i32 to i64 loc(#loc157)
            %372 = arith.subi %370, %371 : i64 loc(#loc157)
            %c2147483647_i64_170 = arith.constant 2147483647 : i64 loc(#loc157)
            %c-2147483648_i64_171 = arith.constant -2147483648 : i64 loc(#loc157)
            %373 = arith.cmpi sle, %372, %c2147483647_i64_170 : i64 loc(#loc157)
            %374 = arith.cmpi sge, %372, %c-2147483648_i64_171 : i64 loc(#loc157)
            %375 = arith.andi %373, %374 : i1 loc(#loc157)
            %376 = arith.subi %70, %233 : i32 loc(#loc157)
            %c64_i32_172 = arith.constant 64 : i32 loc(#loc158)
            %c64_i32_173 = arith.constant 64 : i32 loc(#loc158)
            %377 = arith.extsi %376 : i32 to i64 loc(#loc158)
            %378 = arith.extsi %c64_i32_173 : i32 to i64 loc(#loc158)
            %379 = arith.muli %377, %378 : i64 loc(#loc158)
            %c2147483647_i64_174 = arith.constant 2147483647 : i64 loc(#loc158)
            %c-2147483648_i64_175 = arith.constant -2147483648 : i64 loc(#loc158)
            %380 = arith.cmpi sle, %379, %c2147483647_i64_174 : i64 loc(#loc158)
            %381 = arith.cmpi sge, %379, %c-2147483648_i64_175 : i64 loc(#loc158)
            %382 = arith.andi %380, %381 : i1 loc(#loc158)
            %383 = arith.muli %376, %c64_i32_173 : i32 loc(#loc158)
            %384:3 = tt.call @"__main__._attn_fwd_inner__fp32S256_128S_fp32S256S_fp32S256S_fp16S256_128S_Pfp16S128_64S_Pfp16S64_128S_i32_i32_i32_i32_i32_i32_fp32_i32_i32_i32_i32_i32S256S_i32S64S__(6,)cNone_(16,)cNone_(19,)cconstexpr_0__(20,)cconstexpr_0__(21,)cconstexpr_0__(22,)cNone_(23,)cNone_(24,)cNone_(25,)cNone_(26,)cNone_(27,)cconstexpr_False__(28,)cconstexpr_256__(29,)cconstexpr_128__(30,)cconstexpr_64__(33,)cconstexpr_False__(34,)cconstexpr_False__(35,)cconstexpr_False__(36,)cconstexpr_False__(37,)cconstexpr_False__(38,)cconstexpr_128__(39,)cconstexpr_0_d_1275174308246903__(40,)cconstexpr_False__(41,)cconstexpr_False__(42,)cconstexpr_False__(43,)cconstexpr_True_"(%213, %cst_96, %cst_94, %218, %166, %212, %arg10, %arg13, %arg20, %19, %c16384_i32_26, %c16384_i32, %arg23, %arg24, %c0_i32_92, %c0_i32_111, %383, %36, %37) : (tensor<256x128xf32>, tensor<256xf32>, tensor<256xf32>, tensor<256x128xf16>, tensor<128x64x!tt.ptr<f16>>, tensor<64x128x!tt.ptr<f16>>, i32, i32, i32, i32, i32, i32, f32, i32, i32, i32, i32, tensor<256xi32>, tensor<64xi32>) -> (tensor<256x128xf32>, tensor<256xf32>, tensor<256xf32>) loc(#loc159)
            %c64_i32_176 = arith.constant 64 : i32 loc(#loc160)
            %c64_i32_177 = arith.constant 64 : i32 loc(#loc160)
            %385 = arith.extsi %70 : i32 to i64 loc(#loc160)
            %386 = arith.extsi %c64_i32_177 : i32 to i64 loc(#loc160)
            %387 = arith.muli %385, %386 : i64 loc(#loc160)
            %c2147483647_i64_178 = arith.constant 2147483647 : i64 loc(#loc160)
            %c-2147483648_i64_179 = arith.constant -2147483648 : i64 loc(#loc160)
            %388 = arith.cmpi sle, %387, %c2147483647_i64_178 : i64 loc(#loc160)
            %389 = arith.cmpi sge, %387, %c-2147483648_i64_179 : i64 loc(#loc160)
            %390 = arith.andi %388, %389 : i1 loc(#loc160)
            %391 = arith.muli %70, %c64_i32_177 : i32 loc(#loc160)
            scf.yield %384#2, %384#1, %384#0, %383, %391 : tensor<256xf32>, tensor<256xf32>, tensor<256x128xf32>, i32, i32 loc(#loc160)
          } else {
            scf.yield %cst_94, %cst_96, %213, %c0_i32_111, %247 : tensor<256xf32>, tensor<256xf32>, tensor<256x128xf32>, i32, i32 loc(#loc41)
          } loc(#loc156)
          gpu.barrier loc(#loc161)
          %c0_i32_117 = arith.constant 0 : i32 loc(#loc162)
          %250 = arith.cmpi sgt, %233, %c0_i32_117 : i32 loc(#loc162)
          %251:5 = scf.if %250 -> (tensor<128x64x!tt.ptr<f16>>, tensor<64x128x!tt.ptr<f16>>, tensor<256xf32>, tensor<256xf32>, tensor<256x128xf32>) {
            %370 = arith.extsi %c16384_i32 : i32 to i64 loc(#loc164)
            %371 = arith.extsi %c16384_i32_26 : i32 to i64 loc(#loc164)
            %372 = arith.subi %370, %371 : i64 loc(#loc164)
            %c2147483647_i64_170 = arith.constant 2147483647 : i64 loc(#loc164)
            %c-2147483648_i64_171 = arith.constant -2147483648 : i64 loc(#loc164)
            %373 = arith.cmpi sle, %372, %c2147483647_i64_170 : i64 loc(#loc164)
            %374 = arith.cmpi sge, %372, %c-2147483648_i64_171 : i64 loc(#loc164)
            %375 = arith.andi %373, %374 : i1 loc(#loc164)
            %376 = arith.subi %c16384_i32, %c16384_i32_26 : i32 loc(#loc164)
            %377 = tt.splat %376 : i32 -> tensor<64xi32> loc(#loc165)
            %378 = arith.extsi %37 : tensor<64xi32> to tensor<64xi64> loc(#loc165)
            %379 = arith.extsi %377 : tensor<64xi32> to tensor<64xi64> loc(#loc165)
            %380 = arith.addi %378, %379 : tensor<64xi64> loc(#loc165)
            %c2147483647_i64_172 = arith.constant 2147483647 : i64 loc(#loc165)
            %c-2147483648_i64_173 = arith.constant -2147483648 : i64 loc(#loc165)
            %cst_174 = arith.constant dense<2147483647> : tensor<64xi64> loc(#loc165)
            %381 = arith.cmpi sle, %380, %cst_174 : tensor<64xi64> loc(#loc165)
            %cst_175 = arith.constant dense<-2147483648> : tensor<64xi64> loc(#loc165)
            %382 = arith.cmpi sge, %380, %cst_175 : tensor<64xi64> loc(#loc165)
            %383 = arith.andi %381, %382 : tensor<64xi1> loc(#loc165)
            %384 = arith.addi %37, %377 : tensor<64xi32> loc(#loc165)
            %c64_i32_176 = arith.constant 64 : i32 loc(#loc166)
            %c64_i32_177 = arith.constant 64 : i32 loc(#loc166)
            %385 = arith.extsi %240 : i32 to i64 loc(#loc166)
            %386 = arith.extsi %c64_i32_177 : i32 to i64 loc(#loc166)
            %387 = arith.muli %385, %386 : i64 loc(#loc166)
            %c2147483647_i64_178 = arith.constant 2147483647 : i64 loc(#loc166)
            %c-2147483648_i64_179 = arith.constant -2147483648 : i64 loc(#loc166)
            %388 = arith.cmpi sle, %387, %c2147483647_i64_178 : i64 loc(#loc166)
            %389 = arith.cmpi sge, %387, %c-2147483648_i64_179 : i64 loc(#loc166)
            %390 = arith.andi %388, %389 : i1 loc(#loc166)
            %391 = arith.muli %240, %c64_i32_177 : i32 loc(#loc166)
            %392 = arith.extsi %391 : i32 to i64 loc(#loc167)
            %393 = arith.extsi %arg10 : i32 to i64 loc(#loc167)
            %394 = arith.muli %392, %393 : i64 loc(#loc167)
            %c2147483647_i64_180 = arith.constant 2147483647 : i64 loc(#loc167)
            %c-2147483648_i64_181 = arith.constant -2147483648 : i64 loc(#loc167)
            %395 = arith.cmpi sle, %394, %c2147483647_i64_180 : i64 loc(#loc167)
            %396 = arith.cmpi sge, %394, %c-2147483648_i64_181 : i64 loc(#loc167)
            %397 = arith.andi %395, %396 : i1 loc(#loc167)
            %398 = arith.muli %391, %arg10 : i32 loc(#loc167)
            %399 = tt.splat %398 : i32 -> tensor<128x64xi32> loc(#loc168)
            %400 = tt.addptr %166, %399 : tensor<128x64x!tt.ptr<f16>>, tensor<128x64xi32> loc(#loc168)
            %c64_i32_182 = arith.constant 64 : i32 loc(#loc169)
            %c64_i32_183 = arith.constant 64 : i32 loc(#loc169)
            %401 = arith.extsi %240 : i32 to i64 loc(#loc169)
            %402 = arith.extsi %c64_i32_183 : i32 to i64 loc(#loc169)
            %403 = arith.muli %401, %402 : i64 loc(#loc169)
            %c2147483647_i64_184 = arith.constant 2147483647 : i64 loc(#loc169)
            %c-2147483648_i64_185 = arith.constant -2147483648 : i64 loc(#loc169)
            %404 = arith.cmpi sle, %403, %c2147483647_i64_184 : i64 loc(#loc169)
            %405 = arith.cmpi sge, %403, %c-2147483648_i64_185 : i64 loc(#loc169)
            %406 = arith.andi %404, %405 : i1 loc(#loc169)
            %407 = arith.muli %240, %c64_i32_183 : i32 loc(#loc169)
            %408 = arith.extsi %407 : i32 to i64 loc(#loc170)
            %409 = arith.extsi %arg13 : i32 to i64 loc(#loc170)
            %410 = arith.muli %408, %409 : i64 loc(#loc170)
            %c2147483647_i64_186 = arith.constant 2147483647 : i64 loc(#loc170)
            %c-2147483648_i64_187 = arith.constant -2147483648 : i64 loc(#loc170)
            %411 = arith.cmpi sle, %410, %c2147483647_i64_186 : i64 loc(#loc170)
            %412 = arith.cmpi sge, %410, %c-2147483648_i64_187 : i64 loc(#loc170)
            %413 = arith.andi %411, %412 : i1 loc(#loc170)
            %414 = arith.muli %407, %arg13 : i32 loc(#loc170)
            %415 = tt.splat %414 : i32 -> tensor<64x128xi32> loc(#loc171)
            %416 = tt.addptr %212, %415 : tensor<64x128x!tt.ptr<f16>>, tensor<64x128xi32> loc(#loc171)
            %417:3 = tt.call @"__main__._attn_fwd_inner__fp32S256_128S_fp32S256S_fp32S256S_fp16S256_128S_Pfp16S128_64S_Pfp16S64_128S_i32_i32_i32_i32_i32_i32_fp32_i32_i32_i32_i32_i32S64S_i32_i32_i32S256S_i32S64S__(6,)cNone_(16,)cNone_(22,)cNone_(23,)cNone_(24,)cNone_(25,)cNone_(26,)cNone_(27,)cconstexpr_True__(28,)cconstexpr_256__(29,)cconstexpr_128__(30,)cconstexpr_64__(33,)cconstexpr_False__(34,)cconstexpr_True__(35,)cconstexpr_False__(36,)cconstexpr_False__(37,)cconstexpr_False__(38,)cconstexpr_128__(39,)cconstexpr_0_d_1275174308246903__(40,)cconstexpr_False__(41,)cconstexpr_False__(42,)cconstexpr_False__(43,)cconstexpr_False_"(%249#2, %249#1, %249#0, %218, %400, %416, %arg10, %arg13, %arg20, %19, %c16384_i32_26, %c16384_i32, %arg23, %arg24, %c0_i32_92, %249#3, %249#4, %384, %233, %74, %36, %37) : (tensor<256x128xf32>, tensor<256xf32>, tensor<256xf32>, tensor<256x128xf16>, tensor<128x64x!tt.ptr<f16>>, tensor<64x128x!tt.ptr<f16>>, i32, i32, i32, i32, i32, i32, f32, i32, i32, i32, i32, tensor<64xi32>, i32, i32, tensor<256xi32>, tensor<64xi32>) -> (tensor<256x128xf32>, tensor<256xf32>, tensor<256xf32>) loc(#loc172)
            scf.yield %400, %416, %417#2, %417#1, %417#0 : tensor<128x64x!tt.ptr<f16>>, tensor<64x128x!tt.ptr<f16>>, tensor<256xf32>, tensor<256xf32>, tensor<256x128xf32> loc(#loc172)
          } else {
            scf.yield %166, %212, %249#0, %249#1, %249#2 : tensor<128x64x!tt.ptr<f16>>, tensor<64x128x!tt.ptr<f16>>, tensor<256xf32>, tensor<256xf32>, tensor<256x128xf32> loc(#loc41)
          } loc(#loc163)
          %252 = tt.expand_dims %251#3 {axis = 1 : i32} : tensor<256xf32> -> tensor<256x1xf32> loc(#loc173)
          %c1_i32_118 = arith.constant 1 : i32 loc(#loc174)
          %cst_119 = arith.constant 1.000000e+00 : f32 loc(#loc174)
          %cst_120 = arith.constant dense<1.000000e+00> : tensor<256x1xf32> loc(#loc174)
          %253 = arith.divf %cst_120, %252 : tensor<256x1xf32> loc(#loc174)
          %254 = tt.broadcast %253 : tensor<256x1xf32> -> tensor<256x128xf32> loc(#loc175)
          %255 = arith.mulf %251#4, %254 : tensor<256x128xf32> loc(#loc175)
          %c1_i32_121 = arith.constant 1 : i32 loc(#loc176)
          %c1_i32_122 = arith.constant 1 : i32 loc(#loc176)
          %256 = arith.extsi %19 : i32 to i64 loc(#loc176)
          %257 = arith.extsi %c1_i32_122 : i32 to i64 loc(#loc176)
          %258 = arith.addi %256, %257 : i64 loc(#loc176)
          %c2147483647_i64_123 = arith.constant 2147483647 : i64 loc(#loc176)
          %c-2147483648_i64_124 = arith.constant -2147483648 : i64 loc(#loc176)
          %259 = arith.cmpi sle, %258, %c2147483647_i64_123 : i64 loc(#loc176)
          %260 = arith.cmpi sge, %258, %c-2147483648_i64_124 : i64 loc(#loc176)
          %261 = arith.andi %259, %260 : i1 loc(#loc176)
          %262 = arith.addi %19, %c1_i32_122 : i32 loc(#loc176)
          %c256_i32_125 = arith.constant 256 : i32 loc(#loc177)
          %c256_i32_126 = arith.constant 256 : i32 loc(#loc177)
          %263 = arith.extsi %262 : i32 to i64 loc(#loc177)
          %264 = arith.extsi %c256_i32_126 : i32 to i64 loc(#loc177)
          %265 = arith.muli %263, %264 : i64 loc(#loc177)
          %c2147483647_i64_127 = arith.constant 2147483647 : i64 loc(#loc177)
          %c-2147483648_i64_128 = arith.constant -2147483648 : i64 loc(#loc177)
          %266 = arith.cmpi sle, %265, %c2147483647_i64_127 : i64 loc(#loc177)
          %267 = arith.cmpi sge, %265, %c-2147483648_i64_128 : i64 loc(#loc177)
          %268 = arith.andi %266, %267 : i1 loc(#loc177)
          %269 = arith.muli %262, %c256_i32_126 : i32 loc(#loc177)
          %c256_i32_129 = arith.constant 256 : i32 loc(#loc178)
          %c256_i32_130 = arith.constant 256 : i32 loc(#loc178)
          %270 = arith.extsi %19 : i32 to i64 loc(#loc178)
          %271 = arith.extsi %c256_i32_130 : i32 to i64 loc(#loc178)
          %272 = arith.muli %270, %271 : i64 loc(#loc178)
          %c2147483647_i64_131 = arith.constant 2147483647 : i64 loc(#loc178)
          %c-2147483648_i64_132 = arith.constant -2147483648 : i64 loc(#loc178)
          %273 = arith.cmpi sle, %272, %c2147483647_i64_131 : i64 loc(#loc178)
          %274 = arith.cmpi sge, %272, %c-2147483648_i64_132 : i64 loc(#loc178)
          %275 = arith.andi %273, %274 : i1 loc(#loc178)
          %276 = arith.muli %19, %c256_i32_130 : i32 loc(#loc178)
          %277 = arith.extsi %c16384_i32 : i32 to i64 loc(#loc179)
          %278 = arith.extsi %c16384_i32_26 : i32 to i64 loc(#loc179)
          %279 = arith.subi %277, %278 : i64 loc(#loc179)
          %c2147483647_i64_133 = arith.constant 2147483647 : i64 loc(#loc179)
          %c-2147483648_i64_134 = arith.constant -2147483648 : i64 loc(#loc179)
          %280 = arith.cmpi sle, %279, %c2147483647_i64_133 : i64 loc(#loc179)
          %281 = arith.cmpi sge, %279, %c-2147483648_i64_134 : i64 loc(#loc179)
          %282 = arith.andi %280, %281 : i1 loc(#loc179)
          %283 = arith.subi %c16384_i32, %c16384_i32_26 : i32 loc(#loc179)
          %284 = arith.truncf %255 : tensor<256x128xf32> to tensor<256x128xf16> loc(#loc180)
          %285 = arith.cmpi sgt, %283, %276 : i32 loc(#loc181)
          %286 = arith.cmpi slt, %283, %269 : i32 loc(#loc182)
          %287 = arith.andi %285, %286 : i1 loc(#loc183)
          %288 = scf.if %287 -> (tensor<256x128xf16>) {
            %370 = tt.splat %283 : i32 -> tensor<128xi32> loc(#loc185)
            %371 = tt.make_range {end = 256 : i32, start = 0 : i32} : tensor<256xi32> loc(#loc186)
            %372 = tt.splat %276 : i32 -> tensor<256xi32> loc(#loc187)
            %373 = arith.extsi %372 : tensor<256xi32> to tensor<256xi64> loc(#loc187)
            %374 = arith.extsi %371 : tensor<256xi32> to tensor<256xi64> loc(#loc187)
            %375 = arith.addi %373, %374 : tensor<256xi64> loc(#loc187)
            %c2147483647_i64_170 = arith.constant 2147483647 : i64 loc(#loc187)
            %c-2147483648_i64_171 = arith.constant -2147483648 : i64 loc(#loc187)
            %cst_172 = arith.constant dense<2147483647> : tensor<256xi64> loc(#loc187)
            %376 = arith.cmpi sle, %375, %cst_172 : tensor<256xi64> loc(#loc187)
            %cst_173 = arith.constant dense<-2147483648> : tensor<256xi64> loc(#loc187)
            %377 = arith.cmpi sge, %375, %cst_173 : tensor<256xi64> loc(#loc187)
            %378 = arith.andi %376, %377 : tensor<256xi1> loc(#loc187)
            %379 = arith.addi %372, %371 : tensor<256xi32> loc(#loc187)
            %380 = tt.expand_dims %379 {axis = 1 : i32} : tensor<256xi32> -> tensor<256x1xi32> loc(#loc188)
            %381 = tt.expand_dims %370 {axis = 0 : i32} : tensor<128xi32> -> tensor<1x128xi32> loc(#loc189)
            %382 = tt.broadcast %380 : tensor<256x1xi32> -> tensor<256x128xi32> loc(#loc190)
            %383 = tt.broadcast %381 : tensor<1x128xi32> -> tensor<256x128xi32> loc(#loc190)
            %384 = arith.cmpi sge, %382, %383 : tensor<256x128xi32> loc(#loc190)
            %cst_174 = arith.constant 0.000000e+00 : f32 loc(#loc191)
            %385 = arith.truncf %cst_174 : f32 to f16 loc(#loc192)
            %386 = tt.splat %385 : f16 -> tensor<256x128xf16> loc(#loc193)
            %387 = arith.select %384, %284, %386 : tensor<256x128xi1>, tensor<256x128xf16> loc(#loc193)
            scf.yield %387 : tensor<256x128xf16> loc(#loc193)
          } else {
            scf.yield %284 : tensor<256x128xf16> loc(#loc41)
          } loc(#loc184)
          %c64_i32_135 = arith.constant 64 : i32 loc(#loc194)
          %c64_i32_136 = arith.constant 64 : i32 loc(#loc194)
          %289 = arith.extsi %20 : i32 to i64 loc(#loc194)
          %290 = arith.extsi %c64_i32_136 : i32 to i64 loc(#loc194)
          %291 = arith.muli %289, %290 : i64 loc(#loc194)
          %c2147483647_i64_137 = arith.constant 2147483647 : i64 loc(#loc194)
          %c-2147483648_i64_138 = arith.constant -2147483648 : i64 loc(#loc194)
          %292 = arith.cmpi sle, %291, %c2147483647_i64_137 : i64 loc(#loc194)
          %293 = arith.cmpi sge, %291, %c-2147483648_i64_138 : i64 loc(#loc194)
          %294 = arith.andi %292, %293 : i1 loc(#loc194)
          %295 = arith.muli %20, %c64_i32_136 : i32 loc(#loc194)
          %c16384_i32_139 = arith.constant 16384 : i32 loc(#loc195)
          %c16384_i32_140 = arith.constant 16384 : i32 loc(#loc195)
          %296 = arith.extsi %295 : i32 to i64 loc(#loc195)
          %297 = arith.extsi %c16384_i32_140 : i32 to i64 loc(#loc195)
          %298 = arith.muli %296, %297 : i64 loc(#loc195)
          %c2147483647_i64_141 = arith.constant 2147483647 : i64 loc(#loc195)
          %c-2147483648_i64_142 = arith.constant -2147483648 : i64 loc(#loc195)
          %299 = arith.cmpi sle, %298, %c2147483647_i64_141 : i64 loc(#loc195)
          %300 = arith.cmpi sge, %298, %c-2147483648_i64_142 : i64 loc(#loc195)
          %301 = arith.andi %299, %300 : i1 loc(#loc195)
          %302 = arith.muli %295, %c16384_i32_140 : i32 loc(#loc195)
          %303 = tt.addptr %arg3, %302 : !tt.ptr<f32>, i32 loc(#loc196)
          %c16384_i32_143 = arith.constant 16384 : i32 loc(#loc197)
          %c16384_i32_144 = arith.constant 16384 : i32 loc(#loc197)
          %304 = arith.extsi %18 : i32 to i64 loc(#loc197)
          %305 = arith.extsi %c16384_i32_144 : i32 to i64 loc(#loc197)
          %306 = arith.muli %304, %305 : i64 loc(#loc197)
          %c2147483647_i64_145 = arith.constant 2147483647 : i64 loc(#loc197)
          %c-2147483648_i64_146 = arith.constant -2147483648 : i64 loc(#loc197)
          %307 = arith.cmpi sle, %306, %c2147483647_i64_145 : i64 loc(#loc197)
          %308 = arith.cmpi sge, %306, %c-2147483648_i64_146 : i64 loc(#loc197)
          %309 = arith.andi %307, %308 : i1 loc(#loc197)
          %310 = arith.muli %18, %c16384_i32_144 : i32 loc(#loc197)
          %311 = tt.addptr %303, %310 : !tt.ptr<f32>, i32 loc(#loc198)
          %312 = tt.splat %311 : !tt.ptr<f32> -> tensor<256x!tt.ptr<f32>> loc(#loc199)
          %313 = tt.addptr %312, %36 : tensor<256x!tt.ptr<f32>>, tensor<256xi32> loc(#loc199)
          %314 = arith.extsi %269 : i32 to i64 loc(#loc200)
          %315 = arith.extsi %c16384_i32 : i32 to i64 loc(#loc200)
          %316 = arith.subi %314, %315 : i64 loc(#loc200)
          %c2147483647_i64_147 = arith.constant 2147483647 : i64 loc(#loc200)
          %c-2147483648_i64_148 = arith.constant -2147483648 : i64 loc(#loc200)
          %317 = arith.cmpi sle, %316, %c2147483647_i64_147 : i64 loc(#loc200)
          %318 = arith.cmpi sge, %316, %c-2147483648_i64_148 : i64 loc(#loc200)
          %319 = arith.andi %317, %318 : i1 loc(#loc200)
          %320 = arith.subi %269, %c16384_i32 : i32 loc(#loc200)
          %c0_i32_149 = arith.constant 0 : i32 loc(#loc201)
          %321 = arith.cmpi sgt, %320, %c0_i32_149 : i32 loc(#loc201)
          scf.if %321 {
            %c256_i32_170 = arith.constant 256 : i32 loc(#loc203)
            %c256_i32_171 = arith.constant 256 : i32 loc(#loc203)
            %370 = arith.extsi %c256_i32_171 : i32 to i64 loc(#loc203)
            %371 = arith.extsi %320 : i32 to i64 loc(#loc203)
            %372 = arith.subi %370, %371 : i64 loc(#loc203)
            %c2147483647_i64_172 = arith.constant 2147483647 : i64 loc(#loc203)
            %c-2147483648_i64_173 = arith.constant -2147483648 : i64 loc(#loc203)
            %373 = arith.cmpi sle, %372, %c2147483647_i64_172 : i64 loc(#loc203)
            %374 = arith.cmpi sge, %372, %c-2147483648_i64_173 : i64 loc(#loc203)
            %375 = arith.andi %373, %374 : i1 loc(#loc203)
            %376 = arith.subi %c256_i32_171, %320 : i32 loc(#loc203)
            %377 = tt.splat %376 : i32 -> tensor<256xi32> loc(#loc204)
            %378 = tt.make_range {end = 256 : i32, start = 0 : i32} : tensor<256xi32> loc(#loc205)
            %379 = arith.cmpi slt, %378, %377 : tensor<256xi32> loc(#loc206)
            %380 = math.log2 %251#3 : tensor<256xf32> loc(#loc207)
            %381 = arith.addf %251#2, %380 : tensor<256xf32> loc(#loc208)
            tt.store %313, %381, %379 : tensor<256x!tt.ptr<f32>> loc(#loc209)
          } else {
            %370 = math.log2 %251#3 : tensor<256xf32> loc(#loc210)
            %371 = arith.addf %251#2, %370 : tensor<256xf32> loc(#loc211)
            tt.store %313, %371 : tensor<256x!tt.ptr<f32>> loc(#loc212)
          } loc(#loc202)
          %322 = arith.extsi %20 : i32 to i64 loc(#loc213)
          %323 = arith.extsi %arg14 : i32 to i64 loc(#loc213)
          %324 = arith.muli %322, %323 : i64 loc(#loc213)
          %c2147483647_i64_150 = arith.constant 2147483647 : i64 loc(#loc213)
          %c-2147483648_i64_151 = arith.constant -2147483648 : i64 loc(#loc213)
          %325 = arith.cmpi sle, %324, %c2147483647_i64_150 : i64 loc(#loc213)
          %326 = arith.cmpi sge, %324, %c-2147483648_i64_151 : i64 loc(#loc213)
          %327 = arith.andi %325, %326 : i1 loc(#loc213)
          %328 = arith.muli %20, %arg14 : i32 loc(#loc213)
          %329 = tt.addptr %arg4, %328 : !tt.ptr<f16>, i32 loc(#loc214)
          %330 = arith.extsi %18 : i32 to i64 loc(#loc215)
          %331 = arith.extsi %arg15 : i32 to i64 loc(#loc215)
          %332 = arith.muli %330, %331 : i64 loc(#loc215)
          %c2147483647_i64_152 = arith.constant 2147483647 : i64 loc(#loc215)
          %c-2147483648_i64_153 = arith.constant -2147483648 : i64 loc(#loc215)
          %333 = arith.cmpi sle, %332, %c2147483647_i64_152 : i64 loc(#loc215)
          %334 = arith.cmpi sge, %332, %c-2147483648_i64_153 : i64 loc(#loc215)
          %335 = arith.andi %333, %334 : i1 loc(#loc215)
          %336 = arith.muli %18, %arg15 : i32 loc(#loc215)
          %337 = tt.addptr %329, %336 : !tt.ptr<f16>, i32 loc(#loc216)
          %338 = arith.extsi %c0_i32_24 : i32 to i64 loc(#loc217)
          %339 = arith.extsi %arg16 : i32 to i64 loc(#loc217)
          %340 = arith.muli %338, %339 : i64 loc(#loc217)
          %c2147483647_i64_154 = arith.constant 2147483647 : i64 loc(#loc217)
          %c-2147483648_i64_155 = arith.constant -2147483648 : i64 loc(#loc217)
          %341 = arith.cmpi sle, %340, %c2147483647_i64_154 : i64 loc(#loc217)
          %342 = arith.cmpi sge, %340, %c-2147483648_i64_155 : i64 loc(#loc217)
          %343 = arith.andi %341, %342 : i1 loc(#loc217)
          %344 = arith.muli %c0_i32_24, %arg16 : i32 loc(#loc217)
          %345 = tt.addptr %337, %344 : !tt.ptr<f16>, i32 loc(#loc218)
          %346 = tt.expand_dims %36 {axis = 1 : i32} : tensor<256xi32> -> tensor<256x1xi32> loc(#loc219)
          %347 = tt.splat %arg16 : i32 -> tensor<256x1xi32> loc(#loc220)
          %348 = arith.extsi %346 : tensor<256x1xi32> to tensor<256x1xi64> loc(#loc220)
          %349 = arith.extsi %347 : tensor<256x1xi32> to tensor<256x1xi64> loc(#loc220)
          %350 = arith.muli %348, %349 : tensor<256x1xi64> loc(#loc220)
          %c2147483647_i64_156 = arith.constant 2147483647 : i64 loc(#loc220)
          %c-2147483648_i64_157 = arith.constant -2147483648 : i64 loc(#loc220)
          %cst_158 = arith.constant dense<2147483647> : tensor<256x1xi64> loc(#loc220)
          %351 = arith.cmpi sle, %350, %cst_158 : tensor<256x1xi64> loc(#loc220)
          %cst_159 = arith.constant dense<-2147483648> : tensor<256x1xi64> loc(#loc220)
          %352 = arith.cmpi sge, %350, %cst_159 : tensor<256x1xi64> loc(#loc220)
          %353 = arith.andi %351, %352 : tensor<256x1xi1> loc(#loc220)
          %354 = arith.muli %346, %347 : tensor<256x1xi32> loc(#loc220)
          %355 = tt.splat %345 : !tt.ptr<f16> -> tensor<256x1x!tt.ptr<f16>> loc(#loc221)
          %356 = tt.addptr %355, %354 : tensor<256x1x!tt.ptr<f16>>, tensor<256x1xi32> loc(#loc221)
          %357 = tt.expand_dims %38 {axis = 0 : i32} : tensor<128xi32> -> tensor<1x128xi32> loc(#loc222)
          %c1_i32_160 = arith.constant 1 : i32 loc(#loc223)
          %c1_i32_161 = arith.constant 1 : i32 loc(#loc223)
          %cst_162 = arith.constant dense<1> : tensor<1x128xi32> loc(#loc223)
          %358 = arith.extsi %357 : tensor<1x128xi32> to tensor<1x128xi64> loc(#loc223)
          %359 = arith.extsi %cst_162 : tensor<1x128xi32> to tensor<1x128xi64> loc(#loc223)
          %360 = arith.muli %358, %359 : tensor<1x128xi64> loc(#loc223)
          %c2147483647_i64_163 = arith.constant 2147483647 : i64 loc(#loc223)
          %c-2147483648_i64_164 = arith.constant -2147483648 : i64 loc(#loc223)
          %cst_165 = arith.constant dense<2147483647> : tensor<1x128xi64> loc(#loc223)
          %361 = arith.cmpi sle, %360, %cst_165 : tensor<1x128xi64> loc(#loc223)
          %cst_166 = arith.constant dense<-2147483648> : tensor<1x128xi64> loc(#loc223)
          %362 = arith.cmpi sge, %360, %cst_166 : tensor<1x128xi64> loc(#loc223)
          %363 = arith.andi %361, %362 : tensor<1x128xi1> loc(#loc223)
          %364 = arith.muli %357, %cst_162 : tensor<1x128xi32> loc(#loc223)
          %365 = tt.broadcast %356 : tensor<256x1x!tt.ptr<f16>> -> tensor<256x128x!tt.ptr<f16>> loc(#loc224)
          %366 = tt.broadcast %364 : tensor<1x128xi32> -> tensor<256x128xi32> loc(#loc224)
          %367 = tt.addptr %365, %366 : tensor<256x128x!tt.ptr<f16>>, tensor<256x128xi32> loc(#loc224)
          %true_167 = arith.constant true loc(#loc225)
          %cst_168 = arith.constant dense<true> : tensor<256x128xi1> loc(#loc225)
          %c0_i32_169 = arith.constant 0 : i32 loc(#loc226)
          %368 = arith.cmpi sgt, %320, %c0_i32_169 : i32 loc(#loc226)
          %369 = scf.if %368 -> (tensor<256x128xi1>) {
            %370 = tt.expand_dims %36 {axis = 1 : i32} : tensor<256xi32> -> tensor<256x1xi32> loc(#loc228)
            %cst_170 = arith.constant dense<16384> : tensor<256x1xi32> loc(#loc229)
            %371 = arith.cmpi slt, %370, %cst_170 : tensor<256x1xi32> loc(#loc229)
            %372 = tt.broadcast %371 : tensor<256x1xi1> -> tensor<256x128xi1> loc(#loc230)
            %373 = arith.andi %cst_168, %372 : tensor<256x128xi1> loc(#loc230)
            scf.yield %373 : tensor<256x128xi1> loc(#loc230)
          } else {
            scf.yield %cst_168 : tensor<256x128xi1> loc(#loc41)
          } loc(#loc227)
          tt.store %367, %288, %369 : tensor<256x128x!tt.ptr<f16>> loc(#loc231)
        } else {
        } loc(#loc93)
        scf.yield %72 : i1 loc(#loc93)
      } else {
        scf.yield %true_23 : i1 loc(#loc41)
      } loc(#loc56)
      scf.yield %c1_i32 : i32 loc(#loc232)
    } loc(#loc39)
    tt.return loc(#loc39)
  } loc(#loc)
  tt.func private @"__main__.remap_xcd__i32__(1,)cconstexpr_64__(2,)cconstexpr_8_"(%arg0: i32 loc("/home/mejiang/w1/test/triton/fa/flash-attention.py":34:0)) -> i32 attributes {noinline = false} {
    %c8_i32 = arith.constant 8 : i32 loc(#loc234)
    %c0_i32 = arith.constant 0 : i32 loc(#loc235)
    %c0_i32_0 = arith.constant 0 : i32 loc(#loc236)
    %0 = arith.cmpi eq, %c0_i32, %c0_i32_0 : i32 loc(#loc236)
    %1 = scf.if %0 -> (i32) {
      %c8_i32_5 = arith.constant 8 : i32 loc(#loc238)
      scf.yield %c8_i32_5 : i32 loc(#loc238)
    } else {
      scf.yield %c0_i32 : i32 loc(#loc41)
    } loc(#loc237)
    %c8_i32_1 = arith.constant 8 : i32 loc(#loc239)
    %c8_i32_2 = arith.constant 8 : i32 loc(#loc239)
    %2 = arith.remsi %arg0, %c8_i32_2 : i32 loc(#loc239)
    %c8_i32_3 = arith.constant 8 : i32 loc(#loc240)
    %c8_i32_4 = arith.constant 8 : i32 loc(#loc240)
    %3 = arith.divsi %arg0, %c8_i32_4 : i32 loc(#loc240)
    %4 = arith.cmpi slt, %2, %1 : i32 loc(#loc241)
    %5 = scf.if %4 -> (i32) {
      %7 = arith.extsi %2 : i32 to i64 loc(#loc243)
      %8 = arith.extsi %c8_i32 : i32 to i64 loc(#loc243)
      %9 = arith.muli %7, %8 : i64 loc(#loc243)
      %c2147483647_i64 = arith.constant 2147483647 : i64 loc(#loc243)
      %c-2147483648_i64 = arith.constant -2147483648 : i64 loc(#loc243)
      %10 = arith.cmpi sle, %9, %c2147483647_i64 : i64 loc(#loc243)
      %11 = arith.cmpi sge, %9, %c-2147483648_i64 : i64 loc(#loc243)
      %12 = arith.andi %10, %11 : i1 loc(#loc243)
      %13 = arith.muli %2, %c8_i32 : i32 loc(#loc243)
      %14 = arith.extsi %13 : i32 to i64 loc(#loc244)
      %15 = arith.extsi %3 : i32 to i64 loc(#loc244)
      %16 = arith.addi %14, %15 : i64 loc(#loc244)
      %c2147483647_i64_5 = arith.constant 2147483647 : i64 loc(#loc244)
      %c-2147483648_i64_6 = arith.constant -2147483648 : i64 loc(#loc244)
      %17 = arith.cmpi sle, %16, %c2147483647_i64_5 : i64 loc(#loc244)
      %18 = arith.cmpi sge, %16, %c-2147483648_i64_6 : i64 loc(#loc244)
      %19 = arith.andi %17, %18 : i1 loc(#loc244)
      %20 = arith.addi %13, %3 : i32 loc(#loc244)
      scf.yield %20 : i32 loc(#loc244)
    } else {
      %7 = arith.extsi %1 : i32 to i64 loc(#loc245)
      %8 = arith.extsi %c8_i32 : i32 to i64 loc(#loc245)
      %9 = arith.muli %7, %8 : i64 loc(#loc245)
      %c2147483647_i64 = arith.constant 2147483647 : i64 loc(#loc245)
      %c-2147483648_i64 = arith.constant -2147483648 : i64 loc(#loc245)
      %10 = arith.cmpi sle, %9, %c2147483647_i64 : i64 loc(#loc245)
      %11 = arith.cmpi sge, %9, %c-2147483648_i64 : i64 loc(#loc245)
      %12 = arith.andi %10, %11 : i1 loc(#loc245)
      %13 = arith.muli %1, %c8_i32 : i32 loc(#loc245)
      %14 = arith.extsi %2 : i32 to i64 loc(#loc246)
      %15 = arith.extsi %1 : i32 to i64 loc(#loc246)
      %16 = arith.subi %14, %15 : i64 loc(#loc246)
      %c2147483647_i64_5 = arith.constant 2147483647 : i64 loc(#loc246)
      %c-2147483648_i64_6 = arith.constant -2147483648 : i64 loc(#loc246)
      %17 = arith.cmpi sle, %16, %c2147483647_i64_5 : i64 loc(#loc246)
      %18 = arith.cmpi sge, %16, %c-2147483648_i64_6 : i64 loc(#loc246)
      %19 = arith.andi %17, %18 : i1 loc(#loc246)
      %20 = arith.subi %2, %1 : i32 loc(#loc246)
      %c1_i32 = arith.constant 1 : i32 loc(#loc247)
      %c1_i32_7 = arith.constant 1 : i32 loc(#loc247)
      %21 = arith.extsi %c8_i32 : i32 to i64 loc(#loc247)
      %22 = arith.extsi %c1_i32_7 : i32 to i64 loc(#loc247)
      %23 = arith.subi %21, %22 : i64 loc(#loc247)
      %c2147483647_i64_8 = arith.constant 2147483647 : i64 loc(#loc247)
      %c-2147483648_i64_9 = arith.constant -2147483648 : i64 loc(#loc247)
      %24 = arith.cmpi sle, %23, %c2147483647_i64_8 : i64 loc(#loc247)
      %25 = arith.cmpi sge, %23, %c-2147483648_i64_9 : i64 loc(#loc247)
      %26 = arith.andi %24, %25 : i1 loc(#loc247)
      %27 = arith.subi %c8_i32, %c1_i32_7 : i32 loc(#loc247)
      %28 = arith.extsi %20 : i32 to i64 loc(#loc248)
      %29 = arith.extsi %27 : i32 to i64 loc(#loc248)
      %30 = arith.muli %28, %29 : i64 loc(#loc248)
      %c2147483647_i64_10 = arith.constant 2147483647 : i64 loc(#loc248)
      %c-2147483648_i64_11 = arith.constant -2147483648 : i64 loc(#loc248)
      %31 = arith.cmpi sle, %30, %c2147483647_i64_10 : i64 loc(#loc248)
      %32 = arith.cmpi sge, %30, %c-2147483648_i64_11 : i64 loc(#loc248)
      %33 = arith.andi %31, %32 : i1 loc(#loc248)
      %34 = arith.muli %20, %27 : i32 loc(#loc248)
      %35 = arith.extsi %13 : i32 to i64 loc(#loc249)
      %36 = arith.extsi %34 : i32 to i64 loc(#loc249)
      %37 = arith.addi %35, %36 : i64 loc(#loc249)
      %c2147483647_i64_12 = arith.constant 2147483647 : i64 loc(#loc249)
      %c-2147483648_i64_13 = arith.constant -2147483648 : i64 loc(#loc249)
      %38 = arith.cmpi sle, %37, %c2147483647_i64_12 : i64 loc(#loc249)
      %39 = arith.cmpi sge, %37, %c-2147483648_i64_13 : i64 loc(#loc249)
      %40 = arith.andi %38, %39 : i1 loc(#loc249)
      %41 = arith.addi %13, %34 : i32 loc(#loc249)
      %42 = arith.extsi %41 : i32 to i64 loc(#loc250)
      %43 = arith.extsi %3 : i32 to i64 loc(#loc250)
      %44 = arith.addi %42, %43 : i64 loc(#loc250)
      %c2147483647_i64_14 = arith.constant 2147483647 : i64 loc(#loc250)
      %c-2147483648_i64_15 = arith.constant -2147483648 : i64 loc(#loc250)
      %45 = arith.cmpi sle, %44, %c2147483647_i64_14 : i64 loc(#loc250)
      %46 = arith.cmpi sge, %44, %c-2147483648_i64_15 : i64 loc(#loc250)
      %47 = arith.andi %45, %46 : i1 loc(#loc250)
      %48 = arith.addi %41, %3 : i32 loc(#loc250)
      scf.yield %48 : i32 loc(#loc250)
    } loc(#loc242)
    tt.return %5 : i32 loc(#loc251)
  ^bb1:  // no predecessors
    %6 = ub.poison : i32 loc(#loc252)
    tt.return %6 : i32 loc(#loc252)
  } loc(#loc233)
  tt.func private @"__main__.cdiv_fn__i32__(1,)cconstexpr_64_"(%arg0: i32 loc("/home/mejiang/w1/test/triton/fa/flash-attention.py":168:0)) -> i32 attributes {noinline = false} {
    %c64_i32 = arith.constant 64 : i32 loc(#loc254)
    %c64_i32_0 = arith.constant 64 : i32 loc(#loc254)
    %0 = arith.extsi %arg0 : i32 to i64 loc(#loc254)
    %1 = arith.extsi %c64_i32_0 : i32 to i64 loc(#loc254)
    %2 = arith.addi %0, %1 : i64 loc(#loc254)
    %c2147483647_i64 = arith.constant 2147483647 : i64 loc(#loc254)
    %c-2147483648_i64 = arith.constant -2147483648 : i64 loc(#loc254)
    %3 = arith.cmpi sle, %2, %c2147483647_i64 : i64 loc(#loc254)
    %4 = arith.cmpi sge, %2, %c-2147483648_i64 : i64 loc(#loc254)
    %5 = arith.andi %3, %4 : i1 loc(#loc254)
    %6 = arith.addi %arg0, %c64_i32_0 : i32 loc(#loc254)
    %c1_i32 = arith.constant 1 : i32 loc(#loc255)
    %c1_i32_1 = arith.constant 1 : i32 loc(#loc255)
    %7 = arith.extsi %6 : i32 to i64 loc(#loc255)
    %8 = arith.extsi %c1_i32_1 : i32 to i64 loc(#loc255)
    %9 = arith.subi %7, %8 : i64 loc(#loc255)
    %c2147483647_i64_2 = arith.constant 2147483647 : i64 loc(#loc255)
    %c-2147483648_i64_3 = arith.constant -2147483648 : i64 loc(#loc255)
    %10 = arith.cmpi sle, %9, %c2147483647_i64_2 : i64 loc(#loc255)
    %11 = arith.cmpi sge, %9, %c-2147483648_i64_3 : i64 loc(#loc255)
    %12 = arith.andi %10, %11 : i1 loc(#loc255)
    %13 = arith.subi %6, %c1_i32_1 : i32 loc(#loc255)
    %c64_i32_4 = arith.constant 64 : i32 loc(#loc256)
    %c64_i32_5 = arith.constant 64 : i32 loc(#loc256)
    %14 = arith.divsi %13, %c64_i32_5 : i32 loc(#loc256)
    tt.return %14 : i32 loc(#loc257)
  ^bb1:  // no predecessors
    %15 = ub.poison : i32 loc(#loc258)
    tt.return %15 : i32 loc(#loc258)
  } loc(#loc253)
  tt.func private @"triton.language.standard.zeros____(0, 0)cconstexpr_256__(0, 1)cconstexpr_128__(1,)cconstexpr_fp16_"() -> tensor<256x128xf16> attributes {noinline = false} {
    %cst = arith.constant 0.000000e+00 : f16 loc(#loc260)
    %cst_0 = arith.constant dense<0.000000e+00> : tensor<256x128xf16> loc(#loc260)
    tt.return %cst_0 : tensor<256x128xf16> loc(#loc261)
  ^bb1:  // no predecessors
    %0 = ub.poison : tensor<256x128xf16> loc(#loc262)
    tt.return %0 : tensor<256x128xf16> loc(#loc262)
  } loc(#loc259)
  tt.func private @"triton.language.standard.zeros____(0, 0)cconstexpr_256__(0, 1)cconstexpr_128__(1,)cconstexpr_fp32_"() -> tensor<256x128xf32> attributes {noinline = false} {
    %cst = arith.constant 0.000000e+00 : f32 loc(#loc260)
    %cst_0 = arith.constant dense<0.000000e+00> : tensor<256x128xf32> loc(#loc260)
    tt.return %cst_0 : tensor<256x128xf32> loc(#loc261)
  ^bb1:  // no predecessors
    %0 = ub.poison : tensor<256x128xf32> loc(#loc262)
    tt.return %0 : tensor<256x128xf32> loc(#loc262)
  } loc(#loc259)
  tt.func private @"__main__._attn_fwd_inner__fp32S256_128S_fp32S256S_fp32S256S_fp16S256_128S_Pfp16S128_64S_Pfp16S64_128S_i32_i32_i32_i32_i32_i32_fp32_i32_i32_i32_i32_i32S256S_i32S64S__(6,)cNone_(16,)cNone_(19,)cconstexpr_0__(20,)cconstexpr_0__(21,)cconstexpr_0__(22,)cNone_(23,)cNone_(24,)cNone_(25,)cNone_(26,)cNone_(27,)cconstexpr_False__(28,)cconstexpr_256__(29,)cconstexpr_128__(30,)cconstexpr_64__(33,)cconstexpr_False__(34,)cconstexpr_False__(35,)cconstexpr_False__(36,)cconstexpr_False__(37,)cconstexpr_False__(38,)cconstexpr_128__(39,)cconstexpr_0_d_1275174308246903__(40,)cconstexpr_False__(41,)cconstexpr_False__(42,)cconstexpr_False__(43,)cconstexpr_True_"(%arg0: tensor<256x128xf32> loc("/home/mejiang/w1/test/triton/fa/flash-attention.py":267:0), %arg1: tensor<256xf32> loc("/home/mejiang/w1/test/triton/fa/flash-attention.py":267:0), %arg2: tensor<256xf32> loc("/home/mejiang/w1/test/triton/fa/flash-attention.py":267:0), %arg3: tensor<256x128xf16> loc("/home/mejiang/w1/test/triton/fa/flash-attention.py":267:0), %arg4: tensor<128x64x!tt.ptr<f16>> loc("/home/mejiang/w1/test/triton/fa/flash-attention.py":267:0), %arg5: tensor<64x128x!tt.ptr<f16>> loc("/home/mejiang/w1/test/triton/fa/flash-attention.py":267:0), %arg6: i32 loc("/home/mejiang/w1/test/triton/fa/flash-attention.py":267:0), %arg7: i32 loc("/home/mejiang/w1/test/triton/fa/flash-attention.py":267:0), %arg8: i32 loc("/home/mejiang/w1/test/triton/fa/flash-attention.py":267:0), %arg9: i32 loc("/home/mejiang/w1/test/triton/fa/flash-attention.py":267:0), %arg10: i32 loc("/home/mejiang/w1/test/triton/fa/flash-attention.py":267:0), %arg11: i32 loc("/home/mejiang/w1/test/triton/fa/flash-attention.py":267:0), %arg12: f32 loc("/home/mejiang/w1/test/triton/fa/flash-attention.py":267:0), %arg13: i32 loc("/home/mejiang/w1/test/triton/fa/flash-attention.py":267:0), %arg14: i32 loc("/home/mejiang/w1/test/triton/fa/flash-attention.py":267:0), %arg15: i32 loc("/home/mejiang/w1/test/triton/fa/flash-attention.py":267:0), %arg16: i32 loc("/home/mejiang/w1/test/triton/fa/flash-attention.py":267:0), %arg17: tensor<256xi32> loc("/home/mejiang/w1/test/triton/fa/flash-attention.py":267:0), %arg18: tensor<64xi32> loc("/home/mejiang/w1/test/triton/fa/flash-attention.py":267:0)) -> (tensor<256x128xf32>, tensor<256xf32>, tensor<256xf32>) attributes {noinline = false} {
    %c64_i32 = arith.constant 64 : i32 loc(#loc264)
    %0 = arith.bitcast %arg15 : i32 to i32 loc(#loc264)
    %1 = arith.bitcast %arg16 : i32 to i32 loc(#loc264)
    %2 = arith.bitcast %c64_i32 : i32 to i32 loc(#loc264)
    %3 = ub.poison : i32 loc(#loc264)
    %4:5 = scf.for %arg19 = %0 to %1 step %2 iter_args(%arg20 = %arg0, %arg21 = %arg1, %arg22 = %arg2, %arg23 = %arg4, %arg24 = %arg5) -> (tensor<256x128xf32>, tensor<256xf32>, tensor<256xf32>, tensor<128x64x!tt.ptr<f16>>, tensor<64x128x!tt.ptr<f16>>)  : i32 {
      %8 = tt.call @"__main__.load_fn__Pfp16S128_64S_i32__(1,)cNone_(2,)cNone_(3,)cconstexpr_128_"(%arg23, %arg10) : (tensor<128x64x!tt.ptr<f16>>, i32) -> tensor<128x64xf16> loc(#loc265)
      %9 = tt.call @"triton.language.standard.zeros____(0, 0)cconstexpr_256__(0, 1)cconstexpr_64__(1,)cconstexpr_fp32_"() : () -> tensor<256x64xf32> loc(#loc266)
      %cst = arith.constant 0.000000e+00 : f32 loc(#loc267)
      %cst_0 = arith.constant dense<0.000000e+00> : tensor<256x64xf32> loc(#loc267)
      %10 = tt.dot %arg3, %8, %cst_0 : tensor<256x128xf16> * tensor<128x64xf16> -> tensor<256x64xf32> loc(#loc267)
      %11 = arith.addf %9, %10 : tensor<256x64xf32> loc(#loc268)
      %12 = tt.call @"triton.language.standard.max__fp32S256_64S__(1,)cconstexpr_1__(2,)cconstexpr_False__(3,)cconstexpr_True__(4,)cconstexpr_False_"(%11) : (tensor<256x64xf32>) -> tensor<256xf32> loc(#loc269)
      %13 = arith.maxnumf %arg22, %12 : tensor<256xf32> loc(#loc270)
      %cst_1 = arith.constant 0.127517432 : f32 loc(#loc271)
      %cst_2 = arith.constant 0.127517432 : f32 loc(#loc271)
      %cst_3 = arith.constant dense<0.127517432> : tensor<256xf32> loc(#loc271)
      %14 = arith.mulf %13, %cst_3 : tensor<256xf32> loc(#loc271)
      %cst_4 = arith.constant 0.127517432 : f32 loc(#loc272)
      %cst_5 = arith.constant 0.127517432 : f32 loc(#loc272)
      %cst_6 = arith.constant dense<0.127517432> : tensor<256x64xf32> loc(#loc272)
      %15 = arith.mulf %11, %cst_6 : tensor<256x64xf32> loc(#loc272)
      %16 = tt.expand_dims %14 {axis = 1 : i32} : tensor<256xf32> -> tensor<256x1xf32> loc(#loc273)
      %17 = tt.broadcast %16 : tensor<256x1xf32> -> tensor<256x64xf32> loc(#loc274)
      %18 = arith.subf %15, %17 : tensor<256x64xf32> loc(#loc274)
      %19 = math.exp2 %18 : tensor<256x64xf32> loc(#loc275)
      %20 = tt.call @"triton.language.standard.sum__fp32S256_64S__(1,)cconstexpr_1__(2,)cconstexpr_False__(3,)cNone"(%19) : (tensor<256x64xf32>) -> tensor<256xf32> loc(#loc276)
      %cst_7 = arith.constant 0.127517432 : f32 loc(#loc277)
      %cst_8 = arith.constant 0.127517432 : f32 loc(#loc277)
      %cst_9 = arith.constant dense<0.127517432> : tensor<256xf32> loc(#loc277)
      %21 = arith.mulf %arg22, %cst_9 : tensor<256xf32> loc(#loc277)
      %22 = arith.subf %21, %14 : tensor<256xf32> loc(#loc278)
      %23 = math.exp2 %22 : tensor<256xf32> loc(#loc279)
      %24 = tt.expand_dims %23 {axis = 1 : i32} : tensor<256xf32> -> tensor<256x1xf32> loc(#loc280)
      %25 = tt.broadcast %24 : tensor<256x1xf32> -> tensor<256x128xf32> loc(#loc281)
      %26 = arith.mulf %arg20, %25 : tensor<256x128xf32> loc(#loc281)
      %27 = tt.call @"__main__.load_fn__Pfp16S64_128S_i32__(1,)cNone_(2,)cNone_(4,)cconstexpr_128_"(%arg24, %arg10) : (tensor<64x128x!tt.ptr<f16>>, i32) -> tensor<64x128xf16> loc(#loc282)
      %28 = arith.mulf %arg21, %23 : tensor<256xf32> loc(#loc283)
      %29 = arith.addf %28, %20 : tensor<256xf32> loc(#loc284)
      %30 = arith.truncf %19 : tensor<256x64xf32> to tensor<256x64xf16> loc(#loc285)
      %cst_10 = arith.constant 0.000000e+00 : f32 loc(#loc286)
      %cst_11 = arith.constant dense<0.000000e+00> : tensor<256x128xf32> loc(#loc286)
      %31 = tt.dot %30, %27, %cst_11 : tensor<256x64xf16> * tensor<64x128xf16> -> tensor<256x128xf32> loc(#loc286)
      %32 = arith.addf %26, %31 : tensor<256x128xf32> loc(#loc287)
      %c64_i32_12 = arith.constant 64 : i32 loc(#loc288)
      %c64_i32_13 = arith.constant 64 : i32 loc(#loc288)
      %33 = arith.extsi %c64_i32_13 : i32 to i64 loc(#loc288)
      %34 = arith.extsi %arg6 : i32 to i64 loc(#loc288)
      %35 = arith.muli %33, %34 : i64 loc(#loc288)
      %c2147483647_i64 = arith.constant 2147483647 : i64 loc(#loc288)
      %c-2147483648_i64 = arith.constant -2147483648 : i64 loc(#loc288)
      %36 = arith.cmpi sle, %35, %c2147483647_i64 : i64 loc(#loc288)
      %37 = arith.cmpi sge, %35, %c-2147483648_i64 : i64 loc(#loc288)
      %38 = arith.andi %36, %37 : i1 loc(#loc288)
      %39 = arith.muli %c64_i32_13, %arg6 : i32 loc(#loc288)
      %40 = tt.splat %39 : i32 -> tensor<128x64xi32> loc(#loc289)
      %41 = tt.addptr %arg23, %40 : tensor<128x64x!tt.ptr<f16>>, tensor<128x64xi32> loc(#loc289)
      %c64_i32_14 = arith.constant 64 : i32 loc(#loc290)
      %c64_i32_15 = arith.constant 64 : i32 loc(#loc290)
      %42 = arith.extsi %c64_i32_15 : i32 to i64 loc(#loc290)
      %43 = arith.extsi %arg7 : i32 to i64 loc(#loc290)
      %44 = arith.muli %42, %43 : i64 loc(#loc290)
      %c2147483647_i64_16 = arith.constant 2147483647 : i64 loc(#loc290)
      %c-2147483648_i64_17 = arith.constant -2147483648 : i64 loc(#loc290)
      %45 = arith.cmpi sle, %44, %c2147483647_i64_16 : i64 loc(#loc290)
      %46 = arith.cmpi sge, %44, %c-2147483648_i64_17 : i64 loc(#loc290)
      %47 = arith.andi %45, %46 : i1 loc(#loc290)
      %48 = arith.muli %c64_i32_15, %arg7 : i32 loc(#loc290)
      %49 = tt.splat %48 : i32 -> tensor<64x128xi32> loc(#loc291)
      %50 = tt.addptr %arg24, %49 : tensor<64x128x!tt.ptr<f16>>, tensor<64x128xi32> loc(#loc291)
      scf.yield %32, %29, %13, %41, %50 : tensor<256x128xf32>, tensor<256xf32>, tensor<256xf32>, tensor<128x64x!tt.ptr<f16>>, tensor<64x128x!tt.ptr<f16>> loc(#loc292)
    } loc(#loc264)
    tt.return %4#0, %4#1, %4#2 : tensor<256x128xf32>, tensor<256xf32>, tensor<256xf32> loc(#loc293)
  ^bb1:  // no predecessors
    %5 = ub.poison : tensor<256x128xf32> loc(#loc294)
    %6 = ub.poison : tensor<256xf32> loc(#loc294)
    %7 = ub.poison : tensor<256xf32> loc(#loc294)
    tt.return %5, %6, %7 : tensor<256x128xf32>, tensor<256xf32>, tensor<256xf32> loc(#loc294)
  } loc(#loc263)
  tt.func private @"__main__.load_fn__Pfp16S128_64S_i32__(1,)cNone_(2,)cNone_(3,)cconstexpr_128_"(%arg0: tensor<128x64x!tt.ptr<f16>> loc("/home/mejiang/w1/test/triton/fa/flash-attention.py":201:0), %arg1: i32 loc("/home/mejiang/w1/test/triton/fa/flash-attention.py":201:0)) -> tensor<128x64xf16> attributes {noinline = false} {
    %0 = tt.load %arg0 : tensor<128x64x!tt.ptr<f16>> loc(#loc296)
    tt.return %0 : tensor<128x64xf16> loc(#loc297)
  ^bb1:  // no predecessors
    %1 = ub.poison : tensor<128x64xf16> loc(#loc298)
    tt.return %1 : tensor<128x64xf16> loc(#loc298)
  } loc(#loc295)
  tt.func private @"triton.language.standard.zeros____(0, 0)cconstexpr_256__(0, 1)cconstexpr_64__(1,)cconstexpr_fp32_"() -> tensor<256x64xf32> attributes {noinline = false} {
    %cst = arith.constant 0.000000e+00 : f32 loc(#loc260)
    %cst_0 = arith.constant dense<0.000000e+00> : tensor<256x64xf32> loc(#loc260)
    tt.return %cst_0 : tensor<256x64xf32> loc(#loc261)
  ^bb1:  // no predecessors
    %0 = ub.poison : tensor<256x64xf32> loc(#loc262)
    tt.return %0 : tensor<256x64xf32> loc(#loc262)
  } loc(#loc259)
  tt.func private @"triton.language.standard.max__fp32S256_64S__(1,)cconstexpr_1__(2,)cconstexpr_False__(3,)cconstexpr_True__(4,)cconstexpr_False_"(%arg0: tensor<256x64xf32> loc("/opt/venv/lib/python3.10/site-packages/triton/language/standard.py":174:0)) -> tensor<256xf32> attributes {noinline = false} {
    %0 = "tt.reduce"(%arg0) <{axis = 1 : i32}> ({
    ^bb0(%arg1: f32 loc(unknown), %arg2: f32 loc(unknown)):
      %2 = tt.call @triton.language.standard._elementwise_max__fp32_fp32__(%arg1, %arg2) : (f32, f32) -> f32 loc(#loc300)
      tt.reduce.return %2 : f32 loc(#loc300)
    }) : (tensor<256x64xf32>) -> tensor<256xf32> loc(#loc300)
    tt.return %0 : tensor<256xf32> loc(#loc301)
  ^bb1:  // no predecessors
    %1 = ub.poison : tensor<256xf32> loc(#loc302)
    tt.return %1 : tensor<256xf32> loc(#loc302)
  } loc(#loc299)
  tt.func private @triton.language.standard._elementwise_max__fp32_fp32__(%arg0: f32 loc("/opt/venv/lib/python3.10/site-packages/triton/language/standard.py":166:0), %arg1: f32 loc("/opt/venv/lib/python3.10/site-packages/triton/language/standard.py":166:0)) -> f32 attributes {noinline = false} {
    %0 = arith.maxnumf %arg0, %arg1 : f32 loc(#loc304)
    tt.return %0 : f32 loc(#loc305)
  ^bb1:  // no predecessors
    %1 = ub.poison : f32 loc(#loc306)
    tt.return %1 : f32 loc(#loc306)
  } loc(#loc303)
  tt.func private @"triton.language.standard.sum__fp32S256_64S__(1,)cconstexpr_1__(2,)cconstexpr_False__(3,)cNone"(%arg0: tensor<256x64xf32> loc("/opt/venv/lib/python3.10/site-packages/triton/language/standard.py":284:0)) -> tensor<256xf32> attributes {noinline = false} {
    %0 = "tt.reduce"(%arg0) <{axis = 1 : i32}> ({
    ^bb0(%arg1: f32 loc(unknown), %arg2: f32 loc(unknown)):
      %2 = tt.call @triton.language.standard._sum_combine__fp32_fp32__(%arg1, %arg2) : (f32, f32) -> f32 loc(#loc308)
      tt.reduce.return %2 : f32 loc(#loc308)
    }) : (tensor<256x64xf32>) -> tensor<256xf32> loc(#loc308)
    tt.return %0 : tensor<256xf32> loc(#loc309)
  ^bb1:  // no predecessors
    %1 = ub.poison : tensor<256xf32> loc(#loc310)
    tt.return %1 : tensor<256xf32> loc(#loc310)
  } loc(#loc307)
  tt.func private @triton.language.standard._sum_combine__fp32_fp32__(%arg0: f32 loc("/opt/venv/lib/python3.10/site-packages/triton/language/standard.py":259:0), %arg1: f32 loc("/opt/venv/lib/python3.10/site-packages/triton/language/standard.py":259:0)) -> f32 attributes {noinline = false} {
    %0 = arith.addf %arg0, %arg1 : f32 loc(#loc312)
    tt.return %0 : f32 loc(#loc313)
  ^bb1:  // no predecessors
    %1 = ub.poison : f32 loc(#loc314)
    tt.return %1 : f32 loc(#loc314)
  } loc(#loc311)
  tt.func private @"__main__.load_fn__Pfp16S64_128S_i32__(1,)cNone_(2,)cNone_(4,)cconstexpr_128_"(%arg0: tensor<64x128x!tt.ptr<f16>> loc("/home/mejiang/w1/test/triton/fa/flash-attention.py":201:0), %arg1: i32 loc("/home/mejiang/w1/test/triton/fa/flash-attention.py":201:0)) -> tensor<64x128xf16> attributes {noinline = false} {
    %0 = tt.load %arg0 : tensor<64x128x!tt.ptr<f16>> loc(#loc296)
    tt.return %0 : tensor<64x128xf16> loc(#loc297)
  ^bb1:  // no predecessors
    %1 = ub.poison : tensor<64x128xf16> loc(#loc298)
    tt.return %1 : tensor<64x128xf16> loc(#loc298)
  } loc(#loc295)
  tt.func private @"__main__._attn_fwd_inner__fp32S256_128S_fp32S256S_fp32S256S_fp16S256_128S_Pfp16S128_64S_Pfp16S64_128S_i32_i32_i32_i32_i32_i32_fp32_i32_i32_i32_i32_i32S64S_i32_i32_i32S256S_i32S64S__(6,)cNone_(16,)cNone_(22,)cNone_(23,)cNone_(24,)cNone_(25,)cNone_(26,)cNone_(27,)cconstexpr_True__(28,)cconstexpr_256__(29,)cconstexpr_128__(30,)cconstexpr_64__(33,)cconstexpr_False__(34,)cconstexpr_True__(35,)cconstexpr_False__(36,)cconstexpr_False__(37,)cconstexpr_False__(38,)cconstexpr_128__(39,)cconstexpr_0_d_1275174308246903__(40,)cconstexpr_False__(41,)cconstexpr_False__(42,)cconstexpr_False__(43,)cconstexpr_False_"(%arg0: tensor<256x128xf32> loc("/home/mejiang/w1/test/triton/fa/flash-attention.py":267:0), %arg1: tensor<256xf32> loc("/home/mejiang/w1/test/triton/fa/flash-attention.py":267:0), %arg2: tensor<256xf32> loc("/home/mejiang/w1/test/triton/fa/flash-attention.py":267:0), %arg3: tensor<256x128xf16> loc("/home/mejiang/w1/test/triton/fa/flash-attention.py":267:0), %arg4: tensor<128x64x!tt.ptr<f16>> loc("/home/mejiang/w1/test/triton/fa/flash-attention.py":267:0), %arg5: tensor<64x128x!tt.ptr<f16>> loc("/home/mejiang/w1/test/triton/fa/flash-attention.py":267:0), %arg6: i32 loc("/home/mejiang/w1/test/triton/fa/flash-attention.py":267:0), %arg7: i32 loc("/home/mejiang/w1/test/triton/fa/flash-attention.py":267:0), %arg8: i32 loc("/home/mejiang/w1/test/triton/fa/flash-attention.py":267:0), %arg9: i32 loc("/home/mejiang/w1/test/triton/fa/flash-attention.py":267:0), %arg10: i32 loc("/home/mejiang/w1/test/triton/fa/flash-attention.py":267:0), %arg11: i32 loc("/home/mejiang/w1/test/triton/fa/flash-attention.py":267:0), %arg12: f32 loc("/home/mejiang/w1/test/triton/fa/flash-attention.py":267:0), %arg13: i32 loc("/home/mejiang/w1/test/triton/fa/flash-attention.py":267:0), %arg14: i32 loc("/home/mejiang/w1/test/triton/fa/flash-attention.py":267:0), %arg15: i32 loc("/home/mejiang/w1/test/triton/fa/flash-attention.py":267:0), %arg16: i32 loc("/home/mejiang/w1/test/triton/fa/flash-attention.py":267:0), %arg17: tensor<64xi32> loc("/home/mejiang/w1/test/triton/fa/flash-attention.py":267:0), %arg18: i32 loc("/home/mejiang/w1/test/triton/fa/flash-attention.py":267:0), %arg19: i32 loc("/home/mejiang/w1/test/triton/fa/flash-attention.py":267:0), %arg20: tensor<256xi32> loc("/home/mejiang/w1/test/triton/fa/flash-attention.py":267:0), %arg21: tensor<64xi32> loc("/home/mejiang/w1/test/triton/fa/flash-attention.py":267:0)) -> (tensor<256x128xf32>, tensor<256xf32>, tensor<256xf32>) attributes {noinline = false} {
    %c64_i32 = arith.constant 64 : i32 loc(#loc264)
    %0 = arith.bitcast %arg15 : i32 to i32 loc(#loc264)
    %1 = arith.bitcast %arg16 : i32 to i32 loc(#loc264)
    %2 = arith.bitcast %c64_i32 : i32 to i32 loc(#loc264)
    %3 = ub.poison : i32 loc(#loc264)
    %4:5 = scf.for %arg22 = %0 to %1 step %2 iter_args(%arg23 = %arg0, %arg24 = %arg1, %arg25 = %arg2, %arg26 = %arg4, %arg27 = %arg5) -> (tensor<256x128xf32>, tensor<256xf32>, tensor<256xf32>, tensor<128x64x!tt.ptr<f16>>, tensor<64x128x!tt.ptr<f16>>)  : i32 {
      %8 = tt.make_range {end = 64 : i32, start = 0 : i32} : tensor<64xi32> loc(#loc315)
      %9 = tt.splat %arg22 : i32 -> tensor<64xi32> loc(#loc316)
      %10 = arith.extsi %9 : tensor<64xi32> to tensor<64xi64> loc(#loc316)
      %11 = arith.extsi %8 : tensor<64xi32> to tensor<64xi64> loc(#loc316)
      %12 = arith.addi %10, %11 : tensor<64xi64> loc(#loc316)
      %c2147483647_i64 = arith.constant 2147483647 : i64 loc(#loc316)
      %c-2147483648_i64 = arith.constant -2147483648 : i64 loc(#loc316)
      %cst = arith.constant dense<2147483647> : tensor<64xi64> loc(#loc316)
      %13 = arith.cmpi sle, %12, %cst : tensor<64xi64> loc(#loc316)
      %cst_0 = arith.constant dense<-2147483648> : tensor<64xi64> loc(#loc316)
      %14 = arith.cmpi sge, %12, %cst_0 : tensor<64xi64> loc(#loc316)
      %15 = arith.andi %13, %14 : tensor<64xi1> loc(#loc316)
      %16 = arith.addi %9, %8 : tensor<64xi32> loc(#loc316)
      %17 = tt.call @"__main__.load_fn__Pfp16S128_64S_i32S64S_i32__(1,)cNone_(3,)cconstexpr_128_"(%arg26, %16, %arg10) : (tensor<128x64x!tt.ptr<f16>>, tensor<64xi32>, i32) -> tensor<128x64xf16> loc(#loc265)
      %18 = tt.call @"triton.language.standard.zeros____(0, 0)cconstexpr_256__(0, 1)cconstexpr_64__(1,)cconstexpr_fp32_"() : () -> tensor<256x64xf32> loc(#loc266)
      %c64_i32_1 = arith.constant 64 : i32 loc(#loc317)
      %c64_i32_2 = arith.constant 64 : i32 loc(#loc317)
      %19 = arith.extsi %arg22 : i32 to i64 loc(#loc317)
      %20 = arith.extsi %c64_i32_2 : i32 to i64 loc(#loc317)
      %21 = arith.addi %19, %20 : i64 loc(#loc317)
      %c2147483647_i64_3 = arith.constant 2147483647 : i64 loc(#loc317)
      %c-2147483648_i64_4 = arith.constant -2147483648 : i64 loc(#loc317)
      %22 = arith.cmpi sle, %21, %c2147483647_i64_3 : i64 loc(#loc317)
      %23 = arith.cmpi sge, %21, %c-2147483648_i64_4 : i64 loc(#loc317)
      %24 = arith.andi %22, %23 : i1 loc(#loc317)
      %25 = arith.addi %arg22, %c64_i32_2 : i32 loc(#loc317)
      %26 = arith.cmpi eq, %25, %arg16 : i32 loc(#loc318)
      %c0_i32 = arith.constant 0 : i32 loc(#loc319)
      %27 = arith.cmpi ne, %arg19, %c0_i32 : i32 loc(#loc319)
      %28 = arith.andi %26, %27 : i1 loc(#loc320)
      %29 = scf.if %28 -> (tensor<256x64xf32>) {
        %85 = tt.splat %arg10 : i32 -> tensor<256xi32> loc(#loc322)
        %86 = tt.expand_dims %arg21 {axis = 0 : i32} : tensor<64xi32> -> tensor<1x64xi32> loc(#loc323)
        %87 = tt.splat %arg22 : i32 -> tensor<1x64xi32> loc(#loc324)
        %88 = arith.extsi %87 : tensor<1x64xi32> to tensor<1x64xi64> loc(#loc324)
        %89 = arith.extsi %86 : tensor<1x64xi32> to tensor<1x64xi64> loc(#loc324)
        %90 = arith.addi %88, %89 : tensor<1x64xi64> loc(#loc324)
        %c2147483647_i64_33 = arith.constant 2147483647 : i64 loc(#loc324)
        %c-2147483648_i64_34 = arith.constant -2147483648 : i64 loc(#loc324)
        %cst_35 = arith.constant dense<2147483647> : tensor<1x64xi64> loc(#loc324)
        %91 = arith.cmpi sle, %90, %cst_35 : tensor<1x64xi64> loc(#loc324)
        %cst_36 = arith.constant dense<-2147483648> : tensor<1x64xi64> loc(#loc324)
        %92 = arith.cmpi sge, %90, %cst_36 : tensor<1x64xi64> loc(#loc324)
        %93 = arith.andi %91, %92 : tensor<1x64xi1> loc(#loc324)
        %94 = arith.addi %87, %86 : tensor<1x64xi32> loc(#loc324)
        %95 = tt.expand_dims %85 {axis = 1 : i32} : tensor<256xi32> -> tensor<256x1xi32> loc(#loc325)
        %96 = tt.broadcast %94 : tensor<1x64xi32> -> tensor<256x64xi32> loc(#loc326)
        %97 = tt.broadcast %95 : tensor<256x1xi32> -> tensor<256x64xi32> loc(#loc326)
        %98 = arith.cmpi slt, %96, %97 : tensor<256x64xi32> loc(#loc326)
        %cst_37 = arith.constant 0xFF800000 : f32 loc(#loc327)
        %cst_38 = arith.constant 0xFF800000 : f32 loc(#loc327)
        %cst_39 = arith.constant dense<0xFF800000> : tensor<256x64xf32> loc(#loc327)
        %99 = arith.select %98, %18, %cst_39 : tensor<256x64xi1>, tensor<256x64xf32> loc(#loc327)
        scf.yield %99 : tensor<256x64xf32> loc(#loc327)
      } else {
        scf.yield %18 : tensor<256x64xf32> loc(#loc41)
      } loc(#loc321)
      %30 = tt.splat %arg22 : i32 -> tensor<64xi32> loc(#loc328)
      %31 = arith.extsi %30 : tensor<64xi32> to tensor<64xi64> loc(#loc328)
      %32 = arith.extsi %arg17 : tensor<64xi32> to tensor<64xi64> loc(#loc328)
      %33 = arith.addi %31, %32 : tensor<64xi64> loc(#loc328)
      %c2147483647_i64_5 = arith.constant 2147483647 : i64 loc(#loc328)
      %c-2147483648_i64_6 = arith.constant -2147483648 : i64 loc(#loc328)
      %cst_7 = arith.constant dense<2147483647> : tensor<64xi64> loc(#loc328)
      %34 = arith.cmpi sle, %33, %cst_7 : tensor<64xi64> loc(#loc328)
      %cst_8 = arith.constant dense<-2147483648> : tensor<64xi64> loc(#loc328)
      %35 = arith.cmpi sge, %33, %cst_8 : tensor<64xi64> loc(#loc328)
      %36 = arith.andi %34, %35 : tensor<64xi1> loc(#loc328)
      %37 = arith.addi %30, %arg17 : tensor<64xi32> loc(#loc328)
      %38 = tt.expand_dims %arg20 {axis = 1 : i32} : tensor<256xi32> -> tensor<256x1xi32> loc(#loc329)
      %39 = tt.expand_dims %37 {axis = 0 : i32} : tensor<64xi32> -> tensor<1x64xi32> loc(#loc330)
      %40 = tt.broadcast %38 : tensor<256x1xi32> -> tensor<256x64xi32> loc(#loc331)
      %41 = tt.broadcast %39 : tensor<1x64xi32> -> tensor<256x64xi32> loc(#loc331)
      %42 = arith.cmpi sge, %40, %41 : tensor<256x64xi32> loc(#loc331)
      %cst_9 = arith.constant 0xFF800000 : f32 loc(#loc332)
      %cst_10 = arith.constant 0xFF800000 : f32 loc(#loc332)
      %cst_11 = arith.constant dense<0xFF800000> : tensor<256x64xf32> loc(#loc332)
      %43 = arith.select %42, %29, %cst_11 : tensor<256x64xi1>, tensor<256x64xf32> loc(#loc332)
      %cst_12 = arith.constant 0.000000e+00 : f32 loc(#loc267)
      %cst_13 = arith.constant dense<0.000000e+00> : tensor<256x64xf32> loc(#loc267)
      %44 = tt.dot %arg3, %17, %cst_13 : tensor<256x128xf16> * tensor<128x64xf16> -> tensor<256x64xf32> loc(#loc267)
      %45 = arith.addf %43, %44 : tensor<256x64xf32> loc(#loc268)
      %46 = tt.call @"triton.language.standard.max__fp32S256_64S__(1,)cconstexpr_1__(2,)cconstexpr_False__(3,)cconstexpr_True__(4,)cconstexpr_False_"(%45) : (tensor<256x64xf32>) -> tensor<256xf32> loc(#loc269)
      %47 = arith.maxnumf %arg25, %46 : tensor<256xf32> loc(#loc270)
      %cst_14 = arith.constant 0.127517432 : f32 loc(#loc271)
      %cst_15 = arith.constant 0.127517432 : f32 loc(#loc271)
      %cst_16 = arith.constant dense<0.127517432> : tensor<256xf32> loc(#loc271)
      %48 = arith.mulf %47, %cst_16 : tensor<256xf32> loc(#loc271)
      %cst_17 = arith.constant 0.127517432 : f32 loc(#loc272)
      %cst_18 = arith.constant 0.127517432 : f32 loc(#loc272)
      %cst_19 = arith.constant dense<0.127517432> : tensor<256x64xf32> loc(#loc272)
      %49 = arith.mulf %45, %cst_19 : tensor<256x64xf32> loc(#loc272)
      %50 = tt.expand_dims %48 {axis = 1 : i32} : tensor<256xf32> -> tensor<256x1xf32> loc(#loc273)
      %51 = tt.broadcast %50 : tensor<256x1xf32> -> tensor<256x64xf32> loc(#loc274)
      %52 = arith.subf %49, %51 : tensor<256x64xf32> loc(#loc274)
      %53 = math.exp2 %52 : tensor<256x64xf32> loc(#loc275)
      %54 = tt.call @"triton.language.standard.sum__fp32S256_64S__(1,)cconstexpr_1__(2,)cconstexpr_False__(3,)cNone"(%53) : (tensor<256x64xf32>) -> tensor<256xf32> loc(#loc276)
      %cst_20 = arith.constant 0.127517432 : f32 loc(#loc277)
      %cst_21 = arith.constant 0.127517432 : f32 loc(#loc277)
      %cst_22 = arith.constant dense<0.127517432> : tensor<256xf32> loc(#loc277)
      %55 = arith.mulf %arg25, %cst_22 : tensor<256xf32> loc(#loc277)
      %56 = arith.subf %55, %48 : tensor<256xf32> loc(#loc278)
      %57 = math.exp2 %56 : tensor<256xf32> loc(#loc279)
      %58 = tt.expand_dims %57 {axis = 1 : i32} : tensor<256xf32> -> tensor<256x1xf32> loc(#loc280)
      %59 = tt.broadcast %58 : tensor<256x1xf32> -> tensor<256x128xf32> loc(#loc281)
      %60 = arith.mulf %arg23, %59 : tensor<256x128xf32> loc(#loc281)
      %61 = tt.call @"__main__.load_fn__Pfp16S64_128S_i32S64S_i32__(2,)cNone_(4,)cconstexpr_128_"(%arg27, %16, %arg10) : (tensor<64x128x!tt.ptr<f16>>, tensor<64xi32>, i32) -> tensor<64x128xf16> loc(#loc282)
      %62 = arith.mulf %arg24, %57 : tensor<256xf32> loc(#loc283)
      %63 = arith.addf %62, %54 : tensor<256xf32> loc(#loc284)
      %64 = arith.truncf %53 : tensor<256x64xf32> to tensor<256x64xf16> loc(#loc285)
      %cst_23 = arith.constant 0.000000e+00 : f32 loc(#loc286)
      %cst_24 = arith.constant dense<0.000000e+00> : tensor<256x128xf32> loc(#loc286)
      %65 = tt.dot %64, %61, %cst_24 : tensor<256x64xf16> * tensor<64x128xf16> -> tensor<256x128xf32> loc(#loc286)
      %66 = arith.addf %60, %65 : tensor<256x128xf32> loc(#loc287)
      %c64_i32_25 = arith.constant 64 : i32 loc(#loc288)
      %c64_i32_26 = arith.constant 64 : i32 loc(#loc288)
      %67 = arith.extsi %c64_i32_26 : i32 to i64 loc(#loc288)
      %68 = arith.extsi %arg6 : i32 to i64 loc(#loc288)
      %69 = arith.muli %67, %68 : i64 loc(#loc288)
      %c2147483647_i64_27 = arith.constant 2147483647 : i64 loc(#loc288)
      %c-2147483648_i64_28 = arith.constant -2147483648 : i64 loc(#loc288)
      %70 = arith.cmpi sle, %69, %c2147483647_i64_27 : i64 loc(#loc288)
      %71 = arith.cmpi sge, %69, %c-2147483648_i64_28 : i64 loc(#loc288)
      %72 = arith.andi %70, %71 : i1 loc(#loc288)
      %73 = arith.muli %c64_i32_26, %arg6 : i32 loc(#loc288)
      %74 = tt.splat %73 : i32 -> tensor<128x64xi32> loc(#loc289)
      %75 = tt.addptr %arg26, %74 : tensor<128x64x!tt.ptr<f16>>, tensor<128x64xi32> loc(#loc289)
      %c64_i32_29 = arith.constant 64 : i32 loc(#loc290)
      %c64_i32_30 = arith.constant 64 : i32 loc(#loc290)
      %76 = arith.extsi %c64_i32_30 : i32 to i64 loc(#loc290)
      %77 = arith.extsi %arg7 : i32 to i64 loc(#loc290)
      %78 = arith.muli %76, %77 : i64 loc(#loc290)
      %c2147483647_i64_31 = arith.constant 2147483647 : i64 loc(#loc290)
      %c-2147483648_i64_32 = arith.constant -2147483648 : i64 loc(#loc290)
      %79 = arith.cmpi sle, %78, %c2147483647_i64_31 : i64 loc(#loc290)
      %80 = arith.cmpi sge, %78, %c-2147483648_i64_32 : i64 loc(#loc290)
      %81 = arith.andi %79, %80 : i1 loc(#loc290)
      %82 = arith.muli %c64_i32_30, %arg7 : i32 loc(#loc290)
      %83 = tt.splat %82 : i32 -> tensor<64x128xi32> loc(#loc291)
      %84 = tt.addptr %arg27, %83 : tensor<64x128x!tt.ptr<f16>>, tensor<64x128xi32> loc(#loc291)
      scf.yield %66, %63, %47, %75, %84 : tensor<256x128xf32>, tensor<256xf32>, tensor<256xf32>, tensor<128x64x!tt.ptr<f16>>, tensor<64x128x!tt.ptr<f16>> loc(#loc292)
    } {tt.num_stages = 1 : i32} loc(#loc264)
    tt.return %4#0, %4#1, %4#2 : tensor<256x128xf32>, tensor<256xf32>, tensor<256xf32> loc(#loc293)
  ^bb1:  // no predecessors
    %5 = ub.poison : tensor<256x128xf32> loc(#loc294)
    %6 = ub.poison : tensor<256xf32> loc(#loc294)
    %7 = ub.poison : tensor<256xf32> loc(#loc294)
    tt.return %5, %6, %7 : tensor<256x128xf32>, tensor<256xf32>, tensor<256xf32> loc(#loc294)
  } loc(#loc263)
  tt.func private @"__main__.load_fn__Pfp16S128_64S_i32S64S_i32__(1,)cNone_(3,)cconstexpr_128_"(%arg0: tensor<128x64x!tt.ptr<f16>> loc("/home/mejiang/w1/test/triton/fa/flash-attention.py":201:0), %arg1: tensor<64xi32> loc("/home/mejiang/w1/test/triton/fa/flash-attention.py":201:0), %arg2: i32 loc("/home/mejiang/w1/test/triton/fa/flash-attention.py":201:0)) -> tensor<128x64xf16> attributes {noinline = false} {
    %0 = tt.expand_dims %arg1 {axis = 0 : i32} : tensor<64xi32> -> tensor<1x64xi32> loc(#loc333)
    %1 = tt.splat %arg2 : i32 -> tensor<1x64xi32> loc(#loc334)
    %2 = arith.cmpi slt, %0, %1 : tensor<1x64xi32> loc(#loc334)
    %cst = arith.constant 0.000000e+00 : f32 loc(#loc335)
    %3 = tt.broadcast %2 : tensor<1x64xi1> -> tensor<128x64xi1> loc(#loc335)
    %cst_0 = arith.constant dense<0.000000e+00> : tensor<128x64xf32> loc(#loc335)
    %4 = arith.truncf %cst_0 : tensor<128x64xf32> to tensor<128x64xf16> loc(#loc335)
    %5 = tt.load %arg0, %3, %4 : tensor<128x64x!tt.ptr<f16>> loc(#loc335)
    tt.return %5 : tensor<128x64xf16> loc(#loc297)
  ^bb1:  // no predecessors
    %6 = ub.poison : tensor<128x64xf16> loc(#loc298)
    tt.return %6 : tensor<128x64xf16> loc(#loc298)
  } loc(#loc295)
  tt.func private @"__main__.load_fn__Pfp16S64_128S_i32S64S_i32__(2,)cNone_(4,)cconstexpr_128_"(%arg0: tensor<64x128x!tt.ptr<f16>> loc("/home/mejiang/w1/test/triton/fa/flash-attention.py":201:0), %arg1: tensor<64xi32> loc("/home/mejiang/w1/test/triton/fa/flash-attention.py":201:0), %arg2: i32 loc("/home/mejiang/w1/test/triton/fa/flash-attention.py":201:0)) -> tensor<64x128xf16> attributes {noinline = false} {
    %0 = tt.expand_dims %arg1 {axis = 1 : i32} : tensor<64xi32> -> tensor<64x1xi32> loc(#loc336)
    %1 = tt.splat %arg2 : i32 -> tensor<64x1xi32> loc(#loc337)
    %2 = arith.cmpi slt, %0, %1 : tensor<64x1xi32> loc(#loc337)
    %cst = arith.constant 0.000000e+00 : f32 loc(#loc338)
    %3 = tt.broadcast %2 : tensor<64x1xi1> -> tensor<64x128xi1> loc(#loc338)
    %cst_0 = arith.constant dense<0.000000e+00> : tensor<64x128xf32> loc(#loc338)
    %4 = arith.truncf %cst_0 : tensor<64x128xf32> to tensor<64x128xf16> loc(#loc338)
    %5 = tt.load %arg0, %3, %4 : tensor<64x128x!tt.ptr<f16>> loc(#loc338)
    tt.return %5 : tensor<64x128xf16> loc(#loc297)
  ^bb1:  // no predecessors
    %6 = ub.poison : tensor<64x128xf16> loc(#loc298)
    tt.return %6 : tensor<64x128xf16> loc(#loc298)
  } loc(#loc295)
} loc(#loc)
#loc1 = loc("/home/mejiang/w1/test/triton/fa/flash-attention.py":477:27)
#loc2 = loc("/home/mejiang/w1/test/triton/fa/flash-attention.py":477:14)
#loc3 = loc("/home/mejiang/w1/test/triton/fa/flash-attention.py":478:27)
#loc4 = loc("/home/mejiang/w1/test/triton/fa/flash-attention.py":478:14)
#loc5 = loc("/home/mejiang/w1/test/triton/fa/flash-attention.py":479:27)
#loc6 = loc("/home/mejiang/w1/test/triton/fa/flash-attention.py":479:14)
#loc7 = loc("/home/mejiang/w1/test/triton/fa/flash-attention.py":480:14)
#loc8 = loc("/home/mejiang/w1/test/triton/fa/flash-attention.py":481:27)
#loc9 = loc("/home/mejiang/w1/test/triton/fa/flash-attention.py":481:14)
#loc10 = loc("/home/mejiang/w1/test/triton/fa/flash-attention.py":482:27)
#loc11 = loc("/home/mejiang/w1/test/triton/fa/flash-attention.py":482:14)
#loc12 = loc("/home/mejiang/w1/test/triton/fa/flash-attention.py":483:27)
#loc13 = loc("/home/mejiang/w1/test/triton/fa/flash-attention.py":483:14)
#loc14 = loc("/home/mejiang/w1/test/triton/fa/flash-attention.py":484:14)
#loc15 = loc("/home/mejiang/w1/test/triton/fa/flash-attention.py":485:27)
#loc16 = loc("/home/mejiang/w1/test/triton/fa/flash-attention.py":485:14)
#loc17 = loc("/home/mejiang/w1/test/triton/fa/flash-attention.py":486:27)
#loc18 = loc("/home/mejiang/w1/test/triton/fa/flash-attention.py":486:14)
#loc19 = loc("/home/mejiang/w1/test/triton/fa/flash-attention.py":487:27)
#loc20 = loc("/home/mejiang/w1/test/triton/fa/flash-attention.py":487:14)
#loc21 = loc("/home/mejiang/w1/test/triton/fa/flash-attention.py":488:27)
#loc22 = loc("/home/mejiang/w1/test/triton/fa/flash-attention.py":488:14)
#loc23 = loc("/home/mejiang/w1/test/triton/fa/flash-attention.py":489:27)
#loc24 = loc("/home/mejiang/w1/test/triton/fa/flash-attention.py":489:14)
#loc25 = loc("/home/mejiang/w1/test/triton/fa/flash-attention.py":490:27)
#loc26 = loc("/home/mejiang/w1/test/triton/fa/flash-attention.py":490:14)
#loc27 = loc("/home/mejiang/w1/test/triton/fa/flash-attention.py":491:27)
#loc28 = loc("/home/mejiang/w1/test/triton/fa/flash-attention.py":491:14)
#loc29 = loc("/home/mejiang/w1/test/triton/fa/flash-attention.py":492:14)
#loc30 = loc("/home/mejiang/w1/test/triton/fa/flash-attention.py":493:27)
#loc31 = loc("/home/mejiang/w1/test/triton/fa/flash-attention.py":493:14)
#loc32 = loc("/home/mejiang/w1/test/triton/fa/flash-attention.py":494:27)
#loc33 = loc("/home/mejiang/w1/test/triton/fa/flash-attention.py":494:14)
#loc34 = loc("/home/mejiang/w1/test/triton/fa/flash-attention.py":495:27)
#loc35 = loc("/home/mejiang/w1/test/triton/fa/flash-attention.py":495:14)
#loc36 = loc("/home/mejiang/w1/test/triton/fa/flash-attention.py":496:14)
#loc37 = loc("/home/mejiang/w1/test/triton/fa/flash-attention.py":508:18)
#loc38 = loc("/home/mejiang/w1/test/triton/fa/flash-attention.py":509:26)
#loc39 = loc("/home/mejiang/w1/test/triton/fa/flash-attention.py":511:4)
#loc40 = loc("/home/mejiang/w1/test/triton/fa/flash-attention.py":511:20)
#loc42 = loc("/home/mejiang/w1/test/triton/fa/flash-attention.py":520:36)
#loc43 = loc("/home/mejiang/w1/test/triton/fa/flash-attention.py":521:41)
#loc44 = loc("/home/mejiang/w1/test/triton/fa/flash-attention.py":522:36)
#loc45 = loc("/home/mejiang/w1/test/triton/fa/flash-attention.py":523:34)
#loc46 = loc("/home/mejiang/w1/test/triton/fa/flash-attention.py":525:27)
#loc47 = loc("/home/mejiang/w1/test/triton/fa/flash-attention.py":525:50)
#loc48 = loc("/home/mejiang/w1/test/triton/fa/flash-attention.py":525:37)
#loc49 = loc("/home/mejiang/w1/test/triton/fa/flash-attention.py":526:30)
#loc50 = loc("/home/mejiang/w1/test/triton/fa/flash-attention.py":527:30)
#loc51 = loc("/home/mejiang/w1/test/triton/fa/flash-attention.py":529:29)
#loc52 = loc("/home/mejiang/w1/test/triton/fa/flash-attention.py":544:33)
#loc53 = loc("/home/mejiang/w1/test/triton/fa/flash-attention.py":545:33)
#loc54 = loc("/home/mejiang/w1/test/triton/fa/flash-attention.py":546:23)
#loc55 = loc("/home/mejiang/w1/test/triton/fa/flash-attention.py":547:23)
#loc56 = loc("/home/mejiang/w1/test/triton/fa/flash-attention.py":549:11)
#loc57 = loc("/home/mejiang/w1/test/triton/fa/flash-attention.py":556:41)
#loc58 = loc("/home/mejiang/w1/test/triton/fa/flash-attention.py":563:53)
#loc59 = loc("/home/mejiang/w1/test/triton/fa/flash-attention.py":563:58)
#loc60 = loc("/home/mejiang/w1/test/triton/fa/flash-attention.py":563:68)
#loc61 = loc("/home/mejiang/w1/test/triton/fa/flash-attention.py":563:79)
#loc62 = loc("/home/mejiang/w1/test/triton/fa/flash-attention.py":563:89)
#loc63 = loc("/home/mejiang/w1/test/triton/fa/flash-attention.py":566:41)
#loc64 = loc("/home/mejiang/w1/test/triton/fa/flash-attention.py":569:31)
#loc65 = loc("/home/mejiang/w1/test/triton/fa/flash-attention.py":569:19)
#loc66 = loc("/home/mejiang/w1/test/triton/fa/flash-attention.py":570:45)
#loc67 = loc("/home/mejiang/w1/test/triton/fa/flash-attention.py":570:37)
#loc68 = loc("/home/mejiang/w1/test/triton/fa/flash-attention.py":570:67)
#loc69 = loc("/home/mejiang/w1/test/triton/fa/flash-attention.py":570:57)
#loc70 = loc("/home/mejiang/w1/test/triton/fa/flash-attention.py":570:100)
#loc71 = loc("/home/mejiang/w1/test/triton/fa/flash-attention.py":570:79)
#loc72 = loc("/home/mejiang/w1/test/triton/fa/flash-attention.py":571:47)
#loc73 = loc("/home/mejiang/w1/test/triton/fa/flash-attention.py":571:58)
#loc74 = loc("/home/mejiang/w1/test/triton/fa/flash-attention.py":571:40)
#loc75 = loc("/home/mejiang/w1/test/triton/fa/flash-attention.py":571:77)
#loc76 = loc("/home/mejiang/w1/test/triton/fa/flash-attention.py":571:88)
#loc77 = loc("/home/mejiang/w1/test/triton/fa/flash-attention.py":571:70)
#loc78 = loc("/home/mejiang/w1/test/triton/fa/flash-attention.py":572:35)
#loc79 = loc("/home/mejiang/w1/test/triton/fa/flash-attention.py":573:42)
#loc80 = loc("/home/mejiang/w1/test/triton/fa/flash-attention.py":573:53)
#loc81 = loc("/home/mejiang/w1/test/triton/fa/flash-attention.py":573:76)
#loc82 = loc("/home/mejiang/w1/test/triton/fa/flash-attention.py":575:37)
#loc83 = loc("/home/mejiang/w1/test/triton/fa/flash-attention.py":578:41)
#loc84 = loc("/home/mejiang/w1/test/triton/fa/flash-attention.py":578:46)
#loc85 = loc("/home/mejiang/w1/test/triton/fa/flash-attention.py":578:33)
#loc86 = loc("/home/mejiang/w1/test/triton/fa/flash-attention.py":578:72)
#loc87 = loc("/home/mejiang/w1/test/triton/fa/flash-attention.py":578:62)
#loc88 = loc("/home/mejiang/w1/test/triton/fa/flash-attention.py":578:88)
#loc89 = loc("/home/mejiang/w1/test/triton/fa/flash-attention.py":581:32)
#loc90 = loc("/home/mejiang/w1/test/triton/fa/flash-attention.py":582:43)
#loc91 = loc("/home/mejiang/w1/test/triton/fa/flash-attention.py":583:37)
#loc92 = loc("/home/mejiang/w1/test/triton/fa/flash-attention.py":585:41)
#loc93 = loc("/home/mejiang/w1/test/triton/fa/flash-attention.py":588:15)
#loc94 = loc("/home/mejiang/w1/test/triton/fa/flash-attention.py":596:33)
#loc95 = loc("/home/mejiang/w1/test/triton/fa/flash-attention.py":597:30)
#loc96 = loc("/home/mejiang/w1/test/triton/fa/flash-attention.py":597:19)
#loc97 = loc("/home/mejiang/w1/test/triton/fa/flash-attention.py":598:47)
#loc98 = loc("/home/mejiang/w1/test/triton/fa/flash-attention.py":599:32)
#loc99 = loc("/home/mejiang/w1/test/triton/fa/flash-attention.py":599:21)
#loc100 = loc("/home/mejiang/w1/test/triton/fa/flash-attention.py":600:48)
#loc101 = loc("/home/mejiang/w1/test/triton/fa/flash-attention.py":604:39)
#loc102 = loc("/home/mejiang/w1/test/triton/fa/flash-attention.py":604:31)
#loc103 = loc("/home/mejiang/w1/test/triton/fa/flash-attention.py":604:61)
#loc104 = loc("/home/mejiang/w1/test/triton/fa/flash-attention.py":604:51)
#loc105 = loc("/home/mejiang/w1/test/triton/fa/flash-attention.py":604:94)
#loc106 = loc("/home/mejiang/w1/test/triton/fa/flash-attention.py":604:73)
#loc107 = loc("/home/mejiang/w1/test/triton/fa/flash-attention.py":605:43)
#loc108 = loc("/home/mejiang/w1/test/triton/fa/flash-attention.py":605:54)
#loc109 = loc("/home/mejiang/w1/test/triton/fa/flash-attention.py":605:36)
#loc110 = loc("/home/mejiang/w1/test/triton/fa/flash-attention.py":605:73)
#loc111 = loc("/home/mejiang/w1/test/triton/fa/flash-attention.py":605:84)
#loc112 = loc("/home/mejiang/w1/test/triton/fa/flash-attention.py":605:66)
#loc113 = loc("/home/mejiang/w1/test/triton/fa/flash-attention.py":606:39)
#loc114 = loc("/home/mejiang/w1/test/triton/fa/flash-attention.py":606:31)
#loc115 = loc("/home/mejiang/w1/test/triton/fa/flash-attention.py":606:61)
#loc116 = loc("/home/mejiang/w1/test/triton/fa/flash-attention.py":606:51)
#loc117 = loc("/home/mejiang/w1/test/triton/fa/flash-attention.py":606:94)
#loc118 = loc("/home/mejiang/w1/test/triton/fa/flash-attention.py":606:73)
#loc119 = loc("/home/mejiang/w1/test/triton/fa/flash-attention.py":607:43)
#loc120 = loc("/home/mejiang/w1/test/triton/fa/flash-attention.py":607:54)
#loc121 = loc("/home/mejiang/w1/test/triton/fa/flash-attention.py":607:36)
#loc122 = loc("/home/mejiang/w1/test/triton/fa/flash-attention.py":607:73)
#loc123 = loc("/home/mejiang/w1/test/triton/fa/flash-attention.py":607:84)
#loc124 = loc("/home/mejiang/w1/test/triton/fa/flash-attention.py":607:66)
#loc125 = loc("/home/mejiang/w1/test/triton/fa/flash-attention.py":608:39)
#loc126 = loc("/home/mejiang/w1/test/triton/fa/flash-attention.py":608:31)
#loc127 = loc("/home/mejiang/w1/test/triton/fa/flash-attention.py":608:61)
#loc128 = loc("/home/mejiang/w1/test/triton/fa/flash-attention.py":608:51)
#loc129 = loc("/home/mejiang/w1/test/triton/fa/flash-attention.py":608:94)
#loc130 = loc("/home/mejiang/w1/test/triton/fa/flash-attention.py":608:73)
#loc131 = loc("/home/mejiang/w1/test/triton/fa/flash-attention.py":609:43)
#loc132 = loc("/home/mejiang/w1/test/triton/fa/flash-attention.py":609:54)
#loc133 = loc("/home/mejiang/w1/test/triton/fa/flash-attention.py":609:36)
#loc134 = loc("/home/mejiang/w1/test/triton/fa/flash-attention.py":609:73)
#loc135 = loc("/home/mejiang/w1/test/triton/fa/flash-attention.py":609:84)
#loc136 = loc("/home/mejiang/w1/test/triton/fa/flash-attention.py":609:66)
#loc137 = loc("/home/mejiang/w1/test/triton/fa/flash-attention.py":639:42)
#loc138 = loc("/home/mejiang/w1/test/triton/fa/flash-attention.py":648:41)
#loc139 = loc("/home/mejiang/w1/test/triton/fa/flash-attention.py":649:41)
#loc140 = loc("/home/mejiang/w1/test/triton/fa/flash-attention.py":650:31)
#loc141 = loc("/home/mejiang/w1/test/triton/fa/flash-attention.py":655:37)
#loc142 = loc("/home/mejiang/w1/test/triton/fa/flash-attention.py":655:48)
#loc143 = loc("/home/mejiang/w1/test/triton/fa/flash-attention.py":658:28)
#loc144 = loc("/home/mejiang/w1/test/triton/fa/flash-attention.py":680:51)
#loc145 = loc("/home/mejiang/w1/test/triton/fa/flash-attention.py":681:35)
#loc146 = loc("/home/mejiang/w1/test/triton/fa/flash-attention.py":681:66)
#loc147 = loc("/home/mejiang/w1/test/triton/fa/flash-attention.py":681:77)
#loc148 = loc("/home/mejiang/w1/test/triton/fa/flash-attention.py":681:55)
#loc149 = loc("/home/mejiang/w1/test/triton/fa/flash-attention.py":685:62)
#loc150 = loc("/home/mejiang/w1/test/triton/fa/flash-attention.py":685:58)
#loc151 = loc("/home/mejiang/w1/test/triton/fa/flash-attention.py":691:51)
#loc152 = loc("/home/mejiang/w1/test/triton/fa/flash-attention.py":692:43)
#loc153 = loc("/home/mejiang/w1/test/triton/fa/flash-attention.py":693:28)
#loc154 = loc("/home/mejiang/w1/test/triton/fa/flash-attention.py":694:39)
#loc155 = loc("/home/mejiang/w1/test/triton/fa/flash-attention.py":697:35)
#loc156 = loc("/home/mejiang/w1/test/triton/fa/flash-attention.py":697:19)
#loc157 = loc("/home/mejiang/w1/test/triton/fa/flash-attention.py":698:44)
#loc158 = loc("/home/mejiang/w1/test/triton/fa/flash-attention.py":698:61)
#loc159 = loc("/home/mejiang/w1/test/triton/fa/flash-attention.py":710:61)
#loc160 = loc("/home/mejiang/w1/test/triton/fa/flash-attention.py":712:43)
#loc161 = loc("/home/mejiang/w1/test/triton/fa/flash-attention.py":714:16)
#loc162 = loc("/home/mejiang/w1/test/triton/fa/flash-attention.py":716:36)
#loc163 = loc("/home/mejiang/w1/test/triton/fa/flash-attention.py":716:20)
#loc164 = loc("/home/mejiang/w1/test/triton/fa/flash-attention.py":718:61)
#loc165 = loc("/home/mejiang/w1/test/triton/fa/flash-attention.py":718:50)
#loc166 = loc("/home/mejiang/w1/test/triton/fa/flash-attention.py":721:46)
#loc167 = loc("/home/mejiang/w1/test/triton/fa/flash-attention.py":721:56)
#loc168 = loc("/home/mejiang/w1/test/triton/fa/flash-attention.py":721:30)
#loc169 = loc("/home/mejiang/w1/test/triton/fa/flash-attention.py":722:46)
#loc170 = loc("/home/mejiang/w1/test/triton/fa/flash-attention.py":722:56)
#loc171 = loc("/home/mejiang/w1/test/triton/fa/flash-attention.py":722:30)
#loc172 = loc("/home/mejiang/w1/test/triton/fa/flash-attention.py":734:67)
#loc173 = loc("/home/mejiang/w1/test/triton/fa/flash-attention.py":743:34)
#loc174 = loc("/home/mejiang/w1/test/triton/fa/flash-attention.py":743:30)
#loc175 = loc("/home/mejiang/w1/test/triton/fa/flash-attention.py":744:28)
#loc176 = loc("/home/mejiang/w1/test/triton/fa/flash-attention.py":752:39)
#loc177 = loc("/home/mejiang/w1/test/triton/fa/flash-attention.py":752:44)
#loc178 = loc("/home/mejiang/w1/test/triton/fa/flash-attention.py":753:40)
#loc179 = loc("/home/mejiang/w1/test/triton/fa/flash-attention.py":754:46)
#loc180 = loc("/home/mejiang/w1/test/triton/fa/flash-attention.py":755:29)
#loc181 = loc("/home/mejiang/w1/test/triton/fa/flash-attention.py":757:42)
#loc182 = loc("/home/mejiang/w1/test/triton/fa/flash-attention.py":757:77)
#loc183 = loc("/home/mejiang/w1/test/triton/fa/flash-attention.py":757:58)
#loc184 = loc("/home/mejiang/w1/test/triton/fa/flash-attention.py":757:23)
#loc185 = loc("/home/mejiang/w1/test/triton/fa/flash-attention.py":758:70)
#loc186 = loc("/home/mejiang/w1/test/triton/fa/flash-attention.py":759:68)
#loc187 = loc("/home/mejiang/w1/test/triton/fa/flash-attention.py":759:55)
#loc188 = loc("/home/mejiang/w1/test/triton/fa/flash-attention.py":760:55)
#loc189 = loc("/home/mejiang/w1/test/triton/fa/flash-attention.py":760:85)
#loc190 = loc("/home/mejiang/w1/test/triton/fa/flash-attention.py":760:67)
#loc191 = loc("/home/mejiang/w1/test/triton/fa/flash-attention.py":761:28)
#loc192 = loc("/home/mejiang/w1/test/triton/fa/flash-attention.py":762:64)
#loc193 = loc("/home/mejiang/w1/test/triton/fa/flash-attention.py":762:59)
#loc194 = loc("/home/mejiang/w1/test/triton/fa/flash-attention.py":764:37)
#loc195 = loc("/home/mejiang/w1/test/triton/fa/flash-attention.py":764:42)
#loc196 = loc("/home/mejiang/w1/test/triton/fa/flash-attention.py":764:29)
#loc197 = loc("/home/mejiang/w1/test/triton/fa/flash-attention.py":764:68)
#loc198 = loc("/home/mejiang/w1/test/triton/fa/flash-attention.py":764:58)
#loc199 = loc("/home/mejiang/w1/test/triton/fa/flash-attention.py":764:84)
#loc200 = loc("/home/mejiang/w1/test/triton/fa/flash-attention.py":767:44)
#loc201 = loc("/home/mejiang/w1/test/triton/fa/flash-attention.py":768:35)
#loc202 = loc("/home/mejiang/w1/test/triton/fa/flash-attention.py":768:19)
#loc203 = loc("/home/mejiang/w1/test/triton/fa/flash-attention.py":769:62)
#loc204 = loc("/home/mejiang/w1/test/triton/fa/flash-attention.py":769:52)
#loc205 = loc("/home/mejiang/w1/test/triton/fa/flash-attention.py":770:47)
#loc206 = loc("/home/mejiang/w1/test/triton/fa/flash-attention.py":770:58)
#loc207 = loc("/home/mejiang/w1/test/triton/fa/flash-attention.py":771:56)
#loc208 = loc("/home/mejiang/w1/test/triton/fa/flash-attention.py":771:43)
#loc209 = loc("/home/mejiang/w1/test/triton/fa/flash-attention.py":771:37)
#loc210 = loc("/home/mejiang/w1/test/triton/fa/flash-attention.py":773:56)
#loc211 = loc("/home/mejiang/w1/test/triton/fa/flash-attention.py":773:43)
#loc212 = loc("/home/mejiang/w1/test/triton/fa/flash-attention.py":773:37)
#loc213 = loc("/home/mejiang/w1/test/triton/fa/flash-attention.py":776:41)
#loc214 = loc("/home/mejiang/w1/test/triton/fa/flash-attention.py":776:33)
#loc215 = loc("/home/mejiang/w1/test/triton/fa/flash-attention.py":776:63)
#loc216 = loc("/home/mejiang/w1/test/triton/fa/flash-attention.py":776:53)
#loc217 = loc("/home/mejiang/w1/test/triton/fa/flash-attention.py":776:96)
#loc218 = loc("/home/mejiang/w1/test/triton/fa/flash-attention.py":776:75)
#loc219 = loc("/home/mejiang/w1/test/triton/fa/flash-attention.py":777:43)
#loc220 = loc("/home/mejiang/w1/test/triton/fa/flash-attention.py":777:54)
#loc221 = loc("/home/mejiang/w1/test/triton/fa/flash-attention.py":777:36)
#loc222 = loc("/home/mejiang/w1/test/triton/fa/flash-attention.py":777:73)
#loc223 = loc("/home/mejiang/w1/test/triton/fa/flash-attention.py":777:84)
#loc224 = loc("/home/mejiang/w1/test/triton/fa/flash-attention.py":777:66)
#loc225 = loc("/home/mejiang/w1/test/triton/fa/flash-attention.py":778:63)
#loc226 = loc("/home/mejiang/w1/test/triton/fa/flash-attention.py":779:35)
#loc227 = loc("/home/mejiang/w1/test/triton/fa/flash-attention.py":779:19)
#loc228 = loc("/home/mejiang/w1/test/triton/fa/flash-attention.py":780:56)
#loc229 = loc("/home/mejiang/w1/test/triton/fa/flash-attention.py":780:67)
#loc230 = loc("/home/mejiang/w1/test/triton/fa/flash-attention.py":780:49)
#loc231 = loc("/home/mejiang/w1/test/triton/fa/flash-attention.py":783:33)
#loc232 = loc("/home/mejiang/w1/test/triton/fa/flash-attention.py":785:8)
#loc234 = loc("/home/mejiang/w1/test/triton/fa/flash-attention.py":37:19)
#loc235 = loc("/home/mejiang/w1/test/triton/fa/flash-attention.py":42:16)
#loc236 = loc("/home/mejiang/w1/test/triton/fa/flash-attention.py":43:41)
#loc237 = loc("/home/mejiang/w1/test/triton/fa/flash-attention.py":43:28)
#loc238 = loc("/home/mejiang/w1/test/triton/fa/flash-attention.py":43:16)
#loc239 = loc("/home/mejiang/w1/test/triton/fa/flash-attention.py":45:16)
#loc240 = loc("/home/mejiang/w1/test/triton/fa/flash-attention.py":46:23)
#loc241 = loc("/home/mejiang/w1/test/triton/fa/flash-attention.py":51:13)
#loc242 = loc("/home/mejiang/w1/test/triton/fa/flash-attention.py":51:7)
#loc243 = loc("/home/mejiang/w1/test/triton/fa/flash-attention.py":52:20)
#loc244 = loc("/home/mejiang/w1/test/triton/fa/flash-attention.py":52:35)
#loc245 = loc("/home/mejiang/w1/test/triton/fa/flash-attention.py":55:24)
#loc246 = loc("/home/mejiang/w1/test/triton/fa/flash-attention.py":56:21)
#loc247 = loc("/home/mejiang/w1/test/triton/fa/flash-attention.py":56:50)
#loc248 = loc("/home/mejiang/w1/test/triton/fa/flash-attention.py":56:35)
#loc249 = loc("/home/mejiang/w1/test/triton/fa/flash-attention.py":56:14)
#loc250 = loc("/home/mejiang/w1/test/triton/fa/flash-attention.py":57:14)
#loc251 = loc("/home/mejiang/w1/test/triton/fa/flash-attention.py":60:11)
#loc252 = loc("/home/mejiang/w1/test/triton/fa/flash-attention.py":60:4)
#loc254 = loc("/home/mejiang/w1/test/triton/fa/flash-attention.py":169:16)
#loc255 = loc("/home/mejiang/w1/test/triton/fa/flash-attention.py":169:20)
#loc256 = loc("/home/mejiang/w1/test/triton/fa/flash-attention.py":169:26)
#loc257 = loc("/home/mejiang/w1/test/triton/fa/flash-attention.py":169:11)
#loc258 = loc("/home/mejiang/w1/test/triton/fa/flash-attention.py":169:4)
#loc259 = loc("/opt/venv/lib/python3.10/site-packages/triton/language/standard.py":117:0)
#loc260 = loc("/opt/venv/lib/python3.10/site-packages/triton/language/standard.py":126:31)
#loc261 = loc("/opt/venv/lib/python3.10/site-packages/triton/language/standard.py":126:11)
#loc262 = loc("/opt/venv/lib/python3.10/site-packages/triton/language/standard.py":126:4)
#loc264 = loc("/home/mejiang/w1/test/triton/fa/flash-attention.py":278:59)
#loc265 = loc("/home/mejiang/w1/test/triton/fa/flash-attention.py":286:69)
#loc266 = loc("/home/mejiang/w1/test/triton/fa/flash-attention.py":290:22)
#loc267 = loc("/home/mejiang/w1/test/triton/fa/flash-attention.py":315:28)
#loc268 = loc("/home/mejiang/w1/test/triton/fa/flash-attention.py":315:18)
#loc269 = loc("/home/mejiang/w1/test/triton/fa/flash-attention.py":334:42)
#loc270 = loc("/home/mejiang/w1/test/triton/fa/flash-attention.py":334:31)
#loc271 = loc("/home/mejiang/w1/test/triton/fa/flash-attention.py":335:29)
#loc272 = loc("/home/mejiang/w1/test/triton/fa/flash-attention.py":336:18)
#loc273 = loc("/home/mejiang/w1/test/triton/fa/flash-attention.py":336:41)
#loc274 = loc("/home/mejiang/w1/test/triton/fa/flash-attention.py":336:29)
#loc275 = loc("/home/mejiang/w1/test/triton/fa/flash-attention.py":337:25)
#loc276 = loc("/home/mejiang/w1/test/triton/fa/flash-attention.py":340:25)
#loc277 = loc("/home/mejiang/w1/test/triton/fa/flash-attention.py":350:35)
#loc278 = loc("/home/mejiang/w1/test/triton/fa/flash-attention.py":350:46)
#loc279 = loc("/home/mejiang/w1/test/triton/fa/flash-attention.py":350:29)
#loc280 = loc("/home/mejiang/w1/test/triton/fa/flash-attention.py":351:26)
#loc281 = loc("/home/mejiang/w1/test/triton/fa/flash-attention.py":351:20)
#loc282 = loc("/home/mejiang/w1/test/triton/fa/flash-attention.py":353:69)
#loc283 = loc("/home/mejiang/w1/test/triton/fa/flash-attention.py":355:20)
#loc284 = loc("/home/mejiang/w1/test/triton/fa/flash-attention.py":355:28)
#loc285 = loc("/home/mejiang/w1/test/triton/fa/flash-attention.py":370:31)
#loc286 = loc("/home/mejiang/w1/test/triton/fa/flash-attention.py":370:51)
#loc287 = loc("/home/mejiang/w1/test/triton/fa/flash-attention.py":370:19)
#loc288 = loc("/home/mejiang/w1/test/triton/fa/flash-attention.py":372:28)
#loc289 = loc("/home/mejiang/w1/test/triton/fa/flash-attention.py":372:18)
#loc290 = loc("/home/mejiang/w1/test/triton/fa/flash-attention.py":373:28)
#loc291 = loc("/home/mejiang/w1/test/triton/fa/flash-attention.py":373:18)
#loc292 = loc("/home/mejiang/w1/test/triton/fa/flash-attention.py":376:8)
#loc293 = loc("/home/mejiang/w1/test/triton/fa/flash-attention.py":378:11)
#loc294 = loc("/home/mejiang/w1/test/triton/fa/flash-attention.py":378:4)
#loc296 = loc("/home/mejiang/w1/test/triton/fa/flash-attention.py":213:25)
#loc297 = loc("/home/mejiang/w1/test/triton/fa/flash-attention.py":214:11)
#loc298 = loc("/home/mejiang/w1/test/triton/fa/flash-attention.py":214:4)
#loc300 = loc("/opt/venv/lib/python3.10/site-packages/triton/language/standard.py":188:40)
#loc301 = loc("/opt/venv/lib/python3.10/site-packages/triton/language/standard.py":188:15)
#loc302 = loc("/opt/venv/lib/python3.10/site-packages/triton/language/standard.py":176:4)
#loc304 = loc("/opt/venv/lib/python3.10/site-packages/triton/language/standard.py":167:27)
#loc305 = loc("/opt/venv/lib/python3.10/site-packages/triton/language/standard.py":167:11)
#loc306 = loc("/opt/venv/lib/python3.10/site-packages/triton/language/standard.py":167:4)
#loc308 = loc("/opt/venv/lib/python3.10/site-packages/triton/language/standard.py":290:36)
#loc309 = loc("/opt/venv/lib/python3.10/site-packages/triton/language/standard.py":290:11)
#loc310 = loc("/opt/venv/lib/python3.10/site-packages/triton/language/standard.py":290:4)
#loc312 = loc("/opt/venv/lib/python3.10/site-packages/triton/language/standard.py":260:15)
#loc313 = loc("/opt/venv/lib/python3.10/site-packages/triton/language/standard.py":260:11)
#loc314 = loc("/opt/venv/lib/python3.10/site-packages/triton/language/standard.py":260:4)
#loc315 = loc("/home/mejiang/w1/test/triton/fa/flash-attention.py":282:46)
#loc316 = loc("/home/mejiang/w1/test/triton/fa/flash-attention.py":282:33)
#loc317 = loc("/home/mejiang/w1/test/triton/fa/flash-attention.py":300:26)
#loc318 = loc("/home/mejiang/w1/test/triton/fa/flash-attention.py":300:37)
#loc319 = loc("/home/mejiang/w1/test/triton/fa/flash-attention.py":300:71)
#loc320 = loc("/home/mejiang/w1/test/triton/fa/flash-attention.py":300:53)
#loc321 = loc("/home/mejiang/w1/test/triton/fa/flash-attention.py":300:15)
#loc322 = loc("/home/mejiang/w1/test/triton/fa/flash-attention.py":301:48)
#loc323 = loc("/home/mejiang/w1/test/triton/fa/flash-attention.py":302:42)
#loc324 = loc("/home/mejiang/w1/test/triton/fa/flash-attention.py":302:35)
#loc325 = loc("/home/mejiang/w1/test/triton/fa/flash-attention.py":303:43)
#loc326 = loc("/home/mejiang/w1/test/triton/fa/flash-attention.py":303:32)
#loc327 = loc("/home/mejiang/w1/test/triton/fa/flash-attention.py":304:40)
#loc328 = loc("/home/mejiang/w1/test/triton/fa/flash-attention.py":306:40)
#loc329 = loc("/home/mejiang/w1/test/triton/fa/flash-attention.py":307:33)
#loc330 = loc("/home/mejiang/w1/test/triton/fa/flash-attention.py":307:61)
#loc331 = loc("/home/mejiang/w1/test/triton/fa/flash-attention.py":307:45)
#loc332 = loc("/home/mejiang/w1/test/triton/fa/flash-attention.py":308:43)
#loc333 = loc("/home/mejiang/w1/test/triton/fa/flash-attention.py":210:29)
#loc334 = loc("/home/mejiang/w1/test/triton/fa/flash-attention.py":210:40)
#loc335 = loc("/home/mejiang/w1/test/triton/fa/flash-attention.py":211:25)
#loc336 = loc("/home/mejiang/w1/test/triton/fa/flash-attention.py":207:28)
#loc337 = loc("/home/mejiang/w1/test/triton/fa/flash-attention.py":207:39)
#loc338 = loc("/home/mejiang/w1/test/triton/fa/flash-attention.py":208:25)
