#loc = loc("/home/mejiang/w1/dev/aiter/aiter/ops/triton/gluon/pa_decode_gluon.py":2668:0)
#loc1 = loc(unknown)
#loc49 = loc("/home/mejiang/w1/dev/aiter/aiter/ops/triton/gluon/pa_decode_gluon.py":2789:34)
#loc60 = loc("/home/mejiang/w1/dev/aiter/aiter/ops/triton/gluon/pa_decode_gluon.py":2797:64)
#loc104 = loc("/home/mejiang/w1/dev/aiter/aiter/ops/triton/gluon/pa_decode_gluon.py":2885:31)
#loc126 = loc("output_ptr"(#loc))
#loc127 = loc("exp_sums_ptr"(#loc))
#loc128 = loc("max_logits_ptr"(#loc))
#loc129 = loc("logits_ptr"(#loc))
#loc130 = loc("context_lengths_ptr"(#loc))
#loc131 = loc("stride_output_bs"(#loc))
#loc132 = loc("stride_output_len"(#loc))
#loc133 = loc("stride_output_kv_head"(#loc))
#loc134 = loc("stride_output_group_size"(#loc))
#loc135 = loc("stride_exp_sums_seq"(#loc))
#loc136 = loc("stride_exp_sums_head"(#loc))
#loc137 = loc("stride_exp_sums_part"(#loc))
#loc138 = loc("stride_logits_seq"(#loc))
#loc139 = loc("stride_logits_head"(#loc))
#loc140 = loc("stride_logits_part"(#loc))
#loc141 = loc("stride_logits_group"(#loc))
#loc142 = loc("head_size"(#loc))
#loc143 = loc("num_seqs"(#loc))
#loc144 = loc("num_kv_heads"(#loc))
#loc188 = loc("chunk_max_logits"(#loc49))
#loc197 = loc("global_exp_sum"(#loc60))
#loc239 = loc("final_output"(#loc104))
#loc266 = loc(callsite(#loc1 at #loc188))
#loc268 = loc(callsite(#loc1 at #loc197))
#loc270 = loc(callsite(#loc1 at #loc239))
module {
  tt.func public @paged_attention_decode_v2_reduce_kernel(%output_ptr: !tt.ptr<bf16> {tt.divisibility = 16 : i32, tt.pointer_range = 32 : i32} loc("output_ptr"(#loc)), %exp_sums_ptr: !tt.ptr<f32> {tt.divisibility = 16 : i32, tt.pointer_range = 32 : i32} loc("exp_sums_ptr"(#loc)), %max_logits_ptr: !tt.ptr<f32> {tt.divisibility = 16 : i32, tt.pointer_range = 32 : i32} loc("max_logits_ptr"(#loc)), %logits_ptr: !tt.ptr<bf16> {tt.divisibility = 16 : i32, tt.pointer_range = 32 : i32} loc("logits_ptr"(#loc)), %context_lengths_ptr: !tt.ptr<i32> {tt.divisibility = 16 : i32, tt.pointer_range = 32 : i32} loc("context_lengths_ptr"(#loc)), %stride_output_bs: i32 {tt.divisibility = 16 : i32} loc("stride_output_bs"(#loc)), %stride_output_len: i32 {tt.divisibility = 16 : i32} loc("stride_output_len"(#loc)), %stride_output_kv_head: i32 {tt.divisibility = 16 : i32} loc("stride_output_kv_head"(#loc)), %stride_output_group_size: i32 {tt.divisibility = 16 : i32} loc("stride_output_group_size"(#loc)), %stride_exp_sums_seq: i32 {tt.divisibility = 16 : i32} loc("stride_exp_sums_seq"(#loc)), %stride_exp_sums_head: i32 {tt.divisibility = 16 : i32} loc("stride_exp_sums_head"(#loc)), %stride_exp_sums_part: i32 {tt.divisibility = 16 : i32} loc("stride_exp_sums_part"(#loc)), %stride_logits_seq: i32 {tt.divisibility = 16 : i32} loc("stride_logits_seq"(#loc)), %stride_logits_head: i32 {tt.divisibility = 16 : i32} loc("stride_logits_head"(#loc)), %stride_logits_part: i32 {tt.divisibility = 16 : i32} loc("stride_logits_part"(#loc)), %stride_logits_group: i32 {tt.divisibility = 16 : i32} loc("stride_logits_group"(#loc)), %head_size: i32 {tt.divisibility = 16 : i32} loc("head_size"(#loc)), %num_seqs: i32 {tt.divisibility = 16 : i32} loc("num_seqs"(#loc)), %num_kv_heads: i32 loc("num_kv_heads"(#loc))) attributes {noinline = false} {
    %num_iterations = arith.constant 15 : i32 loc(#loc256)
    %final_output = arith.constant dense<0.000000e+00> : tensor<64x128xf32> loc(#loc257)
    %global_exp_sum = arith.constant dense<0.000000e+00> : tensor<64xf32> loc(#loc258)
    %context_partition_num = arith.constant 255 : i32 loc(#loc259)
    %context_partition_num_0 = arith.constant 256 : i32 loc(#loc259)
    %cst = arith.constant dense<0.000000e+00> : tensor<16x64x128xbf16> loc(#loc1)
    %c1_i32 = arith.constant 1 : i32 loc(#loc1)
    %c0_i32 = arith.constant 0 : i32 loc(#loc1)
    %output_mask = arith.constant dense<16> : tensor<1x16x1xi32> loc(#loc149)
    %output_mask_1 = arith.constant dense<3> : tensor<4x1x1xi32> loc(#loc150)
    %cst_2 = arith.constant dense<0.000000e+00> : tensor<16x64xf32> loc(#loc1)
    %cst_3 = arith.constant dense<0xFF800000> : tensor<16x64xf32> loc(#loc1)
    %global_max = arith.constant dense<0xFF800000> : tensor<64xf32> loc(#loc151)
    %query_group_mask = arith.constant dense<16> : tensor<1x16xi32> loc(#loc152)
    %query_group_mask_4 = arith.constant dense<3> : tensor<4x1xi32> loc(#loc153)
    %cst_5 = arith.constant dense<16> : tensor<64xi32> loc(#loc1)
    %c16_i32 = arith.constant 16 : i32 loc(#loc1)
    %sequence_idx = tt.get_program_id x : i32 loc(#loc154)
    %kv_head_idx = tt.get_program_id y : i32 loc(#loc155)
    %context_length = tt.addptr %context_lengths_ptr, %sequence_idx : !tt.ptr<i32>, i32 loc(#loc156)
    %context_length_6 = tt.load %context_length : !tt.ptr<i32> loc(#loc157)
    %context_partition_num_7 = arith.addi %context_length_6, %context_partition_num : i32 loc(#loc260)
    %context_partition_num_8 = arith.divsi %context_partition_num_7, %context_partition_num_0 : i32 loc(#loc261)
    %output_len_offsets = tt.make_range {end = 4 : i32, start = 0 : i32} : tensor<4xi32> loc(#loc158)
    %output_group_offsets = tt.make_range {end = 16 : i32, start = 0 : i32} : tensor<16xi32> loc(#loc159)
    %query_group_offsets_mtp = tt.make_range {end = 64 : i32, start = 0 : i32} : tensor<64xi32> loc(#loc160)
    %query_len_idx = arith.divsi %query_group_offsets_mtp, %cst_5 : tensor<64xi32> loc(#loc161)
    %group_idx_in_len = arith.remsi %query_group_offsets_mtp, %cst_5 : tensor<64xi32> loc(#loc162)
    %query_group_offsets = arith.muli %query_len_idx, %cst_5 : tensor<64xi32> loc(#loc163)
    %query_group_offsets_9 = arith.addi %query_group_offsets, %group_idx_in_len : tensor<64xi32> loc(#loc164)
    %head_size_offsets = tt.make_range {end = 128 : i32, start = 0 : i32} : tensor<128xi32> loc(#loc165)
    %query_group_mask_10 = tt.expand_dims %output_len_offsets {axis = 1 : i32} : tensor<4xi32> -> tensor<4x1xi32> loc(#loc166)
    %query_group_mask_11 = arith.cmpi slt, %query_group_mask_10, %query_group_mask_4 : tensor<4x1xi32> loc(#loc153)
    %query_group_mask_12 = tt.expand_dims %output_group_offsets {axis = 0 : i32} : tensor<16xi32> -> tensor<1x16xi32> loc(#loc167)
    %query_group_mask_13 = arith.cmpi slt, %query_group_mask_12, %query_group_mask : tensor<1x16xi32> loc(#loc152)
    %query_group_mask_14 = tt.broadcast %query_group_mask_11 : tensor<4x1xi1> -> tensor<4x16xi1> loc(#loc168)
    %query_group_mask_15 = tt.broadcast %query_group_mask_13 : tensor<1x16xi1> -> tensor<4x16xi1> loc(#loc168)
    %query_group_mask_16 = arith.andi %query_group_mask_14, %query_group_mask_15 : tensor<4x16xi1> loc(#loc168)
    %query_group_mask_17 = tt.reshape %query_group_mask_16 : tensor<4x16xi1> -> tensor<64xi1> loc(#loc169)
    %num_iterations_18 = arith.addi %context_partition_num_8, %num_iterations : i32 loc(#loc262)
    %num_iterations_19 = arith.divsi %num_iterations_18, %c16_i32 : i32 loc(#loc263)
    %exp_sums_offsets = arith.muli %sequence_idx, %stride_exp_sums_seq : i32 loc(#loc170)
    %exp_sums_offsets_20 = arith.muli %kv_head_idx, %stride_exp_sums_head : i32 loc(#loc171)
    %exp_sums_offsets_21 = arith.addi %exp_sums_offsets, %exp_sums_offsets_20 : i32 loc(#loc172)
    %exp_sums_offsets_22 = tt.splat %stride_exp_sums_part : i32 -> tensor<16x1xi32> loc(#loc173)
    %exp_sums_offsets_23 = tt.splat %exp_sums_offsets_21 : i32 -> tensor<16x1xi32> loc(#loc174)
    %exp_sums_offsets_24 = tt.expand_dims %query_group_offsets_9 {axis = 0 : i32} : tensor<64xi32> -> tensor<1x64xi32> loc(#loc175)
    %exp_sums_offsets_25 = tt.broadcast %exp_sums_offsets_24 : tensor<1x64xi32> -> tensor<16x64xi32> loc(#loc176)
    %exp_sums_mask = tt.splat %context_partition_num_8 : i32 -> tensor<16x1xi32> loc(#loc177)
    %exp_sums_mask_26 = tt.expand_dims %query_group_mask_17 {axis = 0 : i32} : tensor<64xi1> -> tensor<1x64xi1> loc(#loc178)
    %exp_sums_mask_27 = tt.broadcast %exp_sums_mask_26 : tensor<1x64xi1> -> tensor<16x64xi1> loc(#loc179)
    %max_logits = tt.splat %max_logits_ptr : !tt.ptr<f32> -> tensor<16x64x!tt.ptr<f32>> loc(#loc180)
    %exp_sums = tt.splat %exp_sums_ptr : !tt.ptr<f32> -> tensor<16x64x!tt.ptr<f32>> loc(#loc181)
    %global_exp_sum_28:2 = scf.for %global_exp_sum_86 = %c0_i32 to %num_iterations_19 step %c1_i32 iter_args(%global_max_87 = %global_max, %global_exp_sum_88 = %global_exp_sum) -> (tensor<64xf32>, tensor<64xf32>)  : i32 {
      %partition_base = arith.muli %global_exp_sum_86, %c16_i32 : i32 loc(#loc183)
      %partition_offsets = tt.splat %partition_base : i32 -> tensor<16xi32> loc(#loc184)
      %partition_offsets_89 = arith.addi %output_group_offsets, %partition_offsets : tensor<16xi32> loc(#loc184)
      %exp_sums_offsets_90 = tt.expand_dims %partition_offsets_89 {axis = 1 : i32} : tensor<16xi32> -> tensor<16x1xi32> loc(#loc185)
      %exp_sums_offsets_91 = arith.muli %exp_sums_offsets_90, %exp_sums_offsets_22 : tensor<16x1xi32> loc(#loc173)
      %exp_sums_offsets_92 = arith.addi %exp_sums_offsets_23, %exp_sums_offsets_91 : tensor<16x1xi32> loc(#loc174)
      %exp_sums_offsets_93 = tt.broadcast %exp_sums_offsets_92 : tensor<16x1xi32> -> tensor<16x64xi32> loc(#loc176)
      %exp_sums_offsets_94 = arith.addi %exp_sums_offsets_93, %exp_sums_offsets_25 : tensor<16x64xi32> loc(#loc176)
      %exp_sums_mask_95 = arith.cmpi slt, %exp_sums_offsets_90, %exp_sums_mask : tensor<16x1xi32> loc(#loc177)
      %exp_sums_mask_96 = tt.broadcast %exp_sums_mask_95 : tensor<16x1xi1> -> tensor<16x64xi1> loc(#loc179)
      %exp_sums_mask_97 = arith.andi %exp_sums_mask_96, %exp_sums_mask_27 : tensor<16x64xi1> loc(#loc179)
      %max_logits_98 = tt.addptr %max_logits, %exp_sums_offsets_94 : tensor<16x64x!tt.ptr<f32>>, tensor<16x64xi32> loc(#loc180)
      %max_logits_99 = tt.load %max_logits_98, %exp_sums_mask_97, %cst_3 : tensor<16x64x!tt.ptr<f32>> loc(#loc186)
      %exp_sums_100 = tt.addptr %exp_sums, %exp_sums_offsets_94 : tensor<16x64x!tt.ptr<f32>>, tensor<16x64xi32> loc(#loc181)
      %exp_sums_101 = tt.load %exp_sums_100, %exp_sums_mask_97, %cst_2 : tensor<16x64x!tt.ptr<f32>> loc(#loc187)
      %chunk_max_logits = "tt.reduce"(%max_logits_99) <{axis = 0 : i32}> ({
      ^bb0(%chunk_max_logits_112: f32 loc(callsite(#loc1 at #loc188)), %chunk_max_logits_113: f32 loc(callsite(#loc1 at #loc188))):
        %chunk_max_logits_114 = arith.maxnumf %chunk_max_logits_112, %chunk_max_logits_113 : f32 loc(#loc272)
        tt.reduce.return %chunk_max_logits_114 : f32 loc(#loc265)
      }) : (tensor<16x64xf32>) -> tensor<64xf32> loc(#loc265)
      %global_max_102 = arith.maxnumf %global_max_87, %chunk_max_logits : tensor<64xf32> loc(#loc189)
      %update_scale = arith.subf %global_max_87, %global_max_102 : tensor<64xf32> loc(#loc190)
      %update_scale_103 = math.exp %update_scale : tensor<64xf32> loc(#loc191)
      %exp_sums_104 = tt.expand_dims %global_max_102 {axis = 0 : i32} : tensor<64xf32> -> tensor<1x64xf32> loc(#loc192)
      %exp_sums_105 = tt.broadcast %exp_sums_104 : tensor<1x64xf32> -> tensor<16x64xf32> loc(#loc193)
      %exp_sums_106 = arith.subf %max_logits_99, %exp_sums_105 : tensor<16x64xf32> loc(#loc193)
      %exp_sums_107 = math.exp %exp_sums_106 : tensor<16x64xf32> loc(#loc194)
      %exp_sums_108 = arith.mulf %exp_sums_101, %exp_sums_107 : tensor<16x64xf32> loc(#loc195)
      %global_exp_sum_109 = arith.mulf %update_scale_103, %global_exp_sum_88 : tensor<64xf32> loc(#loc196)
      %global_exp_sum_110 = "tt.reduce"(%exp_sums_108) <{axis = 0 : i32}> ({
      ^bb0(%global_exp_sum_112: f32 loc(callsite(#loc1 at #loc197)), %global_exp_sum_113: f32 loc(callsite(#loc1 at #loc197))):
        %global_exp_sum_114 = arith.addf %global_exp_sum_112, %global_exp_sum_113 : f32 loc(#loc273)
        tt.reduce.return %global_exp_sum_114 : f32 loc(#loc267)
      }) : (tensor<16x64xf32>) -> tensor<64xf32> loc(#loc267)
      %global_exp_sum_111 = arith.addf %global_exp_sum_109, %global_exp_sum_110 : tensor<64xf32> loc(#loc198)
      scf.yield %global_max_102, %global_exp_sum_111 : tensor<64xf32>, tensor<64xf32> loc(#loc63)
    } loc(#loc271)
    %exp_sums_offsets_29 = arith.muli %sequence_idx, %stride_exp_sums_seq : i32 loc(#loc199)
    %exp_sums_offsets_30 = arith.muli %kv_head_idx, %stride_exp_sums_head : i32 loc(#loc200)
    %exp_sums_offsets_31 = arith.addi %exp_sums_offsets_29, %exp_sums_offsets_30 : i32 loc(#loc201)
    %exp_sums_offsets_32 = tt.splat %stride_exp_sums_part : i32 -> tensor<16x1xi32> loc(#loc202)
    %exp_sums_offsets_33 = tt.splat %exp_sums_offsets_31 : i32 -> tensor<16x1xi32> loc(#loc203)
    %exp_sums_offsets_34 = tt.expand_dims %query_group_offsets_9 {axis = 0 : i32} : tensor<64xi32> -> tensor<1x64xi32> loc(#loc204)
    %exp_sums_offsets_35 = tt.broadcast %exp_sums_offsets_34 : tensor<1x64xi32> -> tensor<16x64xi32> loc(#loc205)
    %exp_sums_mask_36 = tt.splat %context_partition_num_8 : i32 -> tensor<16x1xi32> loc(#loc206)
    %exp_sums_mask_37 = tt.expand_dims %query_group_mask_17 {axis = 0 : i32} : tensor<64xi1> -> tensor<1x64xi1> loc(#loc207)
    %exp_sums_mask_38 = tt.broadcast %exp_sums_mask_37 : tensor<1x64xi1> -> tensor<16x64xi1> loc(#loc208)
    %max_logits_39 = tt.splat %max_logits_ptr : !tt.ptr<f32> -> tensor<16x64x!tt.ptr<f32>> loc(#loc209)
    %exp_sums_40 = tt.splat %exp_sums_ptr : !tt.ptr<f32> -> tensor<16x64x!tt.ptr<f32>> loc(#loc210)
    %exp_sums_41 = tt.expand_dims %global_exp_sum_28#0 {axis = 0 : i32} : tensor<64xf32> -> tensor<1x64xf32> loc(#loc211)
    %exp_sums_42 = tt.broadcast %exp_sums_41 : tensor<1x64xf32> -> tensor<16x64xf32> loc(#loc212)
    %attention_probs = tt.expand_dims %global_exp_sum_28#1 {axis = 0 : i32} : tensor<64xf32> -> tensor<1x64xf32> loc(#loc213)
    %attention_probs_43 = tt.broadcast %attention_probs : tensor<1x64xf32> -> tensor<16x64xf32> loc(#loc214)
    %logits_offsets = arith.muli %sequence_idx, %stride_logits_seq : i32 loc(#loc215)
    %logits_offsets_44 = arith.muli %kv_head_idx, %stride_logits_head : i32 loc(#loc216)
    %logits_offsets_45 = arith.addi %logits_offsets, %logits_offsets_44 : i32 loc(#loc217)
    %logits_offsets_46 = tt.splat %stride_logits_part : i32 -> tensor<16x1x1xi32> loc(#loc218)
    %logits_offsets_47 = tt.splat %logits_offsets_45 : i32 -> tensor<16x1x1xi32> loc(#loc219)
    %logits_offsets_48 = tt.expand_dims %exp_sums_offsets_34 {axis = 2 : i32} : tensor<1x64xi32> -> tensor<1x64x1xi32> loc(#loc220)
    %logits_offsets_49 = tt.splat %stride_logits_group : i32 -> tensor<1x64x1xi32> loc(#loc221)
    %logits_offsets_50 = arith.muli %logits_offsets_48, %logits_offsets_49 : tensor<1x64x1xi32> loc(#loc221)
    %logits_offsets_51 = tt.broadcast %logits_offsets_50 : tensor<1x64x1xi32> -> tensor<16x64x1xi32> loc(#loc222)
    %logits_offsets_52 = tt.expand_dims %head_size_offsets {axis = 0 : i32} : tensor<128xi32> -> tensor<1x128xi32> loc(#loc223)
    %logits_offsets_53 = tt.expand_dims %logits_offsets_52 {axis = 1 : i32} : tensor<1x128xi32> -> tensor<1x1x128xi32> loc(#loc223)
    %logits_offsets_54 = tt.broadcast %logits_offsets_53 : tensor<1x1x128xi32> -> tensor<16x64x128xi32> loc(#loc224)
    %partial_logits = tt.splat %logits_ptr : !tt.ptr<bf16> -> tensor<16x64x128x!tt.ptr<bf16>> loc(#loc225)
    %final_output_55 = scf.for %iter_idx = %c0_i32 to %num_iterations_19 step %c1_i32 iter_args(%final_output_86 = %final_output) -> (tensor<64x128xf32>)  : i32 {
      %partition_base = arith.muli %iter_idx, %c16_i32 : i32 loc(#loc227)
      %partition_offsets = tt.splat %partition_base : i32 -> tensor<16xi32> loc(#loc228)
      %partition_offsets_87 = arith.addi %output_group_offsets, %partition_offsets : tensor<16xi32> loc(#loc228)
      %exp_sums_offsets_88 = tt.expand_dims %partition_offsets_87 {axis = 1 : i32} : tensor<16xi32> -> tensor<16x1xi32> loc(#loc229)
      %exp_sums_offsets_89 = arith.muli %exp_sums_offsets_88, %exp_sums_offsets_32 : tensor<16x1xi32> loc(#loc202)
      %exp_sums_offsets_90 = arith.addi %exp_sums_offsets_33, %exp_sums_offsets_89 : tensor<16x1xi32> loc(#loc203)
      %exp_sums_offsets_91 = tt.broadcast %exp_sums_offsets_90 : tensor<16x1xi32> -> tensor<16x64xi32> loc(#loc205)
      %exp_sums_offsets_92 = arith.addi %exp_sums_offsets_91, %exp_sums_offsets_35 : tensor<16x64xi32> loc(#loc205)
      %exp_sums_mask_93 = arith.cmpi slt, %exp_sums_offsets_88, %exp_sums_mask_36 : tensor<16x1xi32> loc(#loc206)
      %exp_sums_mask_94 = tt.broadcast %exp_sums_mask_93 : tensor<16x1xi1> -> tensor<16x64xi1> loc(#loc208)
      %exp_sums_mask_95 = arith.andi %exp_sums_mask_94, %exp_sums_mask_38 : tensor<16x64xi1> loc(#loc208)
      %max_logits_96 = tt.addptr %max_logits_39, %exp_sums_offsets_92 : tensor<16x64x!tt.ptr<f32>>, tensor<16x64xi32> loc(#loc209)
      %max_logits_97 = tt.load %max_logits_96, %exp_sums_mask_95, %cst_3 : tensor<16x64x!tt.ptr<f32>> loc(#loc230)
      %exp_sums_98 = tt.addptr %exp_sums_40, %exp_sums_offsets_92 : tensor<16x64x!tt.ptr<f32>>, tensor<16x64xi32> loc(#loc210)
      %exp_sums_99 = tt.load %exp_sums_98, %exp_sums_mask_95, %cst_2 : tensor<16x64x!tt.ptr<f32>> loc(#loc231)
      %exp_sums_100 = arith.subf %max_logits_97, %exp_sums_42 : tensor<16x64xf32> loc(#loc212)
      %exp_sums_101 = math.exp %exp_sums_100 : tensor<16x64xf32> loc(#loc232)
      %exp_sums_102 = arith.mulf %exp_sums_99, %exp_sums_101 : tensor<16x64xf32> loc(#loc233)
      %attention_probs_103 = arith.divf %exp_sums_102, %attention_probs_43 : tensor<16x64xf32> loc(#loc214)
      %attention_probs_104 = tt.reshape %attention_probs_103 : tensor<16x64xf32> -> tensor<16x64x1xf32> loc(#loc234)
      %logits_offsets_105 = tt.expand_dims %exp_sums_offsets_88 {axis = 2 : i32} : tensor<16x1xi32> -> tensor<16x1x1xi32> loc(#loc235)
      %logits_offsets_106 = arith.muli %logits_offsets_105, %logits_offsets_46 : tensor<16x1x1xi32> loc(#loc218)
      %logits_offsets_107 = arith.addi %logits_offsets_47, %logits_offsets_106 : tensor<16x1x1xi32> loc(#loc219)
      %logits_offsets_108 = tt.broadcast %logits_offsets_107 : tensor<16x1x1xi32> -> tensor<16x64x1xi32> loc(#loc222)
      %logits_offsets_109 = arith.addi %logits_offsets_108, %logits_offsets_51 : tensor<16x64x1xi32> loc(#loc222)
      %logits_offsets_110 = tt.broadcast %logits_offsets_109 : tensor<16x64x1xi32> -> tensor<16x64x128xi32> loc(#loc224)
      %logits_offsets_111 = arith.addi %logits_offsets_110, %logits_offsets_54 : tensor<16x64x128xi32> loc(#loc224)
      %partial_logits_112 = tt.expand_dims %exp_sums_mask_95 {axis = 2 : i32} : tensor<16x64xi1> -> tensor<16x64x1xi1> loc(#loc236)
      %partial_logits_113 = tt.addptr %partial_logits, %logits_offsets_111 : tensor<16x64x128x!tt.ptr<bf16>>, tensor<16x64x128xi32> loc(#loc225)
      %partial_logits_114 = tt.broadcast %partial_logits_112 : tensor<16x64x1xi1> -> tensor<16x64x128xi1> loc(#loc237)
      %partial_logits_115 = tt.load %partial_logits_113, %partial_logits_114, %cst : tensor<16x64x128x!tt.ptr<bf16>> loc(#loc237)
      %updated_output = arith.extf %partial_logits_115 : tensor<16x64x128xbf16> to tensor<16x64x128xf32> loc(#loc238)
      %updated_output_116 = tt.broadcast %attention_probs_104 : tensor<16x64x1xf32> -> tensor<16x64x128xf32> loc(#loc238)
      %updated_output_117 = arith.mulf %updated_output, %updated_output_116 : tensor<16x64x128xf32> loc(#loc238)
      %final_output_118 = "tt.reduce"(%updated_output_117) <{axis = 0 : i32}> ({
      ^bb0(%final_output_120: f32 loc(callsite(#loc1 at #loc239)), %final_output_121: f32 loc(callsite(#loc1 at #loc239))):
        %final_output_122 = arith.addf %final_output_120, %final_output_121 : f32 loc(#loc274)
        tt.reduce.return %final_output_122 : f32 loc(#loc269)
      }) : (tensor<16x64x128xf32>) -> tensor<64x128xf32> loc(#loc269)
      %final_output_119 = arith.addf %final_output_86, %final_output_118 : tensor<64x128xf32> loc(#loc240)
      scf.yield %final_output_119 : tensor<64x128xf32> loc(#loc106)
    } loc(#loc226)
    %final_output_56 = tt.reshape %final_output_55 : tensor<64x128xf32> -> tensor<4x16x128xf32> loc(#loc241)
    %output_offsets = arith.muli %sequence_idx, %stride_output_bs : i32 loc(#loc242)
    %output_offsets_57 = tt.expand_dims %query_group_mask_10 {axis = 2 : i32} : tensor<4x1xi32> -> tensor<4x1x1xi32> loc(#loc243)
    %output_offsets_58 = tt.splat %stride_output_len : i32 -> tensor<4x1x1xi32> loc(#loc244)
    %output_offsets_59 = arith.muli %output_offsets_57, %output_offsets_58 : tensor<4x1x1xi32> loc(#loc244)
    %output_offsets_60 = tt.splat %output_offsets : i32 -> tensor<4x1x1xi32> loc(#loc245)
    %output_offsets_61 = arith.addi %output_offsets_60, %output_offsets_59 : tensor<4x1x1xi32> loc(#loc245)
    %output_offsets_62 = arith.muli %kv_head_idx, %stride_output_kv_head : i32 loc(#loc246)
    %output_offsets_63 = tt.splat %output_offsets_62 : i32 -> tensor<4x1x1xi32> loc(#loc247)
    %output_offsets_64 = arith.addi %output_offsets_61, %output_offsets_63 : tensor<4x1x1xi32> loc(#loc247)
    %output_offsets_65 = tt.expand_dims %query_group_mask_12 {axis = 2 : i32} : tensor<1x16xi32> -> tensor<1x16x1xi32> loc(#loc248)
    %output_offsets_66 = tt.splat %stride_output_group_size : i32 -> tensor<1x16x1xi32> loc(#loc249)
    %output_offsets_67 = arith.muli %output_offsets_65, %output_offsets_66 : tensor<1x16x1xi32> loc(#loc249)
    %output_offsets_68 = tt.broadcast %output_offsets_64 : tensor<4x1x1xi32> -> tensor<4x16x1xi32> loc(#loc250)
    %output_offsets_69 = tt.broadcast %output_offsets_67 : tensor<1x16x1xi32> -> tensor<4x16x1xi32> loc(#loc250)
    %output_offsets_70 = arith.addi %output_offsets_68, %output_offsets_69 : tensor<4x16x1xi32> loc(#loc250)
    %output_offsets_71 = tt.expand_dims %head_size_offsets {axis = 0 : i32} : tensor<128xi32> -> tensor<1x128xi32> loc(#loc251)
    %output_offsets_72 = tt.expand_dims %output_offsets_71 {axis = 1 : i32} : tensor<1x128xi32> -> tensor<1x1x128xi32> loc(#loc251)
    %output_offsets_73 = tt.broadcast %output_offsets_70 : tensor<4x16x1xi32> -> tensor<4x16x128xi32> loc(#loc252)
    %output_offsets_74 = tt.broadcast %output_offsets_72 : tensor<1x1x128xi32> -> tensor<4x16x128xi32> loc(#loc252)
    %output_offsets_75 = arith.addi %output_offsets_73, %output_offsets_74 : tensor<4x16x128xi32> loc(#loc252)
    %output_mask_76 = arith.cmpi slt, %output_offsets_57, %output_mask_1 : tensor<4x1x1xi32> loc(#loc150)
    %output_mask_77 = arith.cmpi slt, %output_offsets_65, %output_mask : tensor<1x16x1xi32> loc(#loc149)
    %output_mask_78 = tt.broadcast %output_mask_76 : tensor<4x1x1xi1> -> tensor<4x16x1xi1> loc(#loc253)
    %output_mask_79 = tt.broadcast %output_mask_77 : tensor<1x16x1xi1> -> tensor<4x16x1xi1> loc(#loc253)
    %output_mask_80 = arith.andi %output_mask_78, %output_mask_79 : tensor<4x16x1xi1> loc(#loc253)
    %output_mask_81 = tt.splat %head_size : i32 -> tensor<1x1x128xi32> loc(#loc254)
    %output_mask_82 = arith.cmpi slt, %output_offsets_72, %output_mask_81 : tensor<1x1x128xi32> loc(#loc254)
    %output_mask_83 = tt.broadcast %output_mask_80 : tensor<4x16x1xi1> -> tensor<4x16x128xi1> loc(#loc255)
    %output_mask_84 = tt.broadcast %output_mask_82 : tensor<1x1x128xi1> -> tensor<4x16x128xi1> loc(#loc255)
    %output_mask_85 = arith.andi %output_mask_83, %output_mask_84 : tensor<4x16x128xi1> loc(#loc255)
    %0 = tt.splat %output_ptr : !tt.ptr<bf16> -> tensor<4x16x128x!tt.ptr<bf16>> loc(#loc122)
    %1 = tt.addptr %0, %output_offsets_75 : tensor<4x16x128x!tt.ptr<bf16>>, tensor<4x16x128xi32> loc(#loc122)
    %2 = arith.truncf %final_output_56 : tensor<4x16x128xf32> to tensor<4x16x128xbf16> loc(#loc123)
    tt.store %1, %2, %output_mask_85 : tensor<4x16x128x!tt.ptr<bf16>> loc(#loc124)
    tt.return loc(#loc125)
  } loc(#loc)
} loc(#loc)
#loc2 = loc("/home/mejiang/w1/dev/aiter/aiter/ops/triton/gluon/pa_decode_gluon.py":2759:52)
#loc3 = loc("/home/mejiang/w1/test/triton/python/triton/language/standard.py":129:31)
#loc4 = loc("/home/mejiang/w1/dev/aiter/aiter/ops/triton/gluon/pa_decode_gluon.py":2756:28)
#loc5 = loc("/home/mejiang/w1/dev/aiter/aiter/ops/triton/gluon/pa_decode_gluon.py":2755:30)
#loc6 = loc("/home/mejiang/w1/dev/aiter/aiter/ops/triton/gluon/pa_decode_gluon.py":2735:52)
#loc7 = loc("/home/mejiang/w1/dev/aiter/aiter/ops/triton/gluon/pa_decode_gluon.py":2905:49)
#loc8 = loc("/home/mejiang/w1/dev/aiter/aiter/ops/triton/gluon/pa_decode_gluon.py":2904:45)
#loc9 = loc("/home/mejiang/w1/dev/aiter/aiter/ops/triton/gluon/pa_decode_gluon.py":2753:51)
#loc10 = loc("/home/mejiang/w1/dev/aiter/aiter/ops/triton/gluon/pa_decode_gluon.py":2748:40)
#loc11 = loc("/home/mejiang/w1/dev/aiter/aiter/ops/triton/gluon/pa_decode_gluon.py":2747:54)
#loc12 = loc("/home/mejiang/w1/dev/aiter/aiter/ops/triton/gluon/pa_decode_gluon.py":2731:33)
#loc13 = loc("/home/mejiang/w1/dev/aiter/aiter/ops/triton/gluon/pa_decode_gluon.py":2732:32)
#loc14 = loc("/home/mejiang/w1/dev/aiter/aiter/ops/triton/gluon/pa_decode_gluon.py":2734:51)
#loc15 = loc("/home/mejiang/w1/dev/aiter/aiter/ops/triton/gluon/pa_decode_gluon.py":2734:29)
#loc16 = loc("/home/mejiang/w1/test/triton/python/triton/language/standard.py":43:17)
#loc17 = loc("/home/mejiang/w1/test/triton/python/triton/language/standard.py":43:30)
#loc18 = loc("/home/mejiang/w1/dev/aiter/aiter/ops/triton/gluon/pa_decode_gluon.py":2738:38)
#loc19 = loc("/home/mejiang/w1/dev/aiter/aiter/ops/triton/gluon/pa_decode_gluon.py":2739:40)
#loc20 = loc("/home/mejiang/w1/dev/aiter/aiter/ops/triton/gluon/pa_decode_gluon.py":2740:43)
#loc21 = loc("/home/mejiang/w1/dev/aiter/aiter/ops/triton/gluon/pa_decode_gluon.py":2742:47)
#loc22 = loc("/home/mejiang/w1/dev/aiter/aiter/ops/triton/gluon/pa_decode_gluon.py":2743:49)
#loc23 = loc("/home/mejiang/w1/dev/aiter/aiter/ops/triton/gluon/pa_decode_gluon.py":2744:42)
#loc24 = loc("/home/mejiang/w1/dev/aiter/aiter/ops/triton/gluon/pa_decode_gluon.py":2744:66)
#loc25 = loc("/home/mejiang/w1/dev/aiter/aiter/ops/triton/gluon/pa_decode_gluon.py":2745:37)
#loc26 = loc("/home/mejiang/w1/dev/aiter/aiter/ops/triton/gluon/pa_decode_gluon.py":2747:43)
#loc27 = loc("/home/mejiang/w1/dev/aiter/aiter/ops/triton/gluon/pa_decode_gluon.py":2748:29)
#loc28 = loc("/home/mejiang/w1/dev/aiter/aiter/ops/triton/gluon/pa_decode_gluon.py":2748:8)
#loc29 = loc("/home/mejiang/w1/dev/aiter/aiter/ops/triton/gluon/pa_decode_gluon.py":2750:52)
#loc30 = loc("/home/mejiang/w1/dev/aiter/aiter/ops/triton/gluon/pa_decode_gluon.py":2769:27)
#loc31 = loc("/home/mejiang/w1/dev/aiter/aiter/ops/triton/gluon/pa_decode_gluon.py":2770:28)
#loc32 = loc("/home/mejiang/w1/dev/aiter/aiter/ops/triton/gluon/pa_decode_gluon.py":2770:14)
#loc33 = loc("/home/mejiang/w1/dev/aiter/aiter/ops/triton/gluon/pa_decode_gluon.py":2771:43)
#loc34 = loc("/home/mejiang/w1/dev/aiter/aiter/ops/triton/gluon/pa_decode_gluon.py":2771:14)
#loc35 = loc("/home/mejiang/w1/dev/aiter/aiter/ops/triton/gluon/pa_decode_gluon.py":2772:34)
#loc36 = loc("/home/mejiang/w1/dev/aiter/aiter/ops/triton/gluon/pa_decode_gluon.py":2772:14)
#loc37 = loc("/home/mejiang/w1/dev/aiter/aiter/ops/triton/gluon/pa_decode_gluon.py":2777:41)
#loc38 = loc("/home/mejiang/w1/dev/aiter/aiter/ops/triton/gluon/pa_decode_gluon.py":2778:29)
#loc39 = loc("/home/mejiang/w1/dev/aiter/aiter/ops/triton/gluon/pa_decode_gluon.py":2778:12)
#loc40 = loc("/home/mejiang/w1/dev/aiter/aiter/ops/triton/gluon/pa_decode_gluon.py":2782:29)
#loc41 = loc("/home/mejiang/w1/dev/aiter/aiter/ops/triton/gluon/pa_decode_gluon.py":2785:27)
#loc42 = loc("/home/mejiang/w1/dev/aiter/aiter/ops/triton/gluon/pa_decode_gluon.py":2763:26)
#loc43 = loc("/home/mejiang/w1/dev/aiter/aiter/ops/triton/gluon/pa_decode_gluon.py":2764:36)
#loc44 = loc("/home/mejiang/w1/dev/aiter/aiter/ops/triton/gluon/pa_decode_gluon.py":2765:70)
#loc45 = loc("/home/mejiang/w1/dev/aiter/aiter/ops/triton/gluon/pa_decode_gluon.py":2771:32)
#loc46 = loc("/home/mejiang/w1/dev/aiter/aiter/ops/triton/gluon/pa_decode_gluon.py":2782:12)
#loc47 = loc("/home/mejiang/w1/dev/aiter/aiter/ops/triton/gluon/pa_decode_gluon.py":2785:12)
#loc48 = loc("/home/mejiang/w1/test/triton/python/triton/language/standard.py":191:40)
#loc50 = loc("/home/mejiang/w1/test/triton/python/triton/language/standard.py":170:27)
#loc51 = loc("/home/mejiang/w1/dev/aiter/aiter/ops/triton/gluon/pa_decode_gluon.py":2790:44)
#loc52 = loc("/home/mejiang/w1/dev/aiter/aiter/ops/triton/gluon/pa_decode_gluon.py":2792:48)
#loc53 = loc("/home/mejiang/w1/dev/aiter/aiter/ops/triton/gluon/pa_decode_gluon.py":2792:30)
#loc54 = loc("/home/mejiang/w1/dev/aiter/aiter/ops/triton/gluon/pa_decode_gluon.py":2795:51)
#loc55 = loc("/home/mejiang/w1/dev/aiter/aiter/ops/triton/gluon/pa_decode_gluon.py":2795:40)
#loc56 = loc("/home/mejiang/w1/dev/aiter/aiter/ops/triton/gluon/pa_decode_gluon.py":2795:27)
#loc57 = loc("/home/mejiang/w1/dev/aiter/aiter/ops/triton/gluon/pa_decode_gluon.py":2795:20)
#loc58 = loc("/home/mejiang/w1/dev/aiter/aiter/ops/triton/gluon/pa_decode_gluon.py":2797:40)
#loc59 = loc("/home/mejiang/w1/test/triton/python/triton/language/standard.py":293:36)
#loc61 = loc("/home/mejiang/w1/test/triton/python/triton/language/standard.py":263:15)
#loc62 = loc("/home/mejiang/w1/dev/aiter/aiter/ops/triton/gluon/pa_decode_gluon.py":2797:57)
#loc63 = loc("/home/mejiang/w1/dev/aiter/aiter/ops/triton/gluon/pa_decode_gluon.py":2798:8)
#loc64 = loc("/home/mejiang/w1/dev/aiter/aiter/ops/triton/gluon/pa_decode_gluon.py":2817:27)
#loc65 = loc("/home/mejiang/w1/dev/aiter/aiter/ops/triton/gluon/pa_decode_gluon.py":2818:28)
#loc66 = loc("/home/mejiang/w1/dev/aiter/aiter/ops/triton/gluon/pa_decode_gluon.py":2818:14)
#loc67 = loc("/home/mejiang/w1/dev/aiter/aiter/ops/triton/gluon/pa_decode_gluon.py":2819:43)
#loc68 = loc("/home/mejiang/w1/dev/aiter/aiter/ops/triton/gluon/pa_decode_gluon.py":2819:14)
#loc69 = loc("/home/mejiang/w1/dev/aiter/aiter/ops/triton/gluon/pa_decode_gluon.py":2820:34)
#loc70 = loc("/home/mejiang/w1/dev/aiter/aiter/ops/triton/gluon/pa_decode_gluon.py":2820:14)
#loc71 = loc("/home/mejiang/w1/dev/aiter/aiter/ops/triton/gluon/pa_decode_gluon.py":2825:41)
#loc72 = loc("/home/mejiang/w1/dev/aiter/aiter/ops/triton/gluon/pa_decode_gluon.py":2826:29)
#loc73 = loc("/home/mejiang/w1/dev/aiter/aiter/ops/triton/gluon/pa_decode_gluon.py":2826:12)
#loc74 = loc("/home/mejiang/w1/dev/aiter/aiter/ops/triton/gluon/pa_decode_gluon.py":2830:29)
#loc75 = loc("/home/mejiang/w1/dev/aiter/aiter/ops/triton/gluon/pa_decode_gluon.py":2834:27)
#loc76 = loc("/home/mejiang/w1/dev/aiter/aiter/ops/triton/gluon/pa_decode_gluon.py":2838:51)
#loc77 = loc("/home/mejiang/w1/dev/aiter/aiter/ops/triton/gluon/pa_decode_gluon.py":2838:40)
#loc78 = loc("/home/mejiang/w1/dev/aiter/aiter/ops/triton/gluon/pa_decode_gluon.py":2842:52)
#loc79 = loc("/home/mejiang/w1/dev/aiter/aiter/ops/triton/gluon/pa_decode_gluon.py":2842:37)
#loc80 = loc("/home/mejiang/w1/dev/aiter/aiter/ops/triton/gluon/pa_decode_gluon.py":2852:31)
#loc81 = loc("/home/mejiang/w1/dev/aiter/aiter/ops/triton/gluon/pa_decode_gluon.py":2853:32)
#loc82 = loc("/home/mejiang/w1/dev/aiter/aiter/ops/triton/gluon/pa_decode_gluon.py":2853:18)
#loc83 = loc("/home/mejiang/w1/dev/aiter/aiter/ops/triton/gluon/pa_decode_gluon.py":2854:53)
#loc84 = loc("/home/mejiang/w1/dev/aiter/aiter/ops/triton/gluon/pa_decode_gluon.py":2854:18)
#loc85 = loc("/home/mejiang/w1/dev/aiter/aiter/ops/triton/gluon/pa_decode_gluon.py":2855:38)
#loc86 = loc("/home/mejiang/w1/dev/aiter/aiter/ops/triton/gluon/pa_decode_gluon.py":2855:55)
#loc87 = loc("/home/mejiang/w1/dev/aiter/aiter/ops/triton/gluon/pa_decode_gluon.py":2855:18)
#loc88 = loc("/home/mejiang/w1/dev/aiter/aiter/ops/triton/gluon/pa_decode_gluon.py":2856:36)
#loc89 = loc("/home/mejiang/w1/dev/aiter/aiter/ops/triton/gluon/pa_decode_gluon.py":2856:18)
#loc90 = loc("/home/mejiang/w1/dev/aiter/aiter/ops/triton/gluon/pa_decode_gluon.py":2875:25)
#loc91 = loc("/home/mejiang/w1/dev/aiter/aiter/ops/triton/gluon/pa_decode_gluon.py":2811:26)
#loc92 = loc("/home/mejiang/w1/dev/aiter/aiter/ops/triton/gluon/pa_decode_gluon.py":2812:36)
#loc93 = loc("/home/mejiang/w1/dev/aiter/aiter/ops/triton/gluon/pa_decode_gluon.py":2813:70)
#loc94 = loc("/home/mejiang/w1/dev/aiter/aiter/ops/triton/gluon/pa_decode_gluon.py":2819:32)
#loc95 = loc("/home/mejiang/w1/dev/aiter/aiter/ops/triton/gluon/pa_decode_gluon.py":2830:12)
#loc96 = loc("/home/mejiang/w1/dev/aiter/aiter/ops/triton/gluon/pa_decode_gluon.py":2834:12)
#loc97 = loc("/home/mejiang/w1/dev/aiter/aiter/ops/triton/gluon/pa_decode_gluon.py":2838:27)
#loc98 = loc("/home/mejiang/w1/dev/aiter/aiter/ops/triton/gluon/pa_decode_gluon.py":2838:20)
#loc99 = loc("/home/mejiang/w1/dev/aiter/aiter/ops/triton/gluon/pa_decode_gluon.py":2846:29)
#loc100 = loc("/home/mejiang/w1/dev/aiter/aiter/ops/triton/gluon/pa_decode_gluon.py":2854:36)
#loc101 = loc("/home/mejiang/w1/dev/aiter/aiter/ops/triton/gluon/pa_decode_gluon.py":2875:58)
#loc102 = loc("/home/mejiang/w1/dev/aiter/aiter/ops/triton/gluon/pa_decode_gluon.py":2875:12)
#loc103 = loc("/home/mejiang/w1/dev/aiter/aiter/ops/triton/gluon/pa_decode_gluon.py":2882:42)
#loc105 = loc("/home/mejiang/w1/dev/aiter/aiter/ops/triton/gluon/pa_decode_gluon.py":2885:24)
#loc106 = loc("/home/mejiang/w1/dev/aiter/aiter/ops/triton/gluon/pa_decode_gluon.py":2885:8)
#loc107 = loc("/home/mejiang/w1/dev/aiter/aiter/ops/triton/gluon/pa_decode_gluon.py":2891:22)
#loc108 = loc("/home/mejiang/w1/dev/aiter/aiter/ops/triton/gluon/pa_decode_gluon.py":2895:23)
#loc109 = loc("/home/mejiang/w1/dev/aiter/aiter/ops/triton/gluon/pa_decode_gluon.py":2896:29)
#loc110 = loc("/home/mejiang/w1/dev/aiter/aiter/ops/triton/gluon/pa_decode_gluon.py":2896:46)
#loc111 = loc("/home/mejiang/w1/dev/aiter/aiter/ops/triton/gluon/pa_decode_gluon.py":2896:10)
#loc112 = loc("/home/mejiang/w1/dev/aiter/aiter/ops/triton/gluon/pa_decode_gluon.py":2897:24)
#loc113 = loc("/home/mejiang/w1/dev/aiter/aiter/ops/triton/gluon/pa_decode_gluon.py":2897:10)
#loc114 = loc("/home/mejiang/w1/dev/aiter/aiter/ops/triton/gluon/pa_decode_gluon.py":2898:31)
#loc115 = loc("/home/mejiang/w1/dev/aiter/aiter/ops/triton/gluon/pa_decode_gluon.py":2898:48)
#loc116 = loc("/home/mejiang/w1/dev/aiter/aiter/ops/triton/gluon/pa_decode_gluon.py":2898:10)
#loc117 = loc("/home/mejiang/w1/dev/aiter/aiter/ops/triton/gluon/pa_decode_gluon.py":2899:28)
#loc118 = loc("/home/mejiang/w1/dev/aiter/aiter/ops/triton/gluon/pa_decode_gluon.py":2899:10)
#loc119 = loc("/home/mejiang/w1/dev/aiter/aiter/ops/triton/gluon/pa_decode_gluon.py":2905:11)
#loc120 = loc("/home/mejiang/w1/dev/aiter/aiter/ops/triton/gluon/pa_decode_gluon.py":2906:46)
#loc121 = loc("/home/mejiang/w1/dev/aiter/aiter/ops/triton/gluon/pa_decode_gluon.py":2906:11)
#loc122 = loc("/home/mejiang/w1/dev/aiter/aiter/ops/triton/gluon/pa_decode_gluon.py":2911:21)
#loc123 = loc("/home/mejiang/w1/dev/aiter/aiter/ops/triton/gluon/pa_decode_gluon.py":2912:24)
#loc124 = loc("/home/mejiang/w1/dev/aiter/aiter/ops/triton/gluon/pa_decode_gluon.py":2912:8)
#loc125 = loc("/home/mejiang/w1/dev/aiter/aiter/ops/triton/gluon/pa_decode_gluon.py":2910:4)
#loc145 = loc("num_iterations"(#loc2))
#loc146 = loc("final_output"(#loc4))
#loc147 = loc("global_exp_sum"(#loc5))
#loc148 = loc("context_partition_num"(#loc6))
#loc149 = loc("output_mask"(#loc7))
#loc150 = loc("output_mask"(#loc8))
#loc151 = loc("global_max"(#loc9))
#loc152 = loc("query_group_mask"(#loc10))
#loc153 = loc("query_group_mask"(#loc11))
#loc154 = loc("sequence_idx"(#loc12))
#loc155 = loc("kv_head_idx"(#loc13))
#loc156 = loc("context_length"(#loc14))
#loc157 = loc("context_length"(#loc15))
#loc158 = loc("output_len_offsets"(#loc18))
#loc159 = loc("output_group_offsets"(#loc19))
#loc160 = loc("query_group_offsets_mtp"(#loc20))
#loc161 = loc("query_len_idx"(#loc21))
#loc162 = loc("group_idx_in_len"(#loc22))
#loc163 = loc("query_group_offsets"(#loc23))
#loc164 = loc("query_group_offsets"(#loc24))
#loc165 = loc("head_size_offsets"(#loc25))
#loc166 = loc("query_group_mask"(#loc26))
#loc167 = loc("query_group_mask"(#loc27))
#loc168 = loc("query_group_mask"(#loc28))
#loc169 = loc("query_group_mask"(#loc29))
#loc170 = loc("exp_sums_offsets"(#loc30))
#loc171 = loc("exp_sums_offsets"(#loc31))
#loc172 = loc("exp_sums_offsets"(#loc32))
#loc173 = loc("exp_sums_offsets"(#loc33))
#loc174 = loc("exp_sums_offsets"(#loc34))
#loc175 = loc("exp_sums_offsets"(#loc35))
#loc176 = loc("exp_sums_offsets"(#loc36))
#loc177 = loc("exp_sums_mask"(#loc37))
#loc178 = loc("exp_sums_mask"(#loc38))
#loc179 = loc("exp_sums_mask"(#loc39))
#loc180 = loc("max_logits"(#loc40))
#loc181 = loc("exp_sums"(#loc41))
#loc182 = loc("global_max"(#loc42))
#loc183 = loc("partition_base"(#loc43))
#loc184 = loc("partition_offsets"(#loc44))
#loc185 = loc("exp_sums_offsets"(#loc45))
#loc186 = loc("max_logits"(#loc46))
#loc187 = loc("exp_sums"(#loc47))
#loc189 = loc("global_max"(#loc51))
#loc190 = loc("update_scale"(#loc52))
#loc191 = loc("update_scale"(#loc53))
#loc192 = loc("exp_sums"(#loc54))
#loc193 = loc("exp_sums"(#loc55))
#loc194 = loc("exp_sums"(#loc56))
#loc195 = loc("exp_sums"(#loc57))
#loc196 = loc("global_exp_sum"(#loc58))
#loc198 = loc("global_exp_sum"(#loc62))
#loc199 = loc("exp_sums_offsets"(#loc64))
#loc200 = loc("exp_sums_offsets"(#loc65))
#loc201 = loc("exp_sums_offsets"(#loc66))
#loc202 = loc("exp_sums_offsets"(#loc67))
#loc203 = loc("exp_sums_offsets"(#loc68))
#loc204 = loc("exp_sums_offsets"(#loc69))
#loc205 = loc("exp_sums_offsets"(#loc70))
#loc206 = loc("exp_sums_mask"(#loc71))
#loc207 = loc("exp_sums_mask"(#loc72))
#loc208 = loc("exp_sums_mask"(#loc73))
#loc209 = loc("max_logits"(#loc74))
#loc210 = loc("exp_sums"(#loc75))
#loc211 = loc("exp_sums"(#loc76))
#loc212 = loc("exp_sums"(#loc77))
#loc213 = loc("attention_probs"(#loc78))
#loc214 = loc("attention_probs"(#loc79))
#loc215 = loc("logits_offsets"(#loc80))
#loc216 = loc("logits_offsets"(#loc81))
#loc217 = loc("logits_offsets"(#loc82))
#loc218 = loc("logits_offsets"(#loc83))
#loc219 = loc("logits_offsets"(#loc84))
#loc220 = loc("logits_offsets"(#loc85))
#loc221 = loc("logits_offsets"(#loc86))
#loc222 = loc("logits_offsets"(#loc87))
#loc223 = loc("logits_offsets"(#loc88))
#loc224 = loc("logits_offsets"(#loc89))
#loc225 = loc("partial_logits"(#loc90))
#loc226 = loc("final_output"(#loc91))
#loc227 = loc("partition_base"(#loc92))
#loc228 = loc("partition_offsets"(#loc93))
#loc229 = loc("exp_sums_offsets"(#loc94))
#loc230 = loc("max_logits"(#loc95))
#loc231 = loc("exp_sums"(#loc96))
#loc232 = loc("exp_sums"(#loc97))
#loc233 = loc("exp_sums"(#loc98))
#loc234 = loc("attention_probs"(#loc99))
#loc235 = loc("logits_offsets"(#loc100))
#loc236 = loc("partial_logits"(#loc101))
#loc237 = loc("partial_logits"(#loc102))
#loc238 = loc("updated_output"(#loc103))
#loc240 = loc("final_output"(#loc105))
#loc241 = loc("final_output"(#loc107))
#loc242 = loc("output_offsets"(#loc108))
#loc243 = loc("output_offsets"(#loc109))
#loc244 = loc("output_offsets"(#loc110))
#loc245 = loc("output_offsets"(#loc111))
#loc246 = loc("output_offsets"(#loc112))
#loc247 = loc("output_offsets"(#loc113))
#loc248 = loc("output_offsets"(#loc114))
#loc249 = loc("output_offsets"(#loc115))
#loc250 = loc("output_offsets"(#loc116))
#loc251 = loc("output_offsets"(#loc117))
#loc252 = loc("output_offsets"(#loc118))
#loc253 = loc("output_mask"(#loc119))
#loc254 = loc("output_mask"(#loc120))
#loc255 = loc("output_mask"(#loc121))
#loc256 = loc(callsite(#loc1 at #loc145))
#loc257 = loc(callsite(#loc3 at #loc146))
#loc258 = loc(callsite(#loc3 at #loc147))
#loc259 = loc(callsite(#loc1 at #loc148))
#loc260 = loc(callsite(#loc16 at #loc148))
#loc261 = loc(callsite(#loc17 at #loc148))
#loc262 = loc(callsite(#loc16 at #loc145))
#loc263 = loc(callsite(#loc17 at #loc145))
#loc264 = loc("global_max_prev"(#loc182))
#loc265 = loc(callsite(#loc48 at #loc188))
#loc267 = loc(callsite(#loc59 at #loc197))
#loc269 = loc(callsite(#loc59 at #loc239))
#loc271 = loc("global_exp_sum"(#loc264))
#loc272 = loc(callsite(#loc50 at #loc265))
#loc273 = loc(callsite(#loc61 at #loc267))
#loc274 = loc(callsite(#loc61 at #loc269))
