#loc = loc("/home/mejiang/w1/test/triton/fa/flash-attention.py":465:0)
#loc1 = loc(unknown)
#loc86 = loc("/home/mejiang/w1/test/triton/fa/flash-attention.py":710:61)
#loc115 = loc("/home/mejiang/w1/test/triton/fa/flash-attention.py":334:42)
#loc124 = loc("/home/mejiang/w1/test/triton/fa/flash-attention.py":340:25)
#loc171 = loc(callsite(#loc115 at #loc86))
#loc178 = loc(callsite(#loc124 at #loc86))
#loc192 = loc(callsite(#loc1 at #loc171))
#loc194 = loc(callsite(#loc1 at #loc178))
module {
  tt.func public @attn_fwd(%arg0: !tt.ptr<f16> {tt.divisibility = 16 : i32} loc("/home/mejiang/w1/test/triton/fa/flash-attention.py":465:0), %arg1: !tt.ptr<f16> {tt.divisibility = 16 : i32} loc("/home/mejiang/w1/test/triton/fa/flash-attention.py":465:0), %arg2: !tt.ptr<f16> {tt.divisibility = 16 : i32} loc("/home/mejiang/w1/test/triton/fa/flash-attention.py":465:0), %arg3: !tt.ptr<f32> {tt.divisibility = 16 : i32} loc("/home/mejiang/w1/test/triton/fa/flash-attention.py":465:0), %arg4: !tt.ptr<f16> {tt.divisibility = 16 : i32} loc("/home/mejiang/w1/test/triton/fa/flash-attention.py":465:0), %arg5: i32 {tt.divisibility = 16 : i32} loc("/home/mejiang/w1/test/triton/fa/flash-attention.py":465:0), %arg6: i32 {tt.divisibility = 16 : i32} loc("/home/mejiang/w1/test/triton/fa/flash-attention.py":465:0), %arg7: i32 {tt.divisibility = 16 : i32} loc("/home/mejiang/w1/test/triton/fa/flash-attention.py":465:0), %arg8: i32 {tt.divisibility = 16 : i32} loc("/home/mejiang/w1/test/triton/fa/flash-attention.py":465:0), %arg9: i32 {tt.divisibility = 16 : i32} loc("/home/mejiang/w1/test/triton/fa/flash-attention.py":465:0), %arg10: i32 {tt.divisibility = 16 : i32} loc("/home/mejiang/w1/test/triton/fa/flash-attention.py":465:0), %arg11: i32 {tt.divisibility = 16 : i32} loc("/home/mejiang/w1/test/triton/fa/flash-attention.py":465:0), %arg12: i32 {tt.divisibility = 16 : i32} loc("/home/mejiang/w1/test/triton/fa/flash-attention.py":465:0), %arg13: i32 {tt.divisibility = 16 : i32} loc("/home/mejiang/w1/test/triton/fa/flash-attention.py":465:0), %arg14: i32 {tt.divisibility = 16 : i32} loc("/home/mejiang/w1/test/triton/fa/flash-attention.py":465:0), %arg15: i32 {tt.divisibility = 16 : i32} loc("/home/mejiang/w1/test/triton/fa/flash-attention.py":465:0), %arg16: i32 {tt.divisibility = 16 : i32} loc("/home/mejiang/w1/test/triton/fa/flash-attention.py":465:0), %arg17: i32 {tt.divisibility = 16 : i32} loc("/home/mejiang/w1/test/triton/fa/flash-attention.py":465:0), %arg18: i32 {tt.divisibility = 16 : i32} loc("/home/mejiang/w1/test/triton/fa/flash-attention.py":465:0), %arg19: i32 {tt.divisibility = 16 : i32} loc("/home/mejiang/w1/test/triton/fa/flash-attention.py":465:0), %arg20: i32 {tt.divisibility = 16 : i32} loc("/home/mejiang/w1/test/triton/fa/flash-attention.py":465:0), %arg21: i32 {tt.divisibility = 16 : i32} loc("/home/mejiang/w1/test/triton/fa/flash-attention.py":465:0), %arg22: i32 {tt.divisibility = 16 : i32} loc("/home/mejiang/w1/test/triton/fa/flash-attention.py":465:0), %arg23: f32 loc("/home/mejiang/w1/test/triton/fa/flash-attention.py":465:0), %arg24: i32 loc("/home/mejiang/w1/test/triton/fa/flash-attention.py":465:0), %arg25: !tt.ptr<i32> {tt.divisibility = 16 : i32} loc("/home/mejiang/w1/test/triton/fa/flash-attention.py":465:0), %arg26: i32 loc("/home/mejiang/w1/test/triton/fa/flash-attention.py":465:0)) attributes {noinline = false} {
    %cst = arith.constant dense<0.000000e+00> : tensor<256x64xf32> loc(#loc1)
    %cst_0 = arith.constant dense<0.127517432> : tensor<256xf32> loc(#loc1)
    %cst_1 = arith.constant dense<0.127517432> : tensor<256x64xf32> loc(#loc1)
    %cst_2 = arith.constant dense<0.000000e+00> : tensor<256x128xf32> loc(#loc1)
    %c8_i32 = arith.constant 8 : i32 loc(#loc1)
    %c7_i32 = arith.constant 7 : i32 loc(#loc1)
    %c16640_i32 = arith.constant 16640 : i32 loc(#loc1)
    %c1048576_i32 = arith.constant 1048576 : i32 loc(#loc1)
    %cst_3 = arith.constant dense<0.000000e+00> : tensor<256x128xf16> loc(#loc1)
    %cst_4 = arith.constant dense<true> : tensor<256x128xi1> loc(#loc1)
    %cst_5 = arith.constant dense<1.000000e+00> : tensor<256x1xf32> loc(#loc1)
    %cst_6 = arith.constant dense<16384> : tensor<256x1xi32> loc(#loc1)
    %cst_7 = arith.constant dense<1.000000e+00> : tensor<256xf32> loc(#loc1)
    %cst_8 = arith.constant dense<0xFF800000> : tensor<256xf32> loc(#loc1)
    %c64_i32 = arith.constant 64 : i32 loc(#loc1)
    %c16384_i32 = arith.constant 16384 : i32 loc(#loc1)
    %c256_i32 = arith.constant 256 : i32 loc(#loc1)
    %c1_i32 = arith.constant 1 : i32 loc(#loc1)
    %true = arith.constant true loc(#loc1)
    %c0_i32 = arith.constant 0 : i32 loc(#loc1)
    %0 = arith.cmpi sge, %arg5, %c0_i32 : i32 loc(#loc2)
    llvm.intr.assume %0 : i1 loc(#loc3)
    %1 = arith.cmpi sge, %arg6, %c0_i32 : i32 loc(#loc4)
    llvm.intr.assume %1 : i1 loc(#loc5)
    %2 = arith.cmpi sge, %arg7, %c0_i32 : i32 loc(#loc6)
    llvm.intr.assume %2 : i1 loc(#loc7)
    llvm.intr.assume %true : i1 loc(#loc8)
    %3 = arith.cmpi sge, %arg8, %c0_i32 : i32 loc(#loc9)
    llvm.intr.assume %3 : i1 loc(#loc10)
    %4 = arith.cmpi sge, %arg9, %c0_i32 : i32 loc(#loc11)
    llvm.intr.assume %4 : i1 loc(#loc12)
    %5 = arith.cmpi sge, %arg10, %c0_i32 : i32 loc(#loc13)
    llvm.intr.assume %5 : i1 loc(#loc14)
    llvm.intr.assume %true : i1 loc(#loc15)
    %6 = arith.cmpi sge, %arg17, %c0_i32 : i32 loc(#loc16)
    llvm.intr.assume %6 : i1 loc(#loc17)
    %7 = arith.cmpi sge, %arg18, %c0_i32 : i32 loc(#loc18)
    llvm.intr.assume %7 : i1 loc(#loc19)
    %8 = arith.cmpi sge, %arg19, %c0_i32 : i32 loc(#loc20)
    llvm.intr.assume %8 : i1 loc(#loc21)
    %9 = arith.cmpi sge, %arg20, %c0_i32 : i32 loc(#loc22)
    llvm.intr.assume %9 : i1 loc(#loc23)
    %10 = arith.cmpi sge, %arg11, %c0_i32 : i32 loc(#loc24)
    llvm.intr.assume %10 : i1 loc(#loc25)
    %11 = arith.cmpi sge, %arg12, %c0_i32 : i32 loc(#loc26)
    llvm.intr.assume %11 : i1 loc(#loc27)
    %12 = arith.cmpi sge, %arg13, %c0_i32 : i32 loc(#loc28)
    llvm.intr.assume %12 : i1 loc(#loc29)
    llvm.intr.assume %true : i1 loc(#loc30)
    %13 = arith.cmpi sge, %arg14, %c0_i32 : i32 loc(#loc31)
    llvm.intr.assume %13 : i1 loc(#loc32)
    %14 = arith.cmpi sge, %arg15, %c0_i32 : i32 loc(#loc33)
    llvm.intr.assume %14 : i1 loc(#loc34)
    %15 = arith.cmpi sge, %arg16, %c0_i32 : i32 loc(#loc35)
    llvm.intr.assume %15 : i1 loc(#loc36)
    llvm.intr.assume %true : i1 loc(#loc37)
    %16 = tt.get_program_id x : i32 loc(#loc38)
    %17 = arith.remsi %16, %c8_i32 : i32 loc(#loc154)
    %18 = arith.divsi %16, %c8_i32 : i32 loc(#loc155)
    %19 = arith.cmpi slt, %17, %c8_i32 : i32 loc(#loc156)
    %20 = scf.if %19 -> (i32) {
      %94 = arith.muli %17, %c8_i32 : i32 loc(#loc158)
      %95 = arith.addi %94, %18 : i32 loc(#loc159)
      scf.yield %95 : i32 loc(#loc159)
    } else {
      %94 = arith.subi %17, %c8_i32 : i32 loc(#loc160)
      %95 = arith.muli %94, %c7_i32 : i32 loc(#loc161)
      %96 = arith.addi %95, %c64_i32 : i32 loc(#loc162)
      %97 = arith.addi %96, %18 : i32 loc(#loc163)
      scf.yield %97 : i32 loc(#loc163)
    } loc(#loc157)
    %21 = tt.get_program_id y : i32 loc(#loc50)
    %22 = tt.get_program_id z : i32 loc(#loc51)
    %23 = arith.muli %21, %c256_i32 : i32 loc(#loc52)
    %24 = tt.make_range {end = 256 : i32, start = 0 : i32} : tensor<256xi32> loc(#loc53)
    %25 = tt.splat %23 : i32 -> tensor<256xi32> loc(#loc54)
    %26 = arith.addi %25, %24 : tensor<256xi32> loc(#loc54)
    %27 = tt.make_range {end = 64 : i32, start = 0 : i32} : tensor<64xi32> loc(#loc55)
    %28 = tt.make_range {end = 128 : i32, start = 0 : i32} : tensor<128xi32> loc(#loc56)
    %29 = arith.muli %22, %arg5 : i32 loc(#loc57)
    %30 = tt.addptr %arg0, %29 : !tt.ptr<f16>, i32 loc(#loc58)
    %31 = arith.muli %20, %arg6 : i32 loc(#loc59)
    %32 = tt.addptr %30, %31 : !tt.ptr<f16>, i32 loc(#loc60)
    %33 = tt.expand_dims %26 {axis = 1 : i32} : tensor<256xi32> -> tensor<256x1xi32> loc(#loc61)
    %34 = tt.splat %arg7 : i32 -> tensor<256x1xi32> loc(#loc62)
    %35 = arith.muli %33, %34 : tensor<256x1xi32> loc(#loc62)
    %36 = tt.splat %32 : !tt.ptr<f16> -> tensor<256x1x!tt.ptr<f16>> loc(#loc63)
    %37 = tt.addptr %36, %35 : tensor<256x1x!tt.ptr<f16>>, tensor<256x1xi32> loc(#loc63)
    %38 = tt.expand_dims %28 {axis = 0 : i32} : tensor<128xi32> -> tensor<1x128xi32> loc(#loc64)
    %39 = tt.broadcast %37 : tensor<256x1x!tt.ptr<f16>> -> tensor<256x128x!tt.ptr<f16>> loc(#loc65)
    %40 = tt.broadcast %38 : tensor<1x128xi32> -> tensor<256x128xi32> loc(#loc65)
    %41 = tt.addptr %39, %40 : tensor<256x128x!tt.ptr<f16>>, tensor<256x128xi32> loc(#loc65)
    %42 = arith.muli %22, %arg8 : i32 loc(#loc66)
    %43 = tt.addptr %arg1, %42 : !tt.ptr<f16>, i32 loc(#loc67)
    %44 = arith.muli %20, %arg9 : i32 loc(#loc68)
    %45 = tt.addptr %43, %44 : !tt.ptr<f16>, i32 loc(#loc69)
    %46 = tt.expand_dims %28 {axis = 1 : i32} : tensor<128xi32> -> tensor<128x1xi32> loc(#loc70)
    %47 = tt.splat %45 : !tt.ptr<f16> -> tensor<128x1x!tt.ptr<f16>> loc(#loc71)
    %48 = tt.addptr %47, %46 : tensor<128x1x!tt.ptr<f16>>, tensor<128x1xi32> loc(#loc71)
    %49 = tt.expand_dims %27 {axis = 0 : i32} : tensor<64xi32> -> tensor<1x64xi32> loc(#loc72)
    %50 = tt.splat %arg10 : i32 -> tensor<1x64xi32> loc(#loc73)
    %51 = arith.muli %49, %50 : tensor<1x64xi32> loc(#loc73)
    %52 = tt.broadcast %48 : tensor<128x1x!tt.ptr<f16>> -> tensor<128x64x!tt.ptr<f16>> loc(#loc74)
    %53 = tt.broadcast %51 : tensor<1x64xi32> -> tensor<128x64xi32> loc(#loc74)
    %54 = tt.addptr %52, %53 : tensor<128x64x!tt.ptr<f16>>, tensor<128x64xi32> loc(#loc74)
    %55 = arith.muli %22, %arg11 : i32 loc(#loc75)
    %56 = tt.addptr %arg2, %55 : !tt.ptr<f16>, i32 loc(#loc76)
    %57 = arith.muli %20, %arg12 : i32 loc(#loc77)
    %58 = tt.addptr %56, %57 : !tt.ptr<f16>, i32 loc(#loc78)
    %59 = tt.expand_dims %27 {axis = 1 : i32} : tensor<64xi32> -> tensor<64x1xi32> loc(#loc79)
    %60 = tt.splat %arg13 : i32 -> tensor<64x1xi32> loc(#loc80)
    %61 = arith.muli %59, %60 : tensor<64x1xi32> loc(#loc80)
    %62 = tt.splat %58 : !tt.ptr<f16> -> tensor<64x1x!tt.ptr<f16>> loc(#loc81)
    %63 = tt.addptr %62, %61 : tensor<64x1x!tt.ptr<f16>>, tensor<64x1xi32> loc(#loc81)
    %64 = tt.broadcast %63 : tensor<64x1x!tt.ptr<f16>> -> tensor<64x128x!tt.ptr<f16>> loc(#loc82)
    %65 = tt.broadcast %38 : tensor<1x128xi32> -> tensor<64x128xi32> loc(#loc82)
    %66 = tt.addptr %64, %65 : tensor<64x128x!tt.ptr<f16>>, tensor<64x128xi32> loc(#loc82)
    %67 = arith.cmpi slt, %33, %cst_6 : tensor<256x1xi32> loc(#loc83)
    %68 = tt.broadcast %67 : tensor<256x1xi1> -> tensor<256x128xi1> loc(#loc84)
    %69 = arith.muli %arg10, %c64_i32 : i32 loc(#loc164)
    %70 = tt.splat %69 : i32 -> tensor<128x64xi32> loc(#loc165)
    %71 = arith.muli %arg13, %c64_i32 : i32 loc(#loc166)
    %72 = tt.splat %71 : i32 -> tensor<64x128xi32> loc(#loc167)
    %73 = arith.addi %21, %c1_i32 : i32 loc(#loc90)
    %74 = arith.muli %73, %c256_i32 : i32 loc(#loc91)
    %75 = arith.muli %22, %c1048576_i32 : i32 loc(#loc92)
    %76 = tt.addptr %arg3, %75 : !tt.ptr<f32>, i32 loc(#loc93)
    %77 = arith.muli %20, %c16384_i32 : i32 loc(#loc94)
    %78 = tt.addptr %76, %77 : !tt.ptr<f32>, i32 loc(#loc95)
    %79 = tt.splat %78 : !tt.ptr<f32> -> tensor<256x!tt.ptr<f32>> loc(#loc96)
    %80 = tt.addptr %79, %26 : tensor<256x!tt.ptr<f32>>, tensor<256xi32> loc(#loc96)
    %81 = arith.subi %74, %c16384_i32 : i32 loc(#loc97)
    %82 = arith.cmpi sgt, %81, %c0_i32 : i32 loc(#loc98)
    %83 = arith.muli %22, %arg14 : i32 loc(#loc99)
    %84 = tt.addptr %arg4, %83 : !tt.ptr<f16>, i32 loc(#loc100)
    %85 = arith.muli %20, %arg15 : i32 loc(#loc101)
    %86 = tt.addptr %84, %85 : !tt.ptr<f16>, i32 loc(#loc102)
    %87 = tt.splat %arg16 : i32 -> tensor<256x1xi32> loc(#loc103)
    %88 = arith.muli %33, %87 : tensor<256x1xi32> loc(#loc103)
    %89 = tt.splat %86 : !tt.ptr<f16> -> tensor<256x1x!tt.ptr<f16>> loc(#loc104)
    %90 = tt.addptr %89, %88 : tensor<256x1x!tt.ptr<f16>>, tensor<256x1xi32> loc(#loc104)
    %91 = tt.broadcast %90 : tensor<256x1x!tt.ptr<f16>> -> tensor<256x128x!tt.ptr<f16>> loc(#loc105)
    %92 = tt.addptr %91, %40 : tensor<256x128x!tt.ptr<f16>>, tensor<256x128xi32> loc(#loc105)
    %93 = scf.if %82 -> (tensor<256x128xi1>) {
      scf.yield %68 : tensor<256x128xi1> loc(#loc107)
    } else {
      scf.yield %cst_4 : tensor<256x128xi1> loc(#loc1)
    } loc(#loc106)
    scf.while (%arg27 = %c0_i32) : (i32) -> () {
      %94 = arith.cmpi slt, %arg27, %c1_i32 : i32 loc(#loc109)
      scf.condition(%94) loc(#loc109)
    } do {
      %94 = tt.load %41, %68, %cst_3 : tensor<256x128x!tt.ptr<f16>> loc(#loc84)
      %95:5 = scf.for %arg27 = %c0_i32 to %c16384_i32 step %c64_i32 iter_args(%arg28 = %cst_2, %arg29 = %cst_7, %arg30 = %cst_8, %arg31 = %54, %arg32 = %66) -> (tensor<256x128xf32>, tensor<256xf32>, tensor<256xf32>, tensor<128x64x!tt.ptr<f16>>, tensor<64x128x!tt.ptr<f16>>)  : i32 {
        %101 = tt.load %arg31 : tensor<128x64x!tt.ptr<f16>> loc(#loc190)
        %102 = tt.dot %94, %101, %cst : tensor<256x128xf16> * tensor<128x64xf16> -> tensor<256x64xf32> loc(#loc170)
        %103 = "tt.reduce"(%102) <{axis = 1 : i32}> ({
        ^bb0(%arg33: f32 loc(callsite(#loc1 at #loc171)), %arg34: f32 loc(callsite(#loc1 at #loc171))):
          %125 = arith.maxnumf %arg33, %arg34 : f32 loc(#loc196)
          tt.reduce.return %125 : f32 loc(#loc191)
        }) : (tensor<256x64xf32>) -> tensor<256xf32> loc(#loc191)
        %104 = arith.maxnumf %arg30, %103 : tensor<256xf32> loc(#loc172)
        %105 = arith.mulf %104, %cst_0 : tensor<256xf32> loc(#loc173)
        %106 = arith.mulf %102, %cst_1 : tensor<256x64xf32> loc(#loc174)
        %107 = tt.expand_dims %105 {axis = 1 : i32} : tensor<256xf32> -> tensor<256x1xf32> loc(#loc175)
        %108 = tt.broadcast %107 : tensor<256x1xf32> -> tensor<256x64xf32> loc(#loc176)
        %109 = arith.subf %106, %108 : tensor<256x64xf32> loc(#loc176)
        %110 = math.exp2 %109 : tensor<256x64xf32> loc(#loc177)
        %111 = "tt.reduce"(%110) <{axis = 1 : i32}> ({
        ^bb0(%arg33: f32 loc(callsite(#loc1 at #loc178)), %arg34: f32 loc(callsite(#loc1 at #loc178))):
          %125 = arith.addf %arg33, %arg34 : f32 loc(#loc197)
          tt.reduce.return %125 : f32 loc(#loc193)
        }) : (tensor<256x64xf32>) -> tensor<256xf32> loc(#loc193)
        %112 = arith.mulf %arg30, %cst_0 : tensor<256xf32> loc(#loc179)
        %113 = arith.subf %112, %105 : tensor<256xf32> loc(#loc180)
        %114 = math.exp2 %113 : tensor<256xf32> loc(#loc181)
        %115 = tt.expand_dims %114 {axis = 1 : i32} : tensor<256xf32> -> tensor<256x1xf32> loc(#loc182)
        %116 = tt.broadcast %115 : tensor<256x1xf32> -> tensor<256x128xf32> loc(#loc183)
        %117 = arith.mulf %arg28, %116 : tensor<256x128xf32> loc(#loc183)
        %118 = tt.load %arg32 : tensor<64x128x!tt.ptr<f16>> loc(#loc195)
        %119 = arith.mulf %arg29, %114 : tensor<256xf32> loc(#loc185)
        %120 = arith.addf %119, %111 : tensor<256xf32> loc(#loc186)
        %121 = arith.truncf %110 : tensor<256x64xf32> to tensor<256x64xf16> loc(#loc187)
        %122 = tt.dot %121, %118, %117 : tensor<256x64xf16> * tensor<64x128xf16> -> tensor<256x128xf32> loc(#loc188)
        %123 = tt.addptr %arg31, %70 : tensor<128x64x!tt.ptr<f16>>, tensor<128x64xi32> loc(#loc165)
        %124 = tt.addptr %arg32, %72 : tensor<64x128x!tt.ptr<f16>>, tensor<64x128xi32> loc(#loc167)
        scf.yield %122, %120, %104, %123, %124 : tensor<256x128xf32>, tensor<256xf32>, tensor<256xf32>, tensor<128x64x!tt.ptr<f16>>, tensor<64x128x!tt.ptr<f16>> loc(#loc189)
      } loc(#loc168)
      gpu.barrier loc(#loc137)
      %96 = tt.expand_dims %95#1 {axis = 1 : i32} : tensor<256xf32> -> tensor<256x1xf32> loc(#loc138)
      %97 = arith.divf %cst_5, %96 : tensor<256x1xf32> loc(#loc139)
      %98 = tt.broadcast %97 : tensor<256x1xf32> -> tensor<256x128xf32> loc(#loc140)
      %99 = arith.mulf %95#0, %98 : tensor<256x128xf32> loc(#loc140)
      %100 = arith.truncf %99 : tensor<256x128xf32> to tensor<256x128xf16> loc(#loc141)
      scf.if %82 {
        %101 = arith.subi %c16640_i32, %74 : i32 loc(#loc143)
        %102 = tt.splat %101 : i32 -> tensor<256xi32> loc(#loc144)
        %103 = arith.cmpi slt, %24, %102 : tensor<256xi32> loc(#loc145)
        %104 = math.log2 %95#1 : tensor<256xf32> loc(#loc146)
        %105 = arith.addf %95#2, %104 : tensor<256xf32> loc(#loc147)
        tt.store %80, %105, %103 : tensor<256x!tt.ptr<f32>> loc(#loc148)
      } else {
        %101 = math.log2 %95#1 : tensor<256xf32> loc(#loc149)
        %102 = arith.addf %95#2, %101 : tensor<256xf32> loc(#loc150)
        tt.store %80, %102 : tensor<256x!tt.ptr<f32>> loc(#loc151)
      } loc(#loc142)
      tt.store %92, %100, %93 : tensor<256x128x!tt.ptr<f16>> loc(#loc152)
      scf.yield %c1_i32 : i32 loc(#loc153)
    } loc(#loc108)
    tt.return loc(#loc108)
  } loc(#loc)
} loc(#loc)
#loc2 = loc("/home/mejiang/w1/test/triton/fa/flash-attention.py":477:27)
#loc3 = loc("/home/mejiang/w1/test/triton/fa/flash-attention.py":477:14)
#loc4 = loc("/home/mejiang/w1/test/triton/fa/flash-attention.py":478:27)
#loc5 = loc("/home/mejiang/w1/test/triton/fa/flash-attention.py":478:14)
#loc6 = loc("/home/mejiang/w1/test/triton/fa/flash-attention.py":479:27)
#loc7 = loc("/home/mejiang/w1/test/triton/fa/flash-attention.py":479:14)
#loc8 = loc("/home/mejiang/w1/test/triton/fa/flash-attention.py":480:14)
#loc9 = loc("/home/mejiang/w1/test/triton/fa/flash-attention.py":481:27)
#loc10 = loc("/home/mejiang/w1/test/triton/fa/flash-attention.py":481:14)
#loc11 = loc("/home/mejiang/w1/test/triton/fa/flash-attention.py":482:27)
#loc12 = loc("/home/mejiang/w1/test/triton/fa/flash-attention.py":482:14)
#loc13 = loc("/home/mejiang/w1/test/triton/fa/flash-attention.py":483:27)
#loc14 = loc("/home/mejiang/w1/test/triton/fa/flash-attention.py":483:14)
#loc15 = loc("/home/mejiang/w1/test/triton/fa/flash-attention.py":484:14)
#loc16 = loc("/home/mejiang/w1/test/triton/fa/flash-attention.py":485:27)
#loc17 = loc("/home/mejiang/w1/test/triton/fa/flash-attention.py":485:14)
#loc18 = loc("/home/mejiang/w1/test/triton/fa/flash-attention.py":486:27)
#loc19 = loc("/home/mejiang/w1/test/triton/fa/flash-attention.py":486:14)
#loc20 = loc("/home/mejiang/w1/test/triton/fa/flash-attention.py":487:27)
#loc21 = loc("/home/mejiang/w1/test/triton/fa/flash-attention.py":487:14)
#loc22 = loc("/home/mejiang/w1/test/triton/fa/flash-attention.py":488:27)
#loc23 = loc("/home/mejiang/w1/test/triton/fa/flash-attention.py":488:14)
#loc24 = loc("/home/mejiang/w1/test/triton/fa/flash-attention.py":489:27)
#loc25 = loc("/home/mejiang/w1/test/triton/fa/flash-attention.py":489:14)
#loc26 = loc("/home/mejiang/w1/test/triton/fa/flash-attention.py":490:27)
#loc27 = loc("/home/mejiang/w1/test/triton/fa/flash-attention.py":490:14)
#loc28 = loc("/home/mejiang/w1/test/triton/fa/flash-attention.py":491:27)
#loc29 = loc("/home/mejiang/w1/test/triton/fa/flash-attention.py":491:14)
#loc30 = loc("/home/mejiang/w1/test/triton/fa/flash-attention.py":492:14)
#loc31 = loc("/home/mejiang/w1/test/triton/fa/flash-attention.py":493:27)
#loc32 = loc("/home/mejiang/w1/test/triton/fa/flash-attention.py":493:14)
#loc33 = loc("/home/mejiang/w1/test/triton/fa/flash-attention.py":494:27)
#loc34 = loc("/home/mejiang/w1/test/triton/fa/flash-attention.py":494:14)
#loc35 = loc("/home/mejiang/w1/test/triton/fa/flash-attention.py":495:27)
#loc36 = loc("/home/mejiang/w1/test/triton/fa/flash-attention.py":495:14)
#loc37 = loc("/home/mejiang/w1/test/triton/fa/flash-attention.py":496:14)
#loc38 = loc("/home/mejiang/w1/test/triton/fa/flash-attention.py":520:36)
#loc39 = loc("/home/mejiang/w1/test/triton/fa/flash-attention.py":45:16)
#loc40 = loc("/home/mejiang/w1/test/triton/fa/flash-attention.py":521:41)
#loc41 = loc("/home/mejiang/w1/test/triton/fa/flash-attention.py":46:23)
#loc42 = loc("/home/mejiang/w1/test/triton/fa/flash-attention.py":51:13)
#loc43 = loc("/home/mejiang/w1/test/triton/fa/flash-attention.py":51:7)
#loc44 = loc("/home/mejiang/w1/test/triton/fa/flash-attention.py":52:20)
#loc45 = loc("/home/mejiang/w1/test/triton/fa/flash-attention.py":52:35)
#loc46 = loc("/home/mejiang/w1/test/triton/fa/flash-attention.py":56:21)
#loc47 = loc("/home/mejiang/w1/test/triton/fa/flash-attention.py":56:35)
#loc48 = loc("/home/mejiang/w1/test/triton/fa/flash-attention.py":56:14)
#loc49 = loc("/home/mejiang/w1/test/triton/fa/flash-attention.py":57:14)
#loc50 = loc("/home/mejiang/w1/test/triton/fa/flash-attention.py":522:36)
#loc51 = loc("/home/mejiang/w1/test/triton/fa/flash-attention.py":523:34)
#loc52 = loc("/home/mejiang/w1/test/triton/fa/flash-attention.py":525:27)
#loc53 = loc("/home/mejiang/w1/test/triton/fa/flash-attention.py":525:50)
#loc54 = loc("/home/mejiang/w1/test/triton/fa/flash-attention.py":525:37)
#loc55 = loc("/home/mejiang/w1/test/triton/fa/flash-attention.py":526:30)
#loc56 = loc("/home/mejiang/w1/test/triton/fa/flash-attention.py":527:30)
#loc57 = loc("/home/mejiang/w1/test/triton/fa/flash-attention.py":604:39)
#loc58 = loc("/home/mejiang/w1/test/triton/fa/flash-attention.py":604:31)
#loc59 = loc("/home/mejiang/w1/test/triton/fa/flash-attention.py":604:61)
#loc60 = loc("/home/mejiang/w1/test/triton/fa/flash-attention.py":604:51)
#loc61 = loc("/home/mejiang/w1/test/triton/fa/flash-attention.py":605:43)
#loc62 = loc("/home/mejiang/w1/test/triton/fa/flash-attention.py":605:54)
#loc63 = loc("/home/mejiang/w1/test/triton/fa/flash-attention.py":605:36)
#loc64 = loc("/home/mejiang/w1/test/triton/fa/flash-attention.py":605:73)
#loc65 = loc("/home/mejiang/w1/test/triton/fa/flash-attention.py":605:66)
#loc66 = loc("/home/mejiang/w1/test/triton/fa/flash-attention.py":606:39)
#loc67 = loc("/home/mejiang/w1/test/triton/fa/flash-attention.py":606:31)
#loc68 = loc("/home/mejiang/w1/test/triton/fa/flash-attention.py":606:61)
#loc69 = loc("/home/mejiang/w1/test/triton/fa/flash-attention.py":606:51)
#loc70 = loc("/home/mejiang/w1/test/triton/fa/flash-attention.py":607:43)
#loc71 = loc("/home/mejiang/w1/test/triton/fa/flash-attention.py":607:36)
#loc72 = loc("/home/mejiang/w1/test/triton/fa/flash-attention.py":607:73)
#loc73 = loc("/home/mejiang/w1/test/triton/fa/flash-attention.py":607:84)
#loc74 = loc("/home/mejiang/w1/test/triton/fa/flash-attention.py":607:66)
#loc75 = loc("/home/mejiang/w1/test/triton/fa/flash-attention.py":608:39)
#loc76 = loc("/home/mejiang/w1/test/triton/fa/flash-attention.py":608:31)
#loc77 = loc("/home/mejiang/w1/test/triton/fa/flash-attention.py":608:61)
#loc78 = loc("/home/mejiang/w1/test/triton/fa/flash-attention.py":608:51)
#loc79 = loc("/home/mejiang/w1/test/triton/fa/flash-attention.py":609:43)
#loc80 = loc("/home/mejiang/w1/test/triton/fa/flash-attention.py":609:54)
#loc81 = loc("/home/mejiang/w1/test/triton/fa/flash-attention.py":609:36)
#loc82 = loc("/home/mejiang/w1/test/triton/fa/flash-attention.py":609:66)
#loc83 = loc("/home/mejiang/w1/test/triton/fa/flash-attention.py":655:48)
#loc84 = loc("/home/mejiang/w1/test/triton/fa/flash-attention.py":658:28)
#loc85 = loc("/home/mejiang/w1/test/triton/fa/flash-attention.py":372:28)
#loc87 = loc("/home/mejiang/w1/test/triton/fa/flash-attention.py":372:18)
#loc88 = loc("/home/mejiang/w1/test/triton/fa/flash-attention.py":373:28)
#loc89 = loc("/home/mejiang/w1/test/triton/fa/flash-attention.py":373:18)
#loc90 = loc("/home/mejiang/w1/test/triton/fa/flash-attention.py":752:39)
#loc91 = loc("/home/mejiang/w1/test/triton/fa/flash-attention.py":752:44)
#loc92 = loc("/home/mejiang/w1/test/triton/fa/flash-attention.py":764:42)
#loc93 = loc("/home/mejiang/w1/test/triton/fa/flash-attention.py":764:29)
#loc94 = loc("/home/mejiang/w1/test/triton/fa/flash-attention.py":764:68)
#loc95 = loc("/home/mejiang/w1/test/triton/fa/flash-attention.py":764:58)
#loc96 = loc("/home/mejiang/w1/test/triton/fa/flash-attention.py":764:84)
#loc97 = loc("/home/mejiang/w1/test/triton/fa/flash-attention.py":767:44)
#loc98 = loc("/home/mejiang/w1/test/triton/fa/flash-attention.py":768:35)
#loc99 = loc("/home/mejiang/w1/test/triton/fa/flash-attention.py":776:41)
#loc100 = loc("/home/mejiang/w1/test/triton/fa/flash-attention.py":776:33)
#loc101 = loc("/home/mejiang/w1/test/triton/fa/flash-attention.py":776:63)
#loc102 = loc("/home/mejiang/w1/test/triton/fa/flash-attention.py":776:53)
#loc103 = loc("/home/mejiang/w1/test/triton/fa/flash-attention.py":777:54)
#loc104 = loc("/home/mejiang/w1/test/triton/fa/flash-attention.py":777:36)
#loc105 = loc("/home/mejiang/w1/test/triton/fa/flash-attention.py":777:66)
#loc106 = loc("/home/mejiang/w1/test/triton/fa/flash-attention.py":779:19)
#loc107 = loc("/home/mejiang/w1/test/triton/fa/flash-attention.py":780:49)
#loc108 = loc("/home/mejiang/w1/test/triton/fa/flash-attention.py":511:4)
#loc109 = loc("/home/mejiang/w1/test/triton/fa/flash-attention.py":511:20)
#loc110 = loc("/home/mejiang/w1/test/triton/fa/flash-attention.py":278:59)
#loc111 = loc("/home/mejiang/w1/test/triton/fa/flash-attention.py":213:25)
#loc112 = loc("/home/mejiang/w1/test/triton/fa/flash-attention.py":286:69)
#loc113 = loc("/home/mejiang/w1/test/triton/fa/flash-attention.py":315:28)
#loc114 = loc("/opt/venv/lib/python3.10/site-packages/triton/language/standard.py":188:40)
#loc116 = loc("/opt/venv/lib/python3.10/site-packages/triton/language/standard.py":167:27)
#loc117 = loc("/home/mejiang/w1/test/triton/fa/flash-attention.py":334:31)
#loc118 = loc("/home/mejiang/w1/test/triton/fa/flash-attention.py":335:29)
#loc119 = loc("/home/mejiang/w1/test/triton/fa/flash-attention.py":336:18)
#loc120 = loc("/home/mejiang/w1/test/triton/fa/flash-attention.py":336:41)
#loc121 = loc("/home/mejiang/w1/test/triton/fa/flash-attention.py":336:29)
#loc122 = loc("/home/mejiang/w1/test/triton/fa/flash-attention.py":337:25)
#loc123 = loc("/opt/venv/lib/python3.10/site-packages/triton/language/standard.py":290:36)
#loc125 = loc("/opt/venv/lib/python3.10/site-packages/triton/language/standard.py":260:15)
#loc126 = loc("/home/mejiang/w1/test/triton/fa/flash-attention.py":350:35)
#loc127 = loc("/home/mejiang/w1/test/triton/fa/flash-attention.py":350:46)
#loc128 = loc("/home/mejiang/w1/test/triton/fa/flash-attention.py":350:29)
#loc129 = loc("/home/mejiang/w1/test/triton/fa/flash-attention.py":351:26)
#loc130 = loc("/home/mejiang/w1/test/triton/fa/flash-attention.py":351:20)
#loc131 = loc("/home/mejiang/w1/test/triton/fa/flash-attention.py":353:69)
#loc132 = loc("/home/mejiang/w1/test/triton/fa/flash-attention.py":355:20)
#loc133 = loc("/home/mejiang/w1/test/triton/fa/flash-attention.py":355:28)
#loc134 = loc("/home/mejiang/w1/test/triton/fa/flash-attention.py":370:31)
#loc135 = loc("/home/mejiang/w1/test/triton/fa/flash-attention.py":370:51)
#loc136 = loc("/home/mejiang/w1/test/triton/fa/flash-attention.py":376:8)
#loc137 = loc("/home/mejiang/w1/test/triton/fa/flash-attention.py":714:16)
#loc138 = loc("/home/mejiang/w1/test/triton/fa/flash-attention.py":743:34)
#loc139 = loc("/home/mejiang/w1/test/triton/fa/flash-attention.py":743:30)
#loc140 = loc("/home/mejiang/w1/test/triton/fa/flash-attention.py":744:28)
#loc141 = loc("/home/mejiang/w1/test/triton/fa/flash-attention.py":755:29)
#loc142 = loc("/home/mejiang/w1/test/triton/fa/flash-attention.py":768:19)
#loc143 = loc("/home/mejiang/w1/test/triton/fa/flash-attention.py":769:62)
#loc144 = loc("/home/mejiang/w1/test/triton/fa/flash-attention.py":769:52)
#loc145 = loc("/home/mejiang/w1/test/triton/fa/flash-attention.py":770:58)
#loc146 = loc("/home/mejiang/w1/test/triton/fa/flash-attention.py":771:56)
#loc147 = loc("/home/mejiang/w1/test/triton/fa/flash-attention.py":771:43)
#loc148 = loc("/home/mejiang/w1/test/triton/fa/flash-attention.py":771:37)
#loc149 = loc("/home/mejiang/w1/test/triton/fa/flash-attention.py":773:56)
#loc150 = loc("/home/mejiang/w1/test/triton/fa/flash-attention.py":773:43)
#loc151 = loc("/home/mejiang/w1/test/triton/fa/flash-attention.py":773:37)
#loc152 = loc("/home/mejiang/w1/test/triton/fa/flash-attention.py":783:33)
#loc153 = loc("/home/mejiang/w1/test/triton/fa/flash-attention.py":785:8)
#loc154 = loc(callsite(#loc39 at #loc40))
#loc155 = loc(callsite(#loc41 at #loc40))
#loc156 = loc(callsite(#loc42 at #loc40))
#loc157 = loc(callsite(#loc43 at #loc40))
#loc158 = loc(callsite(#loc44 at #loc40))
#loc159 = loc(callsite(#loc45 at #loc40))
#loc160 = loc(callsite(#loc46 at #loc40))
#loc161 = loc(callsite(#loc47 at #loc40))
#loc162 = loc(callsite(#loc48 at #loc40))
#loc163 = loc(callsite(#loc49 at #loc40))
#loc164 = loc(callsite(#loc85 at #loc86))
#loc165 = loc(callsite(#loc87 at #loc86))
#loc166 = loc(callsite(#loc88 at #loc86))
#loc167 = loc(callsite(#loc89 at #loc86))
#loc168 = loc(callsite(#loc110 at #loc86))
#loc169 = loc(callsite(#loc112 at #loc86))
#loc170 = loc(callsite(#loc113 at #loc86))
#loc172 = loc(callsite(#loc117 at #loc86))
#loc173 = loc(callsite(#loc118 at #loc86))
#loc174 = loc(callsite(#loc119 at #loc86))
#loc175 = loc(callsite(#loc120 at #loc86))
#loc176 = loc(callsite(#loc121 at #loc86))
#loc177 = loc(callsite(#loc122 at #loc86))
#loc179 = loc(callsite(#loc126 at #loc86))
#loc180 = loc(callsite(#loc127 at #loc86))
#loc181 = loc(callsite(#loc128 at #loc86))
#loc182 = loc(callsite(#loc129 at #loc86))
#loc183 = loc(callsite(#loc130 at #loc86))
#loc184 = loc(callsite(#loc131 at #loc86))
#loc185 = loc(callsite(#loc132 at #loc86))
#loc186 = loc(callsite(#loc133 at #loc86))
#loc187 = loc(callsite(#loc134 at #loc86))
#loc188 = loc(callsite(#loc135 at #loc86))
#loc189 = loc(callsite(#loc136 at #loc86))
#loc190 = loc(callsite(#loc111 at #loc169))
#loc191 = loc(callsite(#loc114 at #loc171))
#loc193 = loc(callsite(#loc123 at #loc178))
#loc195 = loc(callsite(#loc111 at #loc184))
#loc196 = loc(callsite(#loc116 at #loc191))
#loc197 = loc(callsite(#loc125 at #loc193))
