#loc = loc("/home/mejiang/w1/test/triton/fa/flash-attention.py":465:0)
#loc41 = loc(unknown)
#loc182 = loc("/home/mejiang/w1/test/triton/fa/flash-attention.py":34:0)
#loc202 = loc("/home/mejiang/w1/test/triton/fa/flash-attention.py":168:0)
#loc212 = loc("/home/mejiang/w1/test/triton/fa/flash-attention.py":267:0)
#loc244 = loc("/home/mejiang/w1/test/triton/fa/flash-attention.py":201:0)
#loc248 = loc("/opt/venv/lib/python3.10/site-packages/triton/language/standard.py":174:0)
#loc252 = loc("/opt/venv/lib/python3.10/site-packages/triton/language/standard.py":166:0)
#loc256 = loc("/opt/venv/lib/python3.10/site-packages/triton/language/standard.py":284:0)
#loc260 = loc("/opt/venv/lib/python3.10/site-packages/triton/language/standard.py":259:0)
module {
  tt.func public @attn_fwd(%arg0: !tt.ptr<f16> {tt.divisibility = 16 : i32} loc("/home/mejiang/w1/test/triton/fa/flash-attention.py":465:0), %arg1: !tt.ptr<f16> {tt.divisibility = 16 : i32} loc("/home/mejiang/w1/test/triton/fa/flash-attention.py":465:0), %arg2: !tt.ptr<f16> {tt.divisibility = 16 : i32} loc("/home/mejiang/w1/test/triton/fa/flash-attention.py":465:0), %arg3: !tt.ptr<f32> {tt.divisibility = 16 : i32} loc("/home/mejiang/w1/test/triton/fa/flash-attention.py":465:0), %arg4: !tt.ptr<f16> {tt.divisibility = 16 : i32} loc("/home/mejiang/w1/test/triton/fa/flash-attention.py":465:0), %arg5: i32 {tt.divisibility = 16 : i32} loc("/home/mejiang/w1/test/triton/fa/flash-attention.py":465:0), %arg6: i32 {tt.divisibility = 16 : i32} loc("/home/mejiang/w1/test/triton/fa/flash-attention.py":465:0), %arg7: i32 {tt.divisibility = 16 : i32} loc("/home/mejiang/w1/test/triton/fa/flash-attention.py":465:0), %arg8: i32 {tt.divisibility = 16 : i32} loc("/home/mejiang/w1/test/triton/fa/flash-attention.py":465:0), %arg9: i32 {tt.divisibility = 16 : i32} loc("/home/mejiang/w1/test/triton/fa/flash-attention.py":465:0), %arg10: i32 {tt.divisibility = 16 : i32} loc("/home/mejiang/w1/test/triton/fa/flash-attention.py":465:0), %arg11: i32 {tt.divisibility = 16 : i32} loc("/home/mejiang/w1/test/triton/fa/flash-attention.py":465:0), %arg12: i32 {tt.divisibility = 16 : i32} loc("/home/mejiang/w1/test/triton/fa/flash-attention.py":465:0), %arg13: i32 {tt.divisibility = 16 : i32} loc("/home/mejiang/w1/test/triton/fa/flash-attention.py":465:0), %arg14: i32 {tt.divisibility = 16 : i32} loc("/home/mejiang/w1/test/triton/fa/flash-attention.py":465:0), %arg15: i32 {tt.divisibility = 16 : i32} loc("/home/mejiang/w1/test/triton/fa/flash-attention.py":465:0), %arg16: i32 {tt.divisibility = 16 : i32} loc("/home/mejiang/w1/test/triton/fa/flash-attention.py":465:0), %arg17: i32 {tt.divisibility = 16 : i32} loc("/home/mejiang/w1/test/triton/fa/flash-attention.py":465:0), %arg18: i32 {tt.divisibility = 16 : i32} loc("/home/mejiang/w1/test/triton/fa/flash-attention.py":465:0), %arg19: i32 {tt.divisibility = 16 : i32} loc("/home/mejiang/w1/test/triton/fa/flash-attention.py":465:0), %arg20: i32 {tt.divisibility = 16 : i32} loc("/home/mejiang/w1/test/triton/fa/flash-attention.py":465:0), %arg21: i32 {tt.divisibility = 16 : i32} loc("/home/mejiang/w1/test/triton/fa/flash-attention.py":465:0), %arg22: i32 {tt.divisibility = 16 : i32} loc("/home/mejiang/w1/test/triton/fa/flash-attention.py":465:0), %arg23: f32 loc("/home/mejiang/w1/test/triton/fa/flash-attention.py":465:0), %arg24: i32 loc("/home/mejiang/w1/test/triton/fa/flash-attention.py":465:0), %arg25: !tt.ptr<i32> {tt.divisibility = 16 : i32} loc("/home/mejiang/w1/test/triton/fa/flash-attention.py":465:0), %arg26: i32 loc("/home/mejiang/w1/test/triton/fa/flash-attention.py":465:0)) attributes {noinline = false} {
    %c0_i32 = arith.constant 0 : i32 loc(#loc1)
    %0 = arith.cmpi sge, %arg5, %c0_i32 : i32 loc(#loc1)
    llvm.intr.assume %0 : i1 loc(#loc2)
    %c0_i32_0 = arith.constant 0 : i32 loc(#loc3)
    %1 = arith.cmpi sge, %arg6, %c0_i32_0 : i32 loc(#loc3)
    llvm.intr.assume %1 : i1 loc(#loc4)
    %c0_i32_1 = arith.constant 0 : i32 loc(#loc5)
    %2 = arith.cmpi sge, %arg7, %c0_i32_1 : i32 loc(#loc5)
    llvm.intr.assume %2 : i1 loc(#loc6)
    %true = arith.constant true loc(#loc7)
    llvm.intr.assume %true : i1 loc(#loc7)
    %c0_i32_2 = arith.constant 0 : i32 loc(#loc8)
    %3 = arith.cmpi sge, %arg8, %c0_i32_2 : i32 loc(#loc8)
    llvm.intr.assume %3 : i1 loc(#loc9)
    %c0_i32_3 = arith.constant 0 : i32 loc(#loc10)
    %4 = arith.cmpi sge, %arg9, %c0_i32_3 : i32 loc(#loc10)
    llvm.intr.assume %4 : i1 loc(#loc11)
    %c0_i32_4 = arith.constant 0 : i32 loc(#loc12)
    %5 = arith.cmpi sge, %arg10, %c0_i32_4 : i32 loc(#loc12)
    llvm.intr.assume %5 : i1 loc(#loc13)
    %true_5 = arith.constant true loc(#loc14)
    llvm.intr.assume %true_5 : i1 loc(#loc14)
    %c0_i32_6 = arith.constant 0 : i32 loc(#loc15)
    %6 = arith.cmpi sge, %arg17, %c0_i32_6 : i32 loc(#loc15)
    llvm.intr.assume %6 : i1 loc(#loc16)
    %c0_i32_7 = arith.constant 0 : i32 loc(#loc17)
    %7 = arith.cmpi sge, %arg18, %c0_i32_7 : i32 loc(#loc17)
    llvm.intr.assume %7 : i1 loc(#loc18)
    %c0_i32_8 = arith.constant 0 : i32 loc(#loc19)
    %8 = arith.cmpi sge, %arg19, %c0_i32_8 : i32 loc(#loc19)
    llvm.intr.assume %8 : i1 loc(#loc20)
    %c0_i32_9 = arith.constant 0 : i32 loc(#loc21)
    %9 = arith.cmpi sge, %arg20, %c0_i32_9 : i32 loc(#loc21)
    llvm.intr.assume %9 : i1 loc(#loc22)
    %c0_i32_10 = arith.constant 0 : i32 loc(#loc23)
    %10 = arith.cmpi sge, %arg11, %c0_i32_10 : i32 loc(#loc23)
    llvm.intr.assume %10 : i1 loc(#loc24)
    %c0_i32_11 = arith.constant 0 : i32 loc(#loc25)
    %11 = arith.cmpi sge, %arg12, %c0_i32_11 : i32 loc(#loc25)
    llvm.intr.assume %11 : i1 loc(#loc26)
    %c0_i32_12 = arith.constant 0 : i32 loc(#loc27)
    %12 = arith.cmpi sge, %arg13, %c0_i32_12 : i32 loc(#loc27)
    llvm.intr.assume %12 : i1 loc(#loc28)
    %true_13 = arith.constant true loc(#loc29)
    llvm.intr.assume %true_13 : i1 loc(#loc29)
    %c0_i32_14 = arith.constant 0 : i32 loc(#loc30)
    %13 = arith.cmpi sge, %arg14, %c0_i32_14 : i32 loc(#loc30)
    llvm.intr.assume %13 : i1 loc(#loc31)
    %c0_i32_15 = arith.constant 0 : i32 loc(#loc32)
    %14 = arith.cmpi sge, %arg15, %c0_i32_15 : i32 loc(#loc32)
    llvm.intr.assume %14 : i1 loc(#loc33)
    %c0_i32_16 = arith.constant 0 : i32 loc(#loc34)
    %15 = arith.cmpi sge, %arg16, %c0_i32_16 : i32 loc(#loc34)
    llvm.intr.assume %15 : i1 loc(#loc35)
    %true_17 = arith.constant true loc(#loc36)
    llvm.intr.assume %true_17 : i1 loc(#loc36)
    %c0_i32_18 = arith.constant 0 : i32 loc(#loc37)
    %c1_i32 = arith.constant 1 : i32 loc(#loc38)
    %16 = scf.while (%arg27 = %c0_i32_18) : (i32) -> i32 {
      %17 = arith.cmpi slt, %arg27, %c1_i32 : i32 loc(#loc40)
      scf.condition(%17) %arg27 : i32 loc(#loc40)
    } do {
    ^bb0(%arg27: i32 loc(unknown)):
      %17 = tt.get_program_id x : i32 loc(#loc42)
      %18 = tt.call @"__main__.remap_xcd__i32__(1,)cconstexpr_64__(2,)cconstexpr_8_"(%17) : (i32) -> i32 loc(#loc43)
      %19 = tt.get_program_id y : i32 loc(#loc44)
      %20 = tt.get_program_id z : i32 loc(#loc45)
      %c256_i32 = arith.constant 256 : i32 loc(#loc46)
      %c256_i32_19 = arith.constant 256 : i32 loc(#loc46)
      %21 = arith.extsi %19 : i32 to i64 loc(#loc46)
      %22 = arith.extsi %c256_i32_19 : i32 to i64 loc(#loc46)
      %23 = arith.muli %21, %22 : i64 loc(#loc46)
      %c2147483647_i64 = arith.constant 2147483647 : i64 loc(#loc46)
      %c-2147483648_i64 = arith.constant -2147483648 : i64 loc(#loc46)
      %24 = arith.cmpi sle, %23, %c2147483647_i64 : i64 loc(#loc46)
      %25 = arith.cmpi sge, %23, %c-2147483648_i64 : i64 loc(#loc46)
      %26 = arith.andi %24, %25 : i1 loc(#loc46)
      %27 = arith.muli %19, %c256_i32_19 : i32 loc(#loc46)
      %28 = tt.make_range {end = 256 : i32, start = 0 : i32} : tensor<256xi32> loc(#loc47)
      %29 = tt.splat %27 : i32 -> tensor<256xi32> loc(#loc48)
      %30 = arith.extsi %29 : tensor<256xi32> to tensor<256xi64> loc(#loc48)
      %31 = arith.extsi %28 : tensor<256xi32> to tensor<256xi64> loc(#loc48)
      %32 = arith.addi %30, %31 : tensor<256xi64> loc(#loc48)
      %c2147483647_i64_20 = arith.constant 2147483647 : i64 loc(#loc48)
      %c-2147483648_i64_21 = arith.constant -2147483648 : i64 loc(#loc48)
      %cst = arith.constant dense<2147483647> : tensor<256xi64> loc(#loc48)
      %33 = arith.cmpi sle, %32, %cst : tensor<256xi64> loc(#loc48)
      %cst_22 = arith.constant dense<-2147483648> : tensor<256xi64> loc(#loc48)
      %34 = arith.cmpi sge, %32, %cst_22 : tensor<256xi64> loc(#loc48)
      %35 = arith.andi %33, %34 : tensor<256xi1> loc(#loc48)
      %36 = arith.addi %29, %28 : tensor<256xi32> loc(#loc48)
      %37 = tt.make_range {end = 64 : i32, start = 0 : i32} : tensor<64xi32> loc(#loc49)
      %38 = tt.make_range {end = 128 : i32, start = 0 : i32} : tensor<128xi32> loc(#loc50)
      %true_23 = arith.constant true loc(#loc51)
      %c0_i32_24 = arith.constant 0 : i32 loc(#loc52)
      %c0_i32_25 = arith.constant 0 : i32 loc(#loc53)
      %c16384_i32 = arith.constant 16384 : i32 loc(#loc54)
      %c16384_i32_26 = arith.constant 16384 : i32 loc(#loc55)
      scf.if %true_23 {
        %39 = tt.call @"__main__.cdiv_fn__i32__(1,)cconstexpr_64_"(%c16384_i32_26) : (i32) -> i32 loc(#loc57)
        scf.if %true_23 {
          %c0_i32_27 = arith.constant 0 : i32 loc(#loc59)
          %c64_i32 = arith.constant 64 : i32 loc(#loc60)
          %40 = arith.cmpi slt, %c16384_i32_26, %c64_i32 : i32 loc(#loc60)
          %41 = scf.if %40 -> (i32) {
            %c64_i32_153 = arith.constant 64 : i32 loc(#loc62)
            %c64_i32_154 = arith.constant 64 : i32 loc(#loc62)
            %325 = arith.extsi %c64_i32_154 : i32 to i64 loc(#loc62)
            %326 = arith.extsi %c16384_i32_26 : i32 to i64 loc(#loc62)
            %327 = arith.subi %325, %326 : i64 loc(#loc62)
            %c2147483647_i64_155 = arith.constant 2147483647 : i64 loc(#loc62)
            %c-2147483648_i64_156 = arith.constant -2147483648 : i64 loc(#loc62)
            %328 = arith.cmpi sle, %327, %c2147483647_i64_155 : i64 loc(#loc62)
            %329 = arith.cmpi sge, %327, %c-2147483648_i64_156 : i64 loc(#loc62)
            %330 = arith.andi %328, %329 : i1 loc(#loc62)
            %331 = arith.subi %c64_i32_154, %c16384_i32_26 : i32 loc(#loc62)
            scf.yield %331 : i32 loc(#loc62)
          } else {
            %c64_i32_153 = arith.constant 64 : i32 loc(#loc63)
            %c64_i32_154 = arith.constant 64 : i32 loc(#loc63)
            %325 = arith.remsi %c16384_i32_26, %c64_i32_154 : i32 loc(#loc63)
            %c0_i32_155 = arith.constant 0 : i32 loc(#loc64)
            %326 = arith.cmpi ne, %325, %c0_i32_155 : i32 loc(#loc64)
            %327 = scf.if %326 -> (i32) {
              %c64_i32_156 = arith.constant 64 : i32 loc(#loc65)
              %c64_i32_157 = arith.constant 64 : i32 loc(#loc65)
              %328 = arith.remsi %c16384_i32_26, %c64_i32_157 : i32 loc(#loc65)
              scf.yield %328 : i32 loc(#loc65)
            } else {
              scf.yield %c0_i32_27 : i32 loc(#loc41)
            } loc(#loc64)
            scf.yield %327 : i32 loc(#loc64)
          } loc(#loc61)
          %42 = arith.extsi %20 : i32 to i64 loc(#loc66)
          %43 = arith.extsi %arg5 : i32 to i64 loc(#loc66)
          %44 = arith.muli %42, %43 : i64 loc(#loc66)
          %c2147483647_i64_28 = arith.constant 2147483647 : i64 loc(#loc66)
          %c-2147483648_i64_29 = arith.constant -2147483648 : i64 loc(#loc66)
          %45 = arith.cmpi sle, %44, %c2147483647_i64_28 : i64 loc(#loc66)
          %46 = arith.cmpi sge, %44, %c-2147483648_i64_29 : i64 loc(#loc66)
          %47 = arith.andi %45, %46 : i1 loc(#loc66)
          %48 = arith.muli %20, %arg5 : i32 loc(#loc66)
          %49 = tt.addptr %arg0, %48 : !tt.ptr<f16>, i32 loc(#loc67)
          %50 = arith.extsi %18 : i32 to i64 loc(#loc68)
          %51 = arith.extsi %arg6 : i32 to i64 loc(#loc68)
          %52 = arith.muli %50, %51 : i64 loc(#loc68)
          %c2147483647_i64_30 = arith.constant 2147483647 : i64 loc(#loc68)
          %c-2147483648_i64_31 = arith.constant -2147483648 : i64 loc(#loc68)
          %53 = arith.cmpi sle, %52, %c2147483647_i64_30 : i64 loc(#loc68)
          %54 = arith.cmpi sge, %52, %c-2147483648_i64_31 : i64 loc(#loc68)
          %55 = arith.andi %53, %54 : i1 loc(#loc68)
          %56 = arith.muli %18, %arg6 : i32 loc(#loc68)
          %57 = tt.addptr %49, %56 : !tt.ptr<f16>, i32 loc(#loc69)
          %58 = arith.extsi %c0_i32_24 : i32 to i64 loc(#loc70)
          %59 = arith.extsi %arg7 : i32 to i64 loc(#loc70)
          %60 = arith.muli %58, %59 : i64 loc(#loc70)
          %c2147483647_i64_32 = arith.constant 2147483647 : i64 loc(#loc70)
          %c-2147483648_i64_33 = arith.constant -2147483648 : i64 loc(#loc70)
          %61 = arith.cmpi sle, %60, %c2147483647_i64_32 : i64 loc(#loc70)
          %62 = arith.cmpi sge, %60, %c-2147483648_i64_33 : i64 loc(#loc70)
          %63 = arith.andi %61, %62 : i1 loc(#loc70)
          %64 = arith.muli %c0_i32_24, %arg7 : i32 loc(#loc70)
          %65 = tt.addptr %57, %64 : !tt.ptr<f16>, i32 loc(#loc71)
          %66 = tt.expand_dims %36 {axis = 1 : i32} : tensor<256xi32> -> tensor<256x1xi32> loc(#loc72)
          %67 = tt.splat %arg7 : i32 -> tensor<256x1xi32> loc(#loc73)
          %68 = arith.extsi %66 : tensor<256x1xi32> to tensor<256x1xi64> loc(#loc73)
          %69 = arith.extsi %67 : tensor<256x1xi32> to tensor<256x1xi64> loc(#loc73)
          %70 = arith.muli %68, %69 : tensor<256x1xi64> loc(#loc73)
          %c2147483647_i64_34 = arith.constant 2147483647 : i64 loc(#loc73)
          %c-2147483648_i64_35 = arith.constant -2147483648 : i64 loc(#loc73)
          %cst_36 = arith.constant dense<2147483647> : tensor<256x1xi64> loc(#loc73)
          %71 = arith.cmpi sle, %70, %cst_36 : tensor<256x1xi64> loc(#loc73)
          %cst_37 = arith.constant dense<-2147483648> : tensor<256x1xi64> loc(#loc73)
          %72 = arith.cmpi sge, %70, %cst_37 : tensor<256x1xi64> loc(#loc73)
          %73 = arith.andi %71, %72 : tensor<256x1xi1> loc(#loc73)
          %74 = arith.muli %66, %67 : tensor<256x1xi32> loc(#loc73)
          %75 = tt.splat %65 : !tt.ptr<f16> -> tensor<256x1x!tt.ptr<f16>> loc(#loc74)
          %76 = tt.addptr %75, %74 : tensor<256x1x!tt.ptr<f16>>, tensor<256x1xi32> loc(#loc74)
          %77 = tt.expand_dims %38 {axis = 0 : i32} : tensor<128xi32> -> tensor<1x128xi32> loc(#loc75)
          %c1_i32_38 = arith.constant 1 : i32 loc(#loc76)
          %c1_i32_39 = arith.constant 1 : i32 loc(#loc76)
          %cst_40 = arith.constant dense<1> : tensor<1x128xi32> loc(#loc76)
          %78 = arith.extsi %77 : tensor<1x128xi32> to tensor<1x128xi64> loc(#loc76)
          %79 = arith.extsi %cst_40 : tensor<1x128xi32> to tensor<1x128xi64> loc(#loc76)
          %80 = arith.muli %78, %79 : tensor<1x128xi64> loc(#loc76)
          %c2147483647_i64_41 = arith.constant 2147483647 : i64 loc(#loc76)
          %c-2147483648_i64_42 = arith.constant -2147483648 : i64 loc(#loc76)
          %cst_43 = arith.constant dense<2147483647> : tensor<1x128xi64> loc(#loc76)
          %81 = arith.cmpi sle, %80, %cst_43 : tensor<1x128xi64> loc(#loc76)
          %cst_44 = arith.constant dense<-2147483648> : tensor<1x128xi64> loc(#loc76)
          %82 = arith.cmpi sge, %80, %cst_44 : tensor<1x128xi64> loc(#loc76)
          %83 = arith.andi %81, %82 : tensor<1x128xi1> loc(#loc76)
          %84 = arith.muli %77, %cst_40 : tensor<1x128xi32> loc(#loc76)
          %85 = tt.broadcast %76 : tensor<256x1x!tt.ptr<f16>> -> tensor<256x128x!tt.ptr<f16>> loc(#loc77)
          %86 = tt.broadcast %84 : tensor<1x128xi32> -> tensor<256x128xi32> loc(#loc77)
          %87 = tt.addptr %85, %86 : tensor<256x128x!tt.ptr<f16>>, tensor<256x128xi32> loc(#loc77)
          %88 = arith.extsi %20 : i32 to i64 loc(#loc78)
          %89 = arith.extsi %arg8 : i32 to i64 loc(#loc78)
          %90 = arith.muli %88, %89 : i64 loc(#loc78)
          %c2147483647_i64_45 = arith.constant 2147483647 : i64 loc(#loc78)
          %c-2147483648_i64_46 = arith.constant -2147483648 : i64 loc(#loc78)
          %91 = arith.cmpi sle, %90, %c2147483647_i64_45 : i64 loc(#loc78)
          %92 = arith.cmpi sge, %90, %c-2147483648_i64_46 : i64 loc(#loc78)
          %93 = arith.andi %91, %92 : i1 loc(#loc78)
          %94 = arith.muli %20, %arg8 : i32 loc(#loc78)
          %95 = tt.addptr %arg1, %94 : !tt.ptr<f16>, i32 loc(#loc79)
          %96 = arith.extsi %18 : i32 to i64 loc(#loc80)
          %97 = arith.extsi %arg9 : i32 to i64 loc(#loc80)
          %98 = arith.muli %96, %97 : i64 loc(#loc80)
          %c2147483647_i64_47 = arith.constant 2147483647 : i64 loc(#loc80)
          %c-2147483648_i64_48 = arith.constant -2147483648 : i64 loc(#loc80)
          %99 = arith.cmpi sle, %98, %c2147483647_i64_47 : i64 loc(#loc80)
          %100 = arith.cmpi sge, %98, %c-2147483648_i64_48 : i64 loc(#loc80)
          %101 = arith.andi %99, %100 : i1 loc(#loc80)
          %102 = arith.muli %18, %arg9 : i32 loc(#loc80)
          %103 = tt.addptr %95, %102 : !tt.ptr<f16>, i32 loc(#loc81)
          %104 = arith.extsi %c0_i32_25 : i32 to i64 loc(#loc82)
          %105 = arith.extsi %arg10 : i32 to i64 loc(#loc82)
          %106 = arith.muli %104, %105 : i64 loc(#loc82)
          %c2147483647_i64_49 = arith.constant 2147483647 : i64 loc(#loc82)
          %c-2147483648_i64_50 = arith.constant -2147483648 : i64 loc(#loc82)
          %107 = arith.cmpi sle, %106, %c2147483647_i64_49 : i64 loc(#loc82)
          %108 = arith.cmpi sge, %106, %c-2147483648_i64_50 : i64 loc(#loc82)
          %109 = arith.andi %107, %108 : i1 loc(#loc82)
          %110 = arith.muli %c0_i32_25, %arg10 : i32 loc(#loc82)
          %111 = tt.addptr %103, %110 : !tt.ptr<f16>, i32 loc(#loc83)
          %112 = tt.expand_dims %38 {axis = 1 : i32} : tensor<128xi32> -> tensor<128x1xi32> loc(#loc84)
          %c1_i32_51 = arith.constant 1 : i32 loc(#loc85)
          %c1_i32_52 = arith.constant 1 : i32 loc(#loc85)
          %cst_53 = arith.constant dense<1> : tensor<128x1xi32> loc(#loc85)
          %113 = arith.extsi %112 : tensor<128x1xi32> to tensor<128x1xi64> loc(#loc85)
          %114 = arith.extsi %cst_53 : tensor<128x1xi32> to tensor<128x1xi64> loc(#loc85)
          %115 = arith.muli %113, %114 : tensor<128x1xi64> loc(#loc85)
          %c2147483647_i64_54 = arith.constant 2147483647 : i64 loc(#loc85)
          %c-2147483648_i64_55 = arith.constant -2147483648 : i64 loc(#loc85)
          %cst_56 = arith.constant dense<2147483647> : tensor<128x1xi64> loc(#loc85)
          %116 = arith.cmpi sle, %115, %cst_56 : tensor<128x1xi64> loc(#loc85)
          %cst_57 = arith.constant dense<-2147483648> : tensor<128x1xi64> loc(#loc85)
          %117 = arith.cmpi sge, %115, %cst_57 : tensor<128x1xi64> loc(#loc85)
          %118 = arith.andi %116, %117 : tensor<128x1xi1> loc(#loc85)
          %119 = arith.muli %112, %cst_53 : tensor<128x1xi32> loc(#loc85)
          %120 = tt.splat %111 : !tt.ptr<f16> -> tensor<128x1x!tt.ptr<f16>> loc(#loc86)
          %121 = tt.addptr %120, %119 : tensor<128x1x!tt.ptr<f16>>, tensor<128x1xi32> loc(#loc86)
          %122 = tt.expand_dims %37 {axis = 0 : i32} : tensor<64xi32> -> tensor<1x64xi32> loc(#loc87)
          %123 = tt.splat %arg10 : i32 -> tensor<1x64xi32> loc(#loc88)
          %124 = arith.extsi %122 : tensor<1x64xi32> to tensor<1x64xi64> loc(#loc88)
          %125 = arith.extsi %123 : tensor<1x64xi32> to tensor<1x64xi64> loc(#loc88)
          %126 = arith.muli %124, %125 : tensor<1x64xi64> loc(#loc88)
          %c2147483647_i64_58 = arith.constant 2147483647 : i64 loc(#loc88)
          %c-2147483648_i64_59 = arith.constant -2147483648 : i64 loc(#loc88)
          %cst_60 = arith.constant dense<2147483647> : tensor<1x64xi64> loc(#loc88)
          %127 = arith.cmpi sle, %126, %cst_60 : tensor<1x64xi64> loc(#loc88)
          %cst_61 = arith.constant dense<-2147483648> : tensor<1x64xi64> loc(#loc88)
          %128 = arith.cmpi sge, %126, %cst_61 : tensor<1x64xi64> loc(#loc88)
          %129 = arith.andi %127, %128 : tensor<1x64xi1> loc(#loc88)
          %130 = arith.muli %122, %123 : tensor<1x64xi32> loc(#loc88)
          %131 = tt.broadcast %121 : tensor<128x1x!tt.ptr<f16>> -> tensor<128x64x!tt.ptr<f16>> loc(#loc89)
          %132 = tt.broadcast %130 : tensor<1x64xi32> -> tensor<128x64xi32> loc(#loc89)
          %133 = tt.addptr %131, %132 : tensor<128x64x!tt.ptr<f16>>, tensor<128x64xi32> loc(#loc89)
          %134 = arith.extsi %20 : i32 to i64 loc(#loc90)
          %135 = arith.extsi %arg11 : i32 to i64 loc(#loc90)
          %136 = arith.muli %134, %135 : i64 loc(#loc90)
          %c2147483647_i64_62 = arith.constant 2147483647 : i64 loc(#loc90)
          %c-2147483648_i64_63 = arith.constant -2147483648 : i64 loc(#loc90)
          %137 = arith.cmpi sle, %136, %c2147483647_i64_62 : i64 loc(#loc90)
          %138 = arith.cmpi sge, %136, %c-2147483648_i64_63 : i64 loc(#loc90)
          %139 = arith.andi %137, %138 : i1 loc(#loc90)
          %140 = arith.muli %20, %arg11 : i32 loc(#loc90)
          %141 = tt.addptr %arg2, %140 : !tt.ptr<f16>, i32 loc(#loc91)
          %142 = arith.extsi %18 : i32 to i64 loc(#loc92)
          %143 = arith.extsi %arg12 : i32 to i64 loc(#loc92)
          %144 = arith.muli %142, %143 : i64 loc(#loc92)
          %c2147483647_i64_64 = arith.constant 2147483647 : i64 loc(#loc92)
          %c-2147483648_i64_65 = arith.constant -2147483648 : i64 loc(#loc92)
          %145 = arith.cmpi sle, %144, %c2147483647_i64_64 : i64 loc(#loc92)
          %146 = arith.cmpi sge, %144, %c-2147483648_i64_65 : i64 loc(#loc92)
          %147 = arith.andi %145, %146 : i1 loc(#loc92)
          %148 = arith.muli %18, %arg12 : i32 loc(#loc92)
          %149 = tt.addptr %141, %148 : !tt.ptr<f16>, i32 loc(#loc93)
          %150 = arith.extsi %c0_i32_25 : i32 to i64 loc(#loc94)
          %151 = arith.extsi %arg13 : i32 to i64 loc(#loc94)
          %152 = arith.muli %150, %151 : i64 loc(#loc94)
          %c2147483647_i64_66 = arith.constant 2147483647 : i64 loc(#loc94)
          %c-2147483648_i64_67 = arith.constant -2147483648 : i64 loc(#loc94)
          %153 = arith.cmpi sle, %152, %c2147483647_i64_66 : i64 loc(#loc94)
          %154 = arith.cmpi sge, %152, %c-2147483648_i64_67 : i64 loc(#loc94)
          %155 = arith.andi %153, %154 : i1 loc(#loc94)
          %156 = arith.muli %c0_i32_25, %arg13 : i32 loc(#loc94)
          %157 = tt.addptr %149, %156 : !tt.ptr<f16>, i32 loc(#loc95)
          %158 = tt.expand_dims %37 {axis = 1 : i32} : tensor<64xi32> -> tensor<64x1xi32> loc(#loc96)
          %159 = tt.splat %arg13 : i32 -> tensor<64x1xi32> loc(#loc97)
          %160 = arith.extsi %158 : tensor<64x1xi32> to tensor<64x1xi64> loc(#loc97)
          %161 = arith.extsi %159 : tensor<64x1xi32> to tensor<64x1xi64> loc(#loc97)
          %162 = arith.muli %160, %161 : tensor<64x1xi64> loc(#loc97)
          %c2147483647_i64_68 = arith.constant 2147483647 : i64 loc(#loc97)
          %c-2147483648_i64_69 = arith.constant -2147483648 : i64 loc(#loc97)
          %cst_70 = arith.constant dense<2147483647> : tensor<64x1xi64> loc(#loc97)
          %163 = arith.cmpi sle, %162, %cst_70 : tensor<64x1xi64> loc(#loc97)
          %cst_71 = arith.constant dense<-2147483648> : tensor<64x1xi64> loc(#loc97)
          %164 = arith.cmpi sge, %162, %cst_71 : tensor<64x1xi64> loc(#loc97)
          %165 = arith.andi %163, %164 : tensor<64x1xi1> loc(#loc97)
          %166 = arith.muli %158, %159 : tensor<64x1xi32> loc(#loc97)
          %167 = tt.splat %157 : !tt.ptr<f16> -> tensor<64x1x!tt.ptr<f16>> loc(#loc98)
          %168 = tt.addptr %167, %166 : tensor<64x1x!tt.ptr<f16>>, tensor<64x1xi32> loc(#loc98)
          %169 = tt.expand_dims %38 {axis = 0 : i32} : tensor<128xi32> -> tensor<1x128xi32> loc(#loc99)
          %c1_i32_72 = arith.constant 1 : i32 loc(#loc100)
          %c1_i32_73 = arith.constant 1 : i32 loc(#loc100)
          %cst_74 = arith.constant dense<1> : tensor<1x128xi32> loc(#loc100)
          %170 = arith.extsi %169 : tensor<1x128xi32> to tensor<1x128xi64> loc(#loc100)
          %171 = arith.extsi %cst_74 : tensor<1x128xi32> to tensor<1x128xi64> loc(#loc100)
          %172 = arith.muli %170, %171 : tensor<1x128xi64> loc(#loc100)
          %c2147483647_i64_75 = arith.constant 2147483647 : i64 loc(#loc100)
          %c-2147483648_i64_76 = arith.constant -2147483648 : i64 loc(#loc100)
          %cst_77 = arith.constant dense<2147483647> : tensor<1x128xi64> loc(#loc100)
          %173 = arith.cmpi sle, %172, %cst_77 : tensor<1x128xi64> loc(#loc100)
          %cst_78 = arith.constant dense<-2147483648> : tensor<1x128xi64> loc(#loc100)
          %174 = arith.cmpi sge, %172, %cst_78 : tensor<1x128xi64> loc(#loc100)
          %175 = arith.andi %173, %174 : tensor<1x128xi1> loc(#loc100)
          %176 = arith.muli %169, %cst_74 : tensor<1x128xi32> loc(#loc100)
          %177 = tt.broadcast %168 : tensor<64x1x!tt.ptr<f16>> -> tensor<64x128x!tt.ptr<f16>> loc(#loc101)
          %178 = tt.broadcast %176 : tensor<1x128xi32> -> tensor<64x128xi32> loc(#loc101)
          %179 = tt.addptr %177, %178 : tensor<64x128x!tt.ptr<f16>>, tensor<64x128xi32> loc(#loc101)
          %c0_i32_79 = arith.constant 0 : i32 loc(#loc102)
          %cst_80 = arith.constant 0xFF800000 : f32 loc(#loc103)
          %cst_81 = arith.constant dense<0xFF800000> : tensor<256xf32> loc(#loc103)
          %cst_82 = arith.constant 1.000000e+00 : f32 loc(#loc104)
          %cst_83 = arith.constant dense<1.000000e+00> : tensor<256xf32> loc(#loc104)
          %180 = tt.call @"triton.language.standard.zeros____(0, 0)cconstexpr_256__(0, 1)cconstexpr_128__(1,)cconstexpr_fp32_"() : () -> tensor<256x128xf32> loc(#loc105)
          %181 = tt.expand_dims %36 {axis = 1 : i32} : tensor<256xi32> -> tensor<256x1xi32> loc(#loc106)
          %cst_84 = arith.constant dense<16384> : tensor<256x1xi32> loc(#loc107)
          %182 = arith.cmpi slt, %181, %cst_84 : tensor<256x1xi32> loc(#loc107)
          %cst_85 = arith.constant 0.000000e+00 : f32 loc(#loc108)
          %183 = tt.broadcast %182 : tensor<256x1xi1> -> tensor<256x128xi1> loc(#loc108)
          %cst_86 = arith.constant dense<0.000000e+00> : tensor<256x128xf32> loc(#loc108)
          %184 = arith.truncf %cst_86 : tensor<256x128xf32> to tensor<256x128xf16> loc(#loc108)
          %185 = tt.load %87, %183, %184 : tensor<256x128x!tt.ptr<f16>> loc(#loc108)
          %c0_i32_87 = arith.constant 0 : i32 loc(#loc109)
          %186 = arith.cmpi ne, %41, %c0_i32_87 : i32 loc(#loc109)
          %true_88 = arith.constant true loc(#loc110)
          %187 = arith.xori %186, %true_88 : i1 loc(#loc110)
          %c256_i32_89 = arith.constant 256 : i32 loc(#loc111)
          %c256_i32_90 = arith.constant 256 : i32 loc(#loc111)
          %188 = arith.remsi %c16384_i32, %c256_i32_90 : i32 loc(#loc111)
          %c0_i32_91 = arith.constant 0 : i32 loc(#loc112)
          %189 = arith.cmpi eq, %188, %c0_i32_91 : i32 loc(#loc112)
          %190 = arith.andi %187, %189 : i1 loc(#loc113)
          %191 = arith.extui %186 : i1 to i32 loc(#loc114)
          %192 = arith.minsi %191, %39 : i32 loc(#loc114)
          %193 = arith.extsi %39 : i32 to i64 loc(#loc115)
          %194 = arith.extsi %192 : i32 to i64 loc(#loc115)
          %195 = arith.subi %193, %194 : i64 loc(#loc115)
          %c2147483647_i64_92 = arith.constant 2147483647 : i64 loc(#loc115)
          %c-2147483648_i64_93 = arith.constant -2147483648 : i64 loc(#loc115)
          %196 = arith.cmpi sle, %195, %c2147483647_i64_92 : i64 loc(#loc115)
          %197 = arith.cmpi sge, %195, %c-2147483648_i64_93 : i64 loc(#loc115)
          %198 = arith.andi %196, %197 : i1 loc(#loc115)
          %199 = arith.subi %39, %192 : i32 loc(#loc115)
          %c0_i32_94 = arith.constant 0 : i32 loc(#loc116)
          %c64_i32_95 = arith.constant 64 : i32 loc(#loc117)
          %c64_i32_96 = arith.constant 64 : i32 loc(#loc117)
          %200 = arith.extsi %39 : i32 to i64 loc(#loc117)
          %201 = arith.extsi %c64_i32_96 : i32 to i64 loc(#loc117)
          %202 = arith.muli %200, %201 : i64 loc(#loc117)
          %c2147483647_i64_97 = arith.constant 2147483647 : i64 loc(#loc117)
          %c-2147483648_i64_98 = arith.constant -2147483648 : i64 loc(#loc117)
          %203 = arith.cmpi sle, %202, %c2147483647_i64_97 : i64 loc(#loc117)
          %204 = arith.cmpi sge, %202, %c-2147483648_i64_98 : i64 loc(#loc117)
          %205 = arith.andi %203, %204 : i1 loc(#loc117)
          %206 = arith.muli %39, %c64_i32_96 : i32 loc(#loc117)
          %c0_i32_99 = arith.constant 0 : i32 loc(#loc118)
          %207 = arith.cmpi sgt, %199, %c0_i32_99 : i32 loc(#loc118)
          %208:5 = scf.if %207 -> (tensor<256xf32>, tensor<256xf32>, tensor<256x128xf32>, i32, i32) {
            %325 = arith.extsi %39 : i32 to i64 loc(#loc120)
            %326 = arith.extsi %192 : i32 to i64 loc(#loc120)
            %327 = arith.subi %325, %326 : i64 loc(#loc120)
            %c2147483647_i64_153 = arith.constant 2147483647 : i64 loc(#loc120)
            %c-2147483648_i64_154 = arith.constant -2147483648 : i64 loc(#loc120)
            %328 = arith.cmpi sle, %327, %c2147483647_i64_153 : i64 loc(#loc120)
            %329 = arith.cmpi sge, %327, %c-2147483648_i64_154 : i64 loc(#loc120)
            %330 = arith.andi %328, %329 : i1 loc(#loc120)
            %331 = arith.subi %39, %192 : i32 loc(#loc120)
            %c64_i32_155 = arith.constant 64 : i32 loc(#loc121)
            %c64_i32_156 = arith.constant 64 : i32 loc(#loc121)
            %332 = arith.extsi %331 : i32 to i64 loc(#loc121)
            %333 = arith.extsi %c64_i32_156 : i32 to i64 loc(#loc121)
            %334 = arith.muli %332, %333 : i64 loc(#loc121)
            %c2147483647_i64_157 = arith.constant 2147483647 : i64 loc(#loc121)
            %c-2147483648_i64_158 = arith.constant -2147483648 : i64 loc(#loc121)
            %335 = arith.cmpi sle, %334, %c2147483647_i64_157 : i64 loc(#loc121)
            %336 = arith.cmpi sge, %334, %c-2147483648_i64_158 : i64 loc(#loc121)
            %337 = arith.andi %335, %336 : i1 loc(#loc121)
            %338 = arith.muli %331, %c64_i32_156 : i32 loc(#loc121)
            %339:3 = tt.call @"__main__._attn_fwd_inner__fp32S256_128S_fp32S256S_fp32S256S_fp16S256_128S_Pfp16S128_64S_Pfp16S64_128S_i32_i32_i32_i32_i32_i32_fp32_i32_i32_i32_i32_i32S256S_i32S64S__(6,)cNone_(16,)cNone_(19,)cconstexpr_0__(20,)cconstexpr_0__(21,)cconstexpr_0__(22,)cNone_(23,)cNone_(24,)cNone_(25,)cNone_(26,)cNone_(27,)cconstexpr_False__(28,)cconstexpr_256__(29,)cconstexpr_128__(30,)cconstexpr_64__(33,)cconstexpr_False__(34,)cconstexpr_False__(35,)cconstexpr_False__(36,)cconstexpr_False__(37,)cconstexpr_False__(38,)cconstexpr_128__(39,)cconstexpr_0_d_1275174308246903__(40,)cconstexpr_False__(41,)cconstexpr_False__(42,)cconstexpr_False__(43,)cconstexpr_True_"(%180, %cst_83, %cst_81, %185, %133, %179, %arg10, %arg13, %arg20, %19, %c16384_i32_26, %c16384_i32, %arg23, %arg24, %c0_i32_79, %c0_i32_94, %338, %36, %37) : (tensor<256x128xf32>, tensor<256xf32>, tensor<256xf32>, tensor<256x128xf16>, tensor<128x64x!tt.ptr<f16>>, tensor<64x128x!tt.ptr<f16>>, i32, i32, i32, i32, i32, i32, f32, i32, i32, i32, i32, tensor<256xi32>, tensor<64xi32>) -> (tensor<256x128xf32>, tensor<256xf32>, tensor<256xf32>) loc(#loc122)
            %c64_i32_159 = arith.constant 64 : i32 loc(#loc123)
            %c64_i32_160 = arith.constant 64 : i32 loc(#loc123)
            %340 = arith.extsi %39 : i32 to i64 loc(#loc123)
            %341 = arith.extsi %c64_i32_160 : i32 to i64 loc(#loc123)
            %342 = arith.muli %340, %341 : i64 loc(#loc123)
            %c2147483647_i64_161 = arith.constant 2147483647 : i64 loc(#loc123)
            %c-2147483648_i64_162 = arith.constant -2147483648 : i64 loc(#loc123)
            %343 = arith.cmpi sle, %342, %c2147483647_i64_161 : i64 loc(#loc123)
            %344 = arith.cmpi sge, %342, %c-2147483648_i64_162 : i64 loc(#loc123)
            %345 = arith.andi %343, %344 : i1 loc(#loc123)
            %346 = arith.muli %39, %c64_i32_160 : i32 loc(#loc123)
            scf.yield %339#2, %339#1, %339#0, %338, %346 : tensor<256xf32>, tensor<256xf32>, tensor<256x128xf32>, i32, i32 loc(#loc123)
          } else {
            scf.yield %cst_81, %cst_83, %180, %c0_i32_94, %206 : tensor<256xf32>, tensor<256xf32>, tensor<256x128xf32>, i32, i32 loc(#loc41)
          } loc(#loc119)
          gpu.barrier loc(#loc124)
          %c0_i32_100 = arith.constant 0 : i32 loc(#loc125)
          %209 = arith.cmpi sgt, %192, %c0_i32_100 : i32 loc(#loc125)
          %210:5 = scf.if %209 -> (tensor<128x64x!tt.ptr<f16>>, tensor<64x128x!tt.ptr<f16>>, tensor<256xf32>, tensor<256xf32>, tensor<256x128xf32>) {
            %c0_i32_153 = arith.constant 0 : i32 loc(#loc127)
            %c64_i32_154 = arith.constant 64 : i32 loc(#loc128)
            %c64_i32_155 = arith.constant 64 : i32 loc(#loc128)
            %325 = arith.extsi %199 : i32 to i64 loc(#loc128)
            %326 = arith.extsi %c64_i32_155 : i32 to i64 loc(#loc128)
            %327 = arith.muli %325, %326 : i64 loc(#loc128)
            %c2147483647_i64_156 = arith.constant 2147483647 : i64 loc(#loc128)
            %c-2147483648_i64_157 = arith.constant -2147483648 : i64 loc(#loc128)
            %328 = arith.cmpi sle, %327, %c2147483647_i64_156 : i64 loc(#loc128)
            %329 = arith.cmpi sge, %327, %c-2147483648_i64_157 : i64 loc(#loc128)
            %330 = arith.andi %328, %329 : i1 loc(#loc128)
            %331 = arith.muli %199, %c64_i32_155 : i32 loc(#loc128)
            %332 = arith.extsi %331 : i32 to i64 loc(#loc129)
            %333 = arith.extsi %arg10 : i32 to i64 loc(#loc129)
            %334 = arith.muli %332, %333 : i64 loc(#loc129)
            %c2147483647_i64_158 = arith.constant 2147483647 : i64 loc(#loc129)
            %c-2147483648_i64_159 = arith.constant -2147483648 : i64 loc(#loc129)
            %335 = arith.cmpi sle, %334, %c2147483647_i64_158 : i64 loc(#loc129)
            %336 = arith.cmpi sge, %334, %c-2147483648_i64_159 : i64 loc(#loc129)
            %337 = arith.andi %335, %336 : i1 loc(#loc129)
            %338 = arith.muli %331, %arg10 : i32 loc(#loc129)
            %339 = tt.splat %338 : i32 -> tensor<128x64xi32> loc(#loc130)
            %340 = tt.addptr %133, %339 : tensor<128x64x!tt.ptr<f16>>, tensor<128x64xi32> loc(#loc130)
            %c64_i32_160 = arith.constant 64 : i32 loc(#loc131)
            %c64_i32_161 = arith.constant 64 : i32 loc(#loc131)
            %341 = arith.extsi %199 : i32 to i64 loc(#loc131)
            %342 = arith.extsi %c64_i32_161 : i32 to i64 loc(#loc131)
            %343 = arith.muli %341, %342 : i64 loc(#loc131)
            %c2147483647_i64_162 = arith.constant 2147483647 : i64 loc(#loc131)
            %c-2147483648_i64_163 = arith.constant -2147483648 : i64 loc(#loc131)
            %344 = arith.cmpi sle, %343, %c2147483647_i64_162 : i64 loc(#loc131)
            %345 = arith.cmpi sge, %343, %c-2147483648_i64_163 : i64 loc(#loc131)
            %346 = arith.andi %344, %345 : i1 loc(#loc131)
            %347 = arith.muli %199, %c64_i32_161 : i32 loc(#loc131)
            %348 = arith.extsi %347 : i32 to i64 loc(#loc132)
            %349 = arith.extsi %arg13 : i32 to i64 loc(#loc132)
            %350 = arith.muli %348, %349 : i64 loc(#loc132)
            %c2147483647_i64_164 = arith.constant 2147483647 : i64 loc(#loc132)
            %c-2147483648_i64_165 = arith.constant -2147483648 : i64 loc(#loc132)
            %351 = arith.cmpi sle, %350, %c2147483647_i64_164 : i64 loc(#loc132)
            %352 = arith.cmpi sge, %350, %c-2147483648_i64_165 : i64 loc(#loc132)
            %353 = arith.andi %351, %352 : i1 loc(#loc132)
            %354 = arith.muli %347, %arg13 : i32 loc(#loc132)
            %355 = tt.splat %354 : i32 -> tensor<64x128xi32> loc(#loc133)
            %356 = tt.addptr %179, %355 : tensor<64x128x!tt.ptr<f16>>, tensor<64x128xi32> loc(#loc133)
            %357:3 = tt.call @"__main__._attn_fwd_inner__fp32S256_128S_fp32S256S_fp32S256S_fp16S256_128S_Pfp16S128_64S_Pfp16S64_128S_i32_i32_i32_i32_i32_i32_fp32_i32_i32_i32_i32_i32_i32_i32_i32S256S_i32S64S__(6,)cNone_(16,)cNone_(22,)cNone_(23,)cNone_(24,)cNone_(25,)cNone_(26,)cNone_(27,)cconstexpr_False__(28,)cconstexpr_256__(29,)cconstexpr_128__(30,)cconstexpr_64__(33,)cconstexpr_False__(34,)cconstexpr_True__(35,)cconstexpr_False__(36,)cconstexpr_False__(37,)cconstexpr_False__(38,)cconstexpr_128__(39,)cconstexpr_0_d_1275174308246903__(40,)cconstexpr_False__(41,)cconstexpr_False__(42,)cconstexpr_False__(43,)cconstexpr_False_"(%208#2, %208#1, %208#0, %185, %340, %356, %arg10, %arg13, %arg20, %19, %c16384_i32_26, %c16384_i32, %arg23, %arg24, %c0_i32_79, %208#3, %208#4, %c0_i32_153, %192, %41, %36, %37) : (tensor<256x128xf32>, tensor<256xf32>, tensor<256xf32>, tensor<256x128xf16>, tensor<128x64x!tt.ptr<f16>>, tensor<64x128x!tt.ptr<f16>>, i32, i32, i32, i32, i32, i32, f32, i32, i32, i32, i32, i32, i32, i32, tensor<256xi32>, tensor<64xi32>) -> (tensor<256x128xf32>, tensor<256xf32>, tensor<256xf32>) loc(#loc134)
            scf.yield %340, %356, %357#2, %357#1, %357#0 : tensor<128x64x!tt.ptr<f16>>, tensor<64x128x!tt.ptr<f16>>, tensor<256xf32>, tensor<256xf32>, tensor<256x128xf32> loc(#loc134)
          } else {
            scf.yield %133, %179, %208#0, %208#1, %208#2 : tensor<128x64x!tt.ptr<f16>>, tensor<64x128x!tt.ptr<f16>>, tensor<256xf32>, tensor<256xf32>, tensor<256x128xf32> loc(#loc41)
          } loc(#loc126)
          %211 = tt.expand_dims %210#3 {axis = 1 : i32} : tensor<256xf32> -> tensor<256x1xf32> loc(#loc135)
          %c1_i32_101 = arith.constant 1 : i32 loc(#loc136)
          %cst_102 = arith.constant 1.000000e+00 : f32 loc(#loc136)
          %cst_103 = arith.constant dense<1.000000e+00> : tensor<256x1xf32> loc(#loc136)
          %212 = arith.divf %cst_103, %211 : tensor<256x1xf32> loc(#loc136)
          %213 = tt.broadcast %212 : tensor<256x1xf32> -> tensor<256x128xf32> loc(#loc137)
          %214 = arith.mulf %210#4, %213 : tensor<256x128xf32> loc(#loc137)
          %c1_i32_104 = arith.constant 1 : i32 loc(#loc138)
          %c1_i32_105 = arith.constant 1 : i32 loc(#loc138)
          %215 = arith.extsi %19 : i32 to i64 loc(#loc138)
          %216 = arith.extsi %c1_i32_105 : i32 to i64 loc(#loc138)
          %217 = arith.addi %215, %216 : i64 loc(#loc138)
          %c2147483647_i64_106 = arith.constant 2147483647 : i64 loc(#loc138)
          %c-2147483648_i64_107 = arith.constant -2147483648 : i64 loc(#loc138)
          %218 = arith.cmpi sle, %217, %c2147483647_i64_106 : i64 loc(#loc138)
          %219 = arith.cmpi sge, %217, %c-2147483648_i64_107 : i64 loc(#loc138)
          %220 = arith.andi %218, %219 : i1 loc(#loc138)
          %221 = arith.addi %19, %c1_i32_105 : i32 loc(#loc138)
          %c256_i32_108 = arith.constant 256 : i32 loc(#loc139)
          %c256_i32_109 = arith.constant 256 : i32 loc(#loc139)
          %222 = arith.extsi %221 : i32 to i64 loc(#loc139)
          %223 = arith.extsi %c256_i32_109 : i32 to i64 loc(#loc139)
          %224 = arith.muli %222, %223 : i64 loc(#loc139)
          %c2147483647_i64_110 = arith.constant 2147483647 : i64 loc(#loc139)
          %c-2147483648_i64_111 = arith.constant -2147483648 : i64 loc(#loc139)
          %225 = arith.cmpi sle, %224, %c2147483647_i64_110 : i64 loc(#loc139)
          %226 = arith.cmpi sge, %224, %c-2147483648_i64_111 : i64 loc(#loc139)
          %227 = arith.andi %225, %226 : i1 loc(#loc139)
          %228 = arith.muli %221, %c256_i32_109 : i32 loc(#loc139)
          %c256_i32_112 = arith.constant 256 : i32 loc(#loc140)
          %c256_i32_113 = arith.constant 256 : i32 loc(#loc140)
          %229 = arith.extsi %19 : i32 to i64 loc(#loc140)
          %230 = arith.extsi %c256_i32_113 : i32 to i64 loc(#loc140)
          %231 = arith.muli %229, %230 : i64 loc(#loc140)
          %c2147483647_i64_114 = arith.constant 2147483647 : i64 loc(#loc140)
          %c-2147483648_i64_115 = arith.constant -2147483648 : i64 loc(#loc140)
          %232 = arith.cmpi sle, %231, %c2147483647_i64_114 : i64 loc(#loc140)
          %233 = arith.cmpi sge, %231, %c-2147483648_i64_115 : i64 loc(#loc140)
          %234 = arith.andi %232, %233 : i1 loc(#loc140)
          %235 = arith.muli %19, %c256_i32_113 : i32 loc(#loc140)
          %236 = arith.extsi %c16384_i32 : i32 to i64 loc(#loc141)
          %237 = arith.extsi %c16384_i32_26 : i32 to i64 loc(#loc141)
          %238 = arith.subi %236, %237 : i64 loc(#loc141)
          %c2147483647_i64_116 = arith.constant 2147483647 : i64 loc(#loc141)
          %c-2147483648_i64_117 = arith.constant -2147483648 : i64 loc(#loc141)
          %239 = arith.cmpi sle, %238, %c2147483647_i64_116 : i64 loc(#loc141)
          %240 = arith.cmpi sge, %238, %c-2147483648_i64_117 : i64 loc(#loc141)
          %241 = arith.andi %239, %240 : i1 loc(#loc141)
          %242 = arith.subi %c16384_i32, %c16384_i32_26 : i32 loc(#loc141)
          %243 = arith.truncf %214 : tensor<256x128xf32> to tensor<256x128xf16> loc(#loc142)
          %c64_i32_118 = arith.constant 64 : i32 loc(#loc143)
          %c64_i32_119 = arith.constant 64 : i32 loc(#loc143)
          %244 = arith.extsi %20 : i32 to i64 loc(#loc143)
          %245 = arith.extsi %c64_i32_119 : i32 to i64 loc(#loc143)
          %246 = arith.muli %244, %245 : i64 loc(#loc143)
          %c2147483647_i64_120 = arith.constant 2147483647 : i64 loc(#loc143)
          %c-2147483648_i64_121 = arith.constant -2147483648 : i64 loc(#loc143)
          %247 = arith.cmpi sle, %246, %c2147483647_i64_120 : i64 loc(#loc143)
          %248 = arith.cmpi sge, %246, %c-2147483648_i64_121 : i64 loc(#loc143)
          %249 = arith.andi %247, %248 : i1 loc(#loc143)
          %250 = arith.muli %20, %c64_i32_119 : i32 loc(#loc143)
          %c16384_i32_122 = arith.constant 16384 : i32 loc(#loc144)
          %c16384_i32_123 = arith.constant 16384 : i32 loc(#loc144)
          %251 = arith.extsi %250 : i32 to i64 loc(#loc144)
          %252 = arith.extsi %c16384_i32_123 : i32 to i64 loc(#loc144)
          %253 = arith.muli %251, %252 : i64 loc(#loc144)
          %c2147483647_i64_124 = arith.constant 2147483647 : i64 loc(#loc144)
          %c-2147483648_i64_125 = arith.constant -2147483648 : i64 loc(#loc144)
          %254 = arith.cmpi sle, %253, %c2147483647_i64_124 : i64 loc(#loc144)
          %255 = arith.cmpi sge, %253, %c-2147483648_i64_125 : i64 loc(#loc144)
          %256 = arith.andi %254, %255 : i1 loc(#loc144)
          %257 = arith.muli %250, %c16384_i32_123 : i32 loc(#loc144)
          %258 = tt.addptr %arg3, %257 : !tt.ptr<f32>, i32 loc(#loc145)
          %c16384_i32_126 = arith.constant 16384 : i32 loc(#loc146)
          %c16384_i32_127 = arith.constant 16384 : i32 loc(#loc146)
          %259 = arith.extsi %18 : i32 to i64 loc(#loc146)
          %260 = arith.extsi %c16384_i32_127 : i32 to i64 loc(#loc146)
          %261 = arith.muli %259, %260 : i64 loc(#loc146)
          %c2147483647_i64_128 = arith.constant 2147483647 : i64 loc(#loc146)
          %c-2147483648_i64_129 = arith.constant -2147483648 : i64 loc(#loc146)
          %262 = arith.cmpi sle, %261, %c2147483647_i64_128 : i64 loc(#loc146)
          %263 = arith.cmpi sge, %261, %c-2147483648_i64_129 : i64 loc(#loc146)
          %264 = arith.andi %262, %263 : i1 loc(#loc146)
          %265 = arith.muli %18, %c16384_i32_127 : i32 loc(#loc146)
          %266 = tt.addptr %258, %265 : !tt.ptr<f32>, i32 loc(#loc147)
          %267 = tt.splat %266 : !tt.ptr<f32> -> tensor<256x!tt.ptr<f32>> loc(#loc148)
          %268 = tt.addptr %267, %36 : tensor<256x!tt.ptr<f32>>, tensor<256xi32> loc(#loc148)
          %269 = arith.extsi %228 : i32 to i64 loc(#loc149)
          %270 = arith.extsi %c16384_i32 : i32 to i64 loc(#loc149)
          %271 = arith.subi %269, %270 : i64 loc(#loc149)
          %c2147483647_i64_130 = arith.constant 2147483647 : i64 loc(#loc149)
          %c-2147483648_i64_131 = arith.constant -2147483648 : i64 loc(#loc149)
          %272 = arith.cmpi sle, %271, %c2147483647_i64_130 : i64 loc(#loc149)
          %273 = arith.cmpi sge, %271, %c-2147483648_i64_131 : i64 loc(#loc149)
          %274 = arith.andi %272, %273 : i1 loc(#loc149)
          %275 = arith.subi %228, %c16384_i32 : i32 loc(#loc149)
          %c0_i32_132 = arith.constant 0 : i32 loc(#loc150)
          %276 = arith.cmpi sgt, %275, %c0_i32_132 : i32 loc(#loc150)
          scf.if %276 {
            %c256_i32_153 = arith.constant 256 : i32 loc(#loc152)
            %c256_i32_154 = arith.constant 256 : i32 loc(#loc152)
            %325 = arith.extsi %c256_i32_154 : i32 to i64 loc(#loc152)
            %326 = arith.extsi %275 : i32 to i64 loc(#loc152)
            %327 = arith.subi %325, %326 : i64 loc(#loc152)
            %c2147483647_i64_155 = arith.constant 2147483647 : i64 loc(#loc152)
            %c-2147483648_i64_156 = arith.constant -2147483648 : i64 loc(#loc152)
            %328 = arith.cmpi sle, %327, %c2147483647_i64_155 : i64 loc(#loc152)
            %329 = arith.cmpi sge, %327, %c-2147483648_i64_156 : i64 loc(#loc152)
            %330 = arith.andi %328, %329 : i1 loc(#loc152)
            %331 = arith.subi %c256_i32_154, %275 : i32 loc(#loc152)
            %332 = tt.splat %331 : i32 -> tensor<256xi32> loc(#loc153)
            %333 = tt.make_range {end = 256 : i32, start = 0 : i32} : tensor<256xi32> loc(#loc154)
            %334 = arith.cmpi slt, %333, %332 : tensor<256xi32> loc(#loc155)
            %335 = math.log2 %210#3 : tensor<256xf32> loc(#loc156)
            %336 = arith.addf %210#2, %335 : tensor<256xf32> loc(#loc157)
            tt.store %268, %336, %334 : tensor<256x!tt.ptr<f32>> loc(#loc158)
          } else {
            %325 = math.log2 %210#3 : tensor<256xf32> loc(#loc159)
            %326 = arith.addf %210#2, %325 : tensor<256xf32> loc(#loc160)
            tt.store %268, %326 : tensor<256x!tt.ptr<f32>> loc(#loc161)
          } loc(#loc151)
          %277 = arith.extsi %20 : i32 to i64 loc(#loc162)
          %278 = arith.extsi %arg14 : i32 to i64 loc(#loc162)
          %279 = arith.muli %277, %278 : i64 loc(#loc162)
          %c2147483647_i64_133 = arith.constant 2147483647 : i64 loc(#loc162)
          %c-2147483648_i64_134 = arith.constant -2147483648 : i64 loc(#loc162)
          %280 = arith.cmpi sle, %279, %c2147483647_i64_133 : i64 loc(#loc162)
          %281 = arith.cmpi sge, %279, %c-2147483648_i64_134 : i64 loc(#loc162)
          %282 = arith.andi %280, %281 : i1 loc(#loc162)
          %283 = arith.muli %20, %arg14 : i32 loc(#loc162)
          %284 = tt.addptr %arg4, %283 : !tt.ptr<f16>, i32 loc(#loc163)
          %285 = arith.extsi %18 : i32 to i64 loc(#loc164)
          %286 = arith.extsi %arg15 : i32 to i64 loc(#loc164)
          %287 = arith.muli %285, %286 : i64 loc(#loc164)
          %c2147483647_i64_135 = arith.constant 2147483647 : i64 loc(#loc164)
          %c-2147483648_i64_136 = arith.constant -2147483648 : i64 loc(#loc164)
          %288 = arith.cmpi sle, %287, %c2147483647_i64_135 : i64 loc(#loc164)
          %289 = arith.cmpi sge, %287, %c-2147483648_i64_136 : i64 loc(#loc164)
          %290 = arith.andi %288, %289 : i1 loc(#loc164)
          %291 = arith.muli %18, %arg15 : i32 loc(#loc164)
          %292 = tt.addptr %284, %291 : !tt.ptr<f16>, i32 loc(#loc165)
          %293 = arith.extsi %c0_i32_24 : i32 to i64 loc(#loc166)
          %294 = arith.extsi %arg16 : i32 to i64 loc(#loc166)
          %295 = arith.muli %293, %294 : i64 loc(#loc166)
          %c2147483647_i64_137 = arith.constant 2147483647 : i64 loc(#loc166)
          %c-2147483648_i64_138 = arith.constant -2147483648 : i64 loc(#loc166)
          %296 = arith.cmpi sle, %295, %c2147483647_i64_137 : i64 loc(#loc166)
          %297 = arith.cmpi sge, %295, %c-2147483648_i64_138 : i64 loc(#loc166)
          %298 = arith.andi %296, %297 : i1 loc(#loc166)
          %299 = arith.muli %c0_i32_24, %arg16 : i32 loc(#loc166)
          %300 = tt.addptr %292, %299 : !tt.ptr<f16>, i32 loc(#loc167)
          %301 = tt.expand_dims %36 {axis = 1 : i32} : tensor<256xi32> -> tensor<256x1xi32> loc(#loc168)
          %302 = tt.splat %arg16 : i32 -> tensor<256x1xi32> loc(#loc169)
          %303 = arith.extsi %301 : tensor<256x1xi32> to tensor<256x1xi64> loc(#loc169)
          %304 = arith.extsi %302 : tensor<256x1xi32> to tensor<256x1xi64> loc(#loc169)
          %305 = arith.muli %303, %304 : tensor<256x1xi64> loc(#loc169)
          %c2147483647_i64_139 = arith.constant 2147483647 : i64 loc(#loc169)
          %c-2147483648_i64_140 = arith.constant -2147483648 : i64 loc(#loc169)
          %cst_141 = arith.constant dense<2147483647> : tensor<256x1xi64> loc(#loc169)
          %306 = arith.cmpi sle, %305, %cst_141 : tensor<256x1xi64> loc(#loc169)
          %cst_142 = arith.constant dense<-2147483648> : tensor<256x1xi64> loc(#loc169)
          %307 = arith.cmpi sge, %305, %cst_142 : tensor<256x1xi64> loc(#loc169)
          %308 = arith.andi %306, %307 : tensor<256x1xi1> loc(#loc169)
          %309 = arith.muli %301, %302 : tensor<256x1xi32> loc(#loc169)
          %310 = tt.splat %300 : !tt.ptr<f16> -> tensor<256x1x!tt.ptr<f16>> loc(#loc170)
          %311 = tt.addptr %310, %309 : tensor<256x1x!tt.ptr<f16>>, tensor<256x1xi32> loc(#loc170)
          %312 = tt.expand_dims %38 {axis = 0 : i32} : tensor<128xi32> -> tensor<1x128xi32> loc(#loc171)
          %c1_i32_143 = arith.constant 1 : i32 loc(#loc172)
          %c1_i32_144 = arith.constant 1 : i32 loc(#loc172)
          %cst_145 = arith.constant dense<1> : tensor<1x128xi32> loc(#loc172)
          %313 = arith.extsi %312 : tensor<1x128xi32> to tensor<1x128xi64> loc(#loc172)
          %314 = arith.extsi %cst_145 : tensor<1x128xi32> to tensor<1x128xi64> loc(#loc172)
          %315 = arith.muli %313, %314 : tensor<1x128xi64> loc(#loc172)
          %c2147483647_i64_146 = arith.constant 2147483647 : i64 loc(#loc172)
          %c-2147483648_i64_147 = arith.constant -2147483648 : i64 loc(#loc172)
          %cst_148 = arith.constant dense<2147483647> : tensor<1x128xi64> loc(#loc172)
          %316 = arith.cmpi sle, %315, %cst_148 : tensor<1x128xi64> loc(#loc172)
          %cst_149 = arith.constant dense<-2147483648> : tensor<1x128xi64> loc(#loc172)
          %317 = arith.cmpi sge, %315, %cst_149 : tensor<1x128xi64> loc(#loc172)
          %318 = arith.andi %316, %317 : tensor<1x128xi1> loc(#loc172)
          %319 = arith.muli %312, %cst_145 : tensor<1x128xi32> loc(#loc172)
          %320 = tt.broadcast %311 : tensor<256x1x!tt.ptr<f16>> -> tensor<256x128x!tt.ptr<f16>> loc(#loc173)
          %321 = tt.broadcast %319 : tensor<1x128xi32> -> tensor<256x128xi32> loc(#loc173)
          %322 = tt.addptr %320, %321 : tensor<256x128x!tt.ptr<f16>>, tensor<256x128xi32> loc(#loc173)
          %true_150 = arith.constant true loc(#loc174)
          %cst_151 = arith.constant dense<true> : tensor<256x128xi1> loc(#loc174)
          %c0_i32_152 = arith.constant 0 : i32 loc(#loc175)
          %323 = arith.cmpi sgt, %275, %c0_i32_152 : i32 loc(#loc175)
          %324 = scf.if %323 -> (tensor<256x128xi1>) {
            %325 = tt.expand_dims %36 {axis = 1 : i32} : tensor<256xi32> -> tensor<256x1xi32> loc(#loc177)
            %cst_153 = arith.constant dense<16384> : tensor<256x1xi32> loc(#loc178)
            %326 = arith.cmpi slt, %325, %cst_153 : tensor<256x1xi32> loc(#loc178)
            %327 = tt.broadcast %326 : tensor<256x1xi1> -> tensor<256x128xi1> loc(#loc179)
            %328 = arith.andi %cst_151, %327 : tensor<256x128xi1> loc(#loc179)
            scf.yield %328 : tensor<256x128xi1> loc(#loc179)
          } else {
            scf.yield %cst_151 : tensor<256x128xi1> loc(#loc41)
          } loc(#loc176)
          tt.store %322, %243, %324 : tensor<256x128x!tt.ptr<f16>> loc(#loc180)
        } else {
        } loc(#loc58)
      } else {
      } loc(#loc56)
      scf.yield %c1_i32 : i32 loc(#loc181)
    } loc(#loc39)
    tt.return loc(#loc39)
  } loc(#loc)
  tt.func private @"__main__.remap_xcd__i32__(1,)cconstexpr_64__(2,)cconstexpr_8_"(%arg0: i32 loc("/home/mejiang/w1/test/triton/fa/flash-attention.py":34:0)) -> i32 attributes {noinline = false} {
    %c8_i32 = arith.constant 8 : i32 loc(#loc183)
    %c0_i32 = arith.constant 0 : i32 loc(#loc184)
    %c0_i32_0 = arith.constant 0 : i32 loc(#loc185)
    %0 = arith.cmpi eq, %c0_i32, %c0_i32_0 : i32 loc(#loc185)
    %1 = scf.if %0 -> (i32) {
      %c8_i32_5 = arith.constant 8 : i32 loc(#loc187)
      scf.yield %c8_i32_5 : i32 loc(#loc187)
    } else {
      scf.yield %c0_i32 : i32 loc(#loc41)
    } loc(#loc186)
    %c8_i32_1 = arith.constant 8 : i32 loc(#loc188)
    %c8_i32_2 = arith.constant 8 : i32 loc(#loc188)
    %2 = arith.remsi %arg0, %c8_i32_2 : i32 loc(#loc188)
    %c8_i32_3 = arith.constant 8 : i32 loc(#loc189)
    %c8_i32_4 = arith.constant 8 : i32 loc(#loc189)
    %3 = arith.divsi %arg0, %c8_i32_4 : i32 loc(#loc189)
    %4 = arith.cmpi slt, %2, %1 : i32 loc(#loc190)
    %5 = scf.if %4 -> (i32) {
      %7 = arith.extsi %2 : i32 to i64 loc(#loc192)
      %8 = arith.extsi %c8_i32 : i32 to i64 loc(#loc192)
      %9 = arith.muli %7, %8 : i64 loc(#loc192)
      %c2147483647_i64 = arith.constant 2147483647 : i64 loc(#loc192)
      %c-2147483648_i64 = arith.constant -2147483648 : i64 loc(#loc192)
      %10 = arith.cmpi sle, %9, %c2147483647_i64 : i64 loc(#loc192)
      %11 = arith.cmpi sge, %9, %c-2147483648_i64 : i64 loc(#loc192)
      %12 = arith.andi %10, %11 : i1 loc(#loc192)
      %13 = arith.muli %2, %c8_i32 : i32 loc(#loc192)
      %14 = arith.extsi %13 : i32 to i64 loc(#loc193)
      %15 = arith.extsi %3 : i32 to i64 loc(#loc193)
      %16 = arith.addi %14, %15 : i64 loc(#loc193)
      %c2147483647_i64_5 = arith.constant 2147483647 : i64 loc(#loc193)
      %c-2147483648_i64_6 = arith.constant -2147483648 : i64 loc(#loc193)
      %17 = arith.cmpi sle, %16, %c2147483647_i64_5 : i64 loc(#loc193)
      %18 = arith.cmpi sge, %16, %c-2147483648_i64_6 : i64 loc(#loc193)
      %19 = arith.andi %17, %18 : i1 loc(#loc193)
      %20 = arith.addi %13, %3 : i32 loc(#loc193)
      scf.yield %20 : i32 loc(#loc193)
    } else {
      %7 = arith.extsi %1 : i32 to i64 loc(#loc194)
      %8 = arith.extsi %c8_i32 : i32 to i64 loc(#loc194)
      %9 = arith.muli %7, %8 : i64 loc(#loc194)
      %c2147483647_i64 = arith.constant 2147483647 : i64 loc(#loc194)
      %c-2147483648_i64 = arith.constant -2147483648 : i64 loc(#loc194)
      %10 = arith.cmpi sle, %9, %c2147483647_i64 : i64 loc(#loc194)
      %11 = arith.cmpi sge, %9, %c-2147483648_i64 : i64 loc(#loc194)
      %12 = arith.andi %10, %11 : i1 loc(#loc194)
      %13 = arith.muli %1, %c8_i32 : i32 loc(#loc194)
      %14 = arith.extsi %2 : i32 to i64 loc(#loc195)
      %15 = arith.extsi %1 : i32 to i64 loc(#loc195)
      %16 = arith.subi %14, %15 : i64 loc(#loc195)
      %c2147483647_i64_5 = arith.constant 2147483647 : i64 loc(#loc195)
      %c-2147483648_i64_6 = arith.constant -2147483648 : i64 loc(#loc195)
      %17 = arith.cmpi sle, %16, %c2147483647_i64_5 : i64 loc(#loc195)
      %18 = arith.cmpi sge, %16, %c-2147483648_i64_6 : i64 loc(#loc195)
      %19 = arith.andi %17, %18 : i1 loc(#loc195)
      %20 = arith.subi %2, %1 : i32 loc(#loc195)
      %c1_i32 = arith.constant 1 : i32 loc(#loc196)
      %c1_i32_7 = arith.constant 1 : i32 loc(#loc196)
      %21 = arith.extsi %c8_i32 : i32 to i64 loc(#loc196)
      %22 = arith.extsi %c1_i32_7 : i32 to i64 loc(#loc196)
      %23 = arith.subi %21, %22 : i64 loc(#loc196)
      %c2147483647_i64_8 = arith.constant 2147483647 : i64 loc(#loc196)
      %c-2147483648_i64_9 = arith.constant -2147483648 : i64 loc(#loc196)
      %24 = arith.cmpi sle, %23, %c2147483647_i64_8 : i64 loc(#loc196)
      %25 = arith.cmpi sge, %23, %c-2147483648_i64_9 : i64 loc(#loc196)
      %26 = arith.andi %24, %25 : i1 loc(#loc196)
      %27 = arith.subi %c8_i32, %c1_i32_7 : i32 loc(#loc196)
      %28 = arith.extsi %20 : i32 to i64 loc(#loc197)
      %29 = arith.extsi %27 : i32 to i64 loc(#loc197)
      %30 = arith.muli %28, %29 : i64 loc(#loc197)
      %c2147483647_i64_10 = arith.constant 2147483647 : i64 loc(#loc197)
      %c-2147483648_i64_11 = arith.constant -2147483648 : i64 loc(#loc197)
      %31 = arith.cmpi sle, %30, %c2147483647_i64_10 : i64 loc(#loc197)
      %32 = arith.cmpi sge, %30, %c-2147483648_i64_11 : i64 loc(#loc197)
      %33 = arith.andi %31, %32 : i1 loc(#loc197)
      %34 = arith.muli %20, %27 : i32 loc(#loc197)
      %35 = arith.extsi %13 : i32 to i64 loc(#loc198)
      %36 = arith.extsi %34 : i32 to i64 loc(#loc198)
      %37 = arith.addi %35, %36 : i64 loc(#loc198)
      %c2147483647_i64_12 = arith.constant 2147483647 : i64 loc(#loc198)
      %c-2147483648_i64_13 = arith.constant -2147483648 : i64 loc(#loc198)
      %38 = arith.cmpi sle, %37, %c2147483647_i64_12 : i64 loc(#loc198)
      %39 = arith.cmpi sge, %37, %c-2147483648_i64_13 : i64 loc(#loc198)
      %40 = arith.andi %38, %39 : i1 loc(#loc198)
      %41 = arith.addi %13, %34 : i32 loc(#loc198)
      %42 = arith.extsi %41 : i32 to i64 loc(#loc199)
      %43 = arith.extsi %3 : i32 to i64 loc(#loc199)
      %44 = arith.addi %42, %43 : i64 loc(#loc199)
      %c2147483647_i64_14 = arith.constant 2147483647 : i64 loc(#loc199)
      %c-2147483648_i64_15 = arith.constant -2147483648 : i64 loc(#loc199)
      %45 = arith.cmpi sle, %44, %c2147483647_i64_14 : i64 loc(#loc199)
      %46 = arith.cmpi sge, %44, %c-2147483648_i64_15 : i64 loc(#loc199)
      %47 = arith.andi %45, %46 : i1 loc(#loc199)
      %48 = arith.addi %41, %3 : i32 loc(#loc199)
      scf.yield %48 : i32 loc(#loc199)
    } loc(#loc191)
    tt.return %5 : i32 loc(#loc200)
  ^bb1:  // no predecessors
    %6 = ub.poison : i32 loc(#loc201)
    tt.return %6 : i32 loc(#loc201)
  } loc(#loc182)
  tt.func private @"__main__.cdiv_fn__i32__(1,)cconstexpr_64_"(%arg0: i32 loc("/home/mejiang/w1/test/triton/fa/flash-attention.py":168:0)) -> i32 attributes {noinline = false} {
    %c64_i32 = arith.constant 64 : i32 loc(#loc203)
    %c64_i32_0 = arith.constant 64 : i32 loc(#loc203)
    %0 = arith.extsi %arg0 : i32 to i64 loc(#loc203)
    %1 = arith.extsi %c64_i32_0 : i32 to i64 loc(#loc203)
    %2 = arith.addi %0, %1 : i64 loc(#loc203)
    %c2147483647_i64 = arith.constant 2147483647 : i64 loc(#loc203)
    %c-2147483648_i64 = arith.constant -2147483648 : i64 loc(#loc203)
    %3 = arith.cmpi sle, %2, %c2147483647_i64 : i64 loc(#loc203)
    %4 = arith.cmpi sge, %2, %c-2147483648_i64 : i64 loc(#loc203)
    %5 = arith.andi %3, %4 : i1 loc(#loc203)
    %6 = arith.addi %arg0, %c64_i32_0 : i32 loc(#loc203)
    %c1_i32 = arith.constant 1 : i32 loc(#loc204)
    %c1_i32_1 = arith.constant 1 : i32 loc(#loc204)
    %7 = arith.extsi %6 : i32 to i64 loc(#loc204)
    %8 = arith.extsi %c1_i32_1 : i32 to i64 loc(#loc204)
    %9 = arith.subi %7, %8 : i64 loc(#loc204)
    %c2147483647_i64_2 = arith.constant 2147483647 : i64 loc(#loc204)
    %c-2147483648_i64_3 = arith.constant -2147483648 : i64 loc(#loc204)
    %10 = arith.cmpi sle, %9, %c2147483647_i64_2 : i64 loc(#loc204)
    %11 = arith.cmpi sge, %9, %c-2147483648_i64_3 : i64 loc(#loc204)
    %12 = arith.andi %10, %11 : i1 loc(#loc204)
    %13 = arith.subi %6, %c1_i32_1 : i32 loc(#loc204)
    %c64_i32_4 = arith.constant 64 : i32 loc(#loc205)
    %c64_i32_5 = arith.constant 64 : i32 loc(#loc205)
    %14 = arith.divsi %13, %c64_i32_5 : i32 loc(#loc205)
    tt.return %14 : i32 loc(#loc206)
  ^bb1:  // no predecessors
    %15 = ub.poison : i32 loc(#loc207)
    tt.return %15 : i32 loc(#loc207)
  } loc(#loc202)
  tt.func private @"triton.language.standard.zeros____(0, 0)cconstexpr_256__(0, 1)cconstexpr_128__(1,)cconstexpr_fp32_"() -> tensor<256x128xf32> attributes {noinline = false} {
    %cst = arith.constant 0.000000e+00 : f32 loc(#loc209)
    %cst_0 = arith.constant dense<0.000000e+00> : tensor<256x128xf32> loc(#loc209)
    tt.return %cst_0 : tensor<256x128xf32> loc(#loc210)
  ^bb1:  // no predecessors
    %0 = ub.poison : tensor<256x128xf32> loc(#loc211)
    tt.return %0 : tensor<256x128xf32> loc(#loc211)
  } loc(#loc208)
  tt.func private @"__main__._attn_fwd_inner__fp32S256_128S_fp32S256S_fp32S256S_fp16S256_128S_Pfp16S128_64S_Pfp16S64_128S_i32_i32_i32_i32_i32_i32_fp32_i32_i32_i32_i32_i32S256S_i32S64S__(6,)cNone_(16,)cNone_(19,)cconstexpr_0__(20,)cconstexpr_0__(21,)cconstexpr_0__(22,)cNone_(23,)cNone_(24,)cNone_(25,)cNone_(26,)cNone_(27,)cconstexpr_False__(28,)cconstexpr_256__(29,)cconstexpr_128__(30,)cconstexpr_64__(33,)cconstexpr_False__(34,)cconstexpr_False__(35,)cconstexpr_False__(36,)cconstexpr_False__(37,)cconstexpr_False__(38,)cconstexpr_128__(39,)cconstexpr_0_d_1275174308246903__(40,)cconstexpr_False__(41,)cconstexpr_False__(42,)cconstexpr_False__(43,)cconstexpr_True_"(%arg0: tensor<256x128xf32> loc("/home/mejiang/w1/test/triton/fa/flash-attention.py":267:0), %arg1: tensor<256xf32> loc("/home/mejiang/w1/test/triton/fa/flash-attention.py":267:0), %arg2: tensor<256xf32> loc("/home/mejiang/w1/test/triton/fa/flash-attention.py":267:0), %arg3: tensor<256x128xf16> loc("/home/mejiang/w1/test/triton/fa/flash-attention.py":267:0), %arg4: tensor<128x64x!tt.ptr<f16>> loc("/home/mejiang/w1/test/triton/fa/flash-attention.py":267:0), %arg5: tensor<64x128x!tt.ptr<f16>> loc("/home/mejiang/w1/test/triton/fa/flash-attention.py":267:0), %arg6: i32 loc("/home/mejiang/w1/test/triton/fa/flash-attention.py":267:0), %arg7: i32 loc("/home/mejiang/w1/test/triton/fa/flash-attention.py":267:0), %arg8: i32 loc("/home/mejiang/w1/test/triton/fa/flash-attention.py":267:0), %arg9: i32 loc("/home/mejiang/w1/test/triton/fa/flash-attention.py":267:0), %arg10: i32 loc("/home/mejiang/w1/test/triton/fa/flash-attention.py":267:0), %arg11: i32 loc("/home/mejiang/w1/test/triton/fa/flash-attention.py":267:0), %arg12: f32 loc("/home/mejiang/w1/test/triton/fa/flash-attention.py":267:0), %arg13: i32 loc("/home/mejiang/w1/test/triton/fa/flash-attention.py":267:0), %arg14: i32 loc("/home/mejiang/w1/test/triton/fa/flash-attention.py":267:0), %arg15: i32 loc("/home/mejiang/w1/test/triton/fa/flash-attention.py":267:0), %arg16: i32 loc("/home/mejiang/w1/test/triton/fa/flash-attention.py":267:0), %arg17: tensor<256xi32> loc("/home/mejiang/w1/test/triton/fa/flash-attention.py":267:0), %arg18: tensor<64xi32> loc("/home/mejiang/w1/test/triton/fa/flash-attention.py":267:0)) -> (tensor<256x128xf32>, tensor<256xf32>, tensor<256xf32>) attributes {noinline = false} {
    %c64_i32 = arith.constant 64 : i32 loc(#loc213)
    %0 = arith.bitcast %arg15 : i32 to i32 loc(#loc213)
    %1 = arith.bitcast %arg16 : i32 to i32 loc(#loc213)
    %2 = arith.bitcast %c64_i32 : i32 to i32 loc(#loc213)
    %3 = ub.poison : i32 loc(#loc213)
    %4:5 = scf.for %arg19 = %0 to %1 step %2 iter_args(%arg20 = %arg0, %arg21 = %arg1, %arg22 = %arg2, %arg23 = %arg4, %arg24 = %arg5) -> (tensor<256x128xf32>, tensor<256xf32>, tensor<256xf32>, tensor<128x64x!tt.ptr<f16>>, tensor<64x128x!tt.ptr<f16>>)  : i32 {
      %8 = tt.call @"__main__.load_fn__Pfp16S128_64S_i32__(1,)cNone_(2,)cNone_(3,)cconstexpr_128_"(%arg23, %arg10) : (tensor<128x64x!tt.ptr<f16>>, i32) -> tensor<128x64xf16> loc(#loc214)
      %9 = tt.call @"triton.language.standard.zeros____(0, 0)cconstexpr_256__(0, 1)cconstexpr_64__(1,)cconstexpr_fp32_"() : () -> tensor<256x64xf32> loc(#loc215)
      %cst = arith.constant 0.000000e+00 : f32 loc(#loc216)
      %cst_0 = arith.constant dense<0.000000e+00> : tensor<256x64xf32> loc(#loc216)
      %10 = tt.dot %arg3, %8, %cst_0 : tensor<256x128xf16> * tensor<128x64xf16> -> tensor<256x64xf32> loc(#loc216)
      %11 = arith.addf %9, %10 : tensor<256x64xf32> loc(#loc217)
      %12 = tt.call @"triton.language.standard.max__fp32S256_64S__(1,)cconstexpr_1__(2,)cconstexpr_False__(3,)cconstexpr_True__(4,)cconstexpr_False_"(%11) : (tensor<256x64xf32>) -> tensor<256xf32> loc(#loc218)
      %13 = arith.maxnumf %arg22, %12 : tensor<256xf32> loc(#loc219)
      %cst_1 = arith.constant 0.127517432 : f32 loc(#loc220)
      %cst_2 = arith.constant 0.127517432 : f32 loc(#loc220)
      %cst_3 = arith.constant dense<0.127517432> : tensor<256xf32> loc(#loc220)
      %14 = arith.mulf %13, %cst_3 : tensor<256xf32> loc(#loc220)
      %cst_4 = arith.constant 0.127517432 : f32 loc(#loc221)
      %cst_5 = arith.constant 0.127517432 : f32 loc(#loc221)
      %cst_6 = arith.constant dense<0.127517432> : tensor<256x64xf32> loc(#loc221)
      %15 = arith.mulf %11, %cst_6 : tensor<256x64xf32> loc(#loc221)
      %16 = tt.expand_dims %14 {axis = 1 : i32} : tensor<256xf32> -> tensor<256x1xf32> loc(#loc222)
      %17 = tt.broadcast %16 : tensor<256x1xf32> -> tensor<256x64xf32> loc(#loc223)
      %18 = arith.subf %15, %17 : tensor<256x64xf32> loc(#loc223)
      %19 = math.exp2 %18 : tensor<256x64xf32> loc(#loc224)
      %20 = tt.call @"triton.language.standard.sum__fp32S256_64S__(1,)cconstexpr_1__(2,)cconstexpr_False__(3,)cNone"(%19) : (tensor<256x64xf32>) -> tensor<256xf32> loc(#loc225)
      %cst_7 = arith.constant 0.127517432 : f32 loc(#loc226)
      %cst_8 = arith.constant 0.127517432 : f32 loc(#loc226)
      %cst_9 = arith.constant dense<0.127517432> : tensor<256xf32> loc(#loc226)
      %21 = arith.mulf %arg22, %cst_9 : tensor<256xf32> loc(#loc226)
      %22 = arith.subf %21, %14 : tensor<256xf32> loc(#loc227)
      %23 = math.exp2 %22 : tensor<256xf32> loc(#loc228)
      %24 = tt.expand_dims %23 {axis = 1 : i32} : tensor<256xf32> -> tensor<256x1xf32> loc(#loc229)
      %25 = tt.broadcast %24 : tensor<256x1xf32> -> tensor<256x128xf32> loc(#loc230)
      %26 = arith.mulf %arg20, %25 : tensor<256x128xf32> loc(#loc230)
      %27 = tt.call @"__main__.load_fn__Pfp16S64_128S_i32__(1,)cNone_(2,)cNone_(4,)cconstexpr_128_"(%arg24, %arg10) : (tensor<64x128x!tt.ptr<f16>>, i32) -> tensor<64x128xf16> loc(#loc231)
      %28 = arith.mulf %arg21, %23 : tensor<256xf32> loc(#loc232)
      %29 = arith.addf %28, %20 : tensor<256xf32> loc(#loc233)
      %30 = arith.truncf %19 : tensor<256x64xf32> to tensor<256x64xf16> loc(#loc234)
      %cst_10 = arith.constant 0.000000e+00 : f32 loc(#loc235)
      %cst_11 = arith.constant dense<0.000000e+00> : tensor<256x128xf32> loc(#loc235)
      %31 = tt.dot %30, %27, %cst_11 : tensor<256x64xf16> * tensor<64x128xf16> -> tensor<256x128xf32> loc(#loc235)
      %32 = arith.addf %26, %31 : tensor<256x128xf32> loc(#loc236)
      %c64_i32_12 = arith.constant 64 : i32 loc(#loc237)
      %c64_i32_13 = arith.constant 64 : i32 loc(#loc237)
      %33 = arith.extsi %c64_i32_13 : i32 to i64 loc(#loc237)
      %34 = arith.extsi %arg6 : i32 to i64 loc(#loc237)
      %35 = arith.muli %33, %34 : i64 loc(#loc237)
      %c2147483647_i64 = arith.constant 2147483647 : i64 loc(#loc237)
      %c-2147483648_i64 = arith.constant -2147483648 : i64 loc(#loc237)
      %36 = arith.cmpi sle, %35, %c2147483647_i64 : i64 loc(#loc237)
      %37 = arith.cmpi sge, %35, %c-2147483648_i64 : i64 loc(#loc237)
      %38 = arith.andi %36, %37 : i1 loc(#loc237)
      %39 = arith.muli %c64_i32_13, %arg6 : i32 loc(#loc237)
      %40 = tt.splat %39 : i32 -> tensor<128x64xi32> loc(#loc238)
      %41 = tt.addptr %arg23, %40 : tensor<128x64x!tt.ptr<f16>>, tensor<128x64xi32> loc(#loc238)
      %c64_i32_14 = arith.constant 64 : i32 loc(#loc239)
      %c64_i32_15 = arith.constant 64 : i32 loc(#loc239)
      %42 = arith.extsi %c64_i32_15 : i32 to i64 loc(#loc239)
      %43 = arith.extsi %arg7 : i32 to i64 loc(#loc239)
      %44 = arith.muli %42, %43 : i64 loc(#loc239)
      %c2147483647_i64_16 = arith.constant 2147483647 : i64 loc(#loc239)
      %c-2147483648_i64_17 = arith.constant -2147483648 : i64 loc(#loc239)
      %45 = arith.cmpi sle, %44, %c2147483647_i64_16 : i64 loc(#loc239)
      %46 = arith.cmpi sge, %44, %c-2147483648_i64_17 : i64 loc(#loc239)
      %47 = arith.andi %45, %46 : i1 loc(#loc239)
      %48 = arith.muli %c64_i32_15, %arg7 : i32 loc(#loc239)
      %49 = tt.splat %48 : i32 -> tensor<64x128xi32> loc(#loc240)
      %50 = tt.addptr %arg24, %49 : tensor<64x128x!tt.ptr<f16>>, tensor<64x128xi32> loc(#loc240)
      scf.yield %32, %29, %13, %41, %50 : tensor<256x128xf32>, tensor<256xf32>, tensor<256xf32>, tensor<128x64x!tt.ptr<f16>>, tensor<64x128x!tt.ptr<f16>> loc(#loc241)
    } loc(#loc213)
    tt.return %4#0, %4#1, %4#2 : tensor<256x128xf32>, tensor<256xf32>, tensor<256xf32> loc(#loc242)
  ^bb1:  // no predecessors
    %5 = ub.poison : tensor<256x128xf32> loc(#loc243)
    %6 = ub.poison : tensor<256xf32> loc(#loc243)
    %7 = ub.poison : tensor<256xf32> loc(#loc243)
    tt.return %5, %6, %7 : tensor<256x128xf32>, tensor<256xf32>, tensor<256xf32> loc(#loc243)
  } loc(#loc212)
  tt.func private @"__main__.load_fn__Pfp16S128_64S_i32__(1,)cNone_(2,)cNone_(3,)cconstexpr_128_"(%arg0: tensor<128x64x!tt.ptr<f16>> loc("/home/mejiang/w1/test/triton/fa/flash-attention.py":201:0), %arg1: i32 loc("/home/mejiang/w1/test/triton/fa/flash-attention.py":201:0)) -> tensor<128x64xf16> attributes {noinline = false} {
    %0 = tt.load %arg0 : tensor<128x64x!tt.ptr<f16>> loc(#loc245)
    tt.return %0 : tensor<128x64xf16> loc(#loc246)
  ^bb1:  // no predecessors
    %1 = ub.poison : tensor<128x64xf16> loc(#loc247)
    tt.return %1 : tensor<128x64xf16> loc(#loc247)
  } loc(#loc244)
  tt.func private @"triton.language.standard.zeros____(0, 0)cconstexpr_256__(0, 1)cconstexpr_64__(1,)cconstexpr_fp32_"() -> tensor<256x64xf32> attributes {noinline = false} {
    %cst = arith.constant 0.000000e+00 : f32 loc(#loc209)
    %cst_0 = arith.constant dense<0.000000e+00> : tensor<256x64xf32> loc(#loc209)
    tt.return %cst_0 : tensor<256x64xf32> loc(#loc210)
  ^bb1:  // no predecessors
    %0 = ub.poison : tensor<256x64xf32> loc(#loc211)
    tt.return %0 : tensor<256x64xf32> loc(#loc211)
  } loc(#loc208)
  tt.func private @"triton.language.standard.max__fp32S256_64S__(1,)cconstexpr_1__(2,)cconstexpr_False__(3,)cconstexpr_True__(4,)cconstexpr_False_"(%arg0: tensor<256x64xf32> loc("/opt/venv/lib/python3.10/site-packages/triton/language/standard.py":174:0)) -> tensor<256xf32> attributes {noinline = false} {
    %0 = "tt.reduce"(%arg0) <{axis = 1 : i32}> ({
    ^bb0(%arg1: f32 loc(unknown), %arg2: f32 loc(unknown)):
      %2 = tt.call @triton.language.standard._elementwise_max__fp32_fp32__(%arg1, %arg2) : (f32, f32) -> f32 loc(#loc249)
      tt.reduce.return %2 : f32 loc(#loc249)
    }) : (tensor<256x64xf32>) -> tensor<256xf32> loc(#loc249)
    tt.return %0 : tensor<256xf32> loc(#loc250)
  ^bb1:  // no predecessors
    %1 = ub.poison : tensor<256xf32> loc(#loc251)
    tt.return %1 : tensor<256xf32> loc(#loc251)
  } loc(#loc248)
  tt.func private @triton.language.standard._elementwise_max__fp32_fp32__(%arg0: f32 loc("/opt/venv/lib/python3.10/site-packages/triton/language/standard.py":166:0), %arg1: f32 loc("/opt/venv/lib/python3.10/site-packages/triton/language/standard.py":166:0)) -> f32 attributes {noinline = false} {
    %0 = arith.maxnumf %arg0, %arg1 : f32 loc(#loc253)
    tt.return %0 : f32 loc(#loc254)
  ^bb1:  // no predecessors
    %1 = ub.poison : f32 loc(#loc255)
    tt.return %1 : f32 loc(#loc255)
  } loc(#loc252)
  tt.func private @"triton.language.standard.sum__fp32S256_64S__(1,)cconstexpr_1__(2,)cconstexpr_False__(3,)cNone"(%arg0: tensor<256x64xf32> loc("/opt/venv/lib/python3.10/site-packages/triton/language/standard.py":284:0)) -> tensor<256xf32> attributes {noinline = false} {
    %0 = "tt.reduce"(%arg0) <{axis = 1 : i32}> ({
    ^bb0(%arg1: f32 loc(unknown), %arg2: f32 loc(unknown)):
      %2 = tt.call @triton.language.standard._sum_combine__fp32_fp32__(%arg1, %arg2) : (f32, f32) -> f32 loc(#loc257)
      tt.reduce.return %2 : f32 loc(#loc257)
    }) : (tensor<256x64xf32>) -> tensor<256xf32> loc(#loc257)
    tt.return %0 : tensor<256xf32> loc(#loc258)
  ^bb1:  // no predecessors
    %1 = ub.poison : tensor<256xf32> loc(#loc259)
    tt.return %1 : tensor<256xf32> loc(#loc259)
  } loc(#loc256)
  tt.func private @triton.language.standard._sum_combine__fp32_fp32__(%arg0: f32 loc("/opt/venv/lib/python3.10/site-packages/triton/language/standard.py":259:0), %arg1: f32 loc("/opt/venv/lib/python3.10/site-packages/triton/language/standard.py":259:0)) -> f32 attributes {noinline = false} {
    %0 = arith.addf %arg0, %arg1 : f32 loc(#loc261)
    tt.return %0 : f32 loc(#loc262)
  ^bb1:  // no predecessors
    %1 = ub.poison : f32 loc(#loc263)
    tt.return %1 : f32 loc(#loc263)
  } loc(#loc260)
  tt.func private @"__main__.load_fn__Pfp16S64_128S_i32__(1,)cNone_(2,)cNone_(4,)cconstexpr_128_"(%arg0: tensor<64x128x!tt.ptr<f16>> loc("/home/mejiang/w1/test/triton/fa/flash-attention.py":201:0), %arg1: i32 loc("/home/mejiang/w1/test/triton/fa/flash-attention.py":201:0)) -> tensor<64x128xf16> attributes {noinline = false} {
    %0 = tt.load %arg0 : tensor<64x128x!tt.ptr<f16>> loc(#loc245)
    tt.return %0 : tensor<64x128xf16> loc(#loc246)
  ^bb1:  // no predecessors
    %1 = ub.poison : tensor<64x128xf16> loc(#loc247)
    tt.return %1 : tensor<64x128xf16> loc(#loc247)
  } loc(#loc244)
  tt.func private @"__main__._attn_fwd_inner__fp32S256_128S_fp32S256S_fp32S256S_fp16S256_128S_Pfp16S128_64S_Pfp16S64_128S_i32_i32_i32_i32_i32_i32_fp32_i32_i32_i32_i32_i32_i32_i32_i32S256S_i32S64S__(6,)cNone_(16,)cNone_(22,)cNone_(23,)cNone_(24,)cNone_(25,)cNone_(26,)cNone_(27,)cconstexpr_False__(28,)cconstexpr_256__(29,)cconstexpr_128__(30,)cconstexpr_64__(33,)cconstexpr_False__(34,)cconstexpr_True__(35,)cconstexpr_False__(36,)cconstexpr_False__(37,)cconstexpr_False__(38,)cconstexpr_128__(39,)cconstexpr_0_d_1275174308246903__(40,)cconstexpr_False__(41,)cconstexpr_False__(42,)cconstexpr_False__(43,)cconstexpr_False_"(%arg0: tensor<256x128xf32> loc("/home/mejiang/w1/test/triton/fa/flash-attention.py":267:0), %arg1: tensor<256xf32> loc("/home/mejiang/w1/test/triton/fa/flash-attention.py":267:0), %arg2: tensor<256xf32> loc("/home/mejiang/w1/test/triton/fa/flash-attention.py":267:0), %arg3: tensor<256x128xf16> loc("/home/mejiang/w1/test/triton/fa/flash-attention.py":267:0), %arg4: tensor<128x64x!tt.ptr<f16>> loc("/home/mejiang/w1/test/triton/fa/flash-attention.py":267:0), %arg5: tensor<64x128x!tt.ptr<f16>> loc("/home/mejiang/w1/test/triton/fa/flash-attention.py":267:0), %arg6: i32 loc("/home/mejiang/w1/test/triton/fa/flash-attention.py":267:0), %arg7: i32 loc("/home/mejiang/w1/test/triton/fa/flash-attention.py":267:0), %arg8: i32 loc("/home/mejiang/w1/test/triton/fa/flash-attention.py":267:0), %arg9: i32 loc("/home/mejiang/w1/test/triton/fa/flash-attention.py":267:0), %arg10: i32 loc("/home/mejiang/w1/test/triton/fa/flash-attention.py":267:0), %arg11: i32 loc("/home/mejiang/w1/test/triton/fa/flash-attention.py":267:0), %arg12: f32 loc("/home/mejiang/w1/test/triton/fa/flash-attention.py":267:0), %arg13: i32 loc("/home/mejiang/w1/test/triton/fa/flash-attention.py":267:0), %arg14: i32 loc("/home/mejiang/w1/test/triton/fa/flash-attention.py":267:0), %arg15: i32 loc("/home/mejiang/w1/test/triton/fa/flash-attention.py":267:0), %arg16: i32 loc("/home/mejiang/w1/test/triton/fa/flash-attention.py":267:0), %arg17: i32 loc("/home/mejiang/w1/test/triton/fa/flash-attention.py":267:0), %arg18: i32 loc("/home/mejiang/w1/test/triton/fa/flash-attention.py":267:0), %arg19: i32 loc("/home/mejiang/w1/test/triton/fa/flash-attention.py":267:0), %arg20: tensor<256xi32> loc("/home/mejiang/w1/test/triton/fa/flash-attention.py":267:0), %arg21: tensor<64xi32> loc("/home/mejiang/w1/test/triton/fa/flash-attention.py":267:0)) -> (tensor<256x128xf32>, tensor<256xf32>, tensor<256xf32>) attributes {noinline = false} {
    %c64_i32 = arith.constant 64 : i32 loc(#loc213)
    %0 = arith.bitcast %arg15 : i32 to i32 loc(#loc213)
    %1 = arith.bitcast %arg16 : i32 to i32 loc(#loc213)
    %2 = arith.bitcast %c64_i32 : i32 to i32 loc(#loc213)
    %3 = ub.poison : i32 loc(#loc213)
    %4:5 = scf.for %arg22 = %0 to %1 step %2 iter_args(%arg23 = %arg0, %arg24 = %arg1, %arg25 = %arg2, %arg26 = %arg4, %arg27 = %arg5) -> (tensor<256x128xf32>, tensor<256xf32>, tensor<256xf32>, tensor<128x64x!tt.ptr<f16>>, tensor<64x128x!tt.ptr<f16>>)  : i32 {
      %8 = tt.make_range {end = 64 : i32, start = 0 : i32} : tensor<64xi32> loc(#loc264)
      %9 = tt.splat %arg22 : i32 -> tensor<64xi32> loc(#loc265)
      %10 = arith.extsi %9 : tensor<64xi32> to tensor<64xi64> loc(#loc265)
      %11 = arith.extsi %8 : tensor<64xi32> to tensor<64xi64> loc(#loc265)
      %12 = arith.addi %10, %11 : tensor<64xi64> loc(#loc265)
      %c2147483647_i64 = arith.constant 2147483647 : i64 loc(#loc265)
      %c-2147483648_i64 = arith.constant -2147483648 : i64 loc(#loc265)
      %cst = arith.constant dense<2147483647> : tensor<64xi64> loc(#loc265)
      %13 = arith.cmpi sle, %12, %cst : tensor<64xi64> loc(#loc265)
      %cst_0 = arith.constant dense<-2147483648> : tensor<64xi64> loc(#loc265)
      %14 = arith.cmpi sge, %12, %cst_0 : tensor<64xi64> loc(#loc265)
      %15 = arith.andi %13, %14 : tensor<64xi1> loc(#loc265)
      %16 = arith.addi %9, %8 : tensor<64xi32> loc(#loc265)
      %17 = tt.call @"__main__.load_fn__Pfp16S128_64S_i32S64S_i32__(1,)cNone_(3,)cconstexpr_128_"(%arg26, %16, %arg10) : (tensor<128x64x!tt.ptr<f16>>, tensor<64xi32>, i32) -> tensor<128x64xf16> loc(#loc214)
      %18 = tt.call @"triton.language.standard.zeros____(0, 0)cconstexpr_256__(0, 1)cconstexpr_64__(1,)cconstexpr_fp32_"() : () -> tensor<256x64xf32> loc(#loc215)
      %c64_i32_1 = arith.constant 64 : i32 loc(#loc266)
      %c64_i32_2 = arith.constant 64 : i32 loc(#loc266)
      %19 = arith.extsi %arg22 : i32 to i64 loc(#loc266)
      %20 = arith.extsi %c64_i32_2 : i32 to i64 loc(#loc266)
      %21 = arith.addi %19, %20 : i64 loc(#loc266)
      %c2147483647_i64_3 = arith.constant 2147483647 : i64 loc(#loc266)
      %c-2147483648_i64_4 = arith.constant -2147483648 : i64 loc(#loc266)
      %22 = arith.cmpi sle, %21, %c2147483647_i64_3 : i64 loc(#loc266)
      %23 = arith.cmpi sge, %21, %c-2147483648_i64_4 : i64 loc(#loc266)
      %24 = arith.andi %22, %23 : i1 loc(#loc266)
      %25 = arith.addi %arg22, %c64_i32_2 : i32 loc(#loc266)
      %26 = arith.cmpi eq, %25, %arg16 : i32 loc(#loc267)
      %c0_i32 = arith.constant 0 : i32 loc(#loc268)
      %27 = arith.cmpi ne, %arg19, %c0_i32 : i32 loc(#loc268)
      %28 = arith.andi %26, %27 : i1 loc(#loc269)
      %29 = scf.if %28 -> (tensor<256x64xf32>) {
        %71 = tt.splat %arg10 : i32 -> tensor<256xi32> loc(#loc271)
        %72 = tt.expand_dims %arg21 {axis = 0 : i32} : tensor<64xi32> -> tensor<1x64xi32> loc(#loc272)
        %73 = tt.splat %arg22 : i32 -> tensor<1x64xi32> loc(#loc273)
        %74 = arith.extsi %73 : tensor<1x64xi32> to tensor<1x64xi64> loc(#loc273)
        %75 = arith.extsi %72 : tensor<1x64xi32> to tensor<1x64xi64> loc(#loc273)
        %76 = arith.addi %74, %75 : tensor<1x64xi64> loc(#loc273)
        %c2147483647_i64_26 = arith.constant 2147483647 : i64 loc(#loc273)
        %c-2147483648_i64_27 = arith.constant -2147483648 : i64 loc(#loc273)
        %cst_28 = arith.constant dense<2147483647> : tensor<1x64xi64> loc(#loc273)
        %77 = arith.cmpi sle, %76, %cst_28 : tensor<1x64xi64> loc(#loc273)
        %cst_29 = arith.constant dense<-2147483648> : tensor<1x64xi64> loc(#loc273)
        %78 = arith.cmpi sge, %76, %cst_29 : tensor<1x64xi64> loc(#loc273)
        %79 = arith.andi %77, %78 : tensor<1x64xi1> loc(#loc273)
        %80 = arith.addi %73, %72 : tensor<1x64xi32> loc(#loc273)
        %81 = tt.expand_dims %71 {axis = 1 : i32} : tensor<256xi32> -> tensor<256x1xi32> loc(#loc274)
        %82 = tt.broadcast %80 : tensor<1x64xi32> -> tensor<256x64xi32> loc(#loc275)
        %83 = tt.broadcast %81 : tensor<256x1xi32> -> tensor<256x64xi32> loc(#loc275)
        %84 = arith.cmpi slt, %82, %83 : tensor<256x64xi32> loc(#loc275)
        %cst_30 = arith.constant 0xFF800000 : f32 loc(#loc276)
        %cst_31 = arith.constant 0xFF800000 : f32 loc(#loc276)
        %cst_32 = arith.constant dense<0xFF800000> : tensor<256x64xf32> loc(#loc276)
        %85 = arith.select %84, %18, %cst_32 : tensor<256x64xi1>, tensor<256x64xf32> loc(#loc276)
        scf.yield %85 : tensor<256x64xf32> loc(#loc276)
      } else {
        scf.yield %18 : tensor<256x64xf32> loc(#loc41)
      } loc(#loc270)
      %cst_5 = arith.constant 0.000000e+00 : f32 loc(#loc216)
      %cst_6 = arith.constant dense<0.000000e+00> : tensor<256x64xf32> loc(#loc216)
      %30 = tt.dot %arg3, %17, %cst_6 : tensor<256x128xf16> * tensor<128x64xf16> -> tensor<256x64xf32> loc(#loc216)
      %31 = arith.addf %29, %30 : tensor<256x64xf32> loc(#loc217)
      %32 = tt.call @"triton.language.standard.max__fp32S256_64S__(1,)cconstexpr_1__(2,)cconstexpr_False__(3,)cconstexpr_True__(4,)cconstexpr_False_"(%31) : (tensor<256x64xf32>) -> tensor<256xf32> loc(#loc218)
      %33 = arith.maxnumf %arg25, %32 : tensor<256xf32> loc(#loc219)
      %cst_7 = arith.constant 0.127517432 : f32 loc(#loc220)
      %cst_8 = arith.constant 0.127517432 : f32 loc(#loc220)
      %cst_9 = arith.constant dense<0.127517432> : tensor<256xf32> loc(#loc220)
      %34 = arith.mulf %33, %cst_9 : tensor<256xf32> loc(#loc220)
      %cst_10 = arith.constant 0.127517432 : f32 loc(#loc221)
      %cst_11 = arith.constant 0.127517432 : f32 loc(#loc221)
      %cst_12 = arith.constant dense<0.127517432> : tensor<256x64xf32> loc(#loc221)
      %35 = arith.mulf %31, %cst_12 : tensor<256x64xf32> loc(#loc221)
      %36 = tt.expand_dims %34 {axis = 1 : i32} : tensor<256xf32> -> tensor<256x1xf32> loc(#loc222)
      %37 = tt.broadcast %36 : tensor<256x1xf32> -> tensor<256x64xf32> loc(#loc223)
      %38 = arith.subf %35, %37 : tensor<256x64xf32> loc(#loc223)
      %39 = math.exp2 %38 : tensor<256x64xf32> loc(#loc224)
      %40 = tt.call @"triton.language.standard.sum__fp32S256_64S__(1,)cconstexpr_1__(2,)cconstexpr_False__(3,)cNone"(%39) : (tensor<256x64xf32>) -> tensor<256xf32> loc(#loc225)
      %cst_13 = arith.constant 0.127517432 : f32 loc(#loc226)
      %cst_14 = arith.constant 0.127517432 : f32 loc(#loc226)
      %cst_15 = arith.constant dense<0.127517432> : tensor<256xf32> loc(#loc226)
      %41 = arith.mulf %arg25, %cst_15 : tensor<256xf32> loc(#loc226)
      %42 = arith.subf %41, %34 : tensor<256xf32> loc(#loc227)
      %43 = math.exp2 %42 : tensor<256xf32> loc(#loc228)
      %44 = tt.expand_dims %43 {axis = 1 : i32} : tensor<256xf32> -> tensor<256x1xf32> loc(#loc229)
      %45 = tt.broadcast %44 : tensor<256x1xf32> -> tensor<256x128xf32> loc(#loc230)
      %46 = arith.mulf %arg23, %45 : tensor<256x128xf32> loc(#loc230)
      %47 = tt.call @"__main__.load_fn__Pfp16S64_128S_i32S64S_i32__(2,)cNone_(4,)cconstexpr_128_"(%arg27, %16, %arg10) : (tensor<64x128x!tt.ptr<f16>>, tensor<64xi32>, i32) -> tensor<64x128xf16> loc(#loc231)
      %48 = arith.mulf %arg24, %43 : tensor<256xf32> loc(#loc232)
      %49 = arith.addf %48, %40 : tensor<256xf32> loc(#loc233)
      %50 = arith.truncf %39 : tensor<256x64xf32> to tensor<256x64xf16> loc(#loc234)
      %cst_16 = arith.constant 0.000000e+00 : f32 loc(#loc235)
      %cst_17 = arith.constant dense<0.000000e+00> : tensor<256x128xf32> loc(#loc235)
      %51 = tt.dot %50, %47, %cst_17 : tensor<256x64xf16> * tensor<64x128xf16> -> tensor<256x128xf32> loc(#loc235)
      %52 = arith.addf %46, %51 : tensor<256x128xf32> loc(#loc236)
      %c64_i32_18 = arith.constant 64 : i32 loc(#loc237)
      %c64_i32_19 = arith.constant 64 : i32 loc(#loc237)
      %53 = arith.extsi %c64_i32_19 : i32 to i64 loc(#loc237)
      %54 = arith.extsi %arg6 : i32 to i64 loc(#loc237)
      %55 = arith.muli %53, %54 : i64 loc(#loc237)
      %c2147483647_i64_20 = arith.constant 2147483647 : i64 loc(#loc237)
      %c-2147483648_i64_21 = arith.constant -2147483648 : i64 loc(#loc237)
      %56 = arith.cmpi sle, %55, %c2147483647_i64_20 : i64 loc(#loc237)
      %57 = arith.cmpi sge, %55, %c-2147483648_i64_21 : i64 loc(#loc237)
      %58 = arith.andi %56, %57 : i1 loc(#loc237)
      %59 = arith.muli %c64_i32_19, %arg6 : i32 loc(#loc237)
      %60 = tt.splat %59 : i32 -> tensor<128x64xi32> loc(#loc238)
      %61 = tt.addptr %arg26, %60 : tensor<128x64x!tt.ptr<f16>>, tensor<128x64xi32> loc(#loc238)
      %c64_i32_22 = arith.constant 64 : i32 loc(#loc239)
      %c64_i32_23 = arith.constant 64 : i32 loc(#loc239)
      %62 = arith.extsi %c64_i32_23 : i32 to i64 loc(#loc239)
      %63 = arith.extsi %arg7 : i32 to i64 loc(#loc239)
      %64 = arith.muli %62, %63 : i64 loc(#loc239)
      %c2147483647_i64_24 = arith.constant 2147483647 : i64 loc(#loc239)
      %c-2147483648_i64_25 = arith.constant -2147483648 : i64 loc(#loc239)
      %65 = arith.cmpi sle, %64, %c2147483647_i64_24 : i64 loc(#loc239)
      %66 = arith.cmpi sge, %64, %c-2147483648_i64_25 : i64 loc(#loc239)
      %67 = arith.andi %65, %66 : i1 loc(#loc239)
      %68 = arith.muli %c64_i32_23, %arg7 : i32 loc(#loc239)
      %69 = tt.splat %68 : i32 -> tensor<64x128xi32> loc(#loc240)
      %70 = tt.addptr %arg27, %69 : tensor<64x128x!tt.ptr<f16>>, tensor<64x128xi32> loc(#loc240)
      scf.yield %52, %49, %33, %61, %70 : tensor<256x128xf32>, tensor<256xf32>, tensor<256xf32>, tensor<128x64x!tt.ptr<f16>>, tensor<64x128x!tt.ptr<f16>> loc(#loc241)
    } {tt.num_stages = 1 : i32} loc(#loc213)
    tt.return %4#0, %4#1, %4#2 : tensor<256x128xf32>, tensor<256xf32>, tensor<256xf32> loc(#loc242)
  ^bb1:  // no predecessors
    %5 = ub.poison : tensor<256x128xf32> loc(#loc243)
    %6 = ub.poison : tensor<256xf32> loc(#loc243)
    %7 = ub.poison : tensor<256xf32> loc(#loc243)
    tt.return %5, %6, %7 : tensor<256x128xf32>, tensor<256xf32>, tensor<256xf32> loc(#loc243)
  } loc(#loc212)
  tt.func private @"__main__.load_fn__Pfp16S128_64S_i32S64S_i32__(1,)cNone_(3,)cconstexpr_128_"(%arg0: tensor<128x64x!tt.ptr<f16>> loc("/home/mejiang/w1/test/triton/fa/flash-attention.py":201:0), %arg1: tensor<64xi32> loc("/home/mejiang/w1/test/triton/fa/flash-attention.py":201:0), %arg2: i32 loc("/home/mejiang/w1/test/triton/fa/flash-attention.py":201:0)) -> tensor<128x64xf16> attributes {noinline = false} {
    %0 = tt.expand_dims %arg1 {axis = 0 : i32} : tensor<64xi32> -> tensor<1x64xi32> loc(#loc277)
    %1 = tt.splat %arg2 : i32 -> tensor<1x64xi32> loc(#loc278)
    %2 = arith.cmpi slt, %0, %1 : tensor<1x64xi32> loc(#loc278)
    %cst = arith.constant 0.000000e+00 : f32 loc(#loc279)
    %3 = tt.broadcast %2 : tensor<1x64xi1> -> tensor<128x64xi1> loc(#loc279)
    %cst_0 = arith.constant dense<0.000000e+00> : tensor<128x64xf32> loc(#loc279)
    %4 = arith.truncf %cst_0 : tensor<128x64xf32> to tensor<128x64xf16> loc(#loc279)
    %5 = tt.load %arg0, %3, %4 : tensor<128x64x!tt.ptr<f16>> loc(#loc279)
    tt.return %5 : tensor<128x64xf16> loc(#loc246)
  ^bb1:  // no predecessors
    %6 = ub.poison : tensor<128x64xf16> loc(#loc247)
    tt.return %6 : tensor<128x64xf16> loc(#loc247)
  } loc(#loc244)
  tt.func private @"__main__.load_fn__Pfp16S64_128S_i32S64S_i32__(2,)cNone_(4,)cconstexpr_128_"(%arg0: tensor<64x128x!tt.ptr<f16>> loc("/home/mejiang/w1/test/triton/fa/flash-attention.py":201:0), %arg1: tensor<64xi32> loc("/home/mejiang/w1/test/triton/fa/flash-attention.py":201:0), %arg2: i32 loc("/home/mejiang/w1/test/triton/fa/flash-attention.py":201:0)) -> tensor<64x128xf16> attributes {noinline = false} {
    %0 = tt.expand_dims %arg1 {axis = 1 : i32} : tensor<64xi32> -> tensor<64x1xi32> loc(#loc280)
    %1 = tt.splat %arg2 : i32 -> tensor<64x1xi32> loc(#loc281)
    %2 = arith.cmpi slt, %0, %1 : tensor<64x1xi32> loc(#loc281)
    %cst = arith.constant 0.000000e+00 : f32 loc(#loc282)
    %3 = tt.broadcast %2 : tensor<64x1xi1> -> tensor<64x128xi1> loc(#loc282)
    %cst_0 = arith.constant dense<0.000000e+00> : tensor<64x128xf32> loc(#loc282)
    %4 = arith.truncf %cst_0 : tensor<64x128xf32> to tensor<64x128xf16> loc(#loc282)
    %5 = tt.load %arg0, %3, %4 : tensor<64x128x!tt.ptr<f16>> loc(#loc282)
    tt.return %5 : tensor<64x128xf16> loc(#loc246)
  ^bb1:  // no predecessors
    %6 = ub.poison : tensor<64x128xf16> loc(#loc247)
    tt.return %6 : tensor<64x128xf16> loc(#loc247)
  } loc(#loc244)
} loc(#loc)
#loc1 = loc("/home/mejiang/w1/test/triton/fa/flash-attention.py":477:27)
#loc2 = loc("/home/mejiang/w1/test/triton/fa/flash-attention.py":477:14)
#loc3 = loc("/home/mejiang/w1/test/triton/fa/flash-attention.py":478:27)
#loc4 = loc("/home/mejiang/w1/test/triton/fa/flash-attention.py":478:14)
#loc5 = loc("/home/mejiang/w1/test/triton/fa/flash-attention.py":479:27)
#loc6 = loc("/home/mejiang/w1/test/triton/fa/flash-attention.py":479:14)
#loc7 = loc("/home/mejiang/w1/test/triton/fa/flash-attention.py":480:14)
#loc8 = loc("/home/mejiang/w1/test/triton/fa/flash-attention.py":481:27)
#loc9 = loc("/home/mejiang/w1/test/triton/fa/flash-attention.py":481:14)
#loc10 = loc("/home/mejiang/w1/test/triton/fa/flash-attention.py":482:27)
#loc11 = loc("/home/mejiang/w1/test/triton/fa/flash-attention.py":482:14)
#loc12 = loc("/home/mejiang/w1/test/triton/fa/flash-attention.py":483:27)
#loc13 = loc("/home/mejiang/w1/test/triton/fa/flash-attention.py":483:14)
#loc14 = loc("/home/mejiang/w1/test/triton/fa/flash-attention.py":484:14)
#loc15 = loc("/home/mejiang/w1/test/triton/fa/flash-attention.py":485:27)
#loc16 = loc("/home/mejiang/w1/test/triton/fa/flash-attention.py":485:14)
#loc17 = loc("/home/mejiang/w1/test/triton/fa/flash-attention.py":486:27)
#loc18 = loc("/home/mejiang/w1/test/triton/fa/flash-attention.py":486:14)
#loc19 = loc("/home/mejiang/w1/test/triton/fa/flash-attention.py":487:27)
#loc20 = loc("/home/mejiang/w1/test/triton/fa/flash-attention.py":487:14)
#loc21 = loc("/home/mejiang/w1/test/triton/fa/flash-attention.py":488:27)
#loc22 = loc("/home/mejiang/w1/test/triton/fa/flash-attention.py":488:14)
#loc23 = loc("/home/mejiang/w1/test/triton/fa/flash-attention.py":489:27)
#loc24 = loc("/home/mejiang/w1/test/triton/fa/flash-attention.py":489:14)
#loc25 = loc("/home/mejiang/w1/test/triton/fa/flash-attention.py":490:27)
#loc26 = loc("/home/mejiang/w1/test/triton/fa/flash-attention.py":490:14)
#loc27 = loc("/home/mejiang/w1/test/triton/fa/flash-attention.py":491:27)
#loc28 = loc("/home/mejiang/w1/test/triton/fa/flash-attention.py":491:14)
#loc29 = loc("/home/mejiang/w1/test/triton/fa/flash-attention.py":492:14)
#loc30 = loc("/home/mejiang/w1/test/triton/fa/flash-attention.py":493:27)
#loc31 = loc("/home/mejiang/w1/test/triton/fa/flash-attention.py":493:14)
#loc32 = loc("/home/mejiang/w1/test/triton/fa/flash-attention.py":494:27)
#loc33 = loc("/home/mejiang/w1/test/triton/fa/flash-attention.py":494:14)
#loc34 = loc("/home/mejiang/w1/test/triton/fa/flash-attention.py":495:27)
#loc35 = loc("/home/mejiang/w1/test/triton/fa/flash-attention.py":495:14)
#loc36 = loc("/home/mejiang/w1/test/triton/fa/flash-attention.py":496:14)
#loc37 = loc("/home/mejiang/w1/test/triton/fa/flash-attention.py":508:18)
#loc38 = loc("/home/mejiang/w1/test/triton/fa/flash-attention.py":509:26)
#loc39 = loc("/home/mejiang/w1/test/triton/fa/flash-attention.py":511:4)
#loc40 = loc("/home/mejiang/w1/test/triton/fa/flash-attention.py":511:20)
#loc42 = loc("/home/mejiang/w1/test/triton/fa/flash-attention.py":520:36)
#loc43 = loc("/home/mejiang/w1/test/triton/fa/flash-attention.py":521:41)
#loc44 = loc("/home/mejiang/w1/test/triton/fa/flash-attention.py":522:36)
#loc45 = loc("/home/mejiang/w1/test/triton/fa/flash-attention.py":523:34)
#loc46 = loc("/home/mejiang/w1/test/triton/fa/flash-attention.py":525:27)
#loc47 = loc("/home/mejiang/w1/test/triton/fa/flash-attention.py":525:50)
#loc48 = loc("/home/mejiang/w1/test/triton/fa/flash-attention.py":525:37)
#loc49 = loc("/home/mejiang/w1/test/triton/fa/flash-attention.py":526:30)
#loc50 = loc("/home/mejiang/w1/test/triton/fa/flash-attention.py":527:30)
#loc51 = loc("/home/mejiang/w1/test/triton/fa/flash-attention.py":529:29)
#loc52 = loc("/home/mejiang/w1/test/triton/fa/flash-attention.py":544:33)
#loc53 = loc("/home/mejiang/w1/test/triton/fa/flash-attention.py":545:33)
#loc54 = loc("/home/mejiang/w1/test/triton/fa/flash-attention.py":546:23)
#loc55 = loc("/home/mejiang/w1/test/triton/fa/flash-attention.py":547:23)
#loc56 = loc("/home/mejiang/w1/test/triton/fa/flash-attention.py":549:11)
#loc57 = loc("/home/mejiang/w1/test/triton/fa/flash-attention.py":556:41)
#loc58 = loc("/home/mejiang/w1/test/triton/fa/flash-attention.py":588:15)
#loc59 = loc("/home/mejiang/w1/test/triton/fa/flash-attention.py":596:33)
#loc60 = loc("/home/mejiang/w1/test/triton/fa/flash-attention.py":597:30)
#loc61 = loc("/home/mejiang/w1/test/triton/fa/flash-attention.py":597:19)
#loc62 = loc("/home/mejiang/w1/test/triton/fa/flash-attention.py":598:47)
#loc63 = loc("/home/mejiang/w1/test/triton/fa/flash-attention.py":599:32)
#loc64 = loc("/home/mejiang/w1/test/triton/fa/flash-attention.py":599:21)
#loc65 = loc("/home/mejiang/w1/test/triton/fa/flash-attention.py":600:48)
#loc66 = loc("/home/mejiang/w1/test/triton/fa/flash-attention.py":604:39)
#loc67 = loc("/home/mejiang/w1/test/triton/fa/flash-attention.py":604:31)
#loc68 = loc("/home/mejiang/w1/test/triton/fa/flash-attention.py":604:61)
#loc69 = loc("/home/mejiang/w1/test/triton/fa/flash-attention.py":604:51)
#loc70 = loc("/home/mejiang/w1/test/triton/fa/flash-attention.py":604:94)
#loc71 = loc("/home/mejiang/w1/test/triton/fa/flash-attention.py":604:73)
#loc72 = loc("/home/mejiang/w1/test/triton/fa/flash-attention.py":605:43)
#loc73 = loc("/home/mejiang/w1/test/triton/fa/flash-attention.py":605:54)
#loc74 = loc("/home/mejiang/w1/test/triton/fa/flash-attention.py":605:36)
#loc75 = loc("/home/mejiang/w1/test/triton/fa/flash-attention.py":605:73)
#loc76 = loc("/home/mejiang/w1/test/triton/fa/flash-attention.py":605:84)
#loc77 = loc("/home/mejiang/w1/test/triton/fa/flash-attention.py":605:66)
#loc78 = loc("/home/mejiang/w1/test/triton/fa/flash-attention.py":606:39)
#loc79 = loc("/home/mejiang/w1/test/triton/fa/flash-attention.py":606:31)
#loc80 = loc("/home/mejiang/w1/test/triton/fa/flash-attention.py":606:61)
#loc81 = loc("/home/mejiang/w1/test/triton/fa/flash-attention.py":606:51)
#loc82 = loc("/home/mejiang/w1/test/triton/fa/flash-attention.py":606:94)
#loc83 = loc("/home/mejiang/w1/test/triton/fa/flash-attention.py":606:73)
#loc84 = loc("/home/mejiang/w1/test/triton/fa/flash-attention.py":607:43)
#loc85 = loc("/home/mejiang/w1/test/triton/fa/flash-attention.py":607:54)
#loc86 = loc("/home/mejiang/w1/test/triton/fa/flash-attention.py":607:36)
#loc87 = loc("/home/mejiang/w1/test/triton/fa/flash-attention.py":607:73)
#loc88 = loc("/home/mejiang/w1/test/triton/fa/flash-attention.py":607:84)
#loc89 = loc("/home/mejiang/w1/test/triton/fa/flash-attention.py":607:66)
#loc90 = loc("/home/mejiang/w1/test/triton/fa/flash-attention.py":608:39)
#loc91 = loc("/home/mejiang/w1/test/triton/fa/flash-attention.py":608:31)
#loc92 = loc("/home/mejiang/w1/test/triton/fa/flash-attention.py":608:61)
#loc93 = loc("/home/mejiang/w1/test/triton/fa/flash-attention.py":608:51)
#loc94 = loc("/home/mejiang/w1/test/triton/fa/flash-attention.py":608:94)
#loc95 = loc("/home/mejiang/w1/test/triton/fa/flash-attention.py":608:73)
#loc96 = loc("/home/mejiang/w1/test/triton/fa/flash-attention.py":609:43)
#loc97 = loc("/home/mejiang/w1/test/triton/fa/flash-attention.py":609:54)
#loc98 = loc("/home/mejiang/w1/test/triton/fa/flash-attention.py":609:36)
#loc99 = loc("/home/mejiang/w1/test/triton/fa/flash-attention.py":609:73)
#loc100 = loc("/home/mejiang/w1/test/triton/fa/flash-attention.py":609:84)
#loc101 = loc("/home/mejiang/w1/test/triton/fa/flash-attention.py":609:66)
#loc102 = loc("/home/mejiang/w1/test/triton/fa/flash-attention.py":639:42)
#loc103 = loc("/home/mejiang/w1/test/triton/fa/flash-attention.py":648:41)
#loc104 = loc("/home/mejiang/w1/test/triton/fa/flash-attention.py":649:41)
#loc105 = loc("/home/mejiang/w1/test/triton/fa/flash-attention.py":650:31)
#loc106 = loc("/home/mejiang/w1/test/triton/fa/flash-attention.py":655:37)
#loc107 = loc("/home/mejiang/w1/test/triton/fa/flash-attention.py":655:48)
#loc108 = loc("/home/mejiang/w1/test/triton/fa/flash-attention.py":658:28)
#loc109 = loc("/home/mejiang/w1/test/triton/fa/flash-attention.py":680:51)
#loc110 = loc("/home/mejiang/w1/test/triton/fa/flash-attention.py":681:35)
#loc111 = loc("/home/mejiang/w1/test/triton/fa/flash-attention.py":681:66)
#loc112 = loc("/home/mejiang/w1/test/triton/fa/flash-attention.py":681:77)
#loc113 = loc("/home/mejiang/w1/test/triton/fa/flash-attention.py":681:55)
#loc114 = loc("/home/mejiang/w1/test/triton/fa/flash-attention.py":691:51)
#loc115 = loc("/home/mejiang/w1/test/triton/fa/flash-attention.py":692:43)
#loc116 = loc("/home/mejiang/w1/test/triton/fa/flash-attention.py":693:28)
#loc117 = loc("/home/mejiang/w1/test/triton/fa/flash-attention.py":694:39)
#loc118 = loc("/home/mejiang/w1/test/triton/fa/flash-attention.py":697:35)
#loc119 = loc("/home/mejiang/w1/test/triton/fa/flash-attention.py":697:19)
#loc120 = loc("/home/mejiang/w1/test/triton/fa/flash-attention.py":698:44)
#loc121 = loc("/home/mejiang/w1/test/triton/fa/flash-attention.py":698:61)
#loc122 = loc("/home/mejiang/w1/test/triton/fa/flash-attention.py":710:61)
#loc123 = loc("/home/mejiang/w1/test/triton/fa/flash-attention.py":712:43)
#loc124 = loc("/home/mejiang/w1/test/triton/fa/flash-attention.py":714:16)
#loc125 = loc("/home/mejiang/w1/test/triton/fa/flash-attention.py":716:36)
#loc126 = loc("/home/mejiang/w1/test/triton/fa/flash-attention.py":716:20)
#loc127 = loc("/home/mejiang/w1/test/triton/fa/flash-attention.py":720:40)
#loc128 = loc("/home/mejiang/w1/test/triton/fa/flash-attention.py":721:46)
#loc129 = loc("/home/mejiang/w1/test/triton/fa/flash-attention.py":721:56)
#loc130 = loc("/home/mejiang/w1/test/triton/fa/flash-attention.py":721:30)
#loc131 = loc("/home/mejiang/w1/test/triton/fa/flash-attention.py":722:46)
#loc132 = loc("/home/mejiang/w1/test/triton/fa/flash-attention.py":722:56)
#loc133 = loc("/home/mejiang/w1/test/triton/fa/flash-attention.py":722:30)
#loc134 = loc("/home/mejiang/w1/test/triton/fa/flash-attention.py":734:67)
#loc135 = loc("/home/mejiang/w1/test/triton/fa/flash-attention.py":743:34)
#loc136 = loc("/home/mejiang/w1/test/triton/fa/flash-attention.py":743:30)
#loc137 = loc("/home/mejiang/w1/test/triton/fa/flash-attention.py":744:28)
#loc138 = loc("/home/mejiang/w1/test/triton/fa/flash-attention.py":752:39)
#loc139 = loc("/home/mejiang/w1/test/triton/fa/flash-attention.py":752:44)
#loc140 = loc("/home/mejiang/w1/test/triton/fa/flash-attention.py":753:40)
#loc141 = loc("/home/mejiang/w1/test/triton/fa/flash-attention.py":754:46)
#loc142 = loc("/home/mejiang/w1/test/triton/fa/flash-attention.py":755:29)
#loc143 = loc("/home/mejiang/w1/test/triton/fa/flash-attention.py":764:37)
#loc144 = loc("/home/mejiang/w1/test/triton/fa/flash-attention.py":764:42)
#loc145 = loc("/home/mejiang/w1/test/triton/fa/flash-attention.py":764:29)
#loc146 = loc("/home/mejiang/w1/test/triton/fa/flash-attention.py":764:68)
#loc147 = loc("/home/mejiang/w1/test/triton/fa/flash-attention.py":764:58)
#loc148 = loc("/home/mejiang/w1/test/triton/fa/flash-attention.py":764:84)
#loc149 = loc("/home/mejiang/w1/test/triton/fa/flash-attention.py":767:44)
#loc150 = loc("/home/mejiang/w1/test/triton/fa/flash-attention.py":768:35)
#loc151 = loc("/home/mejiang/w1/test/triton/fa/flash-attention.py":768:19)
#loc152 = loc("/home/mejiang/w1/test/triton/fa/flash-attention.py":769:62)
#loc153 = loc("/home/mejiang/w1/test/triton/fa/flash-attention.py":769:52)
#loc154 = loc("/home/mejiang/w1/test/triton/fa/flash-attention.py":770:47)
#loc155 = loc("/home/mejiang/w1/test/triton/fa/flash-attention.py":770:58)
#loc156 = loc("/home/mejiang/w1/test/triton/fa/flash-attention.py":771:56)
#loc157 = loc("/home/mejiang/w1/test/triton/fa/flash-attention.py":771:43)
#loc158 = loc("/home/mejiang/w1/test/triton/fa/flash-attention.py":771:37)
#loc159 = loc("/home/mejiang/w1/test/triton/fa/flash-attention.py":773:56)
#loc160 = loc("/home/mejiang/w1/test/triton/fa/flash-attention.py":773:43)
#loc161 = loc("/home/mejiang/w1/test/triton/fa/flash-attention.py":773:37)
#loc162 = loc("/home/mejiang/w1/test/triton/fa/flash-attention.py":776:41)
#loc163 = loc("/home/mejiang/w1/test/triton/fa/flash-attention.py":776:33)
#loc164 = loc("/home/mejiang/w1/test/triton/fa/flash-attention.py":776:63)
#loc165 = loc("/home/mejiang/w1/test/triton/fa/flash-attention.py":776:53)
#loc166 = loc("/home/mejiang/w1/test/triton/fa/flash-attention.py":776:96)
#loc167 = loc("/home/mejiang/w1/test/triton/fa/flash-attention.py":776:75)
#loc168 = loc("/home/mejiang/w1/test/triton/fa/flash-attention.py":777:43)
#loc169 = loc("/home/mejiang/w1/test/triton/fa/flash-attention.py":777:54)
#loc170 = loc("/home/mejiang/w1/test/triton/fa/flash-attention.py":777:36)
#loc171 = loc("/home/mejiang/w1/test/triton/fa/flash-attention.py":777:73)
#loc172 = loc("/home/mejiang/w1/test/triton/fa/flash-attention.py":777:84)
#loc173 = loc("/home/mejiang/w1/test/triton/fa/flash-attention.py":777:66)
#loc174 = loc("/home/mejiang/w1/test/triton/fa/flash-attention.py":778:63)
#loc175 = loc("/home/mejiang/w1/test/triton/fa/flash-attention.py":779:35)
#loc176 = loc("/home/mejiang/w1/test/triton/fa/flash-attention.py":779:19)
#loc177 = loc("/home/mejiang/w1/test/triton/fa/flash-attention.py":780:56)
#loc178 = loc("/home/mejiang/w1/test/triton/fa/flash-attention.py":780:67)
#loc179 = loc("/home/mejiang/w1/test/triton/fa/flash-attention.py":780:49)
#loc180 = loc("/home/mejiang/w1/test/triton/fa/flash-attention.py":783:33)
#loc181 = loc("/home/mejiang/w1/test/triton/fa/flash-attention.py":785:8)
#loc183 = loc("/home/mejiang/w1/test/triton/fa/flash-attention.py":37:19)
#loc184 = loc("/home/mejiang/w1/test/triton/fa/flash-attention.py":42:16)
#loc185 = loc("/home/mejiang/w1/test/triton/fa/flash-attention.py":43:41)
#loc186 = loc("/home/mejiang/w1/test/triton/fa/flash-attention.py":43:28)
#loc187 = loc("/home/mejiang/w1/test/triton/fa/flash-attention.py":43:16)
#loc188 = loc("/home/mejiang/w1/test/triton/fa/flash-attention.py":45:16)
#loc189 = loc("/home/mejiang/w1/test/triton/fa/flash-attention.py":46:23)
#loc190 = loc("/home/mejiang/w1/test/triton/fa/flash-attention.py":51:13)
#loc191 = loc("/home/mejiang/w1/test/triton/fa/flash-attention.py":51:7)
#loc192 = loc("/home/mejiang/w1/test/triton/fa/flash-attention.py":52:20)
#loc193 = loc("/home/mejiang/w1/test/triton/fa/flash-attention.py":52:35)
#loc194 = loc("/home/mejiang/w1/test/triton/fa/flash-attention.py":55:24)
#loc195 = loc("/home/mejiang/w1/test/triton/fa/flash-attention.py":56:21)
#loc196 = loc("/home/mejiang/w1/test/triton/fa/flash-attention.py":56:50)
#loc197 = loc("/home/mejiang/w1/test/triton/fa/flash-attention.py":56:35)
#loc198 = loc("/home/mejiang/w1/test/triton/fa/flash-attention.py":56:14)
#loc199 = loc("/home/mejiang/w1/test/triton/fa/flash-attention.py":57:14)
#loc200 = loc("/home/mejiang/w1/test/triton/fa/flash-attention.py":60:11)
#loc201 = loc("/home/mejiang/w1/test/triton/fa/flash-attention.py":60:4)
#loc203 = loc("/home/mejiang/w1/test/triton/fa/flash-attention.py":169:16)
#loc204 = loc("/home/mejiang/w1/test/triton/fa/flash-attention.py":169:20)
#loc205 = loc("/home/mejiang/w1/test/triton/fa/flash-attention.py":169:26)
#loc206 = loc("/home/mejiang/w1/test/triton/fa/flash-attention.py":169:11)
#loc207 = loc("/home/mejiang/w1/test/triton/fa/flash-attention.py":169:4)
#loc208 = loc("/opt/venv/lib/python3.10/site-packages/triton/language/standard.py":117:0)
#loc209 = loc("/opt/venv/lib/python3.10/site-packages/triton/language/standard.py":126:31)
#loc210 = loc("/opt/venv/lib/python3.10/site-packages/triton/language/standard.py":126:11)
#loc211 = loc("/opt/venv/lib/python3.10/site-packages/triton/language/standard.py":126:4)
#loc213 = loc("/home/mejiang/w1/test/triton/fa/flash-attention.py":278:59)
#loc214 = loc("/home/mejiang/w1/test/triton/fa/flash-attention.py":286:69)
#loc215 = loc("/home/mejiang/w1/test/triton/fa/flash-attention.py":290:22)
#loc216 = loc("/home/mejiang/w1/test/triton/fa/flash-attention.py":315:28)
#loc217 = loc("/home/mejiang/w1/test/triton/fa/flash-attention.py":315:18)
#loc218 = loc("/home/mejiang/w1/test/triton/fa/flash-attention.py":334:42)
#loc219 = loc("/home/mejiang/w1/test/triton/fa/flash-attention.py":334:31)
#loc220 = loc("/home/mejiang/w1/test/triton/fa/flash-attention.py":335:29)
#loc221 = loc("/home/mejiang/w1/test/triton/fa/flash-attention.py":336:18)
#loc222 = loc("/home/mejiang/w1/test/triton/fa/flash-attention.py":336:41)
#loc223 = loc("/home/mejiang/w1/test/triton/fa/flash-attention.py":336:29)
#loc224 = loc("/home/mejiang/w1/test/triton/fa/flash-attention.py":337:25)
#loc225 = loc("/home/mejiang/w1/test/triton/fa/flash-attention.py":340:25)
#loc226 = loc("/home/mejiang/w1/test/triton/fa/flash-attention.py":350:35)
#loc227 = loc("/home/mejiang/w1/test/triton/fa/flash-attention.py":350:46)
#loc228 = loc("/home/mejiang/w1/test/triton/fa/flash-attention.py":350:29)
#loc229 = loc("/home/mejiang/w1/test/triton/fa/flash-attention.py":351:26)
#loc230 = loc("/home/mejiang/w1/test/triton/fa/flash-attention.py":351:20)
#loc231 = loc("/home/mejiang/w1/test/triton/fa/flash-attention.py":353:69)
#loc232 = loc("/home/mejiang/w1/test/triton/fa/flash-attention.py":355:20)
#loc233 = loc("/home/mejiang/w1/test/triton/fa/flash-attention.py":355:28)
#loc234 = loc("/home/mejiang/w1/test/triton/fa/flash-attention.py":370:31)
#loc235 = loc("/home/mejiang/w1/test/triton/fa/flash-attention.py":370:51)
#loc236 = loc("/home/mejiang/w1/test/triton/fa/flash-attention.py":370:19)
#loc237 = loc("/home/mejiang/w1/test/triton/fa/flash-attention.py":372:28)
#loc238 = loc("/home/mejiang/w1/test/triton/fa/flash-attention.py":372:18)
#loc239 = loc("/home/mejiang/w1/test/triton/fa/flash-attention.py":373:28)
#loc240 = loc("/home/mejiang/w1/test/triton/fa/flash-attention.py":373:18)
#loc241 = loc("/home/mejiang/w1/test/triton/fa/flash-attention.py":376:8)
#loc242 = loc("/home/mejiang/w1/test/triton/fa/flash-attention.py":378:11)
#loc243 = loc("/home/mejiang/w1/test/triton/fa/flash-attention.py":378:4)
#loc245 = loc("/home/mejiang/w1/test/triton/fa/flash-attention.py":213:25)
#loc246 = loc("/home/mejiang/w1/test/triton/fa/flash-attention.py":214:11)
#loc247 = loc("/home/mejiang/w1/test/triton/fa/flash-attention.py":214:4)
#loc249 = loc("/opt/venv/lib/python3.10/site-packages/triton/language/standard.py":188:40)
#loc250 = loc("/opt/venv/lib/python3.10/site-packages/triton/language/standard.py":188:15)
#loc251 = loc("/opt/venv/lib/python3.10/site-packages/triton/language/standard.py":176:4)
#loc253 = loc("/opt/venv/lib/python3.10/site-packages/triton/language/standard.py":167:27)
#loc254 = loc("/opt/venv/lib/python3.10/site-packages/triton/language/standard.py":167:11)
#loc255 = loc("/opt/venv/lib/python3.10/site-packages/triton/language/standard.py":167:4)
#loc257 = loc("/opt/venv/lib/python3.10/site-packages/triton/language/standard.py":290:36)
#loc258 = loc("/opt/venv/lib/python3.10/site-packages/triton/language/standard.py":290:11)
#loc259 = loc("/opt/venv/lib/python3.10/site-packages/triton/language/standard.py":290:4)
#loc261 = loc("/opt/venv/lib/python3.10/site-packages/triton/language/standard.py":260:15)
#loc262 = loc("/opt/venv/lib/python3.10/site-packages/triton/language/standard.py":260:11)
#loc263 = loc("/opt/venv/lib/python3.10/site-packages/triton/language/standard.py":260:4)
#loc264 = loc("/home/mejiang/w1/test/triton/fa/flash-attention.py":282:46)
#loc265 = loc("/home/mejiang/w1/test/triton/fa/flash-attention.py":282:33)
#loc266 = loc("/home/mejiang/w1/test/triton/fa/flash-attention.py":300:26)
#loc267 = loc("/home/mejiang/w1/test/triton/fa/flash-attention.py":300:37)
#loc268 = loc("/home/mejiang/w1/test/triton/fa/flash-attention.py":300:71)
#loc269 = loc("/home/mejiang/w1/test/triton/fa/flash-attention.py":300:53)
#loc270 = loc("/home/mejiang/w1/test/triton/fa/flash-attention.py":300:15)
#loc271 = loc("/home/mejiang/w1/test/triton/fa/flash-attention.py":301:48)
#loc272 = loc("/home/mejiang/w1/test/triton/fa/flash-attention.py":302:42)
#loc273 = loc("/home/mejiang/w1/test/triton/fa/flash-attention.py":302:35)
#loc274 = loc("/home/mejiang/w1/test/triton/fa/flash-attention.py":303:43)
#loc275 = loc("/home/mejiang/w1/test/triton/fa/flash-attention.py":303:32)
#loc276 = loc("/home/mejiang/w1/test/triton/fa/flash-attention.py":304:40)
#loc277 = loc("/home/mejiang/w1/test/triton/fa/flash-attention.py":210:29)
#loc278 = loc("/home/mejiang/w1/test/triton/fa/flash-attention.py":210:40)
#loc279 = loc("/home/mejiang/w1/test/triton/fa/flash-attention.py":211:25)
#loc280 = loc("/home/mejiang/w1/test/triton/fa/flash-attention.py":207:28)
#loc281 = loc("/home/mejiang/w1/test/triton/fa/flash-attention.py":207:39)
#loc282 = loc("/home/mejiang/w1/test/triton/fa/flash-attention.py":208:25)
