#loc = loc("/home/mejiang/w1/test/fav3/triton/fa/flash-attention.py":465:1)
#loc1 = loc(unknown)
#loc105 = loc("/home/mejiang/w1/test/fav3/triton/fa/flash-attention.py":699:37)
#loc114 = loc("/home/mejiang/w1/test/fav3/triton/fa/flash-attention.py":334:32)
#loc122 = loc("/home/mejiang/w1/test/fav3/triton/fa/flash-attention.py":340:16)
#loc141 = loc("/home/mejiang/w1/test/fav3/triton/fa/flash-attention.py":727:37)
#loc180 = loc("Q"(#loc))
#loc181 = loc("K"(#loc))
#loc182 = loc("V"(#loc))
#loc183 = loc("L"(#loc))
#loc184 = loc("Out"(#loc))
#loc185 = loc("stride_qz"(#loc))
#loc186 = loc("stride_qh"(#loc))
#loc187 = loc("stride_qm"(#loc))
#loc188 = loc("stride_kz"(#loc))
#loc189 = loc("stride_kh"(#loc))
#loc190 = loc("stride_kn"(#loc))
#loc191 = loc("stride_vz"(#loc))
#loc192 = loc("stride_vh"(#loc))
#loc193 = loc("stride_vk"(#loc))
#loc194 = loc("stride_oz"(#loc))
#loc195 = loc("stride_oh"(#loc))
#loc196 = loc("stride_om"(#loc))
#loc197 = loc("stride_bz"(#loc))
#loc198 = loc("stride_bh"(#loc))
#loc199 = loc("stride_bm"(#loc))
#loc200 = loc("stride_bn"(#loc))
#loc201 = loc("stride_az"(#loc))
#loc202 = loc("stride_ah"(#loc))
#loc203 = loc("dropout_p"(#loc))
#loc204 = loc("philox_seed"(#loc))
#loc205 = loc("atomic_counter"(#loc))
#loc206 = loc("philox_offset_base"(#loc))
#loc264 = loc("m_i"(#loc105))
#loc272 = loc("m_ij"(#loc114))
#loc278 = loc("l_ij"(#loc122))
#loc293 = loc("m_i"(#loc141))
#loc337 = loc("l_i"(#loc264))
#loc342 = loc("l_i"(#loc293))
#loc349 = loc("acc"(#loc337))
#loc351 = loc("acc"(#loc342))
#loc359 = loc(callsite(#loc272 at #loc349))
#loc365 = loc(callsite(#loc278 at #loc349))
#loc384 = loc(callsite(#loc272 at #loc351))
#loc390 = loc(callsite(#loc278 at #loc351))
#loc403 = loc(callsite(#loc1 at #loc359))
#loc405 = loc(callsite(#loc1 at #loc365))
#loc410 = loc(callsite(#loc1 at #loc384))
#loc412 = loc(callsite(#loc1 at #loc390))
module {
  tt.func public @attn_fwd(%Q: !tt.ptr<f16> {tt.divisibility = 16 : i32, tt.pointer_range = 32 : i32} loc("Q"(#loc)), %K: !tt.ptr<f16> {tt.divisibility = 16 : i32, tt.pointer_range = 32 : i32} loc("K"(#loc)), %V: !tt.ptr<f16> {tt.divisibility = 16 : i32, tt.pointer_range = 32 : i32} loc("V"(#loc)), %L: !tt.ptr<f32> {tt.divisibility = 16 : i32, tt.pointer_range = 32 : i32} loc("L"(#loc)), %Out: !tt.ptr<f16> {tt.divisibility = 16 : i32, tt.pointer_range = 32 : i32} loc("Out"(#loc)), %stride_qz: i32 {tt.divisibility = 16 : i32} loc("stride_qz"(#loc)), %stride_qh: i32 {tt.divisibility = 16 : i32} loc("stride_qh"(#loc)), %stride_qm: i32 {tt.divisibility = 16 : i32} loc("stride_qm"(#loc)), %stride_kz: i32 {tt.divisibility = 16 : i32} loc("stride_kz"(#loc)), %stride_kh: i32 {tt.divisibility = 16 : i32} loc("stride_kh"(#loc)), %stride_kn: i32 {tt.divisibility = 16 : i32} loc("stride_kn"(#loc)), %stride_vz: i32 {tt.divisibility = 16 : i32} loc("stride_vz"(#loc)), %stride_vh: i32 {tt.divisibility = 16 : i32} loc("stride_vh"(#loc)), %stride_vk: i32 {tt.divisibility = 16 : i32} loc("stride_vk"(#loc)), %stride_oz: i32 {tt.divisibility = 16 : i32} loc("stride_oz"(#loc)), %stride_oh: i32 {tt.divisibility = 16 : i32} loc("stride_oh"(#loc)), %stride_om: i32 {tt.divisibility = 16 : i32} loc("stride_om"(#loc)), %stride_bz: i32 {tt.divisibility = 16 : i32} loc("stride_bz"(#loc)), %stride_bh: i32 {tt.divisibility = 16 : i32} loc("stride_bh"(#loc)), %stride_bm: i32 {tt.divisibility = 16 : i32} loc("stride_bm"(#loc)), %stride_bn: i32 {tt.divisibility = 16 : i32} loc("stride_bn"(#loc)), %stride_az: i32 {tt.divisibility = 16 : i32} loc("stride_az"(#loc)), %stride_ah: i32 {tt.divisibility = 16 : i32} loc("stride_ah"(#loc)), %dropout_p: f32 loc("dropout_p"(#loc)), %philox_seed: i32 loc("philox_seed"(#loc)), %atomic_counter: !tt.ptr<i32> {tt.divisibility = 16 : i32, tt.pointer_range = 32 : i32} loc("atomic_counter"(#loc)), %philox_offset_base: i32 loc("philox_offset_base"(#loc))) attributes {noinline = false} {
    %cst = arith.constant dense<0> : tensor<256x1xi32> loc(#loc1)
    %cst_0 = arith.constant dense<16384> : tensor<64x1xi32> loc(#loc1)
    %cst_1 = arith.constant dense<16384> : tensor<1x64xi32> loc(#loc1)
    %cst_2 = arith.constant dense<0xFF800000> : tensor<256x64xf32> loc(#loc1)
    %cst_3 = arith.constant dense<0.000000e+00> : tensor<128x64xf16> loc(#loc1)
    %cst_4 = arith.constant dense<0.000000e+00> : tensor<64x128xf16> loc(#loc1)
    %cst_5 = arith.constant dense<0.000000e+00> : tensor<256x64xf32> loc(#loc1)
    %cst_6 = arith.constant dense<0.127517432> : tensor<256xf32> loc(#loc1)
    %cst_7 = arith.constant dense<0.127517432> : tensor<256x64xf32> loc(#loc1)
    %cst_8 = arith.constant dense<0.000000e+00> : tensor<256x128xf32> loc(#loc1)
    %c63_i32 = arith.constant 63 : i32 loc(#loc1)
    %c8_i32 = arith.constant 8 : i32 loc(#loc1)
    %c7_i32 = arith.constant 7 : i32 loc(#loc1)
    %c16640_i32 = arith.constant 16640 : i32 loc(#loc1)
    %c4_i32 = arith.constant 4 : i32 loc(#loc1)
    %cst_9 = arith.constant dense<0.000000e+00> : tensor<256x128xf16> loc(#loc1)
    %c1048576_i32 = arith.constant 1048576 : i32 loc(#loc1)
    %cst_10 = arith.constant dense<true> : tensor<256x128xi1> loc(#loc1)
    %cst_11 = arith.constant dense<1.000000e+00> : tensor<256x1xf32> loc(#loc1)
    %cst_12 = arith.constant dense<1.000000e+00> : tensor<256xf32> loc(#loc1)
    %cst_13 = arith.constant dense<0xFF800000> : tensor<256xf32> loc(#loc1)
    %cst_14 = arith.constant dense<16384> : tensor<256xi32> loc(#loc1)
    %cst_15 = arith.constant dense<0x7F800000> : tensor<256xf32> loc(#loc1)
    %c64_i32 = arith.constant 64 : i32 loc(#loc1)
    %cst_16 = arith.constant dense<16384> : tensor<256x1xi32> loc(#loc1)
    %c16384_i32 = arith.constant 16384 : i32 loc(#loc1)
    %c256_i32 = arith.constant 256 : i32 loc(#loc1)
    %c1_i32 = arith.constant 1 : i32 loc(#loc1)
    %true = arith.constant true loc(#loc1)
    %c0_i32 = arith.constant 0 : i32 loc(#loc1)
    %0 = arith.cmpi sge, %stride_qz, %c0_i32 : i32 loc(#loc2)
    llvm.intr.assume %0 : i1 loc(#loc3)
    %1 = arith.cmpi sge, %stride_qh, %c0_i32 : i32 loc(#loc4)
    llvm.intr.assume %1 : i1 loc(#loc5)
    %2 = arith.cmpi sge, %stride_qm, %c0_i32 : i32 loc(#loc6)
    llvm.intr.assume %2 : i1 loc(#loc7)
    llvm.intr.assume %true : i1 loc(#loc8)
    %3 = arith.cmpi sge, %stride_kz, %c0_i32 : i32 loc(#loc9)
    llvm.intr.assume %3 : i1 loc(#loc10)
    %4 = arith.cmpi sge, %stride_kh, %c0_i32 : i32 loc(#loc11)
    llvm.intr.assume %4 : i1 loc(#loc12)
    %5 = arith.cmpi sge, %stride_kn, %c0_i32 : i32 loc(#loc13)
    llvm.intr.assume %5 : i1 loc(#loc14)
    llvm.intr.assume %true : i1 loc(#loc15)
    %6 = arith.cmpi sge, %stride_bz, %c0_i32 : i32 loc(#loc16)
    llvm.intr.assume %6 : i1 loc(#loc17)
    %7 = arith.cmpi sge, %stride_bh, %c0_i32 : i32 loc(#loc18)
    llvm.intr.assume %7 : i1 loc(#loc19)
    %8 = arith.cmpi sge, %stride_bm, %c0_i32 : i32 loc(#loc20)
    llvm.intr.assume %8 : i1 loc(#loc21)
    %9 = arith.cmpi sge, %stride_bn, %c0_i32 : i32 loc(#loc22)
    llvm.intr.assume %9 : i1 loc(#loc23)
    %10 = arith.cmpi sge, %stride_vz, %c0_i32 : i32 loc(#loc24)
    llvm.intr.assume %10 : i1 loc(#loc25)
    %11 = arith.cmpi sge, %stride_vh, %c0_i32 : i32 loc(#loc26)
    llvm.intr.assume %11 : i1 loc(#loc27)
    %12 = arith.cmpi sge, %stride_vk, %c0_i32 : i32 loc(#loc28)
    llvm.intr.assume %12 : i1 loc(#loc29)
    llvm.intr.assume %true : i1 loc(#loc30)
    %13 = arith.cmpi sge, %stride_oz, %c0_i32 : i32 loc(#loc31)
    llvm.intr.assume %13 : i1 loc(#loc32)
    %14 = arith.cmpi sge, %stride_oh, %c0_i32 : i32 loc(#loc33)
    llvm.intr.assume %14 : i1 loc(#loc34)
    %15 = arith.cmpi sge, %stride_om, %c0_i32 : i32 loc(#loc35)
    llvm.intr.assume %15 : i1 loc(#loc36)
    llvm.intr.assume %true : i1 loc(#loc37)
    %off_h_q = tt.get_program_id x : i32 loc(#loc207)
    %xcd = arith.remsi %off_h_q, %c8_i32 : i32 loc(#loc319)
    %local_pid = arith.divsi %off_h_q, %c8_i32 : i32 loc(#loc320)
    %off_h_q_17 = arith.cmpi slt, %xcd, %c8_i32 : i32 loc(#loc321)
    %off_h_q_18 = scf.if %off_h_q_17 -> (i32) {
      %pid = arith.muli %xcd, %c8_i32 : i32 loc(#loc323)
      %pid_25 = arith.addi %pid, %local_pid : i32 loc(#loc346)
      scf.yield %pid_25 : i32 loc(#loc346)
    } else {
      %pid = arith.subi %xcd, %c8_i32 : i32 loc(#loc325)
      %pid_25 = arith.muli %pid, %c7_i32 : i32 loc(#loc326)
      %pid_26 = arith.addi %pid_25, %c64_i32 : i32 loc(#loc327)
      %pid_27 = arith.addi %pid_26, %local_pid : i32 loc(#loc347)
      scf.yield %pid_27 : i32 loc(#loc327)
    } loc(#loc322)
    %start_m = tt.get_program_id y : i32 loc(#loc215)
    %off_z = tt.get_program_id z : i32 loc(#loc216)
    %offs_m = arith.muli %start_m, %c256_i32 : i32 loc(#loc217)
    %offs_m_19 = tt.make_range {end = 256 : i32, start = 0 : i32} : tensor<256xi32> loc(#loc218)
    %offs_m_20 = tt.splat %offs_m : i32 -> tensor<256xi32> loc(#loc217)
    %offs_m_21 = arith.addi %offs_m_20, %offs_m_19 : tensor<256xi32> loc(#loc217)
    %offs_n = tt.make_range {end = 64 : i32, start = 0 : i32} : tensor<64xi32> loc(#loc219)
    %offs_d = tt.make_range {end = 128 : i32, start = 0 : i32} : tensor<128xi32> loc(#loc220)
    %n_blocks_seqlen = arith.addi %start_m, %c1_i32 : i32 loc(#loc221)
    %n_blocks_seqlen_22 = arith.muli %n_blocks_seqlen, %c256_i32 : i32 loc(#loc222)
    %n_blocks_seqlen_23 = arith.addi %n_blocks_seqlen_22, %c63_i32 : i32 loc(#loc329)
    %n_blocks_seqlen_24 = arith.divsi %n_blocks_seqlen_23, %c64_i32 : i32 loc(#loc330)
    %n_blocks = arith.minsi %n_blocks_seqlen_24, %c256_i32 : i32 loc(#loc224)
    %16 = arith.cmpi sle, %n_blocks, %c0_i32 : i32 loc(#loc60)
    %continue_condition = arith.cmpi sgt, %n_blocks, %c0_i32 : i32 loc(#loc331)
    scf.while (%tile_id = %c0_i32) : (i32) -> () {
      %17 = arith.cmpi slt, %tile_id, %c1_i32 : i32 loc(#loc63)
      scf.condition(%17) loc(#loc63)
    } do {
      scf.if %16 {
        %o_offset = arith.muli %off_z, %stride_oz : i32 loc(#loc227)
        %o_offset_25 = tt.addptr %Out, %o_offset : !tt.ptr<f16>, i32 loc(#loc228)
        %o_offset_26 = arith.muli %off_h_q_18, %stride_oh : i32 loc(#loc229)
        %o_offset_27 = tt.addptr %o_offset_25, %o_offset_26 : !tt.ptr<f16>, i32 loc(#loc228)
        %o_ptrs = tt.expand_dims %offs_m_21 {axis = 1 : i32} : tensor<256xi32> -> tensor<256x1xi32> loc(#loc230)
        %o_ptrs_28 = tt.splat %stride_om : i32 -> tensor<256x1xi32> loc(#loc230)
        %o_ptrs_29 = arith.muli %o_ptrs, %o_ptrs_28 : tensor<256x1xi32> loc(#loc230)
        %o_ptrs_30 = tt.splat %o_offset_27 : !tt.ptr<f16> -> tensor<256x1x!tt.ptr<f16>> loc(#loc231)
        %o_ptrs_31 = tt.addptr %o_ptrs_30, %o_ptrs_29 : tensor<256x1x!tt.ptr<f16>>, tensor<256x1xi32> loc(#loc231)
        %o_ptrs_32 = tt.expand_dims %offs_d {axis = 0 : i32} : tensor<128xi32> -> tensor<1x128xi32> loc(#loc232)
        %o_ptrs_33 = tt.broadcast %o_ptrs_31 : tensor<256x1x!tt.ptr<f16>> -> tensor<256x128x!tt.ptr<f16>> loc(#loc231)
        %o_ptrs_34 = tt.broadcast %o_ptrs_32 : tensor<1x128xi32> -> tensor<256x128xi32> loc(#loc231)
        %o_ptrs_35 = tt.addptr %o_ptrs_33, %o_ptrs_34 : tensor<256x128x!tt.ptr<f16>>, tensor<256x128xi32> loc(#loc231)
        %o_ptrs_mask = arith.cmpi slt, %o_ptrs, %cst_16 : tensor<256x1xi32> loc(#loc233)
        %o_ptrs_mask_36 = tt.broadcast %o_ptrs_mask : tensor<256x1xi1> -> tensor<256x128xi1> loc(#loc234)
        tt.store %o_ptrs_35, %cst_9, %o_ptrs_mask_36 : tensor<256x128x!tt.ptr<f16>> loc(#loc72)
        %l_ptrs = arith.muli %off_z, %c1048576_i32 : i32 loc(#loc235)
        %l_ptrs_37 = tt.addptr %L, %l_ptrs : !tt.ptr<f32>, i32 loc(#loc236)
        %l_ptrs_38 = arith.muli %off_h_q_18, %c16384_i32 : i32 loc(#loc237)
        %l_ptrs_39 = tt.addptr %l_ptrs_37, %l_ptrs_38 : !tt.ptr<f32>, i32 loc(#loc236)
        %l_ptrs_40 = tt.splat %l_ptrs_39 : !tt.ptr<f32> -> tensor<256x!tt.ptr<f32>> loc(#loc236)
        %l_ptrs_41 = tt.addptr %l_ptrs_40, %offs_m_21 : tensor<256x!tt.ptr<f32>>, tensor<256xi32> loc(#loc236)
        %l_ptrs_mask = arith.cmpi slt, %offs_m_21, %cst_14 : tensor<256xi32> loc(#loc238)
        tt.store %l_ptrs_41, %cst_15, %l_ptrs_mask : tensor<256x!tt.ptr<f32>> loc(#loc77)
      } loc(#loc225)
      scf.if %continue_condition {
        %q_offset = arith.muli %off_z, %stride_qz : i32 loc(#loc239)
        %q_offset_25 = tt.addptr %Q, %q_offset : !tt.ptr<f16>, i32 loc(#loc240)
        %q_offset_26 = arith.muli %off_h_q_18, %stride_qh : i32 loc(#loc241)
        %q_offset_27 = tt.addptr %q_offset_25, %q_offset_26 : !tt.ptr<f16>, i32 loc(#loc240)
        %q_ptrs = tt.expand_dims %offs_m_21 {axis = 1 : i32} : tensor<256xi32> -> tensor<256x1xi32> loc(#loc242)
        %q_ptrs_28 = tt.splat %stride_qm : i32 -> tensor<256x1xi32> loc(#loc242)
        %q_ptrs_29 = arith.muli %q_ptrs, %q_ptrs_28 : tensor<256x1xi32> loc(#loc242)
        %q_ptrs_30 = tt.splat %q_offset_27 : !tt.ptr<f16> -> tensor<256x1x!tt.ptr<f16>> loc(#loc243)
        %q_ptrs_31 = tt.addptr %q_ptrs_30, %q_ptrs_29 : tensor<256x1x!tt.ptr<f16>>, tensor<256x1xi32> loc(#loc243)
        %q_ptrs_32 = tt.expand_dims %offs_d {axis = 0 : i32} : tensor<128xi32> -> tensor<1x128xi32> loc(#loc244)
        %q_ptrs_33 = tt.broadcast %q_ptrs_31 : tensor<256x1x!tt.ptr<f16>> -> tensor<256x128x!tt.ptr<f16>> loc(#loc243)
        %q_ptrs_34 = tt.broadcast %q_ptrs_32 : tensor<1x128xi32> -> tensor<256x128xi32> loc(#loc243)
        %q_ptrs_35 = tt.addptr %q_ptrs_33, %q_ptrs_34 : tensor<256x128x!tt.ptr<f16>>, tensor<256x128xi32> loc(#loc243)
        %k_offset = arith.muli %off_z, %stride_kz : i32 loc(#loc245)
        %k_offset_36 = tt.addptr %K, %k_offset : !tt.ptr<f16>, i32 loc(#loc246)
        %k_offset_37 = arith.muli %off_h_q_18, %stride_kh : i32 loc(#loc247)
        %k_offset_38 = tt.addptr %k_offset_36, %k_offset_37 : !tt.ptr<f16>, i32 loc(#loc246)
        %k_ptrs = tt.expand_dims %offs_d {axis = 1 : i32} : tensor<128xi32> -> tensor<128x1xi32> loc(#loc248)
        %k_ptrs_39 = tt.splat %k_offset_38 : !tt.ptr<f16> -> tensor<128x1x!tt.ptr<f16>> loc(#loc249)
        %k_ptrs_40 = tt.addptr %k_ptrs_39, %k_ptrs : tensor<128x1x!tt.ptr<f16>>, tensor<128x1xi32> loc(#loc249)
        %k_ptrs_41 = tt.expand_dims %offs_n {axis = 0 : i32} : tensor<64xi32> -> tensor<1x64xi32> loc(#loc250)
        %k_ptrs_42 = tt.splat %stride_kn : i32 -> tensor<1x64xi32> loc(#loc250)
        %k_ptrs_43 = arith.muli %k_ptrs_41, %k_ptrs_42 : tensor<1x64xi32> loc(#loc250)
        %k_ptrs_44 = tt.broadcast %k_ptrs_40 : tensor<128x1x!tt.ptr<f16>> -> tensor<128x64x!tt.ptr<f16>> loc(#loc249)
        %k_ptrs_45 = tt.broadcast %k_ptrs_43 : tensor<1x64xi32> -> tensor<128x64xi32> loc(#loc249)
        %k_ptrs_46 = tt.addptr %k_ptrs_44, %k_ptrs_45 : tensor<128x64x!tt.ptr<f16>>, tensor<128x64xi32> loc(#loc332)
        %v_offset = arith.muli %off_z, %stride_vz : i32 loc(#loc251)
        %v_offset_47 = tt.addptr %V, %v_offset : !tt.ptr<f16>, i32 loc(#loc252)
        %v_offset_48 = arith.muli %off_h_q_18, %stride_vh : i32 loc(#loc253)
        %v_offset_49 = tt.addptr %v_offset_47, %v_offset_48 : !tt.ptr<f16>, i32 loc(#loc252)
        %v_ptrs = tt.expand_dims %offs_n {axis = 1 : i32} : tensor<64xi32> -> tensor<64x1xi32> loc(#loc254)
        %v_ptrs_50 = tt.splat %stride_vk : i32 -> tensor<64x1xi32> loc(#loc254)
        %v_ptrs_51 = arith.muli %v_ptrs, %v_ptrs_50 : tensor<64x1xi32> loc(#loc254)
        %v_ptrs_52 = tt.splat %v_offset_49 : !tt.ptr<f16> -> tensor<64x1x!tt.ptr<f16>> loc(#loc255)
        %v_ptrs_53 = tt.addptr %v_ptrs_52, %v_ptrs_51 : tensor<64x1x!tt.ptr<f16>>, tensor<64x1xi32> loc(#loc255)
        %v_ptrs_54 = tt.broadcast %v_ptrs_53 : tensor<64x1x!tt.ptr<f16>> -> tensor<64x128x!tt.ptr<f16>> loc(#loc255)
        %v_ptrs_55 = tt.broadcast %q_ptrs_32 : tensor<1x128xi32> -> tensor<64x128xi32> loc(#loc255)
        %v_ptrs_56 = tt.addptr %v_ptrs_54, %v_ptrs_55 : tensor<64x128x!tt.ptr<f16>>, tensor<64x128xi32> loc(#loc333)
        %q_ptrs_mask = arith.cmpi slt, %q_ptrs, %cst_16 : tensor<256x1xi32> loc(#loc256)
        %q = tt.broadcast %q_ptrs_mask : tensor<256x1xi1> -> tensor<256x128xi1> loc(#loc257)
        %q_57 = tt.load %q_ptrs_35, %q, %cst_9 : tensor<256x128x!tt.ptr<f16>> loc(#loc257)
        %masked_blocks = arith.minsi %n_blocks, %c4_i32 : i32 loc(#loc258)
        %n_full_blocks = arith.subi %n_blocks, %masked_blocks : i32 loc(#loc259)
        %block_max = arith.muli %n_blocks, %c64_i32 : i32 loc(#loc334)
        %17 = arith.cmpi sgt, %n_full_blocks, %c0_i32 : i32 loc(#loc101)
        %acc:5 = scf.if %17 -> (tensor<256xf32>, tensor<256xf32>, tensor<256x128xf32>, i32, i32) {
          %block_min = arith.muli %n_full_blocks, %c64_i32 : i32 loc(#loc336)
          %k_ptrs_75 = arith.muli %stride_kn, %c64_i32 : i32 loc(#loc352)
          %k_ptrs_76 = tt.splat %k_ptrs_75 : i32 -> tensor<128x64xi32> loc(#loc353)
          %v_ptrs_77 = arith.muli %stride_vk, %c64_i32 : i32 loc(#loc354)
          %v_ptrs_78 = tt.splat %v_ptrs_77 : i32 -> tensor<64x128xi32> loc(#loc355)
          %v_ptrs_79:5 = scf.for %start_n = %c0_i32 to %block_min step %c64_i32 iter_args(%acc_80 = %cst_8, %l_i = %cst_12, %m_i = %cst_13, %k_ptrs_81 = %k_ptrs_46, %v_ptrs_82 = %v_ptrs_56) -> (tensor<256x128xf32>, tensor<256xf32>, tensor<256xf32>, tensor<128x64x!tt.ptr<f16>>, tensor<64x128x!tt.ptr<f16>>)  : i32 {
            %tensor = tt.load %k_ptrs_81 : tensor<128x64x!tt.ptr<f16>> loc(#loc401)
            %qk = tt.dot %q_57, %tensor, %cst_5 : tensor<256x128xf16> * tensor<128x64xf16> -> tensor<256x64xf32> loc(#loc358)
            %m_ij = "tt.reduce"(%qk) <{axis = 1 : i32}> ({
            ^bb0(%m_ij_100: f32 loc(callsite(#loc1 at #loc359)), %m_ij_101: f32 loc(callsite(#loc1 at #loc359))):
              %m_ij_102 = arith.maxnumf %m_ij_100, %m_ij_101 : f32 loc(#loc416)
              tt.reduce.return %m_ij_102 : f32 loc(#loc402)
            }) : (tensor<256x64xf32>) -> tensor<256xf32> loc(#loc402)
            %m_ij_83 = arith.maxnumf %m_i, %m_ij : tensor<256xf32> loc(#loc360)
            %m_ij_scaled = arith.mulf %m_ij_83, %cst_6 : tensor<256xf32> loc(#loc361)
            %qk_84 = arith.mulf %qk, %cst_7 : tensor<256x64xf32> loc(#loc362)
            %qk_85 = tt.expand_dims %m_ij_scaled {axis = 1 : i32} : tensor<256xf32> -> tensor<256x1xf32> loc(#loc363)
            %qk_86 = tt.broadcast %qk_85 : tensor<256x1xf32> -> tensor<256x64xf32> loc(#loc362)
            %qk_87 = arith.subf %qk_84, %qk_86 : tensor<256x64xf32> loc(#loc362)
            %p = math.exp2 %qk_87 : tensor<256x64xf32> loc(#loc364)
            %l_ij = "tt.reduce"(%p) <{axis = 1 : i32}> ({
            ^bb0(%l_ij_100: f32 loc(callsite(#loc1 at #loc365)), %l_ij_101: f32 loc(callsite(#loc1 at #loc365))):
              %l_ij_102 = arith.addf %l_ij_100, %l_ij_101 : f32 loc(#loc417)
              tt.reduce.return %l_ij_102 : f32 loc(#loc404)
            }) : (tensor<256x64xf32>) -> tensor<256xf32> loc(#loc404)
            %alpha = arith.mulf %m_i, %cst_6 : tensor<256xf32> loc(#loc366)
            %alpha_88 = arith.subf %alpha, %m_ij_scaled : tensor<256xf32> loc(#loc366)
            %alpha_89 = math.exp2 %alpha_88 : tensor<256xf32> loc(#loc367)
            %acc_90 = tt.expand_dims %alpha_89 {axis = 1 : i32} : tensor<256xf32> -> tensor<256x1xf32> loc(#loc368)
            %acc_91 = tt.broadcast %acc_90 : tensor<256x1xf32> -> tensor<256x128xf32> loc(#loc369)
            %acc_92 = arith.mulf %acc_80, %acc_91 : tensor<256x128xf32> loc(#loc369)
            %tensor_93 = tt.load %v_ptrs_82 : tensor<64x128x!tt.ptr<f16>> loc(#loc406)
            %l_i_94 = arith.mulf %l_i, %alpha_89 : tensor<256xf32> loc(#loc371)
            %l_i_95 = arith.addf %l_i_94, %l_ij : tensor<256xf32> loc(#loc371)
            %acc_96 = arith.truncf %p : tensor<256x64xf32> to tensor<256x64xf16> loc(#loc372)
            %acc_97 = tt.dot %acc_96, %tensor_93, %acc_92 : tensor<256x64xf16> * tensor<64x128xf16> -> tensor<256x128xf32> loc(#loc373)
            %k_ptrs_98 = tt.addptr %k_ptrs_81, %k_ptrs_76 : tensor<128x64x!tt.ptr<f16>>, tensor<128x64xi32> loc(#loc353)
            %v_ptrs_99 = tt.addptr %v_ptrs_82, %v_ptrs_78 : tensor<64x128x!tt.ptr<f16>>, tensor<64x128xi32> loc(#loc355)
            scf.yield %acc_97, %l_i_95, %m_ij_83, %k_ptrs_98, %v_ptrs_99 : tensor<256x128xf32>, tensor<256xf32>, tensor<256xf32>, tensor<128x64x!tt.ptr<f16>>, tensor<64x128x!tt.ptr<f16>> loc(#loc374)
          } loc(#loc415)
          scf.yield %v_ptrs_79#2, %v_ptrs_79#1, %v_ptrs_79#0, %block_min, %block_max : tensor<256xf32>, tensor<256xf32>, tensor<256x128xf32>, i32, i32 loc(#loc339)
        } else {
          scf.yield %cst_13, %cst_12, %cst_8, %c0_i32, %block_max : tensor<256xf32>, tensor<256xf32>, tensor<256x128xf32>, i32, i32 loc(#loc102)
        } loc(#loc348)
        ttg.barrier all loc(#loc133)
        %18 = arith.cmpi sgt, %masked_blocks, %c0_i32 : i32 loc(#loc134)
        %19:3 = scf.if %18 -> (tensor<256xf32>, tensor<256xf32>, tensor<256x128xf32>) {
          %k_ptrs_75 = arith.muli %n_full_blocks, %c64_i32 : i32 loc(#loc288)
          %k_ptrs_76 = arith.muli %k_ptrs_75, %stride_kn : i32 loc(#loc288)
          %k_ptrs_77 = tt.splat %k_ptrs_76 : i32 -> tensor<128x64xi32> loc(#loc289)
          %k_ptrs_78 = tt.addptr %k_ptrs_46, %k_ptrs_77 : tensor<128x64x!tt.ptr<f16>>, tensor<128x64xi32> loc(#loc340)
          %v_ptrs_79 = arith.muli %k_ptrs_75, %stride_vk : i32 loc(#loc290)
          %v_ptrs_80 = tt.splat %v_ptrs_79 : i32 -> tensor<64x128xi32> loc(#loc291)
          %v_ptrs_81 = tt.addptr %v_ptrs_56, %v_ptrs_80 : tensor<64x128x!tt.ptr<f16>>, tensor<64x128xi32> loc(#loc341)
          %causal_mask = tt.broadcast %q_ptrs : tensor<256x1xi32> -> tensor<256x64xi32> loc(#loc375)
          %k_ptrs_82 = arith.muli %stride_kn, %c64_i32 : i32 loc(#loc376)
          %k_ptrs_83 = tt.splat %k_ptrs_82 : i32 -> tensor<128x64xi32> loc(#loc377)
          %v_ptrs_84 = arith.muli %stride_vk, %c64_i32 : i32 loc(#loc378)
          %v_ptrs_85 = tt.splat %v_ptrs_84 : i32 -> tensor<64x128xi32> loc(#loc379)
          %v_ptrs_86:5 = scf.for %start_n = %acc#3 to %acc#4 step %c64_i32 iter_args(%acc_87 = %acc#2, %l_i = %acc#1, %m_i = %acc#0, %k_ptrs_88 = %k_ptrs_78, %v_ptrs_89 = %v_ptrs_81) -> (tensor<256x128xf32>, tensor<256xf32>, tensor<256xf32>, tensor<128x64x!tt.ptr<f16>>, tensor<64x128x!tt.ptr<f16>>)  : i32 {
            %k_offs_n = tt.splat %start_n : i32 -> tensor<64xi32> loc(#loc380)
            %k_offs_n_90 = arith.addi %k_offs_n, %offs_n : tensor<64xi32> loc(#loc380)
            %mask = tt.expand_dims %k_offs_n_90 {axis = 0 : i32} : tensor<64xi32> -> tensor<1x64xi32> loc(#loc407)
            %mask_91 = arith.cmpi slt, %mask, %cst_1 : tensor<1x64xi32> loc(#loc407)
            %tensor = tt.broadcast %mask_91 : tensor<1x64xi1> -> tensor<128x64xi1> loc(#loc408)
            %tensor_92 = tt.load %k_ptrs_88, %tensor, %cst_3 : tensor<128x64x!tt.ptr<f16>> loc(#loc408)
            %causal_mask_93 = tt.broadcast %mask : tensor<1x64xi32> -> tensor<256x64xi32> loc(#loc375)
            %causal_mask_94 = arith.cmpi sge, %causal_mask, %causal_mask_93 : tensor<256x64xi32> loc(#loc375)
            %qk = arith.select %causal_mask_94, %cst_5, %cst_2 : tensor<256x64xi1>, tensor<256x64xf32> loc(#loc382)
            %qk_95 = tt.dot %q_57, %tensor_92, %qk : tensor<256x128xf16> * tensor<128x64xf16> -> tensor<256x64xf32> loc(#loc383)
            %m_ij = "tt.reduce"(%qk_95) <{axis = 1 : i32}> ({
            ^bb0(%m_ij_116: f32 loc(callsite(#loc1 at #loc384)), %m_ij_117: f32 loc(callsite(#loc1 at #loc384))):
              %m_ij_118 = arith.maxnumf %m_ij_116, %m_ij_117 : f32 loc(#loc419)
              tt.reduce.return %m_ij_118 : f32 loc(#loc409)
            }) : (tensor<256x64xf32>) -> tensor<256xf32> loc(#loc409)
            %m_ij_96 = arith.maxnumf %m_i, %m_ij : tensor<256xf32> loc(#loc385)
            %m_ij_scaled = arith.mulf %m_ij_96, %cst_6 : tensor<256xf32> loc(#loc386)
            %qk_97 = arith.mulf %qk_95, %cst_7 : tensor<256x64xf32> loc(#loc387)
            %qk_98 = tt.expand_dims %m_ij_scaled {axis = 1 : i32} : tensor<256xf32> -> tensor<256x1xf32> loc(#loc388)
            %qk_99 = tt.broadcast %qk_98 : tensor<256x1xf32> -> tensor<256x64xf32> loc(#loc387)
            %qk_100 = arith.subf %qk_97, %qk_99 : tensor<256x64xf32> loc(#loc387)
            %p = math.exp2 %qk_100 : tensor<256x64xf32> loc(#loc389)
            %l_ij = "tt.reduce"(%p) <{axis = 1 : i32}> ({
            ^bb0(%l_ij_116: f32 loc(callsite(#loc1 at #loc390)), %l_ij_117: f32 loc(callsite(#loc1 at #loc390))):
              %l_ij_118 = arith.addf %l_ij_116, %l_ij_117 : f32 loc(#loc420)
              tt.reduce.return %l_ij_118 : f32 loc(#loc411)
            }) : (tensor<256x64xf32>) -> tensor<256xf32> loc(#loc411)
            %alpha = arith.mulf %m_i, %cst_6 : tensor<256xf32> loc(#loc391)
            %alpha_101 = arith.subf %alpha, %m_ij_scaled : tensor<256xf32> loc(#loc391)
            %alpha_102 = math.exp2 %alpha_101 : tensor<256xf32> loc(#loc392)
            %acc_103 = tt.expand_dims %alpha_102 {axis = 1 : i32} : tensor<256xf32> -> tensor<256x1xf32> loc(#loc393)
            %acc_104 = tt.broadcast %acc_103 : tensor<256x1xf32> -> tensor<256x128xf32> loc(#loc394)
            %acc_105 = arith.mulf %acc_87, %acc_104 : tensor<256x128xf32> loc(#loc394)
            %mask_106 = tt.expand_dims %k_offs_n_90 {axis = 1 : i32} : tensor<64xi32> -> tensor<64x1xi32> loc(#loc413)
            %mask_107 = arith.cmpi slt, %mask_106, %cst_0 : tensor<64x1xi32> loc(#loc413)
            %tensor_108 = tt.broadcast %mask_107 : tensor<64x1xi1> -> tensor<64x128xi1> loc(#loc414)
            %tensor_109 = tt.load %v_ptrs_89, %tensor_108, %cst_4 : tensor<64x128x!tt.ptr<f16>> loc(#loc414)
            %l_i_110 = arith.mulf %l_i, %alpha_102 : tensor<256xf32> loc(#loc396)
            %l_i_111 = arith.addf %l_i_110, %l_ij : tensor<256xf32> loc(#loc396)
            %acc_112 = arith.truncf %p : tensor<256x64xf32> to tensor<256x64xf16> loc(#loc397)
            %acc_113 = tt.dot %acc_112, %tensor_109, %acc_105 : tensor<256x64xf16> * tensor<64x128xf16> -> tensor<256x128xf32> loc(#loc398)
            %k_ptrs_114 = tt.addptr %k_ptrs_88, %k_ptrs_83 : tensor<128x64x!tt.ptr<f16>>, tensor<128x64xi32> loc(#loc377)
            %v_ptrs_115 = tt.addptr %v_ptrs_89, %v_ptrs_85 : tensor<64x128x!tt.ptr<f16>>, tensor<64x128xi32> loc(#loc379)
            scf.yield %acc_113, %l_i_111, %m_ij_96, %k_ptrs_114, %v_ptrs_115 : tensor<256x128xf32>, tensor<256xf32>, tensor<256xf32>, tensor<128x64x!tt.ptr<f16>>, tensor<64x128x!tt.ptr<f16>> loc(#loc399)
          } {tt.num_stages = 1 : i32} loc(#loc418)
          scf.yield %v_ptrs_86#2, %v_ptrs_86#1, %v_ptrs_86#0 : tensor<256xf32>, tensor<256xf32>, tensor<256x128xf32> loc(#loc351)
        } else {
          scf.yield %acc#0, %acc#1, %acc#2 : tensor<256xf32>, tensor<256xf32>, tensor<256x128xf32> loc(#loc135)
        } loc(#loc135)
        %l_recip = tt.expand_dims %19#1 {axis = 1 : i32} : tensor<256xf32> -> tensor<256x1xf32> loc(#loc300)
        %l_recip_58 = arith.divf %cst_11, %l_recip : tensor<256x1xf32> loc(#loc301)
        %acc_59 = tt.broadcast %l_recip_58 : tensor<256x1xf32> -> tensor<256x128xf32> loc(#loc302)
        %acc_60 = arith.mulf %19#2, %acc_59 : tensor<256x128xf32> loc(#loc302)
        %acc_61 = arith.truncf %acc_60 : tensor<256x128xf32> to tensor<256x128xf16> loc(#loc343)
        %20 = arith.cmpi slt, %offs_m, %c0_i32 : i32 loc(#loc152)
        %21 = arith.cmpi sgt, %n_blocks_seqlen_22, %c0_i32 : i32 loc(#loc153)
        %22 = arith.andi %20, %21 : i1 loc(#loc152)
        %23 = scf.if %22 -> (tensor<256x128xf16>) {
          %out_ptrs_mask = arith.cmpi sge, %q_ptrs, %cst : tensor<256x1xi32> loc(#loc304)
          %out_ptrs_mask_75 = tt.broadcast %out_ptrs_mask : tensor<256x1xi1> -> tensor<256x128xi1> loc(#loc304)
          %acc_76 = arith.select %out_ptrs_mask_75, %acc_61, %cst_9 : tensor<256x128xi1>, tensor<256x128xf16> loc(#loc344)
          scf.yield %acc_76 : tensor<256x128xf16> loc(#loc344)
        } else {
          scf.yield %acc_61 : tensor<256x128xf16> loc(#loc154)
        } loc(#loc154)
        %l_ptrs = arith.muli %off_z, %c1048576_i32 : i32 loc(#loc306)
        %l_ptrs_62 = tt.addptr %L, %l_ptrs : !tt.ptr<f32>, i32 loc(#loc307)
        %l_ptrs_63 = arith.muli %off_h_q_18, %c16384_i32 : i32 loc(#loc308)
        %l_ptrs_64 = tt.addptr %l_ptrs_62, %l_ptrs_63 : !tt.ptr<f32>, i32 loc(#loc307)
        %l_ptrs_65 = tt.splat %l_ptrs_64 : !tt.ptr<f32> -> tensor<256x!tt.ptr<f32>> loc(#loc307)
        %l_ptrs_66 = tt.addptr %l_ptrs_65, %offs_m_21 : tensor<256x!tt.ptr<f32>>, tensor<256xi32> loc(#loc307)
        %overflow_size = arith.subi %n_blocks_seqlen_22, %c16384_i32 : i32 loc(#loc309)
        %24 = arith.cmpi sgt, %overflow_size, %c0_i32 : i32 loc(#loc161)
        scf.if %24 {
          %boundary = arith.subi %c16640_i32, %n_blocks_seqlen_22 : i32 loc(#loc310)
          %boundary_75 = tt.splat %boundary : i32 -> tensor<256xi32> loc(#loc311)
          %l_ptrs_mask = arith.cmpi slt, %offs_m_19, %boundary_75 : tensor<256xi32> loc(#loc312)
          %26 = math.log2 %19#1 : tensor<256xf32> loc(#loc166)
          %27 = arith.addf %19#0, %26 : tensor<256xf32> loc(#loc167)
          tt.store %l_ptrs_66, %27, %l_ptrs_mask : tensor<256x!tt.ptr<f32>> loc(#loc168)
        } else {
          %26 = math.log2 %19#1 : tensor<256xf32> loc(#loc169)
          %27 = arith.addf %19#0, %26 : tensor<256xf32> loc(#loc170)
          tt.store %l_ptrs_66, %27 : tensor<256x!tt.ptr<f32>> loc(#loc171)
        } loc(#loc162)
        %o_offset = arith.muli %off_z, %stride_oz : i32 loc(#loc313)
        %o_offset_67 = tt.addptr %Out, %o_offset : !tt.ptr<f16>, i32 loc(#loc314)
        %o_offset_68 = arith.muli %off_h_q_18, %stride_oh : i32 loc(#loc315)
        %o_offset_69 = tt.addptr %o_offset_67, %o_offset_68 : !tt.ptr<f16>, i32 loc(#loc314)
        %o_ptrs = tt.splat %stride_om : i32 -> tensor<256x1xi32> loc(#loc316)
        %o_ptrs_70 = arith.muli %q_ptrs, %o_ptrs : tensor<256x1xi32> loc(#loc316)
        %o_ptrs_71 = tt.splat %o_offset_69 : !tt.ptr<f16> -> tensor<256x1x!tt.ptr<f16>> loc(#loc317)
        %o_ptrs_72 = tt.addptr %o_ptrs_71, %o_ptrs_70 : tensor<256x1x!tt.ptr<f16>>, tensor<256x1xi32> loc(#loc317)
        %o_ptrs_73 = tt.broadcast %o_ptrs_72 : tensor<256x1x!tt.ptr<f16>> -> tensor<256x128x!tt.ptr<f16>> loc(#loc317)
        %o_ptrs_74 = tt.addptr %o_ptrs_73, %q_ptrs_34 : tensor<256x128x!tt.ptr<f16>>, tensor<256x128xi32> loc(#loc317)
        %25 = scf.if %24 -> (tensor<256x128xi1>) {
          scf.yield %q : tensor<256x128xi1> loc(#loc345)
        } else {
          scf.yield %cst_10 : tensor<256x128xi1> loc(#loc177)
        } loc(#loc177)
        tt.store %o_ptrs_74, %23, %25 : tensor<256x128x!tt.ptr<f16>> loc(#loc179)
      } loc(#loc78)
      scf.yield %c1_i32 : i32 loc(#loc62)
    } loc(#loc226)
    tt.return loc(#loc)
  } loc(#loc)
} loc(#loc)
#loc2 = loc("/home/mejiang/w1/test/fav3/triton/fa/flash-attention.py":477:15)
#loc3 = loc("/home/mejiang/w1/test/fav3/triton/fa/flash-attention.py":477:5)
#loc4 = loc("/home/mejiang/w1/test/fav3/triton/fa/flash-attention.py":478:15)
#loc5 = loc("/home/mejiang/w1/test/fav3/triton/fa/flash-attention.py":478:5)
#loc6 = loc("/home/mejiang/w1/test/fav3/triton/fa/flash-attention.py":479:15)
#loc7 = loc("/home/mejiang/w1/test/fav3/triton/fa/flash-attention.py":479:5)
#loc8 = loc("/home/mejiang/w1/test/fav3/triton/fa/flash-attention.py":480:5)
#loc9 = loc("/home/mejiang/w1/test/fav3/triton/fa/flash-attention.py":481:15)
#loc10 = loc("/home/mejiang/w1/test/fav3/triton/fa/flash-attention.py":481:5)
#loc11 = loc("/home/mejiang/w1/test/fav3/triton/fa/flash-attention.py":482:15)
#loc12 = loc("/home/mejiang/w1/test/fav3/triton/fa/flash-attention.py":482:5)
#loc13 = loc("/home/mejiang/w1/test/fav3/triton/fa/flash-attention.py":483:15)
#loc14 = loc("/home/mejiang/w1/test/fav3/triton/fa/flash-attention.py":483:5)
#loc15 = loc("/home/mejiang/w1/test/fav3/triton/fa/flash-attention.py":484:5)
#loc16 = loc("/home/mejiang/w1/test/fav3/triton/fa/flash-attention.py":485:15)
#loc17 = loc("/home/mejiang/w1/test/fav3/triton/fa/flash-attention.py":485:5)
#loc18 = loc("/home/mejiang/w1/test/fav3/triton/fa/flash-attention.py":486:15)
#loc19 = loc("/home/mejiang/w1/test/fav3/triton/fa/flash-attention.py":486:5)
#loc20 = loc("/home/mejiang/w1/test/fav3/triton/fa/flash-attention.py":487:15)
#loc21 = loc("/home/mejiang/w1/test/fav3/triton/fa/flash-attention.py":487:5)
#loc22 = loc("/home/mejiang/w1/test/fav3/triton/fa/flash-attention.py":488:15)
#loc23 = loc("/home/mejiang/w1/test/fav3/triton/fa/flash-attention.py":488:5)
#loc24 = loc("/home/mejiang/w1/test/fav3/triton/fa/flash-attention.py":489:15)
#loc25 = loc("/home/mejiang/w1/test/fav3/triton/fa/flash-attention.py":489:5)
#loc26 = loc("/home/mejiang/w1/test/fav3/triton/fa/flash-attention.py":490:15)
#loc27 = loc("/home/mejiang/w1/test/fav3/triton/fa/flash-attention.py":490:5)
#loc28 = loc("/home/mejiang/w1/test/fav3/triton/fa/flash-attention.py":491:15)
#loc29 = loc("/home/mejiang/w1/test/fav3/triton/fa/flash-attention.py":491:5)
#loc30 = loc("/home/mejiang/w1/test/fav3/triton/fa/flash-attention.py":492:5)
#loc31 = loc("/home/mejiang/w1/test/fav3/triton/fa/flash-attention.py":493:15)
#loc32 = loc("/home/mejiang/w1/test/fav3/triton/fa/flash-attention.py":493:5)
#loc33 = loc("/home/mejiang/w1/test/fav3/triton/fa/flash-attention.py":494:15)
#loc34 = loc("/home/mejiang/w1/test/fav3/triton/fa/flash-attention.py":494:5)
#loc35 = loc("/home/mejiang/w1/test/fav3/triton/fa/flash-attention.py":495:15)
#loc36 = loc("/home/mejiang/w1/test/fav3/triton/fa/flash-attention.py":495:5)
#loc37 = loc("/home/mejiang/w1/test/fav3/triton/fa/flash-attention.py":496:5)
#loc38 = loc("/home/mejiang/w1/test/fav3/triton/fa/flash-attention.py":520:23)
#loc39 = loc("/home/mejiang/w1/test/fav3/triton/fa/flash-attention.py":45:11)
#loc40 = loc("/home/mejiang/w1/test/fav3/triton/fa/flash-attention.py":521:23)
#loc41 = loc("/home/mejiang/w1/test/fav3/triton/fa/flash-attention.py":46:17)
#loc42 = loc("/home/mejiang/w1/test/fav3/triton/fa/flash-attention.py":51:8)
#loc43 = loc("/home/mejiang/w1/test/fav3/triton/fa/flash-attention.py":51:5)
#loc44 = loc("/home/mejiang/w1/test/fav3/triton/fa/flash-attention.py":52:15)
#loc45 = loc("/home/mejiang/w1/test/fav3/triton/fa/flash-attention.py":56:16)
#loc46 = loc("/home/mejiang/w1/test/fav3/triton/fa/flash-attention.py":56:15)
#loc47 = loc("/home/mejiang/w1/test/fav3/triton/fa/flash-attention.py":55:13)
#loc48 = loc("/home/mejiang/w1/test/fav3/triton/fa/flash-attention.py":522:23)
#loc49 = loc("/home/mejiang/w1/test/fav3/triton/fa/flash-attention.py":523:21)
#loc50 = loc("/home/mejiang/w1/test/fav3/triton/fa/flash-attention.py":525:18)
#loc51 = loc("/home/mejiang/w1/test/fav3/triton/fa/flash-attention.py":525:38)
#loc52 = loc("/home/mejiang/w1/test/fav3/triton/fa/flash-attention.py":526:18)
#loc53 = loc("/home/mejiang/w1/test/fav3/triton/fa/flash-attention.py":527:18)
#loc54 = loc("/home/mejiang/w1/test/fav3/triton/fa/flash-attention.py":563:44)
#loc55 = loc("/home/mejiang/w1/test/fav3/triton/fa/flash-attention.py":563:43)
#loc56 = loc("/home/mejiang/w1/test/fav3/triton/fa/flash-attention.py":169:13)
#loc57 = loc("/home/mejiang/w1/test/fav3/triton/fa/flash-attention.py":563:35)
#loc58 = loc("/home/mejiang/w1/test/fav3/triton/fa/flash-attention.py":169:12)
#loc59 = loc("/home/mejiang/w1/test/fav3/triton/fa/flash-attention.py":566:28)
#loc60 = loc("/home/mejiang/w1/test/fav3/triton/fa/flash-attention.py":569:20)
#loc61 = loc("/home/mejiang/w1/test/fav3/triton/fa/flash-attention.py":569:17)
#loc62 = loc("/home/mejiang/w1/test/fav3/triton/fa/flash-attention.py":511:5)
#loc63 = loc("/home/mejiang/w1/test/fav3/triton/fa/flash-attention.py":511:11)
#loc64 = loc("/home/mejiang/w1/test/fav3/triton/fa/flash-attention.py":570:38)
#loc65 = loc("/home/mejiang/w1/test/fav3/triton/fa/flash-attention.py":570:32)
#loc66 = loc("/home/mejiang/w1/test/fav3/triton/fa/flash-attention.py":570:58)
#loc67 = loc("/home/mejiang/w1/test/fav3/triton/fa/flash-attention.py":571:41)
#loc68 = loc("/home/mejiang/w1/test/fav3/triton/fa/flash-attention.py":571:30)
#loc69 = loc("/home/mejiang/w1/test/fav3/triton/fa/flash-attention.py":571:71)
#loc70 = loc("/home/mejiang/w1/test/fav3/triton/fa/flash-attention.py":573:36)
#loc71 = loc("/home/mejiang/w1/test/fav3/triton/fa/flash-attention.py":573:35)
#loc72 = loc("/home/mejiang/w1/test/fav3/triton/fa/flash-attention.py":575:21)
#loc73 = loc("/home/mejiang/w1/test/fav3/triton/fa/flash-attention.py":578:34)
#loc74 = loc("/home/mejiang/w1/test/fav3/triton/fa/flash-attention.py":578:30)
#loc75 = loc("/home/mejiang/w1/test/fav3/triton/fa/flash-attention.py":578:63)
#loc76 = loc("/home/mejiang/w1/test/fav3/triton/fa/flash-attention.py":582:35)
#loc77 = loc("/home/mejiang/w1/test/fav3/triton/fa/flash-attention.py":583:21)
#loc78 = loc("/home/mejiang/w1/test/fav3/triton/fa/flash-attention.py":588:13)
#loc79 = loc("/home/mejiang/w1/test/fav3/triton/fa/flash-attention.py":604:32)
#loc80 = loc("/home/mejiang/w1/test/fav3/triton/fa/flash-attention.py":604:28)
#loc81 = loc("/home/mejiang/w1/test/fav3/triton/fa/flash-attention.py":604:52)
#loc82 = loc("/home/mejiang/w1/test/fav3/triton/fa/flash-attention.py":605:37)
#loc83 = loc("/home/mejiang/w1/test/fav3/triton/fa/flash-attention.py":605:26)
#loc84 = loc("/home/mejiang/w1/test/fav3/triton/fa/flash-attention.py":605:67)
#loc85 = loc("/home/mejiang/w1/test/fav3/triton/fa/flash-attention.py":606:32)
#loc86 = loc("/home/mejiang/w1/test/fav3/triton/fa/flash-attention.py":606:28)
#loc87 = loc("/home/mejiang/w1/test/fav3/triton/fa/flash-attention.py":606:52)
#loc88 = loc("/home/mejiang/w1/test/fav3/triton/fa/flash-attention.py":607:37)
#loc89 = loc("/home/mejiang/w1/test/fav3/triton/fa/flash-attention.py":607:26)
#loc90 = loc("/home/mejiang/w1/test/fav3/triton/fa/flash-attention.py":607:67)
#loc91 = loc("/home/mejiang/w1/test/fav3/triton/fa/flash-attention.py":608:32)
#loc92 = loc("/home/mejiang/w1/test/fav3/triton/fa/flash-attention.py":608:28)
#loc93 = loc("/home/mejiang/w1/test/fav3/triton/fa/flash-attention.py":608:52)
#loc94 = loc("/home/mejiang/w1/test/fav3/triton/fa/flash-attention.py":609:37)
#loc95 = loc("/home/mejiang/w1/test/fav3/triton/fa/flash-attention.py":609:26)
#loc96 = loc("/home/mejiang/w1/test/fav3/triton/fa/flash-attention.py":655:31)
#loc97 = loc("/home/mejiang/w1/test/fav3/triton/fa/flash-attention.py":658:21)
#loc98 = loc("/home/mejiang/w1/test/fav3/triton/fa/flash-attention.py":691:33)
#loc99 = loc("/home/mejiang/w1/test/fav3/triton/fa/flash-attention.py":692:33)
#loc100 = loc("/home/mejiang/w1/test/fav3/triton/fa/flash-attention.py":694:29)
#loc101 = loc("/home/mejiang/w1/test/fav3/triton/fa/flash-attention.py":697:20)
#loc102 = loc("/home/mejiang/w1/test/fav3/triton/fa/flash-attention.py":697:17)
#loc103 = loc("/home/mejiang/w1/test/fav3/triton/fa/flash-attention.py":698:33)
#loc104 = loc("/home/mejiang/w1/test/fav3/triton/fa/flash-attention.py":372:19)
#loc106 = loc("/home/mejiang/w1/test/fav3/triton/fa/flash-attention.py":372:9)
#loc107 = loc("/home/mejiang/w1/test/fav3/triton/fa/flash-attention.py":373:19)
#loc108 = loc("/home/mejiang/w1/test/fav3/triton/fa/flash-attention.py":373:9)
#loc109 = loc("/home/mejiang/w1/test/fav3/triton/fa/flash-attention.py":278:5)
#loc110 = loc("/home/mejiang/w1/test/fav3/triton/fa/flash-attention.py":213:18)
#loc111 = loc("/home/mejiang/w1/test/fav3/triton/fa/flash-attention.py":286:13)
#loc112 = loc("/home/mejiang/w1/test/fav3/triton/fa/flash-attention.py":315:19)
#loc113 = loc("/home/mejiang/w1/test/triton/python/triton/language/standard.py":191:16)
#loc115 = loc("/home/mejiang/w1/test/triton/python/triton/language/standard.py":170:12)
#loc116 = loc("/home/mejiang/w1/test/fav3/triton/fa/flash-attention.py":334:16)
#loc117 = loc("/home/mejiang/w1/test/fav3/triton/fa/flash-attention.py":335:23)
#loc118 = loc("/home/mejiang/w1/test/fav3/triton/fa/flash-attention.py":336:14)
#loc119 = loc("/home/mejiang/w1/test/fav3/triton/fa/flash-attention.py":336:30)
#loc120 = loc("/home/mejiang/w1/test/fav3/triton/fa/flash-attention.py":337:13)
#loc121 = loc("/home/mejiang/w1/test/triton/python/triton/language/standard.py":293:12)
#loc123 = loc("/home/mejiang/w1/test/triton/python/triton/language/standard.py":263:12)
#loc124 = loc("/home/mejiang/w1/test/fav3/triton/fa/flash-attention.py":350:30)
#loc125 = loc("/home/mejiang/w1/test/fav3/triton/fa/flash-attention.py":350:17)
#loc126 = loc("/home/mejiang/w1/test/fav3/triton/fa/flash-attention.py":351:21)
#loc127 = loc("/home/mejiang/w1/test/fav3/triton/fa/flash-attention.py":351:15)
#loc128 = loc("/home/mejiang/w1/test/fav3/triton/fa/flash-attention.py":353:17)
#loc129 = loc("/home/mejiang/w1/test/fav3/triton/fa/flash-attention.py":355:15)
#loc130 = loc("/home/mejiang/w1/test/fav3/triton/fa/flash-attention.py":370:27)
#loc131 = loc("/home/mejiang/w1/test/fav3/triton/fa/flash-attention.py":370:20)
#loc132 = loc("/home/mejiang/w1/test/fav3/triton/fa/flash-attention.py":712:33)
#loc133 = loc("/home/mejiang/w1/test/fav3/triton/fa/flash-attention.py":714:17)
#loc134 = loc("/home/mejiang/w1/test/fav3/triton/fa/flash-attention.py":716:21)
#loc135 = loc("/home/mejiang/w1/test/fav3/triton/fa/flash-attention.py":716:17)
#loc136 = loc("/home/mejiang/w1/test/fav3/triton/fa/flash-attention.py":721:31)
#loc137 = loc("/home/mejiang/w1/test/fav3/triton/fa/flash-attention.py":721:21)
#loc138 = loc("/home/mejiang/w1/test/fav3/triton/fa/flash-attention.py":722:31)
#loc139 = loc("/home/mejiang/w1/test/fav3/triton/fa/flash-attention.py":722:21)
#loc140 = loc("/home/mejiang/w1/test/fav3/triton/fa/flash-attention.py":307:27)
#loc142 = loc("/home/mejiang/w1/test/fav3/triton/fa/flash-attention.py":282:24)
#loc143 = loc("/home/mejiang/w1/test/fav3/triton/fa/flash-attention.py":210:16)
#loc144 = loc("/home/mejiang/w1/test/fav3/triton/fa/flash-attention.py":211:18)
#loc145 = loc("/home/mejiang/w1/test/fav3/triton/fa/flash-attention.py":308:18)
#loc146 = loc("/home/mejiang/w1/test/fav3/triton/fa/flash-attention.py":207:16)
#loc147 = loc("/home/mejiang/w1/test/fav3/triton/fa/flash-attention.py":208:18)
#loc148 = loc("/home/mejiang/w1/test/fav3/triton/fa/flash-attention.py":743:31)
#loc149 = loc("/home/mejiang/w1/test/fav3/triton/fa/flash-attention.py":743:27)
#loc150 = loc("/home/mejiang/w1/test/fav3/triton/fa/flash-attention.py":744:23)
#loc151 = loc("/home/mejiang/w1/test/fav3/triton/fa/flash-attention.py":755:23)
#loc152 = loc("/home/mejiang/w1/test/fav3/triton/fa/flash-attention.py":757:24)
#loc153 = loc("/home/mejiang/w1/test/fav3/triton/fa/flash-attention.py":757:59)
#loc154 = loc("/home/mejiang/w1/test/fav3/triton/fa/flash-attention.py":757:21)
#loc155 = loc("/home/mejiang/w1/test/fav3/triton/fa/flash-attention.py":760:41)
#loc156 = loc("/home/mejiang/w1/test/fav3/triton/fa/flash-attention.py":762:31)
#loc157 = loc("/home/mejiang/w1/test/fav3/triton/fa/flash-attention.py":764:30)
#loc158 = loc("/home/mejiang/w1/test/fav3/triton/fa/flash-attention.py":764:26)
#loc159 = loc("/home/mejiang/w1/test/fav3/triton/fa/flash-attention.py":764:59)
#loc160 = loc("/home/mejiang/w1/test/fav3/triton/fa/flash-attention.py":767:33)
#loc161 = loc("/home/mejiang/w1/test/fav3/triton/fa/flash-attention.py":768:20)
#loc162 = loc("/home/mejiang/w1/test/fav3/triton/fa/flash-attention.py":768:17)
#loc163 = loc("/home/mejiang/w1/test/fav3/triton/fa/flash-attention.py":769:53)
#loc164 = loc("/home/mejiang/w1/test/fav3/triton/fa/flash-attention.py":769:32)
#loc165 = loc("/home/mejiang/w1/test/fav3/triton/fa/flash-attention.py":770:35)
#loc166 = loc("/home/mejiang/w1/test/fav3/triton/fa/flash-attention.py":771:44)
#loc167 = loc("/home/mejiang/w1/test/fav3/triton/fa/flash-attention.py":771:38)
#loc168 = loc("/home/mejiang/w1/test/fav3/triton/fa/flash-attention.py":771:21)
#loc169 = loc("/home/mejiang/w1/test/fav3/triton/fa/flash-attention.py":773:44)
#loc170 = loc("/home/mejiang/w1/test/fav3/triton/fa/flash-attention.py":773:38)
#loc171 = loc("/home/mejiang/w1/test/fav3/triton/fa/flash-attention.py":773:21)
#loc172 = loc("/home/mejiang/w1/test/fav3/triton/fa/flash-attention.py":776:34)
#loc173 = loc("/home/mejiang/w1/test/fav3/triton/fa/flash-attention.py":776:28)
#loc174 = loc("/home/mejiang/w1/test/fav3/triton/fa/flash-attention.py":776:54)
#loc175 = loc("/home/mejiang/w1/test/fav3/triton/fa/flash-attention.py":777:37)
#loc176 = loc("/home/mejiang/w1/test/fav3/triton/fa/flash-attention.py":777:26)
#loc177 = loc("/home/mejiang/w1/test/fav3/triton/fa/flash-attention.py":779:17)
#loc178 = loc("/home/mejiang/w1/test/fav3/triton/fa/flash-attention.py":780:35)
#loc179 = loc("/home/mejiang/w1/test/fav3/triton/fa/flash-attention.py":783:17)
#loc207 = loc("off_h_q"(#loc38))
#loc208 = loc("xcd"(#loc39))
#loc209 = loc("off_h_q"(#loc40))
#loc210 = loc("local_pid"(#loc41))
#loc211 = loc("pid"(#loc44))
#loc212 = loc("pid"(#loc45))
#loc213 = loc("pid"(#loc46))
#loc214 = loc("pid"(#loc47))
#loc215 = loc("start_m"(#loc48))
#loc216 = loc("off_z"(#loc49))
#loc217 = loc("offs_m"(#loc50))
#loc218 = loc("offs_m"(#loc51))
#loc219 = loc("offs_n"(#loc52))
#loc220 = loc("offs_d"(#loc53))
#loc221 = loc("n_blocks_seqlen"(#loc54))
#loc222 = loc("n_blocks_seqlen"(#loc55))
#loc223 = loc("n_blocks_seqlen"(#loc57))
#loc224 = loc("n_blocks"(#loc59))
#loc225 = loc("continue_condition"(#loc61))
#loc226 = loc("tile_id"(#loc62))
#loc227 = loc("o_offset"(#loc64))
#loc228 = loc("o_offset"(#loc65))
#loc229 = loc("o_offset"(#loc66))
#loc230 = loc("o_ptrs"(#loc67))
#loc231 = loc("o_ptrs"(#loc68))
#loc232 = loc("o_ptrs"(#loc69))
#loc233 = loc("o_ptrs_mask"(#loc70))
#loc234 = loc("o_ptrs_mask"(#loc71))
#loc235 = loc("l_ptrs"(#loc73))
#loc236 = loc("l_ptrs"(#loc74))
#loc237 = loc("l_ptrs"(#loc75))
#loc238 = loc("l_ptrs_mask"(#loc76))
#loc239 = loc("q_offset"(#loc79))
#loc240 = loc("q_offset"(#loc80))
#loc241 = loc("q_offset"(#loc81))
#loc242 = loc("q_ptrs"(#loc82))
#loc243 = loc("q_ptrs"(#loc83))
#loc244 = loc("q_ptrs"(#loc84))
#loc245 = loc("k_offset"(#loc85))
#loc246 = loc("k_offset"(#loc86))
#loc247 = loc("k_offset"(#loc87))
#loc248 = loc("k_ptrs"(#loc88))
#loc249 = loc("k_ptrs"(#loc89))
#loc250 = loc("k_ptrs"(#loc90))
#loc251 = loc("v_offset"(#loc91))
#loc252 = loc("v_offset"(#loc92))
#loc253 = loc("v_offset"(#loc93))
#loc254 = loc("v_ptrs"(#loc94))
#loc255 = loc("v_ptrs"(#loc95))
#loc256 = loc("q_ptrs_mask"(#loc96))
#loc257 = loc("q"(#loc97))
#loc258 = loc("masked_blocks"(#loc98))
#loc259 = loc("n_full_blocks"(#loc99))
#loc260 = loc("block_max"(#loc100))
#loc261 = loc("m_i"(#loc102))
#loc262 = loc("block_max"(#loc103))
#loc263 = loc("k_ptrs"(#loc104))
#loc265 = loc("k_ptrs"(#loc106))
#loc266 = loc("v_ptrs"(#loc107))
#loc267 = loc("v_ptrs"(#loc108))
#loc268 = loc("acc"(#loc109))
#loc269 = loc("tensor"(#loc110))
#loc270 = loc("k"(#loc111))
#loc271 = loc("qk"(#loc112))
#loc273 = loc("m_ij"(#loc116))
#loc274 = loc("m_ij_scaled"(#loc117))
#loc275 = loc("qk"(#loc118))
#loc276 = loc("qk"(#loc119))
#loc277 = loc("p"(#loc120))
#loc279 = loc("alpha"(#loc124))
#loc280 = loc("alpha"(#loc125))
#loc281 = loc("acc"(#loc126))
#loc282 = loc("acc"(#loc127))
#loc283 = loc("v"(#loc128))
#loc284 = loc("l_i"(#loc129))
#loc285 = loc("acc"(#loc130))
#loc286 = loc("acc"(#loc131))
#loc287 = loc("block_max"(#loc132))
#loc288 = loc("k_ptrs"(#loc136))
#loc289 = loc("k_ptrs"(#loc137))
#loc290 = loc("v_ptrs"(#loc138))
#loc291 = loc("v_ptrs"(#loc139))
#loc292 = loc("causal_mask"(#loc140))
#loc294 = loc("k_offs_n"(#loc142))
#loc295 = loc("mask"(#loc143))
#loc296 = loc("tensor"(#loc144))
#loc297 = loc("qk"(#loc145))
#loc298 = loc("mask"(#loc146))
#loc299 = loc("tensor"(#loc147))
#loc300 = loc("l_recip"(#loc148))
#loc301 = loc("l_recip"(#loc149))
#loc302 = loc("acc"(#loc150))
#loc303 = loc("acc"(#loc151))
#loc304 = loc("out_ptrs_mask"(#loc155))
#loc305 = loc("acc"(#loc156))
#loc306 = loc("l_ptrs"(#loc157))
#loc307 = loc("l_ptrs"(#loc158))
#loc308 = loc("l_ptrs"(#loc159))
#loc309 = loc("overflow_size"(#loc160))
#loc310 = loc("boundary"(#loc163))
#loc311 = loc("boundary"(#loc164))
#loc312 = loc("l_ptrs_mask"(#loc165))
#loc313 = loc("o_offset"(#loc172))
#loc314 = loc("o_offset"(#loc173))
#loc315 = loc("o_offset"(#loc174))
#loc316 = loc("o_ptrs"(#loc175))
#loc317 = loc("o_ptrs"(#loc176))
#loc318 = loc("o_ptrs_mask"(#loc178))
#loc319 = loc(callsite(#loc208 at #loc209))
#loc320 = loc(callsite(#loc210 at #loc209))
#loc321 = loc(callsite(#loc42 at #loc209))
#loc322 = loc(callsite(#loc43 at #loc209))
#loc323 = loc(callsite(#loc211 at #loc209))
#loc324 = loc("pid"(#loc211))
#loc325 = loc(callsite(#loc212 at #loc209))
#loc326 = loc(callsite(#loc213 at #loc209))
#loc327 = loc(callsite(#loc214 at #loc209))
#loc328 = loc("pid"(#loc214))
#loc329 = loc(callsite(#loc56 at #loc223))
#loc330 = loc(callsite(#loc58 at #loc223))
#loc331 = loc(fused[#loc225, #loc60])
#loc332 = loc("k_ptrs"(#loc249))
#loc333 = loc("v_ptrs"(#loc255))
#loc334 = loc("block_max"(#loc260))
#loc335 = loc("l_i"(#loc261))
#loc336 = loc("block_min"(#loc262))
#loc338 = loc("l_i"(#loc268))
#loc339 = loc("block_max"(#loc287))
#loc340 = loc("k_ptrs"(#loc289))
#loc341 = loc("v_ptrs"(#loc291))
#loc343 = loc("acc"(#loc303))
#loc344 = loc("acc"(#loc305))
#loc345 = loc("o_ptrs_mask"(#loc318))
#loc346 = loc(callsite(#loc324 at #loc209))
#loc347 = loc(callsite(#loc328 at #loc209))
#loc348 = loc("acc"(#loc335))
#loc350 = loc("m_i"(#loc338))
#loc352 = loc(callsite(#loc263 at #loc349))
#loc353 = loc(callsite(#loc265 at #loc349))
#loc354 = loc(callsite(#loc266 at #loc349))
#loc355 = loc(callsite(#loc267 at #loc349))
#loc356 = loc("k_ptrs"(#loc350))
#loc357 = loc(callsite(#loc270 at #loc349))
#loc358 = loc(callsite(#loc271 at #loc349))
#loc360 = loc(callsite(#loc273 at #loc349))
#loc361 = loc(callsite(#loc274 at #loc349))
#loc362 = loc(callsite(#loc275 at #loc349))
#loc363 = loc(callsite(#loc276 at #loc349))
#loc364 = loc(callsite(#loc277 at #loc349))
#loc366 = loc(callsite(#loc279 at #loc349))
#loc367 = loc(callsite(#loc280 at #loc349))
#loc368 = loc(callsite(#loc281 at #loc349))
#loc369 = loc(callsite(#loc282 at #loc349))
#loc370 = loc(callsite(#loc283 at #loc349))
#loc371 = loc(callsite(#loc284 at #loc349))
#loc372 = loc(callsite(#loc285 at #loc349))
#loc373 = loc(callsite(#loc286 at #loc349))
#loc374 = loc(callsite(#loc109 at #loc349))
#loc375 = loc(callsite(#loc292 at #loc351))
#loc376 = loc(callsite(#loc263 at #loc351))
#loc377 = loc(callsite(#loc265 at #loc351))
#loc378 = loc(callsite(#loc266 at #loc351))
#loc379 = loc(callsite(#loc267 at #loc351))
#loc380 = loc(callsite(#loc294 at #loc351))
#loc381 = loc(callsite(#loc270 at #loc351))
#loc382 = loc(callsite(#loc297 at #loc351))
#loc383 = loc(callsite(#loc271 at #loc351))
#loc385 = loc(callsite(#loc273 at #loc351))
#loc386 = loc(callsite(#loc274 at #loc351))
#loc387 = loc(callsite(#loc275 at #loc351))
#loc388 = loc(callsite(#loc276 at #loc351))
#loc389 = loc(callsite(#loc277 at #loc351))
#loc391 = loc(callsite(#loc279 at #loc351))
#loc392 = loc(callsite(#loc280 at #loc351))
#loc393 = loc(callsite(#loc281 at #loc351))
#loc394 = loc(callsite(#loc282 at #loc351))
#loc395 = loc(callsite(#loc283 at #loc351))
#loc396 = loc(callsite(#loc284 at #loc351))
#loc397 = loc(callsite(#loc285 at #loc351))
#loc398 = loc(callsite(#loc286 at #loc351))
#loc399 = loc(callsite(#loc109 at #loc351))
#loc400 = loc("v_ptrs"(#loc356))
#loc401 = loc(callsite(#loc269 at #loc357))
#loc402 = loc(callsite(#loc113 at #loc359))
#loc404 = loc(callsite(#loc121 at #loc365))
#loc406 = loc(callsite(#loc269 at #loc370))
#loc407 = loc(callsite(#loc295 at #loc381))
#loc408 = loc(callsite(#loc296 at #loc381))
#loc409 = loc(callsite(#loc113 at #loc384))
#loc411 = loc(callsite(#loc121 at #loc390))
#loc413 = loc(callsite(#loc298 at #loc395))
#loc414 = loc(callsite(#loc299 at #loc395))
#loc415 = loc(callsite(#loc400 at #loc349))
#loc416 = loc(callsite(#loc115 at #loc402))
#loc417 = loc(callsite(#loc123 at #loc404))
#loc418 = loc(callsite(#loc400 at #loc351))
#loc419 = loc(callsite(#loc115 at #loc409))
#loc420 = loc(callsite(#loc123 at #loc411))
