#loc = loc("/home/mejiang/w1/test/fav3/triton/fa/flash-attention.py":465:1)
#loc41 = loc("tile_id")
#loc188 = loc("/home/mejiang/w1/test/fav3/triton/fa/flash-attention.py":34:1)
#loc203 = loc("/home/mejiang/w1/test/fav3/triton/fa/flash-attention.py":168:1)
#loc210 = loc("/home/mejiang/w1/test/fav3/triton/fa/flash-attention.py":267:1)
#loc237 = loc("/home/mejiang/w1/test/fav3/triton/fa/flash-attention.py":201:1)
#loc240 = loc("/home/mejiang/w1/test/triton/python/triton/language/standard.py":177:1)
#loc242 = loc(unknown)
#loc244 = loc("/home/mejiang/w1/test/triton/python/triton/language/standard.py":169:1)
#loc247 = loc("/home/mejiang/w1/test/triton/python/triton/language/standard.py":287:1)
#loc250 = loc("/home/mejiang/w1/test/triton/python/triton/language/standard.py":262:1)
#loc273 = loc("Q"(#loc))
#loc274 = loc("K"(#loc))
#loc275 = loc("V"(#loc))
#loc276 = loc("L"(#loc))
#loc277 = loc("Out"(#loc))
#loc278 = loc("stride_qz"(#loc))
#loc279 = loc("stride_qh"(#loc))
#loc280 = loc("stride_qm"(#loc))
#loc281 = loc("stride_kz"(#loc))
#loc282 = loc("stride_kh"(#loc))
#loc283 = loc("stride_kn"(#loc))
#loc284 = loc("stride_vz"(#loc))
#loc285 = loc("stride_vh"(#loc))
#loc286 = loc("stride_vk"(#loc))
#loc287 = loc("stride_oz"(#loc))
#loc288 = loc("stride_oh"(#loc))
#loc289 = loc("stride_om"(#loc))
#loc290 = loc("stride_bz"(#loc))
#loc291 = loc("stride_bh"(#loc))
#loc292 = loc("stride_bm"(#loc))
#loc293 = loc("stride_bn"(#loc))
#loc294 = loc("stride_az"(#loc))
#loc295 = loc("stride_ah"(#loc))
#loc296 = loc("dropout_p"(#loc))
#loc297 = loc("philox_seed"(#loc))
#loc298 = loc("atomic_counter"(#loc))
#loc299 = loc("philox_offset_base"(#loc))
#loc423 = loc("pid"(#loc188))
#loc436 = loc("x"(#loc203))
#loc437 = loc("acc"(#loc210))
#loc438 = loc("l_i"(#loc210))
#loc439 = loc("m_i"(#loc210))
#loc440 = loc("q"(#loc210))
#loc441 = loc("k_ptrs"(#loc210))
#loc442 = loc("v_ptrs"(#loc210))
#loc443 = loc("stride_kn"(#loc210))
#loc444 = loc("stride_vk"(#loc210))
#loc445 = loc("stride_bn"(#loc210))
#loc446 = loc("start_m"(#loc210))
#loc447 = loc("actual_seqlen_k"(#loc210))
#loc448 = loc("actual_seqlen_q"(#loc210))
#loc449 = loc("dropout_p"(#loc210))
#loc450 = loc("philox_seed"(#loc210))
#loc451 = loc("batch_philox_offset"(#loc210))
#loc452 = loc("block_min"(#loc210))
#loc453 = loc("block_max"(#loc210))
#loc454 = loc("OFFS_M"(#loc210))
#loc455 = loc("OFFS_N"(#loc210))
#loc481 = loc("ptrs"(#loc237))
#loc482 = loc("boundary_second"(#loc237))
#loc484 = loc("input"(#loc240))
#loc485 = loc("a"(#loc244))
#loc486 = loc("b"(#loc244))
#loc487 = loc("input"(#loc247))
#loc488 = loc("a"(#loc250))
#loc489 = loc("b"(#loc250))
#loc490 = loc("boundary_first"(#loc237))
#loc491 = loc("offs_n_causal"(#loc210))
#loc492 = loc("masked_blocks"(#loc210))
#loc493 = loc("n_extra_tokens"(#loc210))
#loc506 = loc("offset_second"(#loc237))
#loc509 = loc("offset_first"(#loc237))
module {
  tt.func public @attn_fwd(%Q: !tt.ptr<f16> {tt.divisibility = 16 : i32, tt.pointer_range = 32 : i32} loc("Q"(#loc)), %K: !tt.ptr<f16> {tt.divisibility = 16 : i32, tt.pointer_range = 32 : i32} loc("K"(#loc)), %V: !tt.ptr<f16> {tt.divisibility = 16 : i32, tt.pointer_range = 32 : i32} loc("V"(#loc)), %L: !tt.ptr<f32> {tt.divisibility = 16 : i32, tt.pointer_range = 32 : i32} loc("L"(#loc)), %Out: !tt.ptr<f16> {tt.divisibility = 16 : i32, tt.pointer_range = 32 : i32} loc("Out"(#loc)), %stride_qz: i32 {tt.divisibility = 16 : i32} loc("stride_qz"(#loc)), %stride_qh: i32 {tt.divisibility = 16 : i32} loc("stride_qh"(#loc)), %stride_qm: i32 {tt.divisibility = 16 : i32} loc("stride_qm"(#loc)), %stride_kz: i32 {tt.divisibility = 16 : i32} loc("stride_kz"(#loc)), %stride_kh: i32 {tt.divisibility = 16 : i32} loc("stride_kh"(#loc)), %stride_kn: i32 {tt.divisibility = 16 : i32} loc("stride_kn"(#loc)), %stride_vz: i32 {tt.divisibility = 16 : i32} loc("stride_vz"(#loc)), %stride_vh: i32 {tt.divisibility = 16 : i32} loc("stride_vh"(#loc)), %stride_vk: i32 {tt.divisibility = 16 : i32} loc("stride_vk"(#loc)), %stride_oz: i32 {tt.divisibility = 16 : i32} loc("stride_oz"(#loc)), %stride_oh: i32 {tt.divisibility = 16 : i32} loc("stride_oh"(#loc)), %stride_om: i32 {tt.divisibility = 16 : i32} loc("stride_om"(#loc)), %stride_bz: i32 {tt.divisibility = 16 : i32} loc("stride_bz"(#loc)), %stride_bh: i32 {tt.divisibility = 16 : i32} loc("stride_bh"(#loc)), %stride_bm: i32 {tt.divisibility = 16 : i32} loc("stride_bm"(#loc)), %stride_bn: i32 {tt.divisibility = 16 : i32} loc("stride_bn"(#loc)), %stride_az: i32 {tt.divisibility = 16 : i32} loc("stride_az"(#loc)), %stride_ah: i32 {tt.divisibility = 16 : i32} loc("stride_ah"(#loc)), %dropout_p: f32 loc("dropout_p"(#loc)), %philox_seed: i32 loc("philox_seed"(#loc)), %atomic_counter: !tt.ptr<i32> {tt.divisibility = 16 : i32, tt.pointer_range = 32 : i32} loc("atomic_counter"(#loc)), %philox_offset_base: i32 loc("philox_offset_base"(#loc))) attributes {noinline = false} {
    %c0_i32 = arith.constant 0 : i32 loc(#loc1)
    %0 = arith.cmpi sge, %stride_qz, %c0_i32 : i32 loc(#loc1)
    llvm.intr.assume %0 : i1 loc(#loc2)
    %c0_i32_0 = arith.constant 0 : i32 loc(#loc3)
    %1 = arith.cmpi sge, %stride_qh, %c0_i32_0 : i32 loc(#loc3)
    llvm.intr.assume %1 : i1 loc(#loc4)
    %c0_i32_1 = arith.constant 0 : i32 loc(#loc5)
    %2 = arith.cmpi sge, %stride_qm, %c0_i32_1 : i32 loc(#loc5)
    llvm.intr.assume %2 : i1 loc(#loc6)
    %true = arith.constant true loc(#loc7)
    llvm.intr.assume %true : i1 loc(#loc7)
    %c0_i32_2 = arith.constant 0 : i32 loc(#loc8)
    %3 = arith.cmpi sge, %stride_kz, %c0_i32_2 : i32 loc(#loc8)
    llvm.intr.assume %3 : i1 loc(#loc9)
    %c0_i32_3 = arith.constant 0 : i32 loc(#loc10)
    %4 = arith.cmpi sge, %stride_kh, %c0_i32_3 : i32 loc(#loc10)
    llvm.intr.assume %4 : i1 loc(#loc11)
    %c0_i32_4 = arith.constant 0 : i32 loc(#loc12)
    %5 = arith.cmpi sge, %stride_kn, %c0_i32_4 : i32 loc(#loc12)
    llvm.intr.assume %5 : i1 loc(#loc13)
    %true_5 = arith.constant true loc(#loc14)
    llvm.intr.assume %true_5 : i1 loc(#loc14)
    %c0_i32_6 = arith.constant 0 : i32 loc(#loc15)
    %6 = arith.cmpi sge, %stride_bz, %c0_i32_6 : i32 loc(#loc15)
    llvm.intr.assume %6 : i1 loc(#loc16)
    %c0_i32_7 = arith.constant 0 : i32 loc(#loc17)
    %7 = arith.cmpi sge, %stride_bh, %c0_i32_7 : i32 loc(#loc17)
    llvm.intr.assume %7 : i1 loc(#loc18)
    %c0_i32_8 = arith.constant 0 : i32 loc(#loc19)
    %8 = arith.cmpi sge, %stride_bm, %c0_i32_8 : i32 loc(#loc19)
    llvm.intr.assume %8 : i1 loc(#loc20)
    %c0_i32_9 = arith.constant 0 : i32 loc(#loc21)
    %9 = arith.cmpi sge, %stride_bn, %c0_i32_9 : i32 loc(#loc21)
    llvm.intr.assume %9 : i1 loc(#loc22)
    %c0_i32_10 = arith.constant 0 : i32 loc(#loc23)
    %10 = arith.cmpi sge, %stride_vz, %c0_i32_10 : i32 loc(#loc23)
    llvm.intr.assume %10 : i1 loc(#loc24)
    %c0_i32_11 = arith.constant 0 : i32 loc(#loc25)
    %11 = arith.cmpi sge, %stride_vh, %c0_i32_11 : i32 loc(#loc25)
    llvm.intr.assume %11 : i1 loc(#loc26)
    %c0_i32_12 = arith.constant 0 : i32 loc(#loc27)
    %12 = arith.cmpi sge, %stride_vk, %c0_i32_12 : i32 loc(#loc27)
    llvm.intr.assume %12 : i1 loc(#loc28)
    %true_13 = arith.constant true loc(#loc29)
    llvm.intr.assume %true_13 : i1 loc(#loc29)
    %c0_i32_14 = arith.constant 0 : i32 loc(#loc30)
    %13 = arith.cmpi sge, %stride_oz, %c0_i32_14 : i32 loc(#loc30)
    llvm.intr.assume %13 : i1 loc(#loc31)
    %c0_i32_15 = arith.constant 0 : i32 loc(#loc32)
    %14 = arith.cmpi sge, %stride_oh, %c0_i32_15 : i32 loc(#loc32)
    llvm.intr.assume %14 : i1 loc(#loc33)
    %c0_i32_16 = arith.constant 0 : i32 loc(#loc34)
    %15 = arith.cmpi sge, %stride_om, %c0_i32_16 : i32 loc(#loc34)
    llvm.intr.assume %15 : i1 loc(#loc35)
    %true_17 = arith.constant true loc(#loc36)
    llvm.intr.assume %true_17 : i1 loc(#loc36)
    %tile_id = arith.constant 0 : i32 loc(#loc300)
    %num_tiles_total = arith.constant 1 : i32 loc(#loc301)
    %tile_id_18 = scf.while (%tile_id_19 = %tile_id) : (i32) -> i32 {
      %16 = arith.cmpi slt, %tile_id_19, %num_tiles_total : i32 loc(#loc40)
      scf.condition(%16) %tile_id_19 : i32 loc(#loc40)
    } do {
    ^bb0(%tile_id_19: i32 loc("tile_id")):
      %off_h_q = tt.get_program_id x : i32 loc(#loc303)
      %off_h_q_20 = tt.call @__main__.remap_xcd__i32_c64_c8(%off_h_q) : (i32) -> i32 loc(#loc304)
      %start_m = tt.get_program_id y : i32 loc(#loc305)
      %off_z = tt.get_program_id z : i32 loc(#loc306)
      %offs_m = arith.constant 256 : i32 loc(#loc307)
      %offs_m_21 = arith.constant 256 : i32 loc(#loc307)
      %offs_m_22 = arith.extsi %start_m : i32 to i64 loc(#loc307)
      %offs_m_23 = arith.extsi %offs_m_21 : i32 to i64 loc(#loc307)
      %offs_m_24 = arith.muli %offs_m_22, %offs_m_23 : i64 loc(#loc307)
      %offs_m_25 = arith.constant 2147483647 : i64 loc(#loc307)
      %offs_m_26 = arith.constant -2147483648 : i64 loc(#loc307)
      %offs_m_27 = arith.cmpi sle, %offs_m_24, %offs_m_25 : i64 loc(#loc307)
      %offs_m_28 = arith.cmpi sge, %offs_m_24, %offs_m_26 : i64 loc(#loc307)
      %offs_m_29 = arith.andi %offs_m_27, %offs_m_28 : i1 loc(#loc307)
      %offs_m_30 = arith.muli %start_m, %offs_m_21 : i32 loc(#loc307)
      %offs_m_31 = tt.make_range {end = 256 : i32, start = 0 : i32} : tensor<256xi32> loc(#loc308)
      %offs_m_32 = tt.splat %offs_m_30 : i32 -> tensor<256xi32> loc(#loc307)
      %offs_m_33 = arith.extsi %offs_m_32 : tensor<256xi32> to tensor<256xi64> loc(#loc307)
      %offs_m_34 = arith.extsi %offs_m_31 : tensor<256xi32> to tensor<256xi64> loc(#loc307)
      %offs_m_35 = arith.addi %offs_m_33, %offs_m_34 : tensor<256xi64> loc(#loc307)
      %offs_m_36 = arith.constant 2147483647 : i64 loc(#loc307)
      %offs_m_37 = arith.constant -2147483648 : i64 loc(#loc307)
      %offs_m_38 = arith.constant dense<2147483647> : tensor<256xi64> loc(#loc307)
      %offs_m_39 = arith.cmpi sle, %offs_m_35, %offs_m_38 : tensor<256xi64> loc(#loc307)
      %offs_m_40 = arith.constant dense<-2147483648> : tensor<256xi64> loc(#loc307)
      %offs_m_41 = arith.cmpi sge, %offs_m_35, %offs_m_40 : tensor<256xi64> loc(#loc307)
      %offs_m_42 = arith.andi %offs_m_39, %offs_m_41 : tensor<256xi1> loc(#loc307)
      %offs_m_43 = arith.addi %offs_m_32, %offs_m_31 : tensor<256xi32> loc(#loc307)
      %offs_n = tt.make_range {end = 64 : i32, start = 0 : i32} : tensor<64xi32> loc(#loc309)
      %offs_d = tt.make_range {end = 128 : i32, start = 0 : i32} : tensor<128xi32> loc(#loc310)
      %continue_condition = arith.constant true loc(#loc540)
      %cu_seqlens_q_start = arith.constant 0 : i32 loc(#loc312)
      %cu_seqlens_k_start = arith.constant 0 : i32 loc(#loc313)
      %seqlen_q = arith.constant 16384 : i32 loc(#loc314)
      %seqlen_k = arith.constant 16384 : i32 loc(#loc315)
      %16 = scf.if %continue_condition -> (i1) {
        %n_blocks = tt.call @__main__.cdiv_fn__i32_c64(%seqlen_k) : (i32) -> i32 loc(#loc316)
        %n_blocks_seqlen = arith.constant 1 : i32 loc(#loc317)
        %n_blocks_seqlen_44 = arith.constant 1 : i32 loc(#loc317)
        %n_blocks_seqlen_45 = arith.extsi %start_m : i32 to i64 loc(#loc317)
        %n_blocks_seqlen_46 = arith.extsi %n_blocks_seqlen_44 : i32 to i64 loc(#loc317)
        %n_blocks_seqlen_47 = arith.addi %n_blocks_seqlen_45, %n_blocks_seqlen_46 : i64 loc(#loc317)
        %n_blocks_seqlen_48 = arith.constant 2147483647 : i64 loc(#loc317)
        %n_blocks_seqlen_49 = arith.constant -2147483648 : i64 loc(#loc317)
        %n_blocks_seqlen_50 = arith.cmpi sle, %n_blocks_seqlen_47, %n_blocks_seqlen_48 : i64 loc(#loc317)
        %n_blocks_seqlen_51 = arith.cmpi sge, %n_blocks_seqlen_47, %n_blocks_seqlen_49 : i64 loc(#loc317)
        %n_blocks_seqlen_52 = arith.andi %n_blocks_seqlen_50, %n_blocks_seqlen_51 : i1 loc(#loc317)
        %n_blocks_seqlen_53 = arith.addi %start_m, %n_blocks_seqlen_44 : i32 loc(#loc317)
        %n_blocks_seqlen_54 = arith.constant 256 : i32 loc(#loc318)
        %n_blocks_seqlen_55 = arith.constant 256 : i32 loc(#loc318)
        %n_blocks_seqlen_56 = arith.extsi %n_blocks_seqlen_53 : i32 to i64 loc(#loc318)
        %n_blocks_seqlen_57 = arith.extsi %n_blocks_seqlen_55 : i32 to i64 loc(#loc318)
        %n_blocks_seqlen_58 = arith.muli %n_blocks_seqlen_56, %n_blocks_seqlen_57 : i64 loc(#loc318)
        %n_blocks_seqlen_59 = arith.constant 2147483647 : i64 loc(#loc318)
        %n_blocks_seqlen_60 = arith.constant -2147483648 : i64 loc(#loc318)
        %n_blocks_seqlen_61 = arith.cmpi sle, %n_blocks_seqlen_58, %n_blocks_seqlen_59 : i64 loc(#loc318)
        %n_blocks_seqlen_62 = arith.cmpi sge, %n_blocks_seqlen_58, %n_blocks_seqlen_60 : i64 loc(#loc318)
        %n_blocks_seqlen_63 = arith.andi %n_blocks_seqlen_61, %n_blocks_seqlen_62 : i1 loc(#loc318)
        %n_blocks_seqlen_64 = arith.muli %n_blocks_seqlen_53, %n_blocks_seqlen_55 : i32 loc(#loc318)
        %n_blocks_seqlen_65 = arith.extsi %n_blocks_seqlen_64 : i32 to i64 loc(#loc318)
        %n_blocks_seqlen_66 = arith.extsi %seqlen_k : i32 to i64 loc(#loc318)
        %n_blocks_seqlen_67 = arith.addi %n_blocks_seqlen_65, %n_blocks_seqlen_66 : i64 loc(#loc318)
        %n_blocks_seqlen_68 = arith.constant 2147483647 : i64 loc(#loc318)
        %n_blocks_seqlen_69 = arith.constant -2147483648 : i64 loc(#loc318)
        %n_blocks_seqlen_70 = arith.cmpi sle, %n_blocks_seqlen_67, %n_blocks_seqlen_68 : i64 loc(#loc318)
        %n_blocks_seqlen_71 = arith.cmpi sge, %n_blocks_seqlen_67, %n_blocks_seqlen_69 : i64 loc(#loc318)
        %n_blocks_seqlen_72 = arith.andi %n_blocks_seqlen_70, %n_blocks_seqlen_71 : i1 loc(#loc318)
        %n_blocks_seqlen_73 = arith.addi %n_blocks_seqlen_64, %seqlen_k : i32 loc(#loc318)
        %n_blocks_seqlen_74 = arith.extsi %n_blocks_seqlen_73 : i32 to i64 loc(#loc318)
        %n_blocks_seqlen_75 = arith.extsi %seqlen_q : i32 to i64 loc(#loc318)
        %n_blocks_seqlen_76 = arith.subi %n_blocks_seqlen_74, %n_blocks_seqlen_75 : i64 loc(#loc318)
        %n_blocks_seqlen_77 = arith.constant 2147483647 : i64 loc(#loc318)
        %n_blocks_seqlen_78 = arith.constant -2147483648 : i64 loc(#loc318)
        %n_blocks_seqlen_79 = arith.cmpi sle, %n_blocks_seqlen_76, %n_blocks_seqlen_77 : i64 loc(#loc318)
        %n_blocks_seqlen_80 = arith.cmpi sge, %n_blocks_seqlen_76, %n_blocks_seqlen_78 : i64 loc(#loc318)
        %n_blocks_seqlen_81 = arith.andi %n_blocks_seqlen_79, %n_blocks_seqlen_80 : i1 loc(#loc318)
        %n_blocks_seqlen_82 = arith.subi %n_blocks_seqlen_73, %seqlen_q : i32 loc(#loc318)
        %n_blocks_seqlen_83 = tt.call @__main__.cdiv_fn__i32_c64(%n_blocks_seqlen_82) : (i32) -> i32 loc(#loc319)
        %n_blocks_84 = arith.minsi %n_blocks, %n_blocks_seqlen_83 : i32 loc(#loc320)
        %c0_i32_85 = arith.constant 0 : i32 loc(#loc61)
        %17 = arith.cmpi sle, %n_blocks_84, %c0_i32_85 : i32 loc(#loc61)
        %continue_condition_86 = scf.if %17 -> (i1) {
          %o_offset = arith.extsi %off_z : i32 to i64 loc(#loc322)
          %o_offset_87 = arith.extsi %stride_oz : i32 to i64 loc(#loc322)
          %o_offset_88 = arith.muli %o_offset, %o_offset_87 : i64 loc(#loc322)
          %o_offset_89 = arith.constant 2147483647 : i64 loc(#loc322)
          %o_offset_90 = arith.constant -2147483648 : i64 loc(#loc322)
          %o_offset_91 = arith.cmpi sle, %o_offset_88, %o_offset_89 : i64 loc(#loc322)
          %o_offset_92 = arith.cmpi sge, %o_offset_88, %o_offset_90 : i64 loc(#loc322)
          %o_offset_93 = arith.andi %o_offset_91, %o_offset_92 : i1 loc(#loc322)
          %o_offset_94 = arith.muli %off_z, %stride_oz : i32 loc(#loc322)
          %o_offset_95 = tt.addptr %Out, %o_offset_94 : !tt.ptr<f16>, i32 loc(#loc323)
          %o_offset_96 = arith.extsi %off_h_q_20 : i32 to i64 loc(#loc324)
          %o_offset_97 = arith.extsi %stride_oh : i32 to i64 loc(#loc324)
          %o_offset_98 = arith.muli %o_offset_96, %o_offset_97 : i64 loc(#loc324)
          %o_offset_99 = arith.constant 2147483647 : i64 loc(#loc324)
          %o_offset_100 = arith.constant -2147483648 : i64 loc(#loc324)
          %o_offset_101 = arith.cmpi sle, %o_offset_98, %o_offset_99 : i64 loc(#loc324)
          %o_offset_102 = arith.cmpi sge, %o_offset_98, %o_offset_100 : i64 loc(#loc324)
          %o_offset_103 = arith.andi %o_offset_101, %o_offset_102 : i1 loc(#loc324)
          %o_offset_104 = arith.muli %off_h_q_20, %stride_oh : i32 loc(#loc324)
          %o_offset_105 = tt.addptr %o_offset_95, %o_offset_104 : !tt.ptr<f16>, i32 loc(#loc323)
          %o_offset_106 = arith.extsi %cu_seqlens_q_start : i32 to i64 loc(#loc325)
          %o_offset_107 = arith.extsi %stride_om : i32 to i64 loc(#loc325)
          %o_offset_108 = arith.muli %o_offset_106, %o_offset_107 : i64 loc(#loc325)
          %o_offset_109 = arith.constant 2147483647 : i64 loc(#loc325)
          %o_offset_110 = arith.constant -2147483648 : i64 loc(#loc325)
          %o_offset_111 = arith.cmpi sle, %o_offset_108, %o_offset_109 : i64 loc(#loc325)
          %o_offset_112 = arith.cmpi sge, %o_offset_108, %o_offset_110 : i64 loc(#loc325)
          %o_offset_113 = arith.andi %o_offset_111, %o_offset_112 : i1 loc(#loc325)
          %o_offset_114 = arith.muli %cu_seqlens_q_start, %stride_om : i32 loc(#loc325)
          %o_offset_115 = tt.addptr %o_offset_105, %o_offset_114 : !tt.ptr<f16>, i32 loc(#loc323)
          %o_ptrs = tt.expand_dims %offs_m_43 {axis = 1 : i32} : tensor<256xi32> -> tensor<256x1xi32> loc(#loc326)
          %o_ptrs_116 = tt.splat %stride_om : i32 -> tensor<256x1xi32> loc(#loc326)
          %o_ptrs_117 = arith.extsi %o_ptrs : tensor<256x1xi32> to tensor<256x1xi64> loc(#loc326)
          %o_ptrs_118 = arith.extsi %o_ptrs_116 : tensor<256x1xi32> to tensor<256x1xi64> loc(#loc326)
          %o_ptrs_119 = arith.muli %o_ptrs_117, %o_ptrs_118 : tensor<256x1xi64> loc(#loc326)
          %o_ptrs_120 = arith.constant 2147483647 : i64 loc(#loc326)
          %o_ptrs_121 = arith.constant -2147483648 : i64 loc(#loc326)
          %o_ptrs_122 = arith.constant dense<2147483647> : tensor<256x1xi64> loc(#loc326)
          %o_ptrs_123 = arith.cmpi sle, %o_ptrs_119, %o_ptrs_122 : tensor<256x1xi64> loc(#loc326)
          %o_ptrs_124 = arith.constant dense<-2147483648> : tensor<256x1xi64> loc(#loc326)
          %o_ptrs_125 = arith.cmpi sge, %o_ptrs_119, %o_ptrs_124 : tensor<256x1xi64> loc(#loc326)
          %o_ptrs_126 = arith.andi %o_ptrs_123, %o_ptrs_125 : tensor<256x1xi1> loc(#loc326)
          %o_ptrs_127 = arith.muli %o_ptrs, %o_ptrs_116 : tensor<256x1xi32> loc(#loc326)
          %o_ptrs_128 = tt.splat %o_offset_115 : !tt.ptr<f16> -> tensor<256x1x!tt.ptr<f16>> loc(#loc327)
          %o_ptrs_129 = tt.addptr %o_ptrs_128, %o_ptrs_127 : tensor<256x1x!tt.ptr<f16>>, tensor<256x1xi32> loc(#loc327)
          %o_ptrs_130 = tt.expand_dims %offs_d {axis = 0 : i32} : tensor<128xi32> -> tensor<1x128xi32> loc(#loc328)
          %o_ptrs_131 = arith.constant 1 : i32 loc(#loc328)
          %o_ptrs_132 = arith.constant 1 : i32 loc(#loc328)
          %o_ptrs_133 = arith.constant dense<1> : tensor<1x128xi32> loc(#loc328)
          %o_ptrs_134 = arith.extsi %o_ptrs_130 : tensor<1x128xi32> to tensor<1x128xi64> loc(#loc328)
          %o_ptrs_135 = arith.extsi %o_ptrs_133 : tensor<1x128xi32> to tensor<1x128xi64> loc(#loc328)
          %o_ptrs_136 = arith.muli %o_ptrs_134, %o_ptrs_135 : tensor<1x128xi64> loc(#loc328)
          %o_ptrs_137 = arith.constant 2147483647 : i64 loc(#loc328)
          %o_ptrs_138 = arith.constant -2147483648 : i64 loc(#loc328)
          %o_ptrs_139 = arith.constant dense<2147483647> : tensor<1x128xi64> loc(#loc328)
          %o_ptrs_140 = arith.cmpi sle, %o_ptrs_136, %o_ptrs_139 : tensor<1x128xi64> loc(#loc328)
          %o_ptrs_141 = arith.constant dense<-2147483648> : tensor<1x128xi64> loc(#loc328)
          %o_ptrs_142 = arith.cmpi sge, %o_ptrs_136, %o_ptrs_141 : tensor<1x128xi64> loc(#loc328)
          %o_ptrs_143 = arith.andi %o_ptrs_140, %o_ptrs_142 : tensor<1x128xi1> loc(#loc328)
          %o_ptrs_144 = arith.muli %o_ptrs_130, %o_ptrs_133 : tensor<1x128xi32> loc(#loc328)
          %o_ptrs_145 = tt.broadcast %o_ptrs_129 : tensor<256x1x!tt.ptr<f16>> -> tensor<256x128x!tt.ptr<f16>> loc(#loc327)
          %o_ptrs_146 = tt.broadcast %o_ptrs_144 : tensor<1x128xi32> -> tensor<256x128xi32> loc(#loc327)
          %o_ptrs_147 = tt.addptr %o_ptrs_145, %o_ptrs_146 : tensor<256x128x!tt.ptr<f16>>, tensor<256x128xi32> loc(#loc327)
          %acc = tt.call @triton.language.standard.zeros__Tc256_c128T_cfp16() : () -> tensor<256x128xf16> loc(#loc329)
          %o_ptrs_mask = tt.expand_dims %offs_m_43 {axis = 1 : i32} : tensor<256xi32> -> tensor<256x1xi32> loc(#loc330)
          %o_ptrs_mask_148 = arith.constant dense<16384> : tensor<256x1xi32> loc(#loc330)
          %o_ptrs_mask_149 = arith.cmpi slt, %o_ptrs_mask, %o_ptrs_mask_148 : tensor<256x1xi32> loc(#loc330)
          %o_ptrs_mask_150 = tt.broadcast %o_ptrs_mask_149 : tensor<256x1xi1> -> tensor<256x128xi1> loc(#loc331)
          tt.store %o_ptrs_147, %acc, %o_ptrs_mask_150 : tensor<256x128x!tt.ptr<f16>> loc(#loc73)
          %l_ptrs = arith.constant 64 : i32 loc(#loc332)
          %l_ptrs_151 = arith.constant 64 : i32 loc(#loc332)
          %l_ptrs_152 = arith.extsi %off_z : i32 to i64 loc(#loc332)
          %l_ptrs_153 = arith.extsi %l_ptrs_151 : i32 to i64 loc(#loc332)
          %l_ptrs_154 = arith.muli %l_ptrs_152, %l_ptrs_153 : i64 loc(#loc332)
          %l_ptrs_155 = arith.constant 2147483647 : i64 loc(#loc332)
          %l_ptrs_156 = arith.constant -2147483648 : i64 loc(#loc332)
          %l_ptrs_157 = arith.cmpi sle, %l_ptrs_154, %l_ptrs_155 : i64 loc(#loc332)
          %l_ptrs_158 = arith.cmpi sge, %l_ptrs_154, %l_ptrs_156 : i64 loc(#loc332)
          %l_ptrs_159 = arith.andi %l_ptrs_157, %l_ptrs_158 : i1 loc(#loc332)
          %l_ptrs_160 = arith.muli %off_z, %l_ptrs_151 : i32 loc(#loc332)
          %l_ptrs_161 = arith.constant 16384 : i32 loc(#loc332)
          %l_ptrs_162 = arith.constant 16384 : i32 loc(#loc332)
          %l_ptrs_163 = arith.extsi %l_ptrs_160 : i32 to i64 loc(#loc332)
          %l_ptrs_164 = arith.extsi %l_ptrs_162 : i32 to i64 loc(#loc332)
          %l_ptrs_165 = arith.muli %l_ptrs_163, %l_ptrs_164 : i64 loc(#loc332)
          %l_ptrs_166 = arith.constant 2147483647 : i64 loc(#loc332)
          %l_ptrs_167 = arith.constant -2147483648 : i64 loc(#loc332)
          %l_ptrs_168 = arith.cmpi sle, %l_ptrs_165, %l_ptrs_166 : i64 loc(#loc332)
          %l_ptrs_169 = arith.cmpi sge, %l_ptrs_165, %l_ptrs_167 : i64 loc(#loc332)
          %l_ptrs_170 = arith.andi %l_ptrs_168, %l_ptrs_169 : i1 loc(#loc332)
          %l_ptrs_171 = arith.muli %l_ptrs_160, %l_ptrs_162 : i32 loc(#loc332)
          %l_ptrs_172 = tt.addptr %L, %l_ptrs_171 : !tt.ptr<f32>, i32 loc(#loc333)
          %l_ptrs_173 = arith.constant 16384 : i32 loc(#loc334)
          %l_ptrs_174 = arith.constant 16384 : i32 loc(#loc334)
          %l_ptrs_175 = arith.extsi %off_h_q_20 : i32 to i64 loc(#loc334)
          %l_ptrs_176 = arith.extsi %l_ptrs_174 : i32 to i64 loc(#loc334)
          %l_ptrs_177 = arith.muli %l_ptrs_175, %l_ptrs_176 : i64 loc(#loc334)
          %l_ptrs_178 = arith.constant 2147483647 : i64 loc(#loc334)
          %l_ptrs_179 = arith.constant -2147483648 : i64 loc(#loc334)
          %l_ptrs_180 = arith.cmpi sle, %l_ptrs_177, %l_ptrs_178 : i64 loc(#loc334)
          %l_ptrs_181 = arith.cmpi sge, %l_ptrs_177, %l_ptrs_179 : i64 loc(#loc334)
          %l_ptrs_182 = arith.andi %l_ptrs_180, %l_ptrs_181 : i1 loc(#loc334)
          %l_ptrs_183 = arith.muli %off_h_q_20, %l_ptrs_174 : i32 loc(#loc334)
          %l_ptrs_184 = tt.addptr %l_ptrs_172, %l_ptrs_183 : !tt.ptr<f32>, i32 loc(#loc333)
          %l_ptrs_185 = tt.splat %l_ptrs_184 : !tt.ptr<f32> -> tensor<256x!tt.ptr<f32>> loc(#loc333)
          %l_ptrs_186 = tt.addptr %l_ptrs_185, %offs_m_43 : tensor<256x!tt.ptr<f32>>, tensor<256xi32> loc(#loc333)
          %l = arith.constant 0x7F800000 : f32 loc(#loc335)
          %l_187 = arith.constant dense<0x7F800000> : tensor<256xf32> loc(#loc335)
          %l_ptrs_mask = arith.constant 16384 : i32 loc(#loc336)
          %l_ptrs_mask_188 = arith.constant dense<16384> : tensor<256xi32> loc(#loc336)
          %l_ptrs_mask_189 = arith.cmpi slt, %offs_m_43, %l_ptrs_mask_188 : tensor<256xi32> loc(#loc336)
          tt.store %l_ptrs_186, %l_187, %l_ptrs_mask_189 : tensor<256x!tt.ptr<f32>> loc(#loc79)
          %continue_condition_190 = arith.constant false loc(#loc513)
          scf.yield %continue_condition_190 : i1 loc(#loc513)
        } else {
          scf.yield %continue_condition : i1 loc(#loc62)
        } loc(#loc321)
        scf.if %continue_condition_86 {
          %n_extra_tokens = arith.constant 0 : i32 loc(#loc514)
          %c64_i32 = arith.constant 64 : i32 loc(#loc83)
          %18 = arith.cmpi slt, %seqlen_k, %c64_i32 : i32 loc(#loc83)
          %19 = scf.if %18 -> (i32) {
            %n_extra_tokens_475 = arith.constant 64 : i32 loc(#loc339)
            %n_extra_tokens_476 = arith.constant 64 : i32 loc(#loc339)
            %n_extra_tokens_477 = arith.extsi %n_extra_tokens_476 : i32 to i64 loc(#loc339)
            %n_extra_tokens_478 = arith.extsi %seqlen_k : i32 to i64 loc(#loc339)
            %n_extra_tokens_479 = arith.subi %n_extra_tokens_477, %n_extra_tokens_478 : i64 loc(#loc339)
            %n_extra_tokens_480 = arith.constant 2147483647 : i64 loc(#loc339)
            %n_extra_tokens_481 = arith.constant -2147483648 : i64 loc(#loc339)
            %n_extra_tokens_482 = arith.cmpi sle, %n_extra_tokens_479, %n_extra_tokens_480 : i64 loc(#loc339)
            %n_extra_tokens_483 = arith.cmpi sge, %n_extra_tokens_479, %n_extra_tokens_481 : i64 loc(#loc339)
            %n_extra_tokens_484 = arith.andi %n_extra_tokens_482, %n_extra_tokens_483 : i1 loc(#loc339)
            %n_extra_tokens_485 = arith.subi %n_extra_tokens_476, %seqlen_k : i32 loc(#loc515)
            scf.yield %n_extra_tokens_485 : i32 loc(#loc515)
          } else {
            %c64_i32_475 = arith.constant 64 : i32 loc(#loc86)
            %c64_i32_476 = arith.constant 64 : i32 loc(#loc86)
            %30 = arith.remsi %seqlen_k, %c64_i32_476 : i32 loc(#loc86)
            %c0_i32_477 = arith.constant 0 : i32 loc(#loc87)
            %31 = arith.cmpi ne, %30, %c0_i32_477 : i32 loc(#loc87)
            %n_extra_tokens_478 = scf.if %31 -> (i32) {
              %n_extra_tokens_479 = arith.constant 64 : i32 loc(#loc341)
              %n_extra_tokens_480 = arith.constant 64 : i32 loc(#loc341)
              %n_extra_tokens_481 = arith.remsi %seqlen_k, %n_extra_tokens_480 : i32 loc(#loc516)
              scf.yield %n_extra_tokens_481 : i32 loc(#loc516)
            } else {
              scf.yield %n_extra_tokens : i32 loc(#loc87)
            } loc(#loc340)
            scf.yield %n_extra_tokens_478 : i32 loc(#loc87)
          } loc(#loc84)
          %q_offset = arith.extsi %off_z : i32 to i64 loc(#loc342)
          %q_offset_87 = arith.extsi %stride_qz : i32 to i64 loc(#loc342)
          %q_offset_88 = arith.muli %q_offset, %q_offset_87 : i64 loc(#loc342)
          %q_offset_89 = arith.constant 2147483647 : i64 loc(#loc342)
          %q_offset_90 = arith.constant -2147483648 : i64 loc(#loc342)
          %q_offset_91 = arith.cmpi sle, %q_offset_88, %q_offset_89 : i64 loc(#loc342)
          %q_offset_92 = arith.cmpi sge, %q_offset_88, %q_offset_90 : i64 loc(#loc342)
          %q_offset_93 = arith.andi %q_offset_91, %q_offset_92 : i1 loc(#loc342)
          %q_offset_94 = arith.muli %off_z, %stride_qz : i32 loc(#loc342)
          %q_offset_95 = tt.addptr %Q, %q_offset_94 : !tt.ptr<f16>, i32 loc(#loc343)
          %q_offset_96 = arith.extsi %off_h_q_20 : i32 to i64 loc(#loc344)
          %q_offset_97 = arith.extsi %stride_qh : i32 to i64 loc(#loc344)
          %q_offset_98 = arith.muli %q_offset_96, %q_offset_97 : i64 loc(#loc344)
          %q_offset_99 = arith.constant 2147483647 : i64 loc(#loc344)
          %q_offset_100 = arith.constant -2147483648 : i64 loc(#loc344)
          %q_offset_101 = arith.cmpi sle, %q_offset_98, %q_offset_99 : i64 loc(#loc344)
          %q_offset_102 = arith.cmpi sge, %q_offset_98, %q_offset_100 : i64 loc(#loc344)
          %q_offset_103 = arith.andi %q_offset_101, %q_offset_102 : i1 loc(#loc344)
          %q_offset_104 = arith.muli %off_h_q_20, %stride_qh : i32 loc(#loc344)
          %q_offset_105 = tt.addptr %q_offset_95, %q_offset_104 : !tt.ptr<f16>, i32 loc(#loc343)
          %q_offset_106 = arith.extsi %cu_seqlens_q_start : i32 to i64 loc(#loc345)
          %q_offset_107 = arith.extsi %stride_qm : i32 to i64 loc(#loc345)
          %q_offset_108 = arith.muli %q_offset_106, %q_offset_107 : i64 loc(#loc345)
          %q_offset_109 = arith.constant 2147483647 : i64 loc(#loc345)
          %q_offset_110 = arith.constant -2147483648 : i64 loc(#loc345)
          %q_offset_111 = arith.cmpi sle, %q_offset_108, %q_offset_109 : i64 loc(#loc345)
          %q_offset_112 = arith.cmpi sge, %q_offset_108, %q_offset_110 : i64 loc(#loc345)
          %q_offset_113 = arith.andi %q_offset_111, %q_offset_112 : i1 loc(#loc345)
          %q_offset_114 = arith.muli %cu_seqlens_q_start, %stride_qm : i32 loc(#loc345)
          %q_offset_115 = tt.addptr %q_offset_105, %q_offset_114 : !tt.ptr<f16>, i32 loc(#loc343)
          %q_ptrs = tt.expand_dims %offs_m_43 {axis = 1 : i32} : tensor<256xi32> -> tensor<256x1xi32> loc(#loc346)
          %q_ptrs_116 = tt.splat %stride_qm : i32 -> tensor<256x1xi32> loc(#loc346)
          %q_ptrs_117 = arith.extsi %q_ptrs : tensor<256x1xi32> to tensor<256x1xi64> loc(#loc346)
          %q_ptrs_118 = arith.extsi %q_ptrs_116 : tensor<256x1xi32> to tensor<256x1xi64> loc(#loc346)
          %q_ptrs_119 = arith.muli %q_ptrs_117, %q_ptrs_118 : tensor<256x1xi64> loc(#loc346)
          %q_ptrs_120 = arith.constant 2147483647 : i64 loc(#loc346)
          %q_ptrs_121 = arith.constant -2147483648 : i64 loc(#loc346)
          %q_ptrs_122 = arith.constant dense<2147483647> : tensor<256x1xi64> loc(#loc346)
          %q_ptrs_123 = arith.cmpi sle, %q_ptrs_119, %q_ptrs_122 : tensor<256x1xi64> loc(#loc346)
          %q_ptrs_124 = arith.constant dense<-2147483648> : tensor<256x1xi64> loc(#loc346)
          %q_ptrs_125 = arith.cmpi sge, %q_ptrs_119, %q_ptrs_124 : tensor<256x1xi64> loc(#loc346)
          %q_ptrs_126 = arith.andi %q_ptrs_123, %q_ptrs_125 : tensor<256x1xi1> loc(#loc346)
          %q_ptrs_127 = arith.muli %q_ptrs, %q_ptrs_116 : tensor<256x1xi32> loc(#loc346)
          %q_ptrs_128 = tt.splat %q_offset_115 : !tt.ptr<f16> -> tensor<256x1x!tt.ptr<f16>> loc(#loc347)
          %q_ptrs_129 = tt.addptr %q_ptrs_128, %q_ptrs_127 : tensor<256x1x!tt.ptr<f16>>, tensor<256x1xi32> loc(#loc347)
          %q_ptrs_130 = tt.expand_dims %offs_d {axis = 0 : i32} : tensor<128xi32> -> tensor<1x128xi32> loc(#loc348)
          %q_ptrs_131 = arith.constant 1 : i32 loc(#loc348)
          %q_ptrs_132 = arith.constant 1 : i32 loc(#loc348)
          %q_ptrs_133 = arith.constant dense<1> : tensor<1x128xi32> loc(#loc348)
          %q_ptrs_134 = arith.extsi %q_ptrs_130 : tensor<1x128xi32> to tensor<1x128xi64> loc(#loc348)
          %q_ptrs_135 = arith.extsi %q_ptrs_133 : tensor<1x128xi32> to tensor<1x128xi64> loc(#loc348)
          %q_ptrs_136 = arith.muli %q_ptrs_134, %q_ptrs_135 : tensor<1x128xi64> loc(#loc348)
          %q_ptrs_137 = arith.constant 2147483647 : i64 loc(#loc348)
          %q_ptrs_138 = arith.constant -2147483648 : i64 loc(#loc348)
          %q_ptrs_139 = arith.constant dense<2147483647> : tensor<1x128xi64> loc(#loc348)
          %q_ptrs_140 = arith.cmpi sle, %q_ptrs_136, %q_ptrs_139 : tensor<1x128xi64> loc(#loc348)
          %q_ptrs_141 = arith.constant dense<-2147483648> : tensor<1x128xi64> loc(#loc348)
          %q_ptrs_142 = arith.cmpi sge, %q_ptrs_136, %q_ptrs_141 : tensor<1x128xi64> loc(#loc348)
          %q_ptrs_143 = arith.andi %q_ptrs_140, %q_ptrs_142 : tensor<1x128xi1> loc(#loc348)
          %q_ptrs_144 = arith.muli %q_ptrs_130, %q_ptrs_133 : tensor<1x128xi32> loc(#loc348)
          %q_ptrs_145 = tt.broadcast %q_ptrs_129 : tensor<256x1x!tt.ptr<f16>> -> tensor<256x128x!tt.ptr<f16>> loc(#loc347)
          %q_ptrs_146 = tt.broadcast %q_ptrs_144 : tensor<1x128xi32> -> tensor<256x128xi32> loc(#loc347)
          %q_ptrs_147 = tt.addptr %q_ptrs_145, %q_ptrs_146 : tensor<256x128x!tt.ptr<f16>>, tensor<256x128xi32> loc(#loc347)
          %k_offset = arith.extsi %off_z : i32 to i64 loc(#loc349)
          %k_offset_148 = arith.extsi %stride_kz : i32 to i64 loc(#loc349)
          %k_offset_149 = arith.muli %k_offset, %k_offset_148 : i64 loc(#loc349)
          %k_offset_150 = arith.constant 2147483647 : i64 loc(#loc349)
          %k_offset_151 = arith.constant -2147483648 : i64 loc(#loc349)
          %k_offset_152 = arith.cmpi sle, %k_offset_149, %k_offset_150 : i64 loc(#loc349)
          %k_offset_153 = arith.cmpi sge, %k_offset_149, %k_offset_151 : i64 loc(#loc349)
          %k_offset_154 = arith.andi %k_offset_152, %k_offset_153 : i1 loc(#loc349)
          %k_offset_155 = arith.muli %off_z, %stride_kz : i32 loc(#loc349)
          %k_offset_156 = tt.addptr %K, %k_offset_155 : !tt.ptr<f16>, i32 loc(#loc350)
          %k_offset_157 = arith.extsi %off_h_q_20 : i32 to i64 loc(#loc351)
          %k_offset_158 = arith.extsi %stride_kh : i32 to i64 loc(#loc351)
          %k_offset_159 = arith.muli %k_offset_157, %k_offset_158 : i64 loc(#loc351)
          %k_offset_160 = arith.constant 2147483647 : i64 loc(#loc351)
          %k_offset_161 = arith.constant -2147483648 : i64 loc(#loc351)
          %k_offset_162 = arith.cmpi sle, %k_offset_159, %k_offset_160 : i64 loc(#loc351)
          %k_offset_163 = arith.cmpi sge, %k_offset_159, %k_offset_161 : i64 loc(#loc351)
          %k_offset_164 = arith.andi %k_offset_162, %k_offset_163 : i1 loc(#loc351)
          %k_offset_165 = arith.muli %off_h_q_20, %stride_kh : i32 loc(#loc351)
          %k_offset_166 = tt.addptr %k_offset_156, %k_offset_165 : !tt.ptr<f16>, i32 loc(#loc350)
          %k_offset_167 = arith.extsi %cu_seqlens_k_start : i32 to i64 loc(#loc352)
          %k_offset_168 = arith.extsi %stride_kn : i32 to i64 loc(#loc352)
          %k_offset_169 = arith.muli %k_offset_167, %k_offset_168 : i64 loc(#loc352)
          %k_offset_170 = arith.constant 2147483647 : i64 loc(#loc352)
          %k_offset_171 = arith.constant -2147483648 : i64 loc(#loc352)
          %k_offset_172 = arith.cmpi sle, %k_offset_169, %k_offset_170 : i64 loc(#loc352)
          %k_offset_173 = arith.cmpi sge, %k_offset_169, %k_offset_171 : i64 loc(#loc352)
          %k_offset_174 = arith.andi %k_offset_172, %k_offset_173 : i1 loc(#loc352)
          %k_offset_175 = arith.muli %cu_seqlens_k_start, %stride_kn : i32 loc(#loc352)
          %k_offset_176 = tt.addptr %k_offset_166, %k_offset_175 : !tt.ptr<f16>, i32 loc(#loc350)
          %k_ptrs = tt.expand_dims %offs_d {axis = 1 : i32} : tensor<128xi32> -> tensor<128x1xi32> loc(#loc353)
          %k_ptrs_177 = arith.constant 1 : i32 loc(#loc353)
          %k_ptrs_178 = arith.constant 1 : i32 loc(#loc353)
          %k_ptrs_179 = arith.constant dense<1> : tensor<128x1xi32> loc(#loc353)
          %k_ptrs_180 = arith.extsi %k_ptrs : tensor<128x1xi32> to tensor<128x1xi64> loc(#loc353)
          %k_ptrs_181 = arith.extsi %k_ptrs_179 : tensor<128x1xi32> to tensor<128x1xi64> loc(#loc353)
          %k_ptrs_182 = arith.muli %k_ptrs_180, %k_ptrs_181 : tensor<128x1xi64> loc(#loc353)
          %k_ptrs_183 = arith.constant 2147483647 : i64 loc(#loc353)
          %k_ptrs_184 = arith.constant -2147483648 : i64 loc(#loc353)
          %k_ptrs_185 = arith.constant dense<2147483647> : tensor<128x1xi64> loc(#loc353)
          %k_ptrs_186 = arith.cmpi sle, %k_ptrs_182, %k_ptrs_185 : tensor<128x1xi64> loc(#loc353)
          %k_ptrs_187 = arith.constant dense<-2147483648> : tensor<128x1xi64> loc(#loc353)
          %k_ptrs_188 = arith.cmpi sge, %k_ptrs_182, %k_ptrs_187 : tensor<128x1xi64> loc(#loc353)
          %k_ptrs_189 = arith.andi %k_ptrs_186, %k_ptrs_188 : tensor<128x1xi1> loc(#loc353)
          %k_ptrs_190 = arith.muli %k_ptrs, %k_ptrs_179 : tensor<128x1xi32> loc(#loc353)
          %k_ptrs_191 = tt.splat %k_offset_176 : !tt.ptr<f16> -> tensor<128x1x!tt.ptr<f16>> loc(#loc354)
          %k_ptrs_192 = tt.addptr %k_ptrs_191, %k_ptrs_190 : tensor<128x1x!tt.ptr<f16>>, tensor<128x1xi32> loc(#loc354)
          %k_ptrs_193 = tt.expand_dims %offs_n {axis = 0 : i32} : tensor<64xi32> -> tensor<1x64xi32> loc(#loc355)
          %k_ptrs_194 = tt.splat %stride_kn : i32 -> tensor<1x64xi32> loc(#loc355)
          %k_ptrs_195 = arith.extsi %k_ptrs_193 : tensor<1x64xi32> to tensor<1x64xi64> loc(#loc355)
          %k_ptrs_196 = arith.extsi %k_ptrs_194 : tensor<1x64xi32> to tensor<1x64xi64> loc(#loc355)
          %k_ptrs_197 = arith.muli %k_ptrs_195, %k_ptrs_196 : tensor<1x64xi64> loc(#loc355)
          %k_ptrs_198 = arith.constant 2147483647 : i64 loc(#loc355)
          %k_ptrs_199 = arith.constant -2147483648 : i64 loc(#loc355)
          %k_ptrs_200 = arith.constant dense<2147483647> : tensor<1x64xi64> loc(#loc355)
          %k_ptrs_201 = arith.cmpi sle, %k_ptrs_197, %k_ptrs_200 : tensor<1x64xi64> loc(#loc355)
          %k_ptrs_202 = arith.constant dense<-2147483648> : tensor<1x64xi64> loc(#loc355)
          %k_ptrs_203 = arith.cmpi sge, %k_ptrs_197, %k_ptrs_202 : tensor<1x64xi64> loc(#loc355)
          %k_ptrs_204 = arith.andi %k_ptrs_201, %k_ptrs_203 : tensor<1x64xi1> loc(#loc355)
          %k_ptrs_205 = arith.muli %k_ptrs_193, %k_ptrs_194 : tensor<1x64xi32> loc(#loc355)
          %k_ptrs_206 = tt.broadcast %k_ptrs_192 : tensor<128x1x!tt.ptr<f16>> -> tensor<128x64x!tt.ptr<f16>> loc(#loc354)
          %k_ptrs_207 = tt.broadcast %k_ptrs_205 : tensor<1x64xi32> -> tensor<128x64xi32> loc(#loc354)
          %k_ptrs_208 = tt.addptr %k_ptrs_206, %k_ptrs_207 : tensor<128x64x!tt.ptr<f16>>, tensor<128x64xi32> loc(#loc517)
          %v_offset = arith.extsi %off_z : i32 to i64 loc(#loc356)
          %v_offset_209 = arith.extsi %stride_vz : i32 to i64 loc(#loc356)
          %v_offset_210 = arith.muli %v_offset, %v_offset_209 : i64 loc(#loc356)
          %v_offset_211 = arith.constant 2147483647 : i64 loc(#loc356)
          %v_offset_212 = arith.constant -2147483648 : i64 loc(#loc356)
          %v_offset_213 = arith.cmpi sle, %v_offset_210, %v_offset_211 : i64 loc(#loc356)
          %v_offset_214 = arith.cmpi sge, %v_offset_210, %v_offset_212 : i64 loc(#loc356)
          %v_offset_215 = arith.andi %v_offset_213, %v_offset_214 : i1 loc(#loc356)
          %v_offset_216 = arith.muli %off_z, %stride_vz : i32 loc(#loc356)
          %v_offset_217 = tt.addptr %V, %v_offset_216 : !tt.ptr<f16>, i32 loc(#loc357)
          %v_offset_218 = arith.extsi %off_h_q_20 : i32 to i64 loc(#loc358)
          %v_offset_219 = arith.extsi %stride_vh : i32 to i64 loc(#loc358)
          %v_offset_220 = arith.muli %v_offset_218, %v_offset_219 : i64 loc(#loc358)
          %v_offset_221 = arith.constant 2147483647 : i64 loc(#loc358)
          %v_offset_222 = arith.constant -2147483648 : i64 loc(#loc358)
          %v_offset_223 = arith.cmpi sle, %v_offset_220, %v_offset_221 : i64 loc(#loc358)
          %v_offset_224 = arith.cmpi sge, %v_offset_220, %v_offset_222 : i64 loc(#loc358)
          %v_offset_225 = arith.andi %v_offset_223, %v_offset_224 : i1 loc(#loc358)
          %v_offset_226 = arith.muli %off_h_q_20, %stride_vh : i32 loc(#loc358)
          %v_offset_227 = tt.addptr %v_offset_217, %v_offset_226 : !tt.ptr<f16>, i32 loc(#loc357)
          %v_offset_228 = arith.extsi %cu_seqlens_k_start : i32 to i64 loc(#loc359)
          %v_offset_229 = arith.extsi %stride_vk : i32 to i64 loc(#loc359)
          %v_offset_230 = arith.muli %v_offset_228, %v_offset_229 : i64 loc(#loc359)
          %v_offset_231 = arith.constant 2147483647 : i64 loc(#loc359)
          %v_offset_232 = arith.constant -2147483648 : i64 loc(#loc359)
          %v_offset_233 = arith.cmpi sle, %v_offset_230, %v_offset_231 : i64 loc(#loc359)
          %v_offset_234 = arith.cmpi sge, %v_offset_230, %v_offset_232 : i64 loc(#loc359)
          %v_offset_235 = arith.andi %v_offset_233, %v_offset_234 : i1 loc(#loc359)
          %v_offset_236 = arith.muli %cu_seqlens_k_start, %stride_vk : i32 loc(#loc359)
          %v_offset_237 = tt.addptr %v_offset_227, %v_offset_236 : !tt.ptr<f16>, i32 loc(#loc357)
          %v_ptrs = tt.expand_dims %offs_n {axis = 1 : i32} : tensor<64xi32> -> tensor<64x1xi32> loc(#loc360)
          %v_ptrs_238 = tt.splat %stride_vk : i32 -> tensor<64x1xi32> loc(#loc360)
          %v_ptrs_239 = arith.extsi %v_ptrs : tensor<64x1xi32> to tensor<64x1xi64> loc(#loc360)
          %v_ptrs_240 = arith.extsi %v_ptrs_238 : tensor<64x1xi32> to tensor<64x1xi64> loc(#loc360)
          %v_ptrs_241 = arith.muli %v_ptrs_239, %v_ptrs_240 : tensor<64x1xi64> loc(#loc360)
          %v_ptrs_242 = arith.constant 2147483647 : i64 loc(#loc360)
          %v_ptrs_243 = arith.constant -2147483648 : i64 loc(#loc360)
          %v_ptrs_244 = arith.constant dense<2147483647> : tensor<64x1xi64> loc(#loc360)
          %v_ptrs_245 = arith.cmpi sle, %v_ptrs_241, %v_ptrs_244 : tensor<64x1xi64> loc(#loc360)
          %v_ptrs_246 = arith.constant dense<-2147483648> : tensor<64x1xi64> loc(#loc360)
          %v_ptrs_247 = arith.cmpi sge, %v_ptrs_241, %v_ptrs_246 : tensor<64x1xi64> loc(#loc360)
          %v_ptrs_248 = arith.andi %v_ptrs_245, %v_ptrs_247 : tensor<64x1xi1> loc(#loc360)
          %v_ptrs_249 = arith.muli %v_ptrs, %v_ptrs_238 : tensor<64x1xi32> loc(#loc360)
          %v_ptrs_250 = tt.splat %v_offset_237 : !tt.ptr<f16> -> tensor<64x1x!tt.ptr<f16>> loc(#loc361)
          %v_ptrs_251 = tt.addptr %v_ptrs_250, %v_ptrs_249 : tensor<64x1x!tt.ptr<f16>>, tensor<64x1xi32> loc(#loc361)
          %v_ptrs_252 = tt.expand_dims %offs_d {axis = 0 : i32} : tensor<128xi32> -> tensor<1x128xi32> loc(#loc362)
          %v_ptrs_253 = arith.constant 1 : i32 loc(#loc362)
          %v_ptrs_254 = arith.constant 1 : i32 loc(#loc362)
          %v_ptrs_255 = arith.constant dense<1> : tensor<1x128xi32> loc(#loc362)
          %v_ptrs_256 = arith.extsi %v_ptrs_252 : tensor<1x128xi32> to tensor<1x128xi64> loc(#loc362)
          %v_ptrs_257 = arith.extsi %v_ptrs_255 : tensor<1x128xi32> to tensor<1x128xi64> loc(#loc362)
          %v_ptrs_258 = arith.muli %v_ptrs_256, %v_ptrs_257 : tensor<1x128xi64> loc(#loc362)
          %v_ptrs_259 = arith.constant 2147483647 : i64 loc(#loc362)
          %v_ptrs_260 = arith.constant -2147483648 : i64 loc(#loc362)
          %v_ptrs_261 = arith.constant dense<2147483647> : tensor<1x128xi64> loc(#loc362)
          %v_ptrs_262 = arith.cmpi sle, %v_ptrs_258, %v_ptrs_261 : tensor<1x128xi64> loc(#loc362)
          %v_ptrs_263 = arith.constant dense<-2147483648> : tensor<1x128xi64> loc(#loc362)
          %v_ptrs_264 = arith.cmpi sge, %v_ptrs_258, %v_ptrs_263 : tensor<1x128xi64> loc(#loc362)
          %v_ptrs_265 = arith.andi %v_ptrs_262, %v_ptrs_264 : tensor<1x128xi1> loc(#loc362)
          %v_ptrs_266 = arith.muli %v_ptrs_252, %v_ptrs_255 : tensor<1x128xi32> loc(#loc362)
          %v_ptrs_267 = tt.broadcast %v_ptrs_251 : tensor<64x1x!tt.ptr<f16>> -> tensor<64x128x!tt.ptr<f16>> loc(#loc361)
          %v_ptrs_268 = tt.broadcast %v_ptrs_266 : tensor<1x128xi32> -> tensor<64x128xi32> loc(#loc361)
          %v_ptrs_269 = tt.addptr %v_ptrs_267, %v_ptrs_268 : tensor<64x128x!tt.ptr<f16>>, tensor<64x128xi32> loc(#loc518)
          %batch_philox_offset = arith.constant 0 : i32 loc(#loc363)
          %m_i = arith.constant 0xFF800000 : f32 loc(#loc364)
          %m_i_270 = arith.constant dense<0xFF800000> : tensor<256xf32> loc(#loc519)
          %l_i = arith.constant 1.000000e+00 : f32 loc(#loc365)
          %l_i_271 = arith.constant dense<1.000000e+00> : tensor<256xf32> loc(#loc520)
          %acc = tt.call @triton.language.standard.zeros__Tc256_c128T_cfp32() : () -> tensor<256x128xf32> loc(#loc521)
          %q_ptrs_mask = tt.expand_dims %offs_m_43 {axis = 1 : i32} : tensor<256xi32> -> tensor<256x1xi32> loc(#loc367)
          %q_ptrs_mask_272 = arith.constant dense<16384> : tensor<256x1xi32> loc(#loc367)
          %q_ptrs_mask_273 = arith.cmpi slt, %q_ptrs_mask, %q_ptrs_mask_272 : tensor<256x1xi32> loc(#loc367)
          %q = arith.constant 0.000000e+00 : f32 loc(#loc368)
          %q_274 = tt.broadcast %q_ptrs_mask_273 : tensor<256x1xi1> -> tensor<256x128xi1> loc(#loc368)
          %q_275 = arith.constant dense<0.000000e+00> : tensor<256x128xf32> loc(#loc368)
          %q_276 = arith.truncf %q_275 : tensor<256x128xf32> to tensor<256x128xf16> loc(#loc368)
          %q_277 = tt.load %q_ptrs_147, %q_274, %q_276 : tensor<256x128x!tt.ptr<f16>> loc(#loc368)
          %padded_block_k = arith.constant 0 : i32 loc(#loc369)
          %padded_block_k_278 = arith.cmpi ne, %19, %padded_block_k : i32 loc(#loc369)
          %is_modulo_mn = arith.constant true loc(#loc370)
          %is_modulo_mn_279 = arith.xori %padded_block_k_278, %is_modulo_mn : i1 loc(#loc370)
          %is_modulo_mn_280 = arith.constant 256 : i32 loc(#loc371)
          %is_modulo_mn_281 = arith.constant 256 : i32 loc(#loc371)
          %is_modulo_mn_282 = arith.remsi %seqlen_q, %is_modulo_mn_281 : i32 loc(#loc371)
          %is_modulo_mn_283 = arith.constant 0 : i32 loc(#loc371)
          %is_modulo_mn_284 = arith.cmpi eq, %is_modulo_mn_282, %is_modulo_mn_283 : i32 loc(#loc371)
          %is_modulo_mn_285 = arith.andi %is_modulo_mn_279, %is_modulo_mn_284 : i1 loc(#loc370)
          %masked_blocks = arith.constant true loc(#loc372)
          %masked_blocks_286 = arith.xori %is_modulo_mn_285, %masked_blocks : i1 loc(#loc372)
          %masked_blocks_287 = arith.constant 4 : i32 loc(#loc373)
          %masked_blocks_288 = arith.constant 4 : i32 loc(#loc373)
          %masked_blocks_289 = arith.extui %masked_blocks_286 : i1 to i32 loc(#loc373)
          %masked_blocks_290 = arith.extsi %masked_blocks_288 : i32 to i64 loc(#loc373)
          %masked_blocks_291 = arith.extsi %masked_blocks_289 : i32 to i64 loc(#loc373)
          %masked_blocks_292 = arith.addi %masked_blocks_290, %masked_blocks_291 : i64 loc(#loc373)
          %masked_blocks_293 = arith.constant 2147483647 : i64 loc(#loc373)
          %masked_blocks_294 = arith.constant -2147483648 : i64 loc(#loc373)
          %masked_blocks_295 = arith.cmpi sle, %masked_blocks_292, %masked_blocks_293 : i64 loc(#loc373)
          %masked_blocks_296 = arith.cmpi sge, %masked_blocks_292, %masked_blocks_294 : i64 loc(#loc373)
          %masked_blocks_297 = arith.andi %masked_blocks_295, %masked_blocks_296 : i1 loc(#loc373)
          %masked_blocks_298 = arith.addi %masked_blocks_288, %masked_blocks_289 : i32 loc(#loc373)
          %masked_blocks_299 = arith.minsi %masked_blocks_298, %n_blocks_84 : i32 loc(#loc374)
          %n_full_blocks = arith.extsi %n_blocks_84 : i32 to i64 loc(#loc375)
          %n_full_blocks_300 = arith.extsi %masked_blocks_299 : i32 to i64 loc(#loc375)
          %n_full_blocks_301 = arith.subi %n_full_blocks, %n_full_blocks_300 : i64 loc(#loc375)
          %n_full_blocks_302 = arith.constant 2147483647 : i64 loc(#loc375)
          %n_full_blocks_303 = arith.constant -2147483648 : i64 loc(#loc375)
          %n_full_blocks_304 = arith.cmpi sle, %n_full_blocks_301, %n_full_blocks_302 : i64 loc(#loc375)
          %n_full_blocks_305 = arith.cmpi sge, %n_full_blocks_301, %n_full_blocks_303 : i64 loc(#loc375)
          %n_full_blocks_306 = arith.andi %n_full_blocks_304, %n_full_blocks_305 : i1 loc(#loc375)
          %n_full_blocks_307 = arith.subi %n_blocks_84, %masked_blocks_299 : i32 loc(#loc375)
          %block_min = arith.constant 0 : i32 loc(#loc522)
          %block_max = arith.constant 64 : i32 loc(#loc377)
          %block_max_308 = arith.constant 64 : i32 loc(#loc377)
          %block_max_309 = arith.extsi %n_blocks_84 : i32 to i64 loc(#loc377)
          %block_max_310 = arith.extsi %block_max_308 : i32 to i64 loc(#loc377)
          %block_max_311 = arith.muli %block_max_309, %block_max_310 : i64 loc(#loc377)
          %block_max_312 = arith.constant 2147483647 : i64 loc(#loc377)
          %block_max_313 = arith.constant -2147483648 : i64 loc(#loc377)
          %block_max_314 = arith.cmpi sle, %block_max_311, %block_max_312 : i64 loc(#loc377)
          %block_max_315 = arith.cmpi sge, %block_max_311, %block_max_313 : i64 loc(#loc377)
          %block_max_316 = arith.andi %block_max_314, %block_max_315 : i1 loc(#loc377)
          %block_max_317 = arith.muli %n_blocks_84, %block_max_308 : i32 loc(#loc523)
          %c0_i32_318 = arith.constant 0 : i32 loc(#loc125)
          %20 = arith.cmpi sgt, %n_full_blocks_307, %c0_i32_318 : i32 loc(#loc125)
          %acc_319:5 = scf.if %20 -> (tensor<256xf32>, tensor<256xf32>, tensor<256x128xf32>, i32, i32) {
            %block_max_475 = arith.extsi %n_blocks_84 : i32 to i64 loc(#loc379)
            %block_max_476 = arith.extsi %masked_blocks_299 : i32 to i64 loc(#loc379)
            %block_max_477 = arith.subi %block_max_475, %block_max_476 : i64 loc(#loc379)
            %block_max_478 = arith.constant 2147483647 : i64 loc(#loc379)
            %block_max_479 = arith.constant -2147483648 : i64 loc(#loc379)
            %block_max_480 = arith.cmpi sle, %block_max_477, %block_max_478 : i64 loc(#loc379)
            %block_max_481 = arith.cmpi sge, %block_max_477, %block_max_479 : i64 loc(#loc379)
            %block_max_482 = arith.andi %block_max_480, %block_max_481 : i1 loc(#loc379)
            %block_max_483 = arith.subi %n_blocks_84, %masked_blocks_299 : i32 loc(#loc379)
            %block_max_484 = arith.constant 64 : i32 loc(#loc380)
            %block_max_485 = arith.constant 64 : i32 loc(#loc380)
            %block_max_486 = arith.extsi %block_max_483 : i32 to i64 loc(#loc380)
            %block_max_487 = arith.extsi %block_max_485 : i32 to i64 loc(#loc380)
            %block_max_488 = arith.muli %block_max_486, %block_max_487 : i64 loc(#loc380)
            %block_max_489 = arith.constant 2147483647 : i64 loc(#loc380)
            %block_max_490 = arith.constant -2147483648 : i64 loc(#loc380)
            %block_max_491 = arith.cmpi sle, %block_max_488, %block_max_489 : i64 loc(#loc380)
            %block_max_492 = arith.cmpi sge, %block_max_488, %block_max_490 : i64 loc(#loc380)
            %block_max_493 = arith.andi %block_max_491, %block_max_492 : i1 loc(#loc380)
            %block_min_494 = arith.muli %block_max_483, %block_max_485 : i32 loc(#loc525)
            %acc_495:3 = tt.call @__main__._attn_fwd_inner__fp32S256_128S_fp32S256S_fp32S256S_fp16S256_128S_Pfp16S128_64S_Pfp16S64_128S_cNone_i32_i32_i32_i32_i32_i32_fp32_i32_i32_cNone_i32_i32_c0_c0_c0_cNone_cNone_cNone_cNone_cNone_cFalse_c256_c128_c64_i32S256S_i32S64S_cFalse_cFalse_cFalse_cFalse_cFalse_c128_c0.1275174308246903_cFalse_cFalse_cFalse_cTrue(%acc, %l_i_271, %m_i_270, %q_277, %k_ptrs_208, %v_ptrs_269, %stride_kn, %stride_vk, %stride_bn, %start_m, %seqlen_k, %seqlen_q, %dropout_p, %philox_seed, %batch_philox_offset, %block_min, %block_min_494, %offs_m_43, %offs_n) : (tensor<256x128xf32>, tensor<256xf32>, tensor<256xf32>, tensor<256x128xf16>, tensor<128x64x!tt.ptr<f16>>, tensor<64x128x!tt.ptr<f16>>, i32, i32, i32, i32, i32, i32, f32, i32, i32, i32, i32, tensor<256xi32>, tensor<64xi32>) -> (tensor<256x128xf32>, tensor<256xf32>, tensor<256xf32>) loc(#loc542)
            %block_max_496 = arith.constant 64 : i32 loc(#loc382)
            %block_max_497 = arith.constant 64 : i32 loc(#loc382)
            %block_max_498 = arith.extsi %n_blocks_84 : i32 to i64 loc(#loc382)
            %block_max_499 = arith.extsi %block_max_497 : i32 to i64 loc(#loc382)
            %block_max_500 = arith.muli %block_max_498, %block_max_499 : i64 loc(#loc382)
            %block_max_501 = arith.constant 2147483647 : i64 loc(#loc382)
            %block_max_502 = arith.constant -2147483648 : i64 loc(#loc382)
            %block_max_503 = arith.cmpi sle, %block_max_500, %block_max_501 : i64 loc(#loc382)
            %block_max_504 = arith.cmpi sge, %block_max_500, %block_max_502 : i64 loc(#loc382)
            %block_max_505 = arith.andi %block_max_503, %block_max_504 : i1 loc(#loc382)
            %block_max_506 = arith.muli %n_blocks_84, %block_max_497 : i32 loc(#loc527)
            scf.yield %acc_495#2, %acc_495#1, %acc_495#0, %block_min_494, %block_max_506 : tensor<256xf32>, tensor<256xf32>, tensor<256x128xf32>, i32, i32 loc(#loc527)
          } else {
            scf.yield %m_i_270, %l_i_271, %acc, %block_min, %block_max_317 : tensor<256xf32>, tensor<256xf32>, tensor<256x128xf32>, i32, i32 loc(#loc126)
          } loc(#loc541)
          ttg.barrier all loc(#loc131)
          %c0_i32_320 = arith.constant 0 : i32 loc(#loc132)
          %21 = arith.cmpi sgt, %masked_blocks_299, %c0_i32_320 : i32 loc(#loc132)
          %22:5 = scf.if %21 -> (tensor<128x64x!tt.ptr<f16>>, tensor<64x128x!tt.ptr<f16>>, tensor<256xf32>, tensor<256xf32>, tensor<256x128xf32>) {
            %offs_n_causal = arith.extsi %seqlen_q : i32 to i64 loc(#loc383)
            %offs_n_causal_475 = arith.extsi %seqlen_k : i32 to i64 loc(#loc383)
            %offs_n_causal_476 = arith.subi %offs_n_causal, %offs_n_causal_475 : i64 loc(#loc383)
            %offs_n_causal_477 = arith.constant 2147483647 : i64 loc(#loc383)
            %offs_n_causal_478 = arith.constant -2147483648 : i64 loc(#loc383)
            %offs_n_causal_479 = arith.cmpi sle, %offs_n_causal_476, %offs_n_causal_477 : i64 loc(#loc383)
            %offs_n_causal_480 = arith.cmpi sge, %offs_n_causal_476, %offs_n_causal_478 : i64 loc(#loc383)
            %offs_n_causal_481 = arith.andi %offs_n_causal_479, %offs_n_causal_480 : i1 loc(#loc383)
            %offs_n_causal_482 = arith.subi %seqlen_q, %seqlen_k : i32 loc(#loc383)
            %offs_n_causal_483 = tt.splat %offs_n_causal_482 : i32 -> tensor<64xi32> loc(#loc384)
            %offs_n_causal_484 = arith.extsi %offs_n : tensor<64xi32> to tensor<64xi64> loc(#loc384)
            %offs_n_causal_485 = arith.extsi %offs_n_causal_483 : tensor<64xi32> to tensor<64xi64> loc(#loc384)
            %offs_n_causal_486 = arith.addi %offs_n_causal_484, %offs_n_causal_485 : tensor<64xi64> loc(#loc384)
            %offs_n_causal_487 = arith.constant 2147483647 : i64 loc(#loc384)
            %offs_n_causal_488 = arith.constant -2147483648 : i64 loc(#loc384)
            %offs_n_causal_489 = arith.constant dense<2147483647> : tensor<64xi64> loc(#loc384)
            %offs_n_causal_490 = arith.cmpi sle, %offs_n_causal_486, %offs_n_causal_489 : tensor<64xi64> loc(#loc384)
            %offs_n_causal_491 = arith.constant dense<-2147483648> : tensor<64xi64> loc(#loc384)
            %offs_n_causal_492 = arith.cmpi sge, %offs_n_causal_486, %offs_n_causal_491 : tensor<64xi64> loc(#loc384)
            %offs_n_causal_493 = arith.andi %offs_n_causal_490, %offs_n_causal_492 : tensor<64xi1> loc(#loc384)
            %offs_n_causal_494 = arith.addi %offs_n, %offs_n_causal_483 : tensor<64xi32> loc(#loc384)
            %k_ptrs_495 = arith.constant 64 : i32 loc(#loc385)
            %k_ptrs_496 = arith.constant 64 : i32 loc(#loc385)
            %k_ptrs_497 = arith.extsi %n_full_blocks_307 : i32 to i64 loc(#loc385)
            %k_ptrs_498 = arith.extsi %k_ptrs_496 : i32 to i64 loc(#loc385)
            %k_ptrs_499 = arith.muli %k_ptrs_497, %k_ptrs_498 : i64 loc(#loc385)
            %k_ptrs_500 = arith.constant 2147483647 : i64 loc(#loc385)
            %k_ptrs_501 = arith.constant -2147483648 : i64 loc(#loc385)
            %k_ptrs_502 = arith.cmpi sle, %k_ptrs_499, %k_ptrs_500 : i64 loc(#loc385)
            %k_ptrs_503 = arith.cmpi sge, %k_ptrs_499, %k_ptrs_501 : i64 loc(#loc385)
            %k_ptrs_504 = arith.andi %k_ptrs_502, %k_ptrs_503 : i1 loc(#loc385)
            %k_ptrs_505 = arith.muli %n_full_blocks_307, %k_ptrs_496 : i32 loc(#loc385)
            %k_ptrs_506 = arith.extsi %k_ptrs_505 : i32 to i64 loc(#loc385)
            %k_ptrs_507 = arith.extsi %stride_kn : i32 to i64 loc(#loc385)
            %k_ptrs_508 = arith.muli %k_ptrs_506, %k_ptrs_507 : i64 loc(#loc385)
            %k_ptrs_509 = arith.constant 2147483647 : i64 loc(#loc385)
            %k_ptrs_510 = arith.constant -2147483648 : i64 loc(#loc385)
            %k_ptrs_511 = arith.cmpi sle, %k_ptrs_508, %k_ptrs_509 : i64 loc(#loc385)
            %k_ptrs_512 = arith.cmpi sge, %k_ptrs_508, %k_ptrs_510 : i64 loc(#loc385)
            %k_ptrs_513 = arith.andi %k_ptrs_511, %k_ptrs_512 : i1 loc(#loc385)
            %k_ptrs_514 = arith.muli %k_ptrs_505, %stride_kn : i32 loc(#loc385)
            %k_ptrs_515 = tt.splat %k_ptrs_514 : i32 -> tensor<128x64xi32> loc(#loc386)
            %k_ptrs_516 = tt.addptr %k_ptrs_208, %k_ptrs_515 : tensor<128x64x!tt.ptr<f16>>, tensor<128x64xi32> loc(#loc528)
            %v_ptrs_517 = arith.constant 64 : i32 loc(#loc387)
            %v_ptrs_518 = arith.constant 64 : i32 loc(#loc387)
            %v_ptrs_519 = arith.extsi %n_full_blocks_307 : i32 to i64 loc(#loc387)
            %v_ptrs_520 = arith.extsi %v_ptrs_518 : i32 to i64 loc(#loc387)
            %v_ptrs_521 = arith.muli %v_ptrs_519, %v_ptrs_520 : i64 loc(#loc387)
            %v_ptrs_522 = arith.constant 2147483647 : i64 loc(#loc387)
            %v_ptrs_523 = arith.constant -2147483648 : i64 loc(#loc387)
            %v_ptrs_524 = arith.cmpi sle, %v_ptrs_521, %v_ptrs_522 : i64 loc(#loc387)
            %v_ptrs_525 = arith.cmpi sge, %v_ptrs_521, %v_ptrs_523 : i64 loc(#loc387)
            %v_ptrs_526 = arith.andi %v_ptrs_524, %v_ptrs_525 : i1 loc(#loc387)
            %v_ptrs_527 = arith.muli %n_full_blocks_307, %v_ptrs_518 : i32 loc(#loc387)
            %v_ptrs_528 = arith.extsi %v_ptrs_527 : i32 to i64 loc(#loc387)
            %v_ptrs_529 = arith.extsi %stride_vk : i32 to i64 loc(#loc387)
            %v_ptrs_530 = arith.muli %v_ptrs_528, %v_ptrs_529 : i64 loc(#loc387)
            %v_ptrs_531 = arith.constant 2147483647 : i64 loc(#loc387)
            %v_ptrs_532 = arith.constant -2147483648 : i64 loc(#loc387)
            %v_ptrs_533 = arith.cmpi sle, %v_ptrs_530, %v_ptrs_531 : i64 loc(#loc387)
            %v_ptrs_534 = arith.cmpi sge, %v_ptrs_530, %v_ptrs_532 : i64 loc(#loc387)
            %v_ptrs_535 = arith.andi %v_ptrs_533, %v_ptrs_534 : i1 loc(#loc387)
            %v_ptrs_536 = arith.muli %v_ptrs_527, %stride_vk : i32 loc(#loc387)
            %v_ptrs_537 = tt.splat %v_ptrs_536 : i32 -> tensor<64x128xi32> loc(#loc388)
            %v_ptrs_538 = tt.addptr %v_ptrs_269, %v_ptrs_537 : tensor<64x128x!tt.ptr<f16>>, tensor<64x128xi32> loc(#loc529)
            %acc_539:3 = tt.call @__main__._attn_fwd_inner__fp32S256_128S_fp32S256S_fp32S256S_fp16S256_128S_Pfp16S128_64S_Pfp16S64_128S_cNone_i32_i32_i32_i32_i32_i32_fp32_i32_i32_cNone_i32_i32_i32S64S_i32_i32_cNone_cNone_cNone_cNone_cNone_cTrue_c256_c128_c64_i32S256S_i32S64S_cFalse_cTrue_cFalse_cFalse_cFalse_c128_c0.1275174308246903_cFalse_cFalse_cFalse_cFalse(%acc_319#2, %acc_319#1, %acc_319#0, %q_277, %k_ptrs_516, %v_ptrs_538, %stride_kn, %stride_vk, %stride_bn, %start_m, %seqlen_k, %seqlen_q, %dropout_p, %philox_seed, %batch_philox_offset, %acc_319#3, %acc_319#4, %offs_n_causal_494, %masked_blocks_299, %19, %offs_m_43, %offs_n) : (tensor<256x128xf32>, tensor<256xf32>, tensor<256xf32>, tensor<256x128xf16>, tensor<128x64x!tt.ptr<f16>>, tensor<64x128x!tt.ptr<f16>>, i32, i32, i32, i32, i32, i32, f32, i32, i32, i32, i32, tensor<64xi32>, i32, i32, tensor<256xi32>, tensor<64xi32>) -> (tensor<256x128xf32>, tensor<256xf32>, tensor<256xf32>) loc(#loc543)
            scf.yield %k_ptrs_516, %v_ptrs_538, %acc_539#2, %acc_539#1, %acc_539#0 : tensor<128x64x!tt.ptr<f16>>, tensor<64x128x!tt.ptr<f16>>, tensor<256xf32>, tensor<256xf32>, tensor<256x128xf32> loc(#loc543)
          } else {
            scf.yield %k_ptrs_208, %v_ptrs_269, %acc_319#0, %acc_319#1, %acc_319#2 : tensor<128x64x!tt.ptr<f16>>, tensor<64x128x!tt.ptr<f16>>, tensor<256xf32>, tensor<256xf32>, tensor<256x128xf32> loc(#loc133)
          } loc(#loc133)
          %l_recip = tt.expand_dims %22#3 {axis = 1 : i32} : tensor<256xf32> -> tensor<256x1xf32> loc(#loc390)
          %l_recip_321 = arith.constant 1 : i32 loc(#loc391)
          %l_recip_322 = arith.constant 1.000000e+00 : f32 loc(#loc391)
          %l_recip_323 = arith.constant dense<1.000000e+00> : tensor<256x1xf32> loc(#loc391)
          %l_recip_324 = arith.divf %l_recip_323, %l_recip : tensor<256x1xf32> loc(#loc391)
          %acc_325 = tt.broadcast %l_recip_324 : tensor<256x1xf32> -> tensor<256x128xf32> loc(#loc392)
          %acc_326 = arith.mulf %22#4, %acc_325 : tensor<256x128xf32> loc(#loc392)
          %end_m_idx = arith.constant 1 : i32 loc(#loc393)
          %end_m_idx_327 = arith.constant 1 : i32 loc(#loc393)
          %end_m_idx_328 = arith.extsi %start_m : i32 to i64 loc(#loc393)
          %end_m_idx_329 = arith.extsi %end_m_idx_327 : i32 to i64 loc(#loc393)
          %end_m_idx_330 = arith.addi %end_m_idx_328, %end_m_idx_329 : i64 loc(#loc393)
          %end_m_idx_331 = arith.constant 2147483647 : i64 loc(#loc393)
          %end_m_idx_332 = arith.constant -2147483648 : i64 loc(#loc393)
          %end_m_idx_333 = arith.cmpi sle, %end_m_idx_330, %end_m_idx_331 : i64 loc(#loc393)
          %end_m_idx_334 = arith.cmpi sge, %end_m_idx_330, %end_m_idx_332 : i64 loc(#loc393)
          %end_m_idx_335 = arith.andi %end_m_idx_333, %end_m_idx_334 : i1 loc(#loc393)
          %end_m_idx_336 = arith.addi %start_m, %end_m_idx_327 : i32 loc(#loc393)
          %end_m_idx_337 = arith.constant 256 : i32 loc(#loc394)
          %end_m_idx_338 = arith.constant 256 : i32 loc(#loc394)
          %end_m_idx_339 = arith.extsi %end_m_idx_336 : i32 to i64 loc(#loc394)
          %end_m_idx_340 = arith.extsi %end_m_idx_338 : i32 to i64 loc(#loc394)
          %end_m_idx_341 = arith.muli %end_m_idx_339, %end_m_idx_340 : i64 loc(#loc394)
          %end_m_idx_342 = arith.constant 2147483647 : i64 loc(#loc394)
          %end_m_idx_343 = arith.constant -2147483648 : i64 loc(#loc394)
          %end_m_idx_344 = arith.cmpi sle, %end_m_idx_341, %end_m_idx_342 : i64 loc(#loc394)
          %end_m_idx_345 = arith.cmpi sge, %end_m_idx_341, %end_m_idx_343 : i64 loc(#loc394)
          %end_m_idx_346 = arith.andi %end_m_idx_344, %end_m_idx_345 : i1 loc(#loc394)
          %end_m_idx_347 = arith.muli %end_m_idx_336, %end_m_idx_338 : i32 loc(#loc394)
          %start_m_idx = arith.constant 256 : i32 loc(#loc395)
          %start_m_idx_348 = arith.constant 256 : i32 loc(#loc395)
          %start_m_idx_349 = arith.extsi %start_m : i32 to i64 loc(#loc395)
          %start_m_idx_350 = arith.extsi %start_m_idx_348 : i32 to i64 loc(#loc395)
          %start_m_idx_351 = arith.muli %start_m_idx_349, %start_m_idx_350 : i64 loc(#loc395)
          %start_m_idx_352 = arith.constant 2147483647 : i64 loc(#loc395)
          %start_m_idx_353 = arith.constant -2147483648 : i64 loc(#loc395)
          %start_m_idx_354 = arith.cmpi sle, %start_m_idx_351, %start_m_idx_352 : i64 loc(#loc395)
          %start_m_idx_355 = arith.cmpi sge, %start_m_idx_351, %start_m_idx_353 : i64 loc(#loc395)
          %start_m_idx_356 = arith.andi %start_m_idx_354, %start_m_idx_355 : i1 loc(#loc395)
          %start_m_idx_357 = arith.muli %start_m, %start_m_idx_348 : i32 loc(#loc395)
          %causal_start_idx = arith.extsi %seqlen_q : i32 to i64 loc(#loc396)
          %causal_start_idx_358 = arith.extsi %seqlen_k : i32 to i64 loc(#loc396)
          %causal_start_idx_359 = arith.subi %causal_start_idx, %causal_start_idx_358 : i64 loc(#loc396)
          %causal_start_idx_360 = arith.constant 2147483647 : i64 loc(#loc396)
          %causal_start_idx_361 = arith.constant -2147483648 : i64 loc(#loc396)
          %causal_start_idx_362 = arith.cmpi sle, %causal_start_idx_359, %causal_start_idx_360 : i64 loc(#loc396)
          %causal_start_idx_363 = arith.cmpi sge, %causal_start_idx_359, %causal_start_idx_361 : i64 loc(#loc396)
          %causal_start_idx_364 = arith.andi %causal_start_idx_362, %causal_start_idx_363 : i1 loc(#loc396)
          %causal_start_idx_365 = arith.subi %seqlen_q, %seqlen_k : i32 loc(#loc396)
          %acc_366 = arith.truncf %acc_326 : tensor<256x128xf32> to tensor<256x128xf16> loc(#loc531)
          %23 = arith.cmpi sgt, %causal_start_idx_365, %start_m_idx_357 : i32 loc(#loc149)
          %24 = arith.cmpi slt, %causal_start_idx_365, %end_m_idx_347 : i32 loc(#loc150)
          %25 = arith.andi %23, %24 : i1 loc(#loc149)
          %26 = scf.if %25 -> (tensor<256x128xf16>) {
            %out_mask_boundary = tt.splat %causal_start_idx_365 : i32 -> tensor<128xi32> loc(#loc398)
            %mask_m_offsets = tt.make_range {end = 256 : i32, start = 0 : i32} : tensor<256xi32> loc(#loc399)
            %mask_m_offsets_475 = tt.splat %start_m_idx_357 : i32 -> tensor<256xi32> loc(#loc400)
            %mask_m_offsets_476 = arith.extsi %mask_m_offsets_475 : tensor<256xi32> to tensor<256xi64> loc(#loc400)
            %mask_m_offsets_477 = arith.extsi %mask_m_offsets : tensor<256xi32> to tensor<256xi64> loc(#loc400)
            %mask_m_offsets_478 = arith.addi %mask_m_offsets_476, %mask_m_offsets_477 : tensor<256xi64> loc(#loc400)
            %mask_m_offsets_479 = arith.constant 2147483647 : i64 loc(#loc400)
            %mask_m_offsets_480 = arith.constant -2147483648 : i64 loc(#loc400)
            %mask_m_offsets_481 = arith.constant dense<2147483647> : tensor<256xi64> loc(#loc400)
            %mask_m_offsets_482 = arith.cmpi sle, %mask_m_offsets_478, %mask_m_offsets_481 : tensor<256xi64> loc(#loc400)
            %mask_m_offsets_483 = arith.constant dense<-2147483648> : tensor<256xi64> loc(#loc400)
            %mask_m_offsets_484 = arith.cmpi sge, %mask_m_offsets_478, %mask_m_offsets_483 : tensor<256xi64> loc(#loc400)
            %mask_m_offsets_485 = arith.andi %mask_m_offsets_482, %mask_m_offsets_484 : tensor<256xi1> loc(#loc400)
            %mask_m_offsets_486 = arith.addi %mask_m_offsets_475, %mask_m_offsets : tensor<256xi32> loc(#loc400)
            %out_ptrs_mask = tt.expand_dims %mask_m_offsets_486 {axis = 1 : i32} : tensor<256xi32> -> tensor<256x1xi32> loc(#loc401)
            %out_ptrs_mask_487 = tt.expand_dims %out_mask_boundary {axis = 0 : i32} : tensor<128xi32> -> tensor<1x128xi32> loc(#loc402)
            %out_ptrs_mask_488 = tt.broadcast %out_ptrs_mask : tensor<256x1xi32> -> tensor<256x128xi32> loc(#loc401)
            %out_ptrs_mask_489 = tt.broadcast %out_ptrs_mask_487 : tensor<1x128xi32> -> tensor<256x128xi32> loc(#loc401)
            %out_ptrs_mask_490 = arith.cmpi sge, %out_ptrs_mask_488, %out_ptrs_mask_489 : tensor<256x128xi32> loc(#loc401)
            %z = arith.constant 0.000000e+00 : f32 loc(#loc403)
            %acc_491 = arith.truncf %z : f32 to f16 loc(#loc404)
            %acc_492 = tt.splat %acc_491 : f16 -> tensor<256x128xf16> loc(#loc405)
            %acc_493 = arith.select %out_ptrs_mask_490, %acc_366, %acc_492 : tensor<256x128xi1>, tensor<256x128xf16> loc(#loc532)
            scf.yield %acc_493 : tensor<256x128xf16> loc(#loc532)
          } else {
            scf.yield %acc_366 : tensor<256x128xf16> loc(#loc151)
          } loc(#loc151)
          %l_ptrs = arith.constant 64 : i32 loc(#loc406)
          %l_ptrs_367 = arith.constant 64 : i32 loc(#loc406)
          %l_ptrs_368 = arith.extsi %off_z : i32 to i64 loc(#loc406)
          %l_ptrs_369 = arith.extsi %l_ptrs_367 : i32 to i64 loc(#loc406)
          %l_ptrs_370 = arith.muli %l_ptrs_368, %l_ptrs_369 : i64 loc(#loc406)
          %l_ptrs_371 = arith.constant 2147483647 : i64 loc(#loc406)
          %l_ptrs_372 = arith.constant -2147483648 : i64 loc(#loc406)
          %l_ptrs_373 = arith.cmpi sle, %l_ptrs_370, %l_ptrs_371 : i64 loc(#loc406)
          %l_ptrs_374 = arith.cmpi sge, %l_ptrs_370, %l_ptrs_372 : i64 loc(#loc406)
          %l_ptrs_375 = arith.andi %l_ptrs_373, %l_ptrs_374 : i1 loc(#loc406)
          %l_ptrs_376 = arith.muli %off_z, %l_ptrs_367 : i32 loc(#loc406)
          %l_ptrs_377 = arith.constant 16384 : i32 loc(#loc406)
          %l_ptrs_378 = arith.constant 16384 : i32 loc(#loc406)
          %l_ptrs_379 = arith.extsi %l_ptrs_376 : i32 to i64 loc(#loc406)
          %l_ptrs_380 = arith.extsi %l_ptrs_378 : i32 to i64 loc(#loc406)
          %l_ptrs_381 = arith.muli %l_ptrs_379, %l_ptrs_380 : i64 loc(#loc406)
          %l_ptrs_382 = arith.constant 2147483647 : i64 loc(#loc406)
          %l_ptrs_383 = arith.constant -2147483648 : i64 loc(#loc406)
          %l_ptrs_384 = arith.cmpi sle, %l_ptrs_381, %l_ptrs_382 : i64 loc(#loc406)
          %l_ptrs_385 = arith.cmpi sge, %l_ptrs_381, %l_ptrs_383 : i64 loc(#loc406)
          %l_ptrs_386 = arith.andi %l_ptrs_384, %l_ptrs_385 : i1 loc(#loc406)
          %l_ptrs_387 = arith.muli %l_ptrs_376, %l_ptrs_378 : i32 loc(#loc406)
          %l_ptrs_388 = tt.addptr %L, %l_ptrs_387 : !tt.ptr<f32>, i32 loc(#loc407)
          %l_ptrs_389 = arith.constant 16384 : i32 loc(#loc408)
          %l_ptrs_390 = arith.constant 16384 : i32 loc(#loc408)
          %l_ptrs_391 = arith.extsi %off_h_q_20 : i32 to i64 loc(#loc408)
          %l_ptrs_392 = arith.extsi %l_ptrs_390 : i32 to i64 loc(#loc408)
          %l_ptrs_393 = arith.muli %l_ptrs_391, %l_ptrs_392 : i64 loc(#loc408)
          %l_ptrs_394 = arith.constant 2147483647 : i64 loc(#loc408)
          %l_ptrs_395 = arith.constant -2147483648 : i64 loc(#loc408)
          %l_ptrs_396 = arith.cmpi sle, %l_ptrs_393, %l_ptrs_394 : i64 loc(#loc408)
          %l_ptrs_397 = arith.cmpi sge, %l_ptrs_393, %l_ptrs_395 : i64 loc(#loc408)
          %l_ptrs_398 = arith.andi %l_ptrs_396, %l_ptrs_397 : i1 loc(#loc408)
          %l_ptrs_399 = arith.muli %off_h_q_20, %l_ptrs_390 : i32 loc(#loc408)
          %l_ptrs_400 = tt.addptr %l_ptrs_388, %l_ptrs_399 : !tt.ptr<f32>, i32 loc(#loc407)
          %l_ptrs_401 = tt.splat %l_ptrs_400 : !tt.ptr<f32> -> tensor<256x!tt.ptr<f32>> loc(#loc407)
          %l_ptrs_402 = tt.addptr %l_ptrs_401, %offs_m_43 : tensor<256x!tt.ptr<f32>>, tensor<256xi32> loc(#loc407)
          %overflow_size = arith.extsi %end_m_idx_347 : i32 to i64 loc(#loc409)
          %overflow_size_403 = arith.extsi %seqlen_q : i32 to i64 loc(#loc409)
          %overflow_size_404 = arith.subi %overflow_size, %overflow_size_403 : i64 loc(#loc409)
          %overflow_size_405 = arith.constant 2147483647 : i64 loc(#loc409)
          %overflow_size_406 = arith.constant -2147483648 : i64 loc(#loc409)
          %overflow_size_407 = arith.cmpi sle, %overflow_size_404, %overflow_size_405 : i64 loc(#loc409)
          %overflow_size_408 = arith.cmpi sge, %overflow_size_404, %overflow_size_406 : i64 loc(#loc409)
          %overflow_size_409 = arith.andi %overflow_size_407, %overflow_size_408 : i1 loc(#loc409)
          %overflow_size_410 = arith.subi %end_m_idx_347, %seqlen_q : i32 loc(#loc409)
          %c0_i32_411 = arith.constant 0 : i32 loc(#loc164)
          %27 = arith.cmpi sgt, %overflow_size_410, %c0_i32_411 : i32 loc(#loc164)
          scf.if %27 {
            %boundary = arith.constant 256 : i32 loc(#loc410)
            %boundary_475 = arith.constant 256 : i32 loc(#loc410)
            %boundary_476 = arith.extsi %boundary_475 : i32 to i64 loc(#loc410)
            %boundary_477 = arith.extsi %overflow_size_410 : i32 to i64 loc(#loc410)
            %boundary_478 = arith.subi %boundary_476, %boundary_477 : i64 loc(#loc410)
            %boundary_479 = arith.constant 2147483647 : i64 loc(#loc410)
            %boundary_480 = arith.constant -2147483648 : i64 loc(#loc410)
            %boundary_481 = arith.cmpi sle, %boundary_478, %boundary_479 : i64 loc(#loc410)
            %boundary_482 = arith.cmpi sge, %boundary_478, %boundary_480 : i64 loc(#loc410)
            %boundary_483 = arith.andi %boundary_481, %boundary_482 : i1 loc(#loc410)
            %boundary_484 = arith.subi %boundary_475, %overflow_size_410 : i32 loc(#loc410)
            %boundary_485 = tt.splat %boundary_484 : i32 -> tensor<256xi32> loc(#loc411)
            %l_ptrs_mask = tt.make_range {end = 256 : i32, start = 0 : i32} : tensor<256xi32> loc(#loc412)
            %l_ptrs_mask_486 = arith.cmpi slt, %l_ptrs_mask, %boundary_485 : tensor<256xi32> loc(#loc412)
            %30 = math.log2 %22#3 : tensor<256xf32> loc(#loc169)
            %31 = arith.addf %22#2, %30 : tensor<256xf32> loc(#loc170)
            tt.store %l_ptrs_402, %31, %l_ptrs_mask_486 : tensor<256x!tt.ptr<f32>> loc(#loc171)
          } else {
            %30 = math.log2 %22#3 : tensor<256xf32> loc(#loc172)
            %31 = arith.addf %22#2, %30 : tensor<256xf32> loc(#loc173)
            tt.store %l_ptrs_402, %31 : tensor<256x!tt.ptr<f32>> loc(#loc174)
          } loc(#loc165)
          %o_offset = arith.extsi %off_z : i32 to i64 loc(#loc413)
          %o_offset_412 = arith.extsi %stride_oz : i32 to i64 loc(#loc413)
          %o_offset_413 = arith.muli %o_offset, %o_offset_412 : i64 loc(#loc413)
          %o_offset_414 = arith.constant 2147483647 : i64 loc(#loc413)
          %o_offset_415 = arith.constant -2147483648 : i64 loc(#loc413)
          %o_offset_416 = arith.cmpi sle, %o_offset_413, %o_offset_414 : i64 loc(#loc413)
          %o_offset_417 = arith.cmpi sge, %o_offset_413, %o_offset_415 : i64 loc(#loc413)
          %o_offset_418 = arith.andi %o_offset_416, %o_offset_417 : i1 loc(#loc413)
          %o_offset_419 = arith.muli %off_z, %stride_oz : i32 loc(#loc413)
          %o_offset_420 = tt.addptr %Out, %o_offset_419 : !tt.ptr<f16>, i32 loc(#loc414)
          %o_offset_421 = arith.extsi %off_h_q_20 : i32 to i64 loc(#loc415)
          %o_offset_422 = arith.extsi %stride_oh : i32 to i64 loc(#loc415)
          %o_offset_423 = arith.muli %o_offset_421, %o_offset_422 : i64 loc(#loc415)
          %o_offset_424 = arith.constant 2147483647 : i64 loc(#loc415)
          %o_offset_425 = arith.constant -2147483648 : i64 loc(#loc415)
          %o_offset_426 = arith.cmpi sle, %o_offset_423, %o_offset_424 : i64 loc(#loc415)
          %o_offset_427 = arith.cmpi sge, %o_offset_423, %o_offset_425 : i64 loc(#loc415)
          %o_offset_428 = arith.andi %o_offset_426, %o_offset_427 : i1 loc(#loc415)
          %o_offset_429 = arith.muli %off_h_q_20, %stride_oh : i32 loc(#loc415)
          %o_offset_430 = tt.addptr %o_offset_420, %o_offset_429 : !tt.ptr<f16>, i32 loc(#loc414)
          %o_offset_431 = arith.extsi %cu_seqlens_q_start : i32 to i64 loc(#loc416)
          %o_offset_432 = arith.extsi %stride_om : i32 to i64 loc(#loc416)
          %o_offset_433 = arith.muli %o_offset_431, %o_offset_432 : i64 loc(#loc416)
          %o_offset_434 = arith.constant 2147483647 : i64 loc(#loc416)
          %o_offset_435 = arith.constant -2147483648 : i64 loc(#loc416)
          %o_offset_436 = arith.cmpi sle, %o_offset_433, %o_offset_434 : i64 loc(#loc416)
          %o_offset_437 = arith.cmpi sge, %o_offset_433, %o_offset_435 : i64 loc(#loc416)
          %o_offset_438 = arith.andi %o_offset_436, %o_offset_437 : i1 loc(#loc416)
          %o_offset_439 = arith.muli %cu_seqlens_q_start, %stride_om : i32 loc(#loc416)
          %o_offset_440 = tt.addptr %o_offset_430, %o_offset_439 : !tt.ptr<f16>, i32 loc(#loc414)
          %o_ptrs = tt.expand_dims %offs_m_43 {axis = 1 : i32} : tensor<256xi32> -> tensor<256x1xi32> loc(#loc417)
          %o_ptrs_441 = tt.splat %stride_om : i32 -> tensor<256x1xi32> loc(#loc417)
          %o_ptrs_442 = arith.extsi %o_ptrs : tensor<256x1xi32> to tensor<256x1xi64> loc(#loc417)
          %o_ptrs_443 = arith.extsi %o_ptrs_441 : tensor<256x1xi32> to tensor<256x1xi64> loc(#loc417)
          %o_ptrs_444 = arith.muli %o_ptrs_442, %o_ptrs_443 : tensor<256x1xi64> loc(#loc417)
          %o_ptrs_445 = arith.constant 2147483647 : i64 loc(#loc417)
          %o_ptrs_446 = arith.constant -2147483648 : i64 loc(#loc417)
          %o_ptrs_447 = arith.constant dense<2147483647> : tensor<256x1xi64> loc(#loc417)
          %o_ptrs_448 = arith.cmpi sle, %o_ptrs_444, %o_ptrs_447 : tensor<256x1xi64> loc(#loc417)
          %o_ptrs_449 = arith.constant dense<-2147483648> : tensor<256x1xi64> loc(#loc417)
          %o_ptrs_450 = arith.cmpi sge, %o_ptrs_444, %o_ptrs_449 : tensor<256x1xi64> loc(#loc417)
          %o_ptrs_451 = arith.andi %o_ptrs_448, %o_ptrs_450 : tensor<256x1xi1> loc(#loc417)
          %o_ptrs_452 = arith.muli %o_ptrs, %o_ptrs_441 : tensor<256x1xi32> loc(#loc417)
          %o_ptrs_453 = tt.splat %o_offset_440 : !tt.ptr<f16> -> tensor<256x1x!tt.ptr<f16>> loc(#loc418)
          %o_ptrs_454 = tt.addptr %o_ptrs_453, %o_ptrs_452 : tensor<256x1x!tt.ptr<f16>>, tensor<256x1xi32> loc(#loc418)
          %o_ptrs_455 = tt.expand_dims %offs_d {axis = 0 : i32} : tensor<128xi32> -> tensor<1x128xi32> loc(#loc419)
          %o_ptrs_456 = arith.constant 1 : i32 loc(#loc419)
          %o_ptrs_457 = arith.constant 1 : i32 loc(#loc419)
          %o_ptrs_458 = arith.constant dense<1> : tensor<1x128xi32> loc(#loc419)
          %o_ptrs_459 = arith.extsi %o_ptrs_455 : tensor<1x128xi32> to tensor<1x128xi64> loc(#loc419)
          %o_ptrs_460 = arith.extsi %o_ptrs_458 : tensor<1x128xi32> to tensor<1x128xi64> loc(#loc419)
          %o_ptrs_461 = arith.muli %o_ptrs_459, %o_ptrs_460 : tensor<1x128xi64> loc(#loc419)
          %o_ptrs_462 = arith.constant 2147483647 : i64 loc(#loc419)
          %o_ptrs_463 = arith.constant -2147483648 : i64 loc(#loc419)
          %o_ptrs_464 = arith.constant dense<2147483647> : tensor<1x128xi64> loc(#loc419)
          %o_ptrs_465 = arith.cmpi sle, %o_ptrs_461, %o_ptrs_464 : tensor<1x128xi64> loc(#loc419)
          %o_ptrs_466 = arith.constant dense<-2147483648> : tensor<1x128xi64> loc(#loc419)
          %o_ptrs_467 = arith.cmpi sge, %o_ptrs_461, %o_ptrs_466 : tensor<1x128xi64> loc(#loc419)
          %o_ptrs_468 = arith.andi %o_ptrs_465, %o_ptrs_467 : tensor<1x128xi1> loc(#loc419)
          %o_ptrs_469 = arith.muli %o_ptrs_455, %o_ptrs_458 : tensor<1x128xi32> loc(#loc419)
          %o_ptrs_470 = tt.broadcast %o_ptrs_454 : tensor<256x1x!tt.ptr<f16>> -> tensor<256x128x!tt.ptr<f16>> loc(#loc418)
          %o_ptrs_471 = tt.broadcast %o_ptrs_469 : tensor<1x128xi32> -> tensor<256x128xi32> loc(#loc418)
          %o_ptrs_472 = tt.addptr %o_ptrs_470, %o_ptrs_471 : tensor<256x128x!tt.ptr<f16>>, tensor<256x128xi32> loc(#loc418)
          %o_ptrs_mask = arith.constant true loc(#loc420)
          %o_ptrs_mask_473 = arith.constant dense<true> : tensor<256x128xi1> loc(#loc533)
          %c0_i32_474 = arith.constant 0 : i32 loc(#loc183)
          %28 = arith.cmpi sgt, %overflow_size_410, %c0_i32_474 : i32 loc(#loc183)
          %29 = scf.if %28 -> (tensor<256x128xi1>) {
            %o_ptrs_mask_475 = tt.expand_dims %offs_m_43 {axis = 1 : i32} : tensor<256xi32> -> tensor<256x1xi32> loc(#loc421)
            %o_ptrs_mask_476 = arith.constant dense<16384> : tensor<256x1xi32> loc(#loc421)
            %o_ptrs_mask_477 = arith.cmpi slt, %o_ptrs_mask_475, %o_ptrs_mask_476 : tensor<256x1xi32> loc(#loc421)
            %o_ptrs_mask_478 = tt.broadcast %o_ptrs_mask_477 : tensor<256x1xi1> -> tensor<256x128xi1> loc(#loc422)
            %o_ptrs_mask_479 = arith.andi %o_ptrs_mask_473, %o_ptrs_mask_478 : tensor<256x128xi1> loc(#loc534)
            scf.yield %o_ptrs_mask_479 : tensor<256x128xi1> loc(#loc534)
          } else {
            scf.yield %o_ptrs_mask_473 : tensor<256x128xi1> loc(#loc184)
          } loc(#loc184)
          tt.store %o_ptrs_472, %26, %29 : tensor<256x128x!tt.ptr<f16>> loc(#loc187)
        } else {
        } loc(#loc81)
        scf.yield %continue_condition_86 : i1 loc(#loc81)
      } else {
        scf.yield %continue_condition : i1 loc(#loc55)
      } loc(#loc55)
      scf.yield %num_tiles_total : i32 loc(#loc39)
    } loc(#loc302)
    tt.return loc(#loc)
  } loc(#loc)
  tt.func private @__main__.remap_xcd__i32_c64_c8(%pid: i32 loc("pid"(#loc188))) -> i32 attributes {noinline = false} {
    %pids_per_xcd = arith.constant 8 : i32 loc(#loc424)
    %tall_xcds = arith.constant 0 : i32 loc(#loc425)
    %tall_xcds_0 = arith.constant 0 : i32 loc(#loc426)
    %tall_xcds_1 = arith.cmpi eq, %tall_xcds, %tall_xcds_0 : i32 loc(#loc426)
    %tall_xcds_2 = scf.if %tall_xcds_1 -> (i32) {
      %tall_xcds_7 = arith.constant 8 : i32 loc(#loc428)
      scf.yield %tall_xcds_7 : i32 loc(#loc428)
    } else {
      scf.yield %tall_xcds : i32 loc(#loc427)
    } loc(#loc427)
    %xcd = arith.constant 8 : i32 loc(#loc429)
    %xcd_3 = arith.constant 8 : i32 loc(#loc429)
    %xcd_4 = arith.remsi %pid, %xcd_3 : i32 loc(#loc429)
    %local_pid = arith.constant 8 : i32 loc(#loc430)
    %local_pid_5 = arith.constant 8 : i32 loc(#loc430)
    %local_pid_6 = arith.divsi %pid, %local_pid_5 : i32 loc(#loc430)
    %0 = arith.cmpi slt, %xcd_4, %tall_xcds_2 : i32 loc(#loc195)
    %1 = scf.if %0 -> (i32) {
      %pid_7 = arith.extsi %xcd_4 : i32 to i64 loc(#loc431)
      %pid_8 = arith.extsi %pids_per_xcd : i32 to i64 loc(#loc431)
      %pid_9 = arith.muli %pid_7, %pid_8 : i64 loc(#loc431)
      %pid_10 = arith.constant 2147483647 : i64 loc(#loc431)
      %pid_11 = arith.constant -2147483648 : i64 loc(#loc431)
      %pid_12 = arith.cmpi sle, %pid_9, %pid_10 : i64 loc(#loc431)
      %pid_13 = arith.cmpi sge, %pid_9, %pid_11 : i64 loc(#loc431)
      %pid_14 = arith.andi %pid_12, %pid_13 : i1 loc(#loc431)
      %pid_15 = arith.muli %xcd_4, %pids_per_xcd : i32 loc(#loc431)
      %pid_16 = arith.extsi %pid_15 : i32 to i64 loc(#loc431)
      %pid_17 = arith.extsi %local_pid_6 : i32 to i64 loc(#loc431)
      %pid_18 = arith.addi %pid_16, %pid_17 : i64 loc(#loc431)
      %pid_19 = arith.constant 2147483647 : i64 loc(#loc431)
      %pid_20 = arith.constant -2147483648 : i64 loc(#loc431)
      %pid_21 = arith.cmpi sle, %pid_18, %pid_19 : i64 loc(#loc431)
      %pid_22 = arith.cmpi sge, %pid_18, %pid_20 : i64 loc(#loc431)
      %pid_23 = arith.andi %pid_21, %pid_22 : i1 loc(#loc431)
      %pid_24 = arith.addi %pid_15, %local_pid_6 : i32 loc(#loc535)
      scf.yield %pid_24 : i32 loc(#loc535)
    } else {
      %pid_7 = arith.extsi %tall_xcds_2 : i32 to i64 loc(#loc432)
      %pid_8 = arith.extsi %pids_per_xcd : i32 to i64 loc(#loc432)
      %pid_9 = arith.muli %pid_7, %pid_8 : i64 loc(#loc432)
      %pid_10 = arith.constant 2147483647 : i64 loc(#loc432)
      %pid_11 = arith.constant -2147483648 : i64 loc(#loc432)
      %pid_12 = arith.cmpi sle, %pid_9, %pid_10 : i64 loc(#loc432)
      %pid_13 = arith.cmpi sge, %pid_9, %pid_11 : i64 loc(#loc432)
      %pid_14 = arith.andi %pid_12, %pid_13 : i1 loc(#loc432)
      %pid_15 = arith.muli %tall_xcds_2, %pids_per_xcd : i32 loc(#loc432)
      %pid_16 = arith.extsi %xcd_4 : i32 to i64 loc(#loc433)
      %pid_17 = arith.extsi %tall_xcds_2 : i32 to i64 loc(#loc433)
      %pid_18 = arith.subi %pid_16, %pid_17 : i64 loc(#loc433)
      %pid_19 = arith.constant 2147483647 : i64 loc(#loc433)
      %pid_20 = arith.constant -2147483648 : i64 loc(#loc433)
      %pid_21 = arith.cmpi sle, %pid_18, %pid_19 : i64 loc(#loc433)
      %pid_22 = arith.cmpi sge, %pid_18, %pid_20 : i64 loc(#loc433)
      %pid_23 = arith.andi %pid_21, %pid_22 : i1 loc(#loc433)
      %pid_24 = arith.subi %xcd_4, %tall_xcds_2 : i32 loc(#loc433)
      %pid_25 = arith.constant 1 : i32 loc(#loc434)
      %pid_26 = arith.constant 1 : i32 loc(#loc434)
      %pid_27 = arith.extsi %pids_per_xcd : i32 to i64 loc(#loc434)
      %pid_28 = arith.extsi %pid_26 : i32 to i64 loc(#loc434)
      %pid_29 = arith.subi %pid_27, %pid_28 : i64 loc(#loc434)
      %pid_30 = arith.constant 2147483647 : i64 loc(#loc434)
      %pid_31 = arith.constant -2147483648 : i64 loc(#loc434)
      %pid_32 = arith.cmpi sle, %pid_29, %pid_30 : i64 loc(#loc434)
      %pid_33 = arith.cmpi sge, %pid_29, %pid_31 : i64 loc(#loc434)
      %pid_34 = arith.andi %pid_32, %pid_33 : i1 loc(#loc434)
      %pid_35 = arith.subi %pids_per_xcd, %pid_26 : i32 loc(#loc434)
      %pid_36 = arith.extsi %pid_24 : i32 to i64 loc(#loc435)
      %pid_37 = arith.extsi %pid_35 : i32 to i64 loc(#loc435)
      %pid_38 = arith.muli %pid_36, %pid_37 : i64 loc(#loc435)
      %pid_39 = arith.constant 2147483647 : i64 loc(#loc435)
      %pid_40 = arith.constant -2147483648 : i64 loc(#loc435)
      %pid_41 = arith.cmpi sle, %pid_38, %pid_39 : i64 loc(#loc435)
      %pid_42 = arith.cmpi sge, %pid_38, %pid_40 : i64 loc(#loc435)
      %pid_43 = arith.andi %pid_41, %pid_42 : i1 loc(#loc435)
      %pid_44 = arith.muli %pid_24, %pid_35 : i32 loc(#loc435)
      %pid_45 = arith.extsi %pid_15 : i32 to i64 loc(#loc432)
      %pid_46 = arith.extsi %pid_44 : i32 to i64 loc(#loc432)
      %pid_47 = arith.addi %pid_45, %pid_46 : i64 loc(#loc432)
      %pid_48 = arith.constant 2147483647 : i64 loc(#loc432)
      %pid_49 = arith.constant -2147483648 : i64 loc(#loc432)
      %pid_50 = arith.cmpi sle, %pid_47, %pid_48 : i64 loc(#loc432)
      %pid_51 = arith.cmpi sge, %pid_47, %pid_49 : i64 loc(#loc432)
      %pid_52 = arith.andi %pid_50, %pid_51 : i1 loc(#loc432)
      %pid_53 = arith.addi %pid_15, %pid_44 : i32 loc(#loc432)
      %pid_54 = arith.extsi %pid_53 : i32 to i64 loc(#loc432)
      %pid_55 = arith.extsi %local_pid_6 : i32 to i64 loc(#loc432)
      %pid_56 = arith.addi %pid_54, %pid_55 : i64 loc(#loc432)
      %pid_57 = arith.constant 2147483647 : i64 loc(#loc432)
      %pid_58 = arith.constant -2147483648 : i64 loc(#loc432)
      %pid_59 = arith.cmpi sle, %pid_56, %pid_57 : i64 loc(#loc432)
      %pid_60 = arith.cmpi sge, %pid_56, %pid_58 : i64 loc(#loc432)
      %pid_61 = arith.andi %pid_59, %pid_60 : i1 loc(#loc432)
      %pid_62 = arith.addi %pid_53, %local_pid_6 : i32 loc(#loc536)
      scf.yield %pid_62 : i32 loc(#loc432)
    } loc(#loc196)
    tt.return %1 : i32 loc(#loc202)
  ^bb1:  // no predecessors
    %2 = ub.poison : i32 loc(#loc188)
    tt.return %2 : i32 loc(#loc188)
  } loc(#loc188)
  tt.func private @__main__.cdiv_fn__i32_c64(%x: i32 loc("x"(#loc203))) -> i32 attributes {noinline = false} {
    %c64_i32 = arith.constant 64 : i32 loc(#loc204)
    %c64_i32_0 = arith.constant 64 : i32 loc(#loc204)
    %0 = arith.extsi %x : i32 to i64 loc(#loc204)
    %1 = arith.extsi %c64_i32_0 : i32 to i64 loc(#loc204)
    %2 = arith.addi %0, %1 : i64 loc(#loc204)
    %c2147483647_i64 = arith.constant 2147483647 : i64 loc(#loc204)
    %c-2147483648_i64 = arith.constant -2147483648 : i64 loc(#loc204)
    %3 = arith.cmpi sle, %2, %c2147483647_i64 : i64 loc(#loc204)
    %4 = arith.cmpi sge, %2, %c-2147483648_i64 : i64 loc(#loc204)
    %5 = arith.andi %3, %4 : i1 loc(#loc204)
    %6 = arith.addi %x, %c64_i32_0 : i32 loc(#loc204)
    %c1_i32 = arith.constant 1 : i32 loc(#loc204)
    %c1_i32_1 = arith.constant 1 : i32 loc(#loc204)
    %7 = arith.extsi %6 : i32 to i64 loc(#loc204)
    %8 = arith.extsi %c1_i32_1 : i32 to i64 loc(#loc204)
    %9 = arith.subi %7, %8 : i64 loc(#loc204)
    %c2147483647_i64_2 = arith.constant 2147483647 : i64 loc(#loc204)
    %c-2147483648_i64_3 = arith.constant -2147483648 : i64 loc(#loc204)
    %10 = arith.cmpi sle, %9, %c2147483647_i64_2 : i64 loc(#loc204)
    %11 = arith.cmpi sge, %9, %c-2147483648_i64_3 : i64 loc(#loc204)
    %12 = arith.andi %10, %11 : i1 loc(#loc204)
    %13 = arith.subi %6, %c1_i32_1 : i32 loc(#loc204)
    %c64_i32_4 = arith.constant 64 : i32 loc(#loc205)
    %c64_i32_5 = arith.constant 64 : i32 loc(#loc205)
    %14 = arith.divsi %13, %c64_i32_5 : i32 loc(#loc205)
    tt.return %14 : i32 loc(#loc206)
  ^bb1:  // no predecessors
    %15 = ub.poison : i32 loc(#loc203)
    tt.return %15 : i32 loc(#loc203)
  } loc(#loc203)
  tt.func private @triton.language.standard.zeros__Tc256_c128T_cfp16() -> tensor<256x128xf16> attributes {noinline = false} {
    %cst = arith.constant 0.000000e+00 : f16 loc(#loc208)
    %cst_0 = arith.constant dense<0.000000e+00> : tensor<256x128xf16> loc(#loc208)
    tt.return %cst_0 : tensor<256x128xf16> loc(#loc209)
  ^bb1:  // no predecessors
    %0 = ub.poison : tensor<256x128xf16> loc(#loc207)
    tt.return %0 : tensor<256x128xf16> loc(#loc207)
  } loc(#loc207)
  tt.func private @triton.language.standard.zeros__Tc256_c128T_cfp32() -> tensor<256x128xf32> attributes {noinline = false} {
    %cst = arith.constant 0.000000e+00 : f32 loc(#loc208)
    %cst_0 = arith.constant dense<0.000000e+00> : tensor<256x128xf32> loc(#loc208)
    tt.return %cst_0 : tensor<256x128xf32> loc(#loc209)
  ^bb1:  // no predecessors
    %0 = ub.poison : tensor<256x128xf32> loc(#loc207)
    tt.return %0 : tensor<256x128xf32> loc(#loc207)
  } loc(#loc207)
  tt.func private @__main__._attn_fwd_inner__fp32S256_128S_fp32S256S_fp32S256S_fp16S256_128S_Pfp16S128_64S_Pfp16S64_128S_cNone_i32_i32_i32_i32_i32_i32_fp32_i32_i32_cNone_i32_i32_c0_c0_c0_cNone_cNone_cNone_cNone_cNone_cFalse_c256_c128_c64_i32S256S_i32S64S_cFalse_cFalse_cFalse_cFalse_cFalse_c128_c0.1275174308246903_cFalse_cFalse_cFalse_cTrue(%acc: tensor<256x128xf32> loc("acc"(#loc210)), %l_i: tensor<256xf32> loc("l_i"(#loc210)), %m_i: tensor<256xf32> loc("m_i"(#loc210)), %q: tensor<256x128xf16> loc("q"(#loc210)), %k_ptrs: tensor<128x64x!tt.ptr<f16>> loc("k_ptrs"(#loc210)), %v_ptrs: tensor<64x128x!tt.ptr<f16>> loc("v_ptrs"(#loc210)), %stride_kn: i32 loc("stride_kn"(#loc210)), %stride_vk: i32 loc("stride_vk"(#loc210)), %stride_bn: i32 loc("stride_bn"(#loc210)), %start_m: i32 loc("start_m"(#loc210)), %actual_seqlen_k: i32 loc("actual_seqlen_k"(#loc210)), %actual_seqlen_q: i32 loc("actual_seqlen_q"(#loc210)), %dropout_p: f32 loc("dropout_p"(#loc210)), %philox_seed: i32 loc("philox_seed"(#loc210)), %batch_philox_offset: i32 loc("batch_philox_offset"(#loc210)), %block_min: i32 loc("block_min"(#loc210)), %block_max: i32 loc("block_max"(#loc210)), %OFFS_M: tensor<256xi32> loc("OFFS_M"(#loc210)), %OFFS_N: tensor<64xi32> loc("OFFS_N"(#loc210))) -> (tensor<256x128xf32>, tensor<256xf32>, tensor<256xf32>) attributes {noinline = false} {
    %c64_i32 = arith.constant 64 : i32 loc(#loc211)
    %0 = arith.bitcast %block_min : i32 to i32 loc(#loc211)
    %1 = arith.bitcast %block_max : i32 to i32 loc(#loc211)
    %2 = arith.bitcast %c64_i32 : i32 to i32 loc(#loc211)
    %3 = ub.poison : i32 loc(#loc211)
    %v_ptrs_0:5 = scf.for %start_n = %0 to %1 step %2 iter_args(%acc_1 = %acc, %l_i_2 = %l_i, %m_i_3 = %m_i, %k_ptrs_4 = %k_ptrs, %v_ptrs_5 = %v_ptrs) -> (tensor<256x128xf32>, tensor<256xf32>, tensor<256xf32>, tensor<128x64x!tt.ptr<f16>>, tensor<64x128x!tt.ptr<f16>>)  : i32 {
      %k = tt.call @__main__.load_fn__Pfp16S128_64S_cNone_cNone_c128_i32(%k_ptrs_4, %actual_seqlen_k) : (tensor<128x64x!tt.ptr<f16>>, i32) -> tensor<128x64xf16> loc(#loc457)
      %qk = tt.call @triton.language.standard.zeros__Tc256_c64T_cfp32() : () -> tensor<256x64xf32> loc(#loc458)
      %qk_6 = arith.constant 0.000000e+00 : f32 loc(#loc459)
      %qk_7 = arith.constant dense<0.000000e+00> : tensor<256x64xf32> loc(#loc459)
      %qk_8 = tt.dot %q, %k, %qk_7 : tensor<256x128xf16> * tensor<128x64xf16> -> tensor<256x64xf32> loc(#loc459)
      %qk_9 = arith.addf %qk, %qk_8 : tensor<256x64xf32> loc(#loc460)
      %m_ij = tt.call @triton.language.standard.max__fp32S256_64S_c1_cFalse_cTrue_cFalse(%qk_9) : (tensor<256x64xf32>) -> tensor<256xf32> loc(#loc461)
      %m_ij_10 = arith.maxnumf %m_i_3, %m_ij : tensor<256xf32> loc(#loc462)
      %m_ij_scaled = arith.constant 0.127517432 : f32 loc(#loc463)
      %m_ij_scaled_11 = arith.constant 0.127517432 : f32 loc(#loc463)
      %m_ij_scaled_12 = arith.constant dense<0.127517432> : tensor<256xf32> loc(#loc463)
      %m_ij_scaled_13 = arith.mulf %m_ij_10, %m_ij_scaled_12 : tensor<256xf32> loc(#loc463)
      %qk_14 = arith.constant 0.127517432 : f32 loc(#loc464)
      %qk_15 = arith.constant 0.127517432 : f32 loc(#loc464)
      %qk_16 = arith.constant dense<0.127517432> : tensor<256x64xf32> loc(#loc464)
      %qk_17 = arith.mulf %qk_9, %qk_16 : tensor<256x64xf32> loc(#loc464)
      %qk_18 = tt.expand_dims %m_ij_scaled_13 {axis = 1 : i32} : tensor<256xf32> -> tensor<256x1xf32> loc(#loc465)
      %qk_19 = tt.broadcast %qk_18 : tensor<256x1xf32> -> tensor<256x64xf32> loc(#loc464)
      %qk_20 = arith.subf %qk_17, %qk_19 : tensor<256x64xf32> loc(#loc464)
      %p = math.exp2 %qk_20 : tensor<256x64xf32> loc(#loc466)
      %l_ij = tt.call @triton.language.standard.sum__fp32S256_64S_c1_cFalse_cNone(%p) : (tensor<256x64xf32>) -> tensor<256xf32> loc(#loc467)
      %alpha = arith.constant 0.127517432 : f32 loc(#loc468)
      %alpha_21 = arith.constant 0.127517432 : f32 loc(#loc468)
      %alpha_22 = arith.constant dense<0.127517432> : tensor<256xf32> loc(#loc468)
      %alpha_23 = arith.mulf %m_i_3, %alpha_22 : tensor<256xf32> loc(#loc468)
      %alpha_24 = arith.subf %alpha_23, %m_ij_scaled_13 : tensor<256xf32> loc(#loc468)
      %alpha_25 = math.exp2 %alpha_24 : tensor<256xf32> loc(#loc469)
      %acc_26 = tt.expand_dims %alpha_25 {axis = 1 : i32} : tensor<256xf32> -> tensor<256x1xf32> loc(#loc470)
      %acc_27 = tt.broadcast %acc_26 : tensor<256x1xf32> -> tensor<256x128xf32> loc(#loc471)
      %acc_28 = arith.mulf %acc_1, %acc_27 : tensor<256x128xf32> loc(#loc471)
      %v = tt.call @__main__.load_fn__Pfp16S64_128S_cNone_cNone_i32_c128(%v_ptrs_5, %actual_seqlen_k) : (tensor<64x128x!tt.ptr<f16>>, i32) -> tensor<64x128xf16> loc(#loc472)
      %l_i_29 = arith.mulf %l_i_2, %alpha_25 : tensor<256xf32> loc(#loc473)
      %l_i_30 = arith.addf %l_i_29, %l_ij : tensor<256xf32> loc(#loc473)
      %acc_31 = arith.truncf %p : tensor<256x64xf32> to tensor<256x64xf16> loc(#loc474)
      %acc_32 = arith.constant 0.000000e+00 : f32 loc(#loc475)
      %acc_33 = arith.constant dense<0.000000e+00> : tensor<256x128xf32> loc(#loc475)
      %acc_34 = tt.dot %acc_31, %v, %acc_33 : tensor<256x64xf16> * tensor<64x128xf16> -> tensor<256x128xf32> loc(#loc475)
      %acc_35 = arith.addf %acc_28, %acc_34 : tensor<256x128xf32> loc(#loc476)
      %k_ptrs_36 = arith.constant 64 : i32 loc(#loc477)
      %k_ptrs_37 = arith.constant 64 : i32 loc(#loc477)
      %k_ptrs_38 = arith.extsi %k_ptrs_37 : i32 to i64 loc(#loc477)
      %k_ptrs_39 = arith.extsi %stride_kn : i32 to i64 loc(#loc477)
      %k_ptrs_40 = arith.muli %k_ptrs_38, %k_ptrs_39 : i64 loc(#loc477)
      %k_ptrs_41 = arith.constant 2147483647 : i64 loc(#loc477)
      %k_ptrs_42 = arith.constant -2147483648 : i64 loc(#loc477)
      %k_ptrs_43 = arith.cmpi sle, %k_ptrs_40, %k_ptrs_41 : i64 loc(#loc477)
      %k_ptrs_44 = arith.cmpi sge, %k_ptrs_40, %k_ptrs_42 : i64 loc(#loc477)
      %k_ptrs_45 = arith.andi %k_ptrs_43, %k_ptrs_44 : i1 loc(#loc477)
      %k_ptrs_46 = arith.muli %k_ptrs_37, %stride_kn : i32 loc(#loc477)
      %k_ptrs_47 = tt.splat %k_ptrs_46 : i32 -> tensor<128x64xi32> loc(#loc478)
      %k_ptrs_48 = tt.addptr %k_ptrs_4, %k_ptrs_47 : tensor<128x64x!tt.ptr<f16>>, tensor<128x64xi32> loc(#loc478)
      %v_ptrs_49 = arith.constant 64 : i32 loc(#loc479)
      %v_ptrs_50 = arith.constant 64 : i32 loc(#loc479)
      %v_ptrs_51 = arith.extsi %v_ptrs_50 : i32 to i64 loc(#loc479)
      %v_ptrs_52 = arith.extsi %stride_vk : i32 to i64 loc(#loc479)
      %v_ptrs_53 = arith.muli %v_ptrs_51, %v_ptrs_52 : i64 loc(#loc479)
      %v_ptrs_54 = arith.constant 2147483647 : i64 loc(#loc479)
      %v_ptrs_55 = arith.constant -2147483648 : i64 loc(#loc479)
      %v_ptrs_56 = arith.cmpi sle, %v_ptrs_53, %v_ptrs_54 : i64 loc(#loc479)
      %v_ptrs_57 = arith.cmpi sge, %v_ptrs_53, %v_ptrs_55 : i64 loc(#loc479)
      %v_ptrs_58 = arith.andi %v_ptrs_56, %v_ptrs_57 : i1 loc(#loc479)
      %v_ptrs_59 = arith.muli %v_ptrs_50, %stride_vk : i32 loc(#loc479)
      %v_ptrs_60 = tt.splat %v_ptrs_59 : i32 -> tensor<64x128xi32> loc(#loc480)
      %v_ptrs_61 = tt.addptr %v_ptrs_5, %v_ptrs_60 : tensor<64x128x!tt.ptr<f16>>, tensor<64x128xi32> loc(#loc480)
      scf.yield %acc_35, %l_i_30, %m_ij_10, %k_ptrs_48, %v_ptrs_61 : tensor<256x128xf32>, tensor<256xf32>, tensor<256xf32>, tensor<128x64x!tt.ptr<f16>>, tensor<64x128x!tt.ptr<f16>> loc(#loc211)
    } loc(#loc546)
    tt.return %v_ptrs_0#0, %v_ptrs_0#1, %v_ptrs_0#2 : tensor<256x128xf32>, tensor<256xf32>, tensor<256xf32> loc(#loc236)
  ^bb1:  // no predecessors
    %4 = ub.poison : tensor<256x128xf32> loc(#loc210)
    %5 = ub.poison : tensor<256xf32> loc(#loc210)
    %6 = ub.poison : tensor<256xf32> loc(#loc210)
    tt.return %4, %5, %6 : tensor<256x128xf32>, tensor<256xf32>, tensor<256xf32> loc(#loc210)
  } loc(#loc210)
  tt.func private @__main__.load_fn__Pfp16S128_64S_cNone_cNone_c128_i32(%ptrs: tensor<128x64x!tt.ptr<f16>> loc("ptrs"(#loc237)), %boundary_second: i32 loc("boundary_second"(#loc237))) -> tensor<128x64xf16> attributes {noinline = false} {
    %tensor = tt.load %ptrs : tensor<128x64x!tt.ptr<f16>> loc(#loc483)
    tt.return %tensor : tensor<128x64xf16> loc(#loc239)
  ^bb1:  // no predecessors
    %0 = ub.poison : tensor<128x64xf16> loc(#loc237)
    tt.return %0 : tensor<128x64xf16> loc(#loc237)
  } loc(#loc237)
  tt.func private @triton.language.standard.zeros__Tc256_c64T_cfp32() -> tensor<256x64xf32> attributes {noinline = false} {
    %cst = arith.constant 0.000000e+00 : f32 loc(#loc208)
    %cst_0 = arith.constant dense<0.000000e+00> : tensor<256x64xf32> loc(#loc208)
    tt.return %cst_0 : tensor<256x64xf32> loc(#loc209)
  ^bb1:  // no predecessors
    %0 = ub.poison : tensor<256x64xf32> loc(#loc207)
    tt.return %0 : tensor<256x64xf32> loc(#loc207)
  } loc(#loc207)
  tt.func private @triton.language.standard.max__fp32S256_64S_c1_cFalse_cTrue_cFalse(%input: tensor<256x64xf32> loc("input"(#loc240))) -> tensor<256xf32> attributes {noinline = false} {
    %0 = "tt.reduce"(%input) <{axis = 1 : i32}> ({
    ^bb0(%arg1: f32 loc(unknown), %arg2: f32 loc(unknown)):
      %2 = tt.call @triton.language.standard._elementwise_max__fp32_fp32(%arg1, %arg2) : (f32, f32) -> f32 loc(#loc241)
      tt.reduce.return %2 : f32 loc(#loc241)
    }) : (tensor<256x64xf32>) -> tensor<256xf32> loc(#loc241)
    tt.return %0 : tensor<256xf32> loc(#loc243)
  ^bb1:  // no predecessors
    %1 = ub.poison : tensor<256xf32> loc(#loc240)
    tt.return %1 : tensor<256xf32> loc(#loc240)
  } loc(#loc240)
  tt.func private @triton.language.standard._elementwise_max__fp32_fp32(%a: f32 loc("a"(#loc244)), %b: f32 loc("b"(#loc244))) -> f32 attributes {noinline = false} {
    %0 = arith.maxnumf %a, %b : f32 loc(#loc245)
    tt.return %0 : f32 loc(#loc246)
  ^bb1:  // no predecessors
    %1 = ub.poison : f32 loc(#loc244)
    tt.return %1 : f32 loc(#loc244)
  } loc(#loc244)
  tt.func private @triton.language.standard.sum__fp32S256_64S_c1_cFalse_cNone(%input: tensor<256x64xf32> loc("input"(#loc247))) -> tensor<256xf32> attributes {noinline = false} {
    %0 = "tt.reduce"(%input) <{axis = 1 : i32}> ({
    ^bb0(%arg1: f32 loc(unknown), %arg2: f32 loc(unknown)):
      %2 = tt.call @triton.language.standard._sum_combine__fp32_fp32(%arg1, %arg2) : (f32, f32) -> f32 loc(#loc248)
      tt.reduce.return %2 : f32 loc(#loc248)
    }) : (tensor<256x64xf32>) -> tensor<256xf32> loc(#loc248)
    tt.return %0 : tensor<256xf32> loc(#loc249)
  ^bb1:  // no predecessors
    %1 = ub.poison : tensor<256xf32> loc(#loc247)
    tt.return %1 : tensor<256xf32> loc(#loc247)
  } loc(#loc247)
  tt.func private @triton.language.standard._sum_combine__fp32_fp32(%a: f32 loc("a"(#loc250)), %b: f32 loc("b"(#loc250))) -> f32 attributes {noinline = false} {
    %0 = arith.addf %a, %b : f32 loc(#loc251)
    tt.return %0 : f32 loc(#loc252)
  ^bb1:  // no predecessors
    %1 = ub.poison : f32 loc(#loc250)
    tt.return %1 : f32 loc(#loc250)
  } loc(#loc250)
  tt.func private @__main__.load_fn__Pfp16S64_128S_cNone_cNone_i32_c128(%ptrs: tensor<64x128x!tt.ptr<f16>> loc("ptrs"(#loc237)), %boundary_first: i32 loc("boundary_first"(#loc237))) -> tensor<64x128xf16> attributes {noinline = false} {
    %tensor = tt.load %ptrs : tensor<64x128x!tt.ptr<f16>> loc(#loc483)
    tt.return %tensor : tensor<64x128xf16> loc(#loc239)
  ^bb1:  // no predecessors
    %0 = ub.poison : tensor<64x128xf16> loc(#loc237)
    tt.return %0 : tensor<64x128xf16> loc(#loc237)
  } loc(#loc237)
  tt.func private @__main__._attn_fwd_inner__fp32S256_128S_fp32S256S_fp32S256S_fp16S256_128S_Pfp16S128_64S_Pfp16S64_128S_cNone_i32_i32_i32_i32_i32_i32_fp32_i32_i32_cNone_i32_i32_i32S64S_i32_i32_cNone_cNone_cNone_cNone_cNone_cTrue_c256_c128_c64_i32S256S_i32S64S_cFalse_cTrue_cFalse_cFalse_cFalse_c128_c0.1275174308246903_cFalse_cFalse_cFalse_cFalse(%acc: tensor<256x128xf32> loc("acc"(#loc210)), %l_i: tensor<256xf32> loc("l_i"(#loc210)), %m_i: tensor<256xf32> loc("m_i"(#loc210)), %q: tensor<256x128xf16> loc("q"(#loc210)), %k_ptrs: tensor<128x64x!tt.ptr<f16>> loc("k_ptrs"(#loc210)), %v_ptrs: tensor<64x128x!tt.ptr<f16>> loc("v_ptrs"(#loc210)), %stride_kn: i32 loc("stride_kn"(#loc210)), %stride_vk: i32 loc("stride_vk"(#loc210)), %stride_bn: i32 loc("stride_bn"(#loc210)), %start_m: i32 loc("start_m"(#loc210)), %actual_seqlen_k: i32 loc("actual_seqlen_k"(#loc210)), %actual_seqlen_q: i32 loc("actual_seqlen_q"(#loc210)), %dropout_p: f32 loc("dropout_p"(#loc210)), %philox_seed: i32 loc("philox_seed"(#loc210)), %batch_philox_offset: i32 loc("batch_philox_offset"(#loc210)), %block_min: i32 loc("block_min"(#loc210)), %block_max: i32 loc("block_max"(#loc210)), %offs_n_causal: tensor<64xi32> loc("offs_n_causal"(#loc210)), %masked_blocks: i32 loc("masked_blocks"(#loc210)), %n_extra_tokens: i32 loc("n_extra_tokens"(#loc210)), %OFFS_M: tensor<256xi32> loc("OFFS_M"(#loc210)), %OFFS_N: tensor<64xi32> loc("OFFS_N"(#loc210))) -> (tensor<256x128xf32>, tensor<256xf32>, tensor<256xf32>) attributes {noinline = false} {
    %c64_i32 = arith.constant 64 : i32 loc(#loc211)
    %0 = arith.bitcast %block_min : i32 to i32 loc(#loc211)
    %1 = arith.bitcast %block_max : i32 to i32 loc(#loc211)
    %2 = arith.bitcast %c64_i32 : i32 to i32 loc(#loc211)
    %3 = ub.poison : i32 loc(#loc211)
    %v_ptrs_0:5 = scf.for %start_n = %0 to %1 step %2 iter_args(%acc_1 = %acc, %l_i_2 = %l_i, %m_i_3 = %m_i, %k_ptrs_4 = %k_ptrs, %v_ptrs_5 = %v_ptrs) -> (tensor<256x128xf32>, tensor<256xf32>, tensor<256xf32>, tensor<128x64x!tt.ptr<f16>>, tensor<64x128x!tt.ptr<f16>>)  : i32 {
      %k_offs_n = tt.make_range {end = 64 : i32, start = 0 : i32} : tensor<64xi32> loc(#loc494)
      %k_offs_n_6 = tt.splat %start_n : i32 -> tensor<64xi32> loc(#loc495)
      %k_offs_n_7 = arith.extsi %k_offs_n_6 : tensor<64xi32> to tensor<64xi64> loc(#loc495)
      %k_offs_n_8 = arith.extsi %k_offs_n : tensor<64xi32> to tensor<64xi64> loc(#loc495)
      %k_offs_n_9 = arith.addi %k_offs_n_7, %k_offs_n_8 : tensor<64xi64> loc(#loc495)
      %k_offs_n_10 = arith.constant 2147483647 : i64 loc(#loc495)
      %k_offs_n_11 = arith.constant -2147483648 : i64 loc(#loc495)
      %k_offs_n_12 = arith.constant dense<2147483647> : tensor<64xi64> loc(#loc495)
      %k_offs_n_13 = arith.cmpi sle, %k_offs_n_9, %k_offs_n_12 : tensor<64xi64> loc(#loc495)
      %k_offs_n_14 = arith.constant dense<-2147483648> : tensor<64xi64> loc(#loc495)
      %k_offs_n_15 = arith.cmpi sge, %k_offs_n_9, %k_offs_n_14 : tensor<64xi64> loc(#loc495)
      %k_offs_n_16 = arith.andi %k_offs_n_13, %k_offs_n_15 : tensor<64xi1> loc(#loc495)
      %k_offs_n_17 = arith.addi %k_offs_n_6, %k_offs_n : tensor<64xi32> loc(#loc495)
      %k = tt.call @__main__.load_fn__Pfp16S128_64S_cNone_i32S64S_c128_i32(%k_ptrs_4, %k_offs_n_17, %actual_seqlen_k) : (tensor<128x64x!tt.ptr<f16>>, tensor<64xi32>, i32) -> tensor<128x64xf16> loc(#loc457)
      %qk = tt.call @triton.language.standard.zeros__Tc256_c64T_cfp32() : () -> tensor<256x64xf32> loc(#loc538)
      %c64_i32_18 = arith.constant 64 : i32 loc(#loc255)
      %c64_i32_19 = arith.constant 64 : i32 loc(#loc255)
      %7 = arith.extsi %start_n : i32 to i64 loc(#loc255)
      %8 = arith.extsi %c64_i32_19 : i32 to i64 loc(#loc255)
      %9 = arith.addi %7, %8 : i64 loc(#loc255)
      %c2147483647_i64 = arith.constant 2147483647 : i64 loc(#loc255)
      %c-2147483648_i64 = arith.constant -2147483648 : i64 loc(#loc255)
      %10 = arith.cmpi sle, %9, %c2147483647_i64 : i64 loc(#loc255)
      %11 = arith.cmpi sge, %9, %c-2147483648_i64 : i64 loc(#loc255)
      %12 = arith.andi %10, %11 : i1 loc(#loc255)
      %13 = arith.addi %start_n, %c64_i32_19 : i32 loc(#loc255)
      %14 = arith.cmpi eq, %13, %block_max : i32 loc(#loc255)
      %c0_i32 = arith.constant 0 : i32 loc(#loc256)
      %15 = arith.cmpi ne, %n_extra_tokens, %c0_i32 : i32 loc(#loc256)
      %16 = arith.andi %14, %15 : i1 loc(#loc257)
      %17 = scf.if %16 -> (tensor<256x64xf32>) {
        %boundary_m = tt.splat %actual_seqlen_k : i32 -> tensor<256xi32> loc(#loc496)
        %size_n = tt.expand_dims %OFFS_N {axis = 0 : i32} : tensor<64xi32> -> tensor<1x64xi32> loc(#loc497)
        %size_n_95 = tt.splat %start_n : i32 -> tensor<1x64xi32> loc(#loc498)
        %size_n_96 = arith.extsi %size_n_95 : tensor<1x64xi32> to tensor<1x64xi64> loc(#loc498)
        %size_n_97 = arith.extsi %size_n : tensor<1x64xi32> to tensor<1x64xi64> loc(#loc498)
        %size_n_98 = arith.addi %size_n_96, %size_n_97 : tensor<1x64xi64> loc(#loc498)
        %size_n_99 = arith.constant 2147483647 : i64 loc(#loc498)
        %size_n_100 = arith.constant -2147483648 : i64 loc(#loc498)
        %size_n_101 = arith.constant dense<2147483647> : tensor<1x64xi64> loc(#loc498)
        %size_n_102 = arith.cmpi sle, %size_n_98, %size_n_101 : tensor<1x64xi64> loc(#loc498)
        %size_n_103 = arith.constant dense<-2147483648> : tensor<1x64xi64> loc(#loc498)
        %size_n_104 = arith.cmpi sge, %size_n_98, %size_n_103 : tensor<1x64xi64> loc(#loc498)
        %size_n_105 = arith.andi %size_n_102, %size_n_104 : tensor<1x64xi1> loc(#loc498)
        %size_n_106 = arith.addi %size_n_95, %size_n : tensor<1x64xi32> loc(#loc498)
        %mask = tt.expand_dims %boundary_m {axis = 1 : i32} : tensor<256xi32> -> tensor<256x1xi32> loc(#loc499)
        %mask_107 = tt.broadcast %size_n_106 : tensor<1x64xi32> -> tensor<256x64xi32> loc(#loc500)
        %mask_108 = tt.broadcast %mask : tensor<256x1xi32> -> tensor<256x64xi32> loc(#loc500)
        %mask_109 = arith.cmpi slt, %mask_107, %mask_108 : tensor<256x64xi32> loc(#loc500)
        %qk_110 = arith.constant 0xFF800000 : f32 loc(#loc501)
        %qk_111 = arith.constant 0xFF800000 : f32 loc(#loc501)
        %qk_112 = arith.constant dense<0xFF800000> : tensor<256x64xf32> loc(#loc501)
        %qk_113 = arith.select %mask_109, %qk, %qk_112 : tensor<256x64xi1>, tensor<256x64xf32> loc(#loc539)
        scf.yield %qk_113 : tensor<256x64xf32> loc(#loc539)
      } else {
        scf.yield %qk : tensor<256x64xf32> loc(#loc258)
      } loc(#loc258)
      %causal_boundary = tt.splat %start_n : i32 -> tensor<64xi32> loc(#loc502)
      %causal_boundary_20 = arith.extsi %causal_boundary : tensor<64xi32> to tensor<64xi64> loc(#loc502)
      %causal_boundary_21 = arith.extsi %offs_n_causal : tensor<64xi32> to tensor<64xi64> loc(#loc502)
      %causal_boundary_22 = arith.addi %causal_boundary_20, %causal_boundary_21 : tensor<64xi64> loc(#loc502)
      %causal_boundary_23 = arith.constant 2147483647 : i64 loc(#loc502)
      %causal_boundary_24 = arith.constant -2147483648 : i64 loc(#loc502)
      %causal_boundary_25 = arith.constant dense<2147483647> : tensor<64xi64> loc(#loc502)
      %causal_boundary_26 = arith.cmpi sle, %causal_boundary_22, %causal_boundary_25 : tensor<64xi64> loc(#loc502)
      %causal_boundary_27 = arith.constant dense<-2147483648> : tensor<64xi64> loc(#loc502)
      %causal_boundary_28 = arith.cmpi sge, %causal_boundary_22, %causal_boundary_27 : tensor<64xi64> loc(#loc502)
      %causal_boundary_29 = arith.andi %causal_boundary_26, %causal_boundary_28 : tensor<64xi1> loc(#loc502)
      %causal_boundary_30 = arith.addi %causal_boundary, %offs_n_causal : tensor<64xi32> loc(#loc502)
      %causal_mask = tt.expand_dims %OFFS_M {axis = 1 : i32} : tensor<256xi32> -> tensor<256x1xi32> loc(#loc503)
      %causal_mask_31 = tt.expand_dims %causal_boundary_30 {axis = 0 : i32} : tensor<64xi32> -> tensor<1x64xi32> loc(#loc504)
      %causal_mask_32 = tt.broadcast %causal_mask : tensor<256x1xi32> -> tensor<256x64xi32> loc(#loc503)
      %causal_mask_33 = tt.broadcast %causal_mask_31 : tensor<1x64xi32> -> tensor<256x64xi32> loc(#loc503)
      %causal_mask_34 = arith.cmpi sge, %causal_mask_32, %causal_mask_33 : tensor<256x64xi32> loc(#loc503)
      %qk_35 = arith.constant 0xFF800000 : f32 loc(#loc505)
      %qk_36 = arith.constant 0xFF800000 : f32 loc(#loc505)
      %qk_37 = arith.constant dense<0xFF800000> : tensor<256x64xf32> loc(#loc505)
      %qk_38 = arith.select %causal_mask_34, %17, %qk_37 : tensor<256x64xi1>, tensor<256x64xf32> loc(#loc505)
      %qk_39 = arith.constant 0.000000e+00 : f32 loc(#loc459)
      %qk_40 = arith.constant dense<0.000000e+00> : tensor<256x64xf32> loc(#loc459)
      %qk_41 = tt.dot %q, %k, %qk_40 : tensor<256x128xf16> * tensor<128x64xf16> -> tensor<256x64xf32> loc(#loc459)
      %qk_42 = arith.addf %qk_38, %qk_41 : tensor<256x64xf32> loc(#loc460)
      %m_ij = tt.call @triton.language.standard.max__fp32S256_64S_c1_cFalse_cTrue_cFalse(%qk_42) : (tensor<256x64xf32>) -> tensor<256xf32> loc(#loc461)
      %m_ij_43 = arith.maxnumf %m_i_3, %m_ij : tensor<256xf32> loc(#loc462)
      %m_ij_scaled = arith.constant 0.127517432 : f32 loc(#loc463)
      %m_ij_scaled_44 = arith.constant 0.127517432 : f32 loc(#loc463)
      %m_ij_scaled_45 = arith.constant dense<0.127517432> : tensor<256xf32> loc(#loc463)
      %m_ij_scaled_46 = arith.mulf %m_ij_43, %m_ij_scaled_45 : tensor<256xf32> loc(#loc463)
      %qk_47 = arith.constant 0.127517432 : f32 loc(#loc464)
      %qk_48 = arith.constant 0.127517432 : f32 loc(#loc464)
      %qk_49 = arith.constant dense<0.127517432> : tensor<256x64xf32> loc(#loc464)
      %qk_50 = arith.mulf %qk_42, %qk_49 : tensor<256x64xf32> loc(#loc464)
      %qk_51 = tt.expand_dims %m_ij_scaled_46 {axis = 1 : i32} : tensor<256xf32> -> tensor<256x1xf32> loc(#loc465)
      %qk_52 = tt.broadcast %qk_51 : tensor<256x1xf32> -> tensor<256x64xf32> loc(#loc464)
      %qk_53 = arith.subf %qk_50, %qk_52 : tensor<256x64xf32> loc(#loc464)
      %p = math.exp2 %qk_53 : tensor<256x64xf32> loc(#loc466)
      %l_ij = tt.call @triton.language.standard.sum__fp32S256_64S_c1_cFalse_cNone(%p) : (tensor<256x64xf32>) -> tensor<256xf32> loc(#loc467)
      %alpha = arith.constant 0.127517432 : f32 loc(#loc468)
      %alpha_54 = arith.constant 0.127517432 : f32 loc(#loc468)
      %alpha_55 = arith.constant dense<0.127517432> : tensor<256xf32> loc(#loc468)
      %alpha_56 = arith.mulf %m_i_3, %alpha_55 : tensor<256xf32> loc(#loc468)
      %alpha_57 = arith.subf %alpha_56, %m_ij_scaled_46 : tensor<256xf32> loc(#loc468)
      %alpha_58 = math.exp2 %alpha_57 : tensor<256xf32> loc(#loc469)
      %acc_59 = tt.expand_dims %alpha_58 {axis = 1 : i32} : tensor<256xf32> -> tensor<256x1xf32> loc(#loc470)
      %acc_60 = tt.broadcast %acc_59 : tensor<256x1xf32> -> tensor<256x128xf32> loc(#loc471)
      %acc_61 = arith.mulf %acc_1, %acc_60 : tensor<256x128xf32> loc(#loc471)
      %v = tt.call @__main__.load_fn__Pfp16S64_128S_i32S64S_cNone_i32_c128(%v_ptrs_5, %k_offs_n_17, %actual_seqlen_k) : (tensor<64x128x!tt.ptr<f16>>, tensor<64xi32>, i32) -> tensor<64x128xf16> loc(#loc472)
      %l_i_62 = arith.mulf %l_i_2, %alpha_58 : tensor<256xf32> loc(#loc473)
      %l_i_63 = arith.addf %l_i_62, %l_ij : tensor<256xf32> loc(#loc473)
      %acc_64 = arith.truncf %p : tensor<256x64xf32> to tensor<256x64xf16> loc(#loc474)
      %acc_65 = arith.constant 0.000000e+00 : f32 loc(#loc475)
      %acc_66 = arith.constant dense<0.000000e+00> : tensor<256x128xf32> loc(#loc475)
      %acc_67 = tt.dot %acc_64, %v, %acc_66 : tensor<256x64xf16> * tensor<64x128xf16> -> tensor<256x128xf32> loc(#loc475)
      %acc_68 = arith.addf %acc_61, %acc_67 : tensor<256x128xf32> loc(#loc476)
      %k_ptrs_69 = arith.constant 64 : i32 loc(#loc477)
      %k_ptrs_70 = arith.constant 64 : i32 loc(#loc477)
      %k_ptrs_71 = arith.extsi %k_ptrs_70 : i32 to i64 loc(#loc477)
      %k_ptrs_72 = arith.extsi %stride_kn : i32 to i64 loc(#loc477)
      %k_ptrs_73 = arith.muli %k_ptrs_71, %k_ptrs_72 : i64 loc(#loc477)
      %k_ptrs_74 = arith.constant 2147483647 : i64 loc(#loc477)
      %k_ptrs_75 = arith.constant -2147483648 : i64 loc(#loc477)
      %k_ptrs_76 = arith.cmpi sle, %k_ptrs_73, %k_ptrs_74 : i64 loc(#loc477)
      %k_ptrs_77 = arith.cmpi sge, %k_ptrs_73, %k_ptrs_75 : i64 loc(#loc477)
      %k_ptrs_78 = arith.andi %k_ptrs_76, %k_ptrs_77 : i1 loc(#loc477)
      %k_ptrs_79 = arith.muli %k_ptrs_70, %stride_kn : i32 loc(#loc477)
      %k_ptrs_80 = tt.splat %k_ptrs_79 : i32 -> tensor<128x64xi32> loc(#loc478)
      %k_ptrs_81 = tt.addptr %k_ptrs_4, %k_ptrs_80 : tensor<128x64x!tt.ptr<f16>>, tensor<128x64xi32> loc(#loc478)
      %v_ptrs_82 = arith.constant 64 : i32 loc(#loc479)
      %v_ptrs_83 = arith.constant 64 : i32 loc(#loc479)
      %v_ptrs_84 = arith.extsi %v_ptrs_83 : i32 to i64 loc(#loc479)
      %v_ptrs_85 = arith.extsi %stride_vk : i32 to i64 loc(#loc479)
      %v_ptrs_86 = arith.muli %v_ptrs_84, %v_ptrs_85 : i64 loc(#loc479)
      %v_ptrs_87 = arith.constant 2147483647 : i64 loc(#loc479)
      %v_ptrs_88 = arith.constant -2147483648 : i64 loc(#loc479)
      %v_ptrs_89 = arith.cmpi sle, %v_ptrs_86, %v_ptrs_87 : i64 loc(#loc479)
      %v_ptrs_90 = arith.cmpi sge, %v_ptrs_86, %v_ptrs_88 : i64 loc(#loc479)
      %v_ptrs_91 = arith.andi %v_ptrs_89, %v_ptrs_90 : i1 loc(#loc479)
      %v_ptrs_92 = arith.muli %v_ptrs_83, %stride_vk : i32 loc(#loc479)
      %v_ptrs_93 = tt.splat %v_ptrs_92 : i32 -> tensor<64x128xi32> loc(#loc480)
      %v_ptrs_94 = tt.addptr %v_ptrs_5, %v_ptrs_93 : tensor<64x128x!tt.ptr<f16>>, tensor<64x128xi32> loc(#loc480)
      scf.yield %acc_68, %l_i_63, %m_ij_43, %k_ptrs_81, %v_ptrs_94 : tensor<256x128xf32>, tensor<256xf32>, tensor<256xf32>, tensor<128x64x!tt.ptr<f16>>, tensor<64x128x!tt.ptr<f16>> loc(#loc211)
    } {tt.num_stages = 1 : i32} loc(#loc546)
    tt.return %v_ptrs_0#0, %v_ptrs_0#1, %v_ptrs_0#2 : tensor<256x128xf32>, tensor<256xf32>, tensor<256xf32> loc(#loc236)
  ^bb1:  // no predecessors
    %4 = ub.poison : tensor<256x128xf32> loc(#loc210)
    %5 = ub.poison : tensor<256xf32> loc(#loc210)
    %6 = ub.poison : tensor<256xf32> loc(#loc210)
    tt.return %4, %5, %6 : tensor<256x128xf32>, tensor<256xf32>, tensor<256xf32> loc(#loc210)
  } loc(#loc210)
  tt.func private @__main__.load_fn__Pfp16S128_64S_cNone_i32S64S_c128_i32(%ptrs: tensor<128x64x!tt.ptr<f16>> loc("ptrs"(#loc237)), %offset_second: tensor<64xi32> loc("offset_second"(#loc237)), %boundary_second: i32 loc("boundary_second"(#loc237))) -> tensor<128x64xf16> attributes {noinline = false} {
    %mask = tt.expand_dims %offset_second {axis = 0 : i32} : tensor<64xi32> -> tensor<1x64xi32> loc(#loc507)
    %mask_0 = tt.splat %boundary_second : i32 -> tensor<1x64xi32> loc(#loc507)
    %mask_1 = arith.cmpi slt, %mask, %mask_0 : tensor<1x64xi32> loc(#loc507)
    %tensor = arith.constant 0.000000e+00 : f32 loc(#loc508)
    %tensor_2 = tt.broadcast %mask_1 : tensor<1x64xi1> -> tensor<128x64xi1> loc(#loc508)
    %tensor_3 = arith.constant dense<0.000000e+00> : tensor<128x64xf32> loc(#loc508)
    %tensor_4 = arith.truncf %tensor_3 : tensor<128x64xf32> to tensor<128x64xf16> loc(#loc508)
    %tensor_5 = tt.load %ptrs, %tensor_2, %tensor_4 : tensor<128x64x!tt.ptr<f16>> loc(#loc508)
    tt.return %tensor_5 : tensor<128x64xf16> loc(#loc239)
  ^bb1:  // no predecessors
    %0 = ub.poison : tensor<128x64xf16> loc(#loc237)
    tt.return %0 : tensor<128x64xf16> loc(#loc237)
  } loc(#loc237)
  tt.func private @__main__.load_fn__Pfp16S64_128S_i32S64S_cNone_i32_c128(%ptrs: tensor<64x128x!tt.ptr<f16>> loc("ptrs"(#loc237)), %offset_first: tensor<64xi32> loc("offset_first"(#loc237)), %boundary_first: i32 loc("boundary_first"(#loc237))) -> tensor<64x128xf16> attributes {noinline = false} {
    %mask = tt.expand_dims %offset_first {axis = 1 : i32} : tensor<64xi32> -> tensor<64x1xi32> loc(#loc510)
    %mask_0 = tt.splat %boundary_first : i32 -> tensor<64x1xi32> loc(#loc510)
    %mask_1 = arith.cmpi slt, %mask, %mask_0 : tensor<64x1xi32> loc(#loc510)
    %tensor = arith.constant 0.000000e+00 : f32 loc(#loc511)
    %tensor_2 = tt.broadcast %mask_1 : tensor<64x1xi1> -> tensor<64x128xi1> loc(#loc511)
    %tensor_3 = arith.constant dense<0.000000e+00> : tensor<64x128xf32> loc(#loc511)
    %tensor_4 = arith.truncf %tensor_3 : tensor<64x128xf32> to tensor<64x128xf16> loc(#loc511)
    %tensor_5 = tt.load %ptrs, %tensor_2, %tensor_4 : tensor<64x128x!tt.ptr<f16>> loc(#loc511)
    tt.return %tensor_5 : tensor<64x128xf16> loc(#loc239)
  ^bb1:  // no predecessors
    %0 = ub.poison : tensor<64x128xf16> loc(#loc237)
    tt.return %0 : tensor<64x128xf16> loc(#loc237)
  } loc(#loc237)
} loc(#loc)
#loc1 = loc("/home/mejiang/w1/test/fav3/triton/fa/flash-attention.py":477:15)
#loc2 = loc("/home/mejiang/w1/test/fav3/triton/fa/flash-attention.py":477:5)
#loc3 = loc("/home/mejiang/w1/test/fav3/triton/fa/flash-attention.py":478:15)
#loc4 = loc("/home/mejiang/w1/test/fav3/triton/fa/flash-attention.py":478:5)
#loc5 = loc("/home/mejiang/w1/test/fav3/triton/fa/flash-attention.py":479:15)
#loc6 = loc("/home/mejiang/w1/test/fav3/triton/fa/flash-attention.py":479:5)
#loc7 = loc("/home/mejiang/w1/test/fav3/triton/fa/flash-attention.py":480:5)
#loc8 = loc("/home/mejiang/w1/test/fav3/triton/fa/flash-attention.py":481:15)
#loc9 = loc("/home/mejiang/w1/test/fav3/triton/fa/flash-attention.py":481:5)
#loc10 = loc("/home/mejiang/w1/test/fav3/triton/fa/flash-attention.py":482:15)
#loc11 = loc("/home/mejiang/w1/test/fav3/triton/fa/flash-attention.py":482:5)
#loc12 = loc("/home/mejiang/w1/test/fav3/triton/fa/flash-attention.py":483:15)
#loc13 = loc("/home/mejiang/w1/test/fav3/triton/fa/flash-attention.py":483:5)
#loc14 = loc("/home/mejiang/w1/test/fav3/triton/fa/flash-attention.py":484:5)
#loc15 = loc("/home/mejiang/w1/test/fav3/triton/fa/flash-attention.py":485:15)
#loc16 = loc("/home/mejiang/w1/test/fav3/triton/fa/flash-attention.py":485:5)
#loc17 = loc("/home/mejiang/w1/test/fav3/triton/fa/flash-attention.py":486:15)
#loc18 = loc("/home/mejiang/w1/test/fav3/triton/fa/flash-attention.py":486:5)
#loc19 = loc("/home/mejiang/w1/test/fav3/triton/fa/flash-attention.py":487:15)
#loc20 = loc("/home/mejiang/w1/test/fav3/triton/fa/flash-attention.py":487:5)
#loc21 = loc("/home/mejiang/w1/test/fav3/triton/fa/flash-attention.py":488:15)
#loc22 = loc("/home/mejiang/w1/test/fav3/triton/fa/flash-attention.py":488:5)
#loc23 = loc("/home/mejiang/w1/test/fav3/triton/fa/flash-attention.py":489:15)
#loc24 = loc("/home/mejiang/w1/test/fav3/triton/fa/flash-attention.py":489:5)
#loc25 = loc("/home/mejiang/w1/test/fav3/triton/fa/flash-attention.py":490:15)
#loc26 = loc("/home/mejiang/w1/test/fav3/triton/fa/flash-attention.py":490:5)
#loc27 = loc("/home/mejiang/w1/test/fav3/triton/fa/flash-attention.py":491:15)
#loc28 = loc("/home/mejiang/w1/test/fav3/triton/fa/flash-attention.py":491:5)
#loc29 = loc("/home/mejiang/w1/test/fav3/triton/fa/flash-attention.py":492:5)
#loc30 = loc("/home/mejiang/w1/test/fav3/triton/fa/flash-attention.py":493:15)
#loc31 = loc("/home/mejiang/w1/test/fav3/triton/fa/flash-attention.py":493:5)
#loc32 = loc("/home/mejiang/w1/test/fav3/triton/fa/flash-attention.py":494:15)
#loc33 = loc("/home/mejiang/w1/test/fav3/triton/fa/flash-attention.py":494:5)
#loc34 = loc("/home/mejiang/w1/test/fav3/triton/fa/flash-attention.py":495:15)
#loc35 = loc("/home/mejiang/w1/test/fav3/triton/fa/flash-attention.py":495:5)
#loc36 = loc("/home/mejiang/w1/test/fav3/triton/fa/flash-attention.py":496:5)
#loc37 = loc("/home/mejiang/w1/test/fav3/triton/fa/flash-attention.py":508:9)
#loc38 = loc("/home/mejiang/w1/test/fav3/triton/fa/flash-attention.py":509:9)
#loc39 = loc("/home/mejiang/w1/test/fav3/triton/fa/flash-attention.py":511:5)
#loc40 = loc("/home/mejiang/w1/test/fav3/triton/fa/flash-attention.py":511:11)
#loc42 = loc("/home/mejiang/w1/test/fav3/triton/fa/flash-attention.py":520:23)
#loc43 = loc("/home/mejiang/w1/test/fav3/triton/fa/flash-attention.py":521:23)
#loc44 = loc("/home/mejiang/w1/test/fav3/triton/fa/flash-attention.py":522:23)
#loc45 = loc("/home/mejiang/w1/test/fav3/triton/fa/flash-attention.py":523:21)
#loc46 = loc("/home/mejiang/w1/test/fav3/triton/fa/flash-attention.py":525:18)
#loc47 = loc("/home/mejiang/w1/test/fav3/triton/fa/flash-attention.py":525:38)
#loc48 = loc("/home/mejiang/w1/test/fav3/triton/fa/flash-attention.py":526:18)
#loc49 = loc("/home/mejiang/w1/test/fav3/triton/fa/flash-attention.py":527:18)
#loc50 = loc("/home/mejiang/w1/test/fav3/triton/fa/flash-attention.py":529:9)
#loc51 = loc("/home/mejiang/w1/test/fav3/triton/fa/flash-attention.py":544:13)
#loc52 = loc("/home/mejiang/w1/test/fav3/triton/fa/flash-attention.py":545:13)
#loc53 = loc("/home/mejiang/w1/test/fav3/triton/fa/flash-attention.py":546:13)
#loc54 = loc("/home/mejiang/w1/test/fav3/triton/fa/flash-attention.py":547:13)
#loc55 = loc("/home/mejiang/w1/test/fav3/triton/fa/flash-attention.py":549:9)
#loc56 = loc("/home/mejiang/w1/test/fav3/triton/fa/flash-attention.py":556:24)
#loc57 = loc("/home/mejiang/w1/test/fav3/triton/fa/flash-attention.py":563:44)
#loc58 = loc("/home/mejiang/w1/test/fav3/triton/fa/flash-attention.py":563:43)
#loc59 = loc("/home/mejiang/w1/test/fav3/triton/fa/flash-attention.py":563:35)
#loc60 = loc("/home/mejiang/w1/test/fav3/triton/fa/flash-attention.py":566:28)
#loc61 = loc("/home/mejiang/w1/test/fav3/triton/fa/flash-attention.py":569:20)
#loc62 = loc("/home/mejiang/w1/test/fav3/triton/fa/flash-attention.py":569:17)
#loc63 = loc("/home/mejiang/w1/test/fav3/triton/fa/flash-attention.py":570:38)
#loc64 = loc("/home/mejiang/w1/test/fav3/triton/fa/flash-attention.py":570:32)
#loc65 = loc("/home/mejiang/w1/test/fav3/triton/fa/flash-attention.py":570:58)
#loc66 = loc("/home/mejiang/w1/test/fav3/triton/fa/flash-attention.py":570:80)
#loc67 = loc("/home/mejiang/w1/test/fav3/triton/fa/flash-attention.py":571:41)
#loc68 = loc("/home/mejiang/w1/test/fav3/triton/fa/flash-attention.py":571:30)
#loc69 = loc("/home/mejiang/w1/test/fav3/triton/fa/flash-attention.py":571:71)
#loc70 = loc("/home/mejiang/w1/test/fav3/triton/fa/flash-attention.py":572:27)
#loc71 = loc("/home/mejiang/w1/test/fav3/triton/fa/flash-attention.py":573:36)
#loc72 = loc("/home/mejiang/w1/test/fav3/triton/fa/flash-attention.py":573:35)
#loc73 = loc("/home/mejiang/w1/test/fav3/triton/fa/flash-attention.py":575:21)
#loc74 = loc("/home/mejiang/w1/test/fav3/triton/fa/flash-attention.py":578:34)
#loc75 = loc("/home/mejiang/w1/test/fav3/triton/fa/flash-attention.py":578:30)
#loc76 = loc("/home/mejiang/w1/test/fav3/triton/fa/flash-attention.py":578:63)
#loc77 = loc("/home/mejiang/w1/test/fav3/triton/fa/flash-attention.py":581:25)
#loc78 = loc("/home/mejiang/w1/test/fav3/triton/fa/flash-attention.py":582:35)
#loc79 = loc("/home/mejiang/w1/test/fav3/triton/fa/flash-attention.py":583:21)
#loc80 = loc("/home/mejiang/w1/test/fav3/triton/fa/flash-attention.py":585:21)
#loc81 = loc("/home/mejiang/w1/test/fav3/triton/fa/flash-attention.py":588:13)
#loc82 = loc("/home/mejiang/w1/test/fav3/triton/fa/flash-attention.py":596:17)
#loc83 = loc("/home/mejiang/w1/test/fav3/triton/fa/flash-attention.py":597:20)
#loc84 = loc("/home/mejiang/w1/test/fav3/triton/fa/flash-attention.py":597:17)
#loc85 = loc("/home/mejiang/w1/test/fav3/triton/fa/flash-attention.py":598:38)
#loc86 = loc("/home/mejiang/w1/test/fav3/triton/fa/flash-attention.py":599:22)
#loc87 = loc("/home/mejiang/w1/test/fav3/triton/fa/flash-attention.py":599:17)
#loc88 = loc("/home/mejiang/w1/test/fav3/triton/fa/flash-attention.py":600:38)
#loc89 = loc("/home/mejiang/w1/test/fav3/triton/fa/flash-attention.py":604:32)
#loc90 = loc("/home/mejiang/w1/test/fav3/triton/fa/flash-attention.py":604:28)
#loc91 = loc("/home/mejiang/w1/test/fav3/triton/fa/flash-attention.py":604:52)
#loc92 = loc("/home/mejiang/w1/test/fav3/triton/fa/flash-attention.py":604:74)
#loc93 = loc("/home/mejiang/w1/test/fav3/triton/fa/flash-attention.py":605:37)
#loc94 = loc("/home/mejiang/w1/test/fav3/triton/fa/flash-attention.py":605:26)
#loc95 = loc("/home/mejiang/w1/test/fav3/triton/fa/flash-attention.py":605:67)
#loc96 = loc("/home/mejiang/w1/test/fav3/triton/fa/flash-attention.py":606:32)
#loc97 = loc("/home/mejiang/w1/test/fav3/triton/fa/flash-attention.py":606:28)
#loc98 = loc("/home/mejiang/w1/test/fav3/triton/fa/flash-attention.py":606:52)
#loc99 = loc("/home/mejiang/w1/test/fav3/triton/fa/flash-attention.py":606:74)
#loc100 = loc("/home/mejiang/w1/test/fav3/triton/fa/flash-attention.py":607:37)
#loc101 = loc("/home/mejiang/w1/test/fav3/triton/fa/flash-attention.py":607:26)
#loc102 = loc("/home/mejiang/w1/test/fav3/triton/fa/flash-attention.py":607:67)
#loc103 = loc("/home/mejiang/w1/test/fav3/triton/fa/flash-attention.py":608:32)
#loc104 = loc("/home/mejiang/w1/test/fav3/triton/fa/flash-attention.py":608:28)
#loc105 = loc("/home/mejiang/w1/test/fav3/triton/fa/flash-attention.py":608:52)
#loc106 = loc("/home/mejiang/w1/test/fav3/triton/fa/flash-attention.py":608:74)
#loc107 = loc("/home/mejiang/w1/test/fav3/triton/fa/flash-attention.py":609:37)
#loc108 = loc("/home/mejiang/w1/test/fav3/triton/fa/flash-attention.py":609:26)
#loc109 = loc("/home/mejiang/w1/test/fav3/triton/fa/flash-attention.py":609:67)
#loc110 = loc("/home/mejiang/w1/test/fav3/triton/fa/flash-attention.py":639:21)
#loc111 = loc("/home/mejiang/w1/test/fav3/triton/fa/flash-attention.py":648:23)
#loc112 = loc("/home/mejiang/w1/test/fav3/triton/fa/flash-attention.py":649:23)
#loc113 = loc("/home/mejiang/w1/test/fav3/triton/fa/flash-attention.py":650:23)
#loc114 = loc("/home/mejiang/w1/test/fav3/triton/fa/flash-attention.py":655:31)
#loc115 = loc("/home/mejiang/w1/test/fav3/triton/fa/flash-attention.py":658:21)
#loc116 = loc("/home/mejiang/w1/test/fav3/triton/fa/flash-attention.py":680:34)
#loc117 = loc("/home/mejiang/w1/test/fav3/triton/fa/flash-attention.py":681:32)
#loc118 = loc("/home/mejiang/w1/test/fav3/triton/fa/flash-attention.py":681:56)
#loc119 = loc("/home/mejiang/w1/test/fav3/triton/fa/flash-attention.py":685:59)
#loc120 = loc("/home/mejiang/w1/test/fav3/triton/fa/flash-attention.py":685:37)
#loc121 = loc("/home/mejiang/w1/test/fav3/triton/fa/flash-attention.py":691:33)
#loc122 = loc("/home/mejiang/w1/test/fav3/triton/fa/flash-attention.py":692:33)
#loc123 = loc("/home/mejiang/w1/test/fav3/triton/fa/flash-attention.py":693:17)
#loc124 = loc("/home/mejiang/w1/test/fav3/triton/fa/flash-attention.py":694:29)
#loc125 = loc("/home/mejiang/w1/test/fav3/triton/fa/flash-attention.py":697:20)
#loc126 = loc("/home/mejiang/w1/test/fav3/triton/fa/flash-attention.py":697:17)
#loc127 = loc("/home/mejiang/w1/test/fav3/triton/fa/flash-attention.py":698:34)
#loc128 = loc("/home/mejiang/w1/test/fav3/triton/fa/flash-attention.py":698:33)
#loc129 = loc("/home/mejiang/w1/test/fav3/triton/fa/flash-attention.py":699:37)
#loc130 = loc("/home/mejiang/w1/test/fav3/triton/fa/flash-attention.py":712:33)
#loc131 = loc("/home/mejiang/w1/test/fav3/triton/fa/flash-attention.py":714:17)
#loc132 = loc("/home/mejiang/w1/test/fav3/triton/fa/flash-attention.py":716:21)
#loc133 = loc("/home/mejiang/w1/test/fav3/triton/fa/flash-attention.py":716:17)
#loc134 = loc("/home/mejiang/w1/test/fav3/triton/fa/flash-attention.py":718:51)
#loc135 = loc("/home/mejiang/w1/test/fav3/triton/fa/flash-attention.py":718:41)
#loc136 = loc("/home/mejiang/w1/test/fav3/triton/fa/flash-attention.py":721:31)
#loc137 = loc("/home/mejiang/w1/test/fav3/triton/fa/flash-attention.py":721:21)
#loc138 = loc("/home/mejiang/w1/test/fav3/triton/fa/flash-attention.py":722:31)
#loc139 = loc("/home/mejiang/w1/test/fav3/triton/fa/flash-attention.py":722:21)
#loc140 = loc("/home/mejiang/w1/test/fav3/triton/fa/flash-attention.py":727:37)
#loc141 = loc("/home/mejiang/w1/test/fav3/triton/fa/flash-attention.py":743:31)
#loc142 = loc("/home/mejiang/w1/test/fav3/triton/fa/flash-attention.py":743:27)
#loc143 = loc("/home/mejiang/w1/test/fav3/triton/fa/flash-attention.py":744:23)
#loc144 = loc("/home/mejiang/w1/test/fav3/triton/fa/flash-attention.py":752:30)
#loc145 = loc("/home/mejiang/w1/test/fav3/triton/fa/flash-attention.py":752:29)
#loc146 = loc("/home/mejiang/w1/test/fav3/triton/fa/flash-attention.py":753:31)
#loc147 = loc("/home/mejiang/w1/test/fav3/triton/fa/flash-attention.py":754:36)
#loc148 = loc("/home/mejiang/w1/test/fav3/triton/fa/flash-attention.py":755:23)
#loc149 = loc("/home/mejiang/w1/test/fav3/triton/fa/flash-attention.py":757:24)
#loc150 = loc("/home/mejiang/w1/test/fav3/triton/fa/flash-attention.py":757:59)
#loc151 = loc("/home/mejiang/w1/test/fav3/triton/fa/flash-attention.py":757:21)
#loc152 = loc("/home/mejiang/w1/test/fav3/triton/fa/flash-attention.py":758:45)
#loc153 = loc("/home/mejiang/w1/test/fav3/triton/fa/flash-attention.py":759:56)
#loc154 = loc("/home/mejiang/w1/test/fav3/triton/fa/flash-attention.py":759:42)
#loc155 = loc("/home/mejiang/w1/test/fav3/triton/fa/flash-attention.py":760:41)
#loc156 = loc("/home/mejiang/w1/test/fav3/triton/fa/flash-attention.py":760:68)
#loc157 = loc("/home/mejiang/w1/test/fav3/triton/fa/flash-attention.py":761:25)
#loc158 = loc("/home/mejiang/w1/test/fav3/triton/fa/flash-attention.py":762:60)
#loc159 = loc("/home/mejiang/w1/test/fav3/triton/fa/flash-attention.py":762:31)
#loc160 = loc("/home/mejiang/w1/test/fav3/triton/fa/flash-attention.py":764:30)
#loc161 = loc("/home/mejiang/w1/test/fav3/triton/fa/flash-attention.py":764:26)
#loc162 = loc("/home/mejiang/w1/test/fav3/triton/fa/flash-attention.py":764:59)
#loc163 = loc("/home/mejiang/w1/test/fav3/triton/fa/flash-attention.py":767:33)
#loc164 = loc("/home/mejiang/w1/test/fav3/triton/fa/flash-attention.py":768:20)
#loc165 = loc("/home/mejiang/w1/test/fav3/triton/fa/flash-attention.py":768:17)
#loc166 = loc("/home/mejiang/w1/test/fav3/triton/fa/flash-attention.py":769:53)
#loc167 = loc("/home/mejiang/w1/test/fav3/triton/fa/flash-attention.py":769:32)
#loc168 = loc("/home/mejiang/w1/test/fav3/triton/fa/flash-attention.py":770:35)
#loc169 = loc("/home/mejiang/w1/test/fav3/triton/fa/flash-attention.py":771:44)
#loc170 = loc("/home/mejiang/w1/test/fav3/triton/fa/flash-attention.py":771:38)
#loc171 = loc("/home/mejiang/w1/test/fav3/triton/fa/flash-attention.py":771:21)
#loc172 = loc("/home/mejiang/w1/test/fav3/triton/fa/flash-attention.py":773:44)
#loc173 = loc("/home/mejiang/w1/test/fav3/triton/fa/flash-attention.py":773:38)
#loc174 = loc("/home/mejiang/w1/test/fav3/triton/fa/flash-attention.py":773:21)
#loc175 = loc("/home/mejiang/w1/test/fav3/triton/fa/flash-attention.py":776:34)
#loc176 = loc("/home/mejiang/w1/test/fav3/triton/fa/flash-attention.py":776:28)
#loc177 = loc("/home/mejiang/w1/test/fav3/triton/fa/flash-attention.py":776:54)
#loc178 = loc("/home/mejiang/w1/test/fav3/triton/fa/flash-attention.py":776:76)
#loc179 = loc("/home/mejiang/w1/test/fav3/triton/fa/flash-attention.py":777:37)
#loc180 = loc("/home/mejiang/w1/test/fav3/triton/fa/flash-attention.py":777:26)
#loc181 = loc("/home/mejiang/w1/test/fav3/triton/fa/flash-attention.py":777:67)
#loc182 = loc("/home/mejiang/w1/test/fav3/triton/fa/flash-attention.py":778:31)
#loc183 = loc("/home/mejiang/w1/test/fav3/triton/fa/flash-attention.py":779:20)
#loc184 = loc("/home/mejiang/w1/test/fav3/triton/fa/flash-attention.py":779:17)
#loc185 = loc("/home/mejiang/w1/test/fav3/triton/fa/flash-attention.py":780:50)
#loc186 = loc("/home/mejiang/w1/test/fav3/triton/fa/flash-attention.py":780:35)
#loc187 = loc("/home/mejiang/w1/test/fav3/triton/fa/flash-attention.py":783:17)
#loc189 = loc("/home/mejiang/w1/test/fav3/triton/fa/flash-attention.py":37:5)
#loc190 = loc("/home/mejiang/w1/test/fav3/triton/fa/flash-attention.py":42:5)
#loc191 = loc("/home/mejiang/w1/test/fav3/triton/fa/flash-attention.py":43:29)
#loc192 = loc("/home/mejiang/w1/test/fav3/triton/fa/flash-attention.py":43:17)
#loc193 = loc("/home/mejiang/w1/test/fav3/triton/fa/flash-attention.py":45:11)
#loc194 = loc("/home/mejiang/w1/test/fav3/triton/fa/flash-attention.py":46:17)
#loc195 = loc("/home/mejiang/w1/test/fav3/triton/fa/flash-attention.py":51:8)
#loc196 = loc("/home/mejiang/w1/test/fav3/triton/fa/flash-attention.py":51:5)
#loc197 = loc("/home/mejiang/w1/test/fav3/triton/fa/flash-attention.py":52:15)
#loc198 = loc("/home/mejiang/w1/test/fav3/triton/fa/flash-attention.py":55:13)
#loc199 = loc("/home/mejiang/w1/test/fav3/triton/fa/flash-attention.py":56:16)
#loc200 = loc("/home/mejiang/w1/test/fav3/triton/fa/flash-attention.py":56:36)
#loc201 = loc("/home/mejiang/w1/test/fav3/triton/fa/flash-attention.py":56:15)
#loc202 = loc("/home/mejiang/w1/test/fav3/triton/fa/flash-attention.py":60:5)
#loc204 = loc("/home/mejiang/w1/test/fav3/triton/fa/flash-attention.py":169:13)
#loc205 = loc("/home/mejiang/w1/test/fav3/triton/fa/flash-attention.py":169:12)
#loc206 = loc("/home/mejiang/w1/test/fav3/triton/fa/flash-attention.py":169:5)
#loc207 = loc("/home/mejiang/w1/test/triton/python/triton/language/standard.py":120:1)
#loc208 = loc("/home/mejiang/w1/test/triton/python/triton/language/standard.py":129:12)
#loc209 = loc("/home/mejiang/w1/test/triton/python/triton/language/standard.py":129:5)
#loc211 = loc("/home/mejiang/w1/test/fav3/triton/fa/flash-attention.py":278:5)
#loc212 = loc("/home/mejiang/w1/test/fav3/triton/fa/flash-attention.py":286:13)
#loc213 = loc("/home/mejiang/w1/test/fav3/triton/fa/flash-attention.py":290:14)
#loc214 = loc("/home/mejiang/w1/test/fav3/triton/fa/flash-attention.py":315:19)
#loc215 = loc("/home/mejiang/w1/test/fav3/triton/fa/flash-attention.py":315:13)
#loc216 = loc("/home/mejiang/w1/test/fav3/triton/fa/flash-attention.py":334:32)
#loc217 = loc("/home/mejiang/w1/test/fav3/triton/fa/flash-attention.py":334:16)
#loc218 = loc("/home/mejiang/w1/test/fav3/triton/fa/flash-attention.py":335:23)
#loc219 = loc("/home/mejiang/w1/test/fav3/triton/fa/flash-attention.py":336:14)
#loc220 = loc("/home/mejiang/w1/test/fav3/triton/fa/flash-attention.py":336:30)
#loc221 = loc("/home/mejiang/w1/test/fav3/triton/fa/flash-attention.py":337:13)
#loc222 = loc("/home/mejiang/w1/test/fav3/triton/fa/flash-attention.py":340:16)
#loc223 = loc("/home/mejiang/w1/test/fav3/triton/fa/flash-attention.py":350:30)
#loc224 = loc("/home/mejiang/w1/test/fav3/triton/fa/flash-attention.py":350:17)
#loc225 = loc("/home/mejiang/w1/test/fav3/triton/fa/flash-attention.py":351:21)
#loc226 = loc("/home/mejiang/w1/test/fav3/triton/fa/flash-attention.py":351:15)
#loc227 = loc("/home/mejiang/w1/test/fav3/triton/fa/flash-attention.py":353:17)
#loc228 = loc("/home/mejiang/w1/test/fav3/triton/fa/flash-attention.py":355:15)
#loc229 = loc("/home/mejiang/w1/test/fav3/triton/fa/flash-attention.py":370:27)
#loc230 = loc("/home/mejiang/w1/test/fav3/triton/fa/flash-attention.py":370:20)
#loc231 = loc("/home/mejiang/w1/test/fav3/triton/fa/flash-attention.py":370:13)
#loc232 = loc("/home/mejiang/w1/test/fav3/triton/fa/flash-attention.py":372:19)
#loc233 = loc("/home/mejiang/w1/test/fav3/triton/fa/flash-attention.py":372:9)
#loc234 = loc("/home/mejiang/w1/test/fav3/triton/fa/flash-attention.py":373:19)
#loc235 = loc("/home/mejiang/w1/test/fav3/triton/fa/flash-attention.py":373:9)
#loc236 = loc("/home/mejiang/w1/test/fav3/triton/fa/flash-attention.py":378:5)
#loc238 = loc("/home/mejiang/w1/test/fav3/triton/fa/flash-attention.py":213:18)
#loc239 = loc("/home/mejiang/w1/test/fav3/triton/fa/flash-attention.py":214:5)
#loc241 = loc("/home/mejiang/w1/test/triton/python/triton/language/standard.py":191:16)
#loc243 = loc("/home/mejiang/w1/test/triton/python/triton/language/standard.py":191:9)
#loc245 = loc("/home/mejiang/w1/test/triton/python/triton/language/standard.py":170:12)
#loc246 = loc("/home/mejiang/w1/test/triton/python/triton/language/standard.py":170:5)
#loc248 = loc("/home/mejiang/w1/test/triton/python/triton/language/standard.py":293:12)
#loc249 = loc("/home/mejiang/w1/test/triton/python/triton/language/standard.py":293:5)
#loc251 = loc("/home/mejiang/w1/test/triton/python/triton/language/standard.py":263:12)
#loc252 = loc("/home/mejiang/w1/test/triton/python/triton/language/standard.py":263:5)
#loc253 = loc("/home/mejiang/w1/test/fav3/triton/fa/flash-attention.py":282:34)
#loc254 = loc("/home/mejiang/w1/test/fav3/triton/fa/flash-attention.py":282:24)
#loc255 = loc("/home/mejiang/w1/test/fav3/triton/fa/flash-attention.py":300:17)
#loc256 = loc("/home/mejiang/w1/test/fav3/triton/fa/flash-attention.py":300:54)
#loc257 = loc("/home/mejiang/w1/test/fav3/triton/fa/flash-attention.py":300:16)
#loc258 = loc("/home/mejiang/w1/test/fav3/triton/fa/flash-attention.py":300:13)
#loc259 = loc("/home/mejiang/w1/test/fav3/triton/fa/flash-attention.py":301:30)
#loc260 = loc("/home/mejiang/w1/test/fav3/triton/fa/flash-attention.py":302:36)
#loc261 = loc("/home/mejiang/w1/test/fav3/triton/fa/flash-attention.py":302:26)
#loc262 = loc("/home/mejiang/w1/test/fav3/triton/fa/flash-attention.py":303:33)
#loc263 = loc("/home/mejiang/w1/test/fav3/triton/fa/flash-attention.py":303:24)
#loc264 = loc("/home/mejiang/w1/test/fav3/triton/fa/flash-attention.py":304:22)
#loc265 = loc("/home/mejiang/w1/test/fav3/triton/fa/flash-attention.py":306:31)
#loc266 = loc("/home/mejiang/w1/test/fav3/triton/fa/flash-attention.py":307:27)
#loc267 = loc("/home/mejiang/w1/test/fav3/triton/fa/flash-attention.py":307:46)
#loc268 = loc("/home/mejiang/w1/test/fav3/triton/fa/flash-attention.py":308:18)
#loc269 = loc("/home/mejiang/w1/test/fav3/triton/fa/flash-attention.py":210:16)
#loc270 = loc("/home/mejiang/w1/test/fav3/triton/fa/flash-attention.py":211:18)
#loc271 = loc("/home/mejiang/w1/test/fav3/triton/fa/flash-attention.py":207:16)
#loc272 = loc("/home/mejiang/w1/test/fav3/triton/fa/flash-attention.py":208:18)
#loc300 = loc("tile_id"(#loc37))
#loc301 = loc("num_tiles_total"(#loc38))
#loc302 = loc("tile_id"(#loc39))
#loc303 = loc("off_h_q"(#loc42))
#loc304 = loc("off_h_q"(#loc43))
#loc305 = loc("start_m"(#loc44))
#loc306 = loc("off_z"(#loc45))
#loc307 = loc("offs_m"(#loc46))
#loc308 = loc("offs_m"(#loc47))
#loc309 = loc("offs_n"(#loc48))
#loc310 = loc("offs_d"(#loc49))
#loc311 = loc("continue_condition"(#loc50))
#loc312 = loc("cu_seqlens_q_start"(#loc51))
#loc313 = loc("cu_seqlens_k_start"(#loc52))
#loc314 = loc("seqlen_q"(#loc53))
#loc315 = loc("seqlen_k"(#loc54))
#loc316 = loc("n_blocks"(#loc56))
#loc317 = loc("n_blocks_seqlen"(#loc57))
#loc318 = loc("n_blocks_seqlen"(#loc58))
#loc319 = loc("n_blocks_seqlen"(#loc59))
#loc320 = loc("n_blocks"(#loc60))
#loc321 = loc("continue_condition"(#loc62))
#loc322 = loc("o_offset"(#loc63))
#loc323 = loc("o_offset"(#loc64))
#loc324 = loc("o_offset"(#loc65))
#loc325 = loc("o_offset"(#loc66))
#loc326 = loc("o_ptrs"(#loc67))
#loc327 = loc("o_ptrs"(#loc68))
#loc328 = loc("o_ptrs"(#loc69))
#loc329 = loc("acc"(#loc70))
#loc330 = loc("o_ptrs_mask"(#loc71))
#loc331 = loc("o_ptrs_mask"(#loc72))
#loc332 = loc("l_ptrs"(#loc74))
#loc333 = loc("l_ptrs"(#loc75))
#loc334 = loc("l_ptrs"(#loc76))
#loc335 = loc("l"(#loc77))
#loc336 = loc("l_ptrs_mask"(#loc78))
#loc337 = loc("continue_condition"(#loc80))
#loc338 = loc("n_extra_tokens"(#loc82))
#loc339 = loc("n_extra_tokens"(#loc85))
#loc340 = loc("n_extra_tokens"(#loc87))
#loc341 = loc("n_extra_tokens"(#loc88))
#loc342 = loc("q_offset"(#loc89))
#loc343 = loc("q_offset"(#loc90))
#loc344 = loc("q_offset"(#loc91))
#loc345 = loc("q_offset"(#loc92))
#loc346 = loc("q_ptrs"(#loc93))
#loc347 = loc("q_ptrs"(#loc94))
#loc348 = loc("q_ptrs"(#loc95))
#loc349 = loc("k_offset"(#loc96))
#loc350 = loc("k_offset"(#loc97))
#loc351 = loc("k_offset"(#loc98))
#loc352 = loc("k_offset"(#loc99))
#loc353 = loc("k_ptrs"(#loc100))
#loc354 = loc("k_ptrs"(#loc101))
#loc355 = loc("k_ptrs"(#loc102))
#loc356 = loc("v_offset"(#loc103))
#loc357 = loc("v_offset"(#loc104))
#loc358 = loc("v_offset"(#loc105))
#loc359 = loc("v_offset"(#loc106))
#loc360 = loc("v_ptrs"(#loc107))
#loc361 = loc("v_ptrs"(#loc108))
#loc362 = loc("v_ptrs"(#loc109))
#loc363 = loc("batch_philox_offset"(#loc110))
#loc364 = loc("m_i"(#loc111))
#loc365 = loc("l_i"(#loc112))
#loc366 = loc("acc"(#loc113))
#loc367 = loc("q_ptrs_mask"(#loc114))
#loc368 = loc("q"(#loc115))
#loc369 = loc("padded_block_k"(#loc116))
#loc370 = loc("is_modulo_mn"(#loc117))
#loc371 = loc("is_modulo_mn"(#loc118))
#loc372 = loc("masked_blocks"(#loc119))
#loc373 = loc("masked_blocks"(#loc120))
#loc374 = loc("masked_blocks"(#loc121))
#loc375 = loc("n_full_blocks"(#loc122))
#loc376 = loc("block_min"(#loc123))
#loc377 = loc("block_max"(#loc124))
#loc378 = loc("m_i"(#loc126))
#loc379 = loc("block_max"(#loc127))
#loc380 = loc("block_max"(#loc128))
#loc381 = loc("m_i"(#loc129))
#loc382 = loc("block_max"(#loc130))
#loc383 = loc("offs_n_causal"(#loc134))
#loc384 = loc("offs_n_causal"(#loc135))
#loc385 = loc("k_ptrs"(#loc136))
#loc386 = loc("k_ptrs"(#loc137))
#loc387 = loc("v_ptrs"(#loc138))
#loc388 = loc("v_ptrs"(#loc139))
#loc389 = loc("m_i"(#loc140))
#loc390 = loc("l_recip"(#loc141))
#loc391 = loc("l_recip"(#loc142))
#loc392 = loc("acc"(#loc143))
#loc393 = loc("end_m_idx"(#loc144))
#loc394 = loc("end_m_idx"(#loc145))
#loc395 = loc("start_m_idx"(#loc146))
#loc396 = loc("causal_start_idx"(#loc147))
#loc397 = loc("acc"(#loc148))
#loc398 = loc("out_mask_boundary"(#loc152))
#loc399 = loc("mask_m_offsets"(#loc153))
#loc400 = loc("mask_m_offsets"(#loc154))
#loc401 = loc("out_ptrs_mask"(#loc155))
#loc402 = loc("out_ptrs_mask"(#loc156))
#loc403 = loc("z"(#loc157))
#loc404 = loc("acc"(#loc158))
#loc405 = loc("acc"(#loc159))
#loc406 = loc("l_ptrs"(#loc160))
#loc407 = loc("l_ptrs"(#loc161))
#loc408 = loc("l_ptrs"(#loc162))
#loc409 = loc("overflow_size"(#loc163))
#loc410 = loc("boundary"(#loc166))
#loc411 = loc("boundary"(#loc167))
#loc412 = loc("l_ptrs_mask"(#loc168))
#loc413 = loc("o_offset"(#loc175))
#loc414 = loc("o_offset"(#loc176))
#loc415 = loc("o_offset"(#loc177))
#loc416 = loc("o_offset"(#loc178))
#loc417 = loc("o_ptrs"(#loc179))
#loc418 = loc("o_ptrs"(#loc180))
#loc419 = loc("o_ptrs"(#loc181))
#loc420 = loc("o_ptrs_mask"(#loc182))
#loc421 = loc("o_ptrs_mask"(#loc185))
#loc422 = loc("o_ptrs_mask"(#loc186))
#loc424 = loc("pids_per_xcd"(#loc189))
#loc425 = loc("tall_xcds"(#loc190))
#loc426 = loc("tall_xcds"(#loc191))
#loc427 = loc("tall_xcds"(#loc192))
#loc428 = loc("tall_xcds"(#loc188))
#loc429 = loc("xcd"(#loc193))
#loc430 = loc("local_pid"(#loc194))
#loc431 = loc("pid"(#loc197))
#loc432 = loc("pid"(#loc198))
#loc433 = loc("pid"(#loc199))
#loc434 = loc("pid"(#loc200))
#loc435 = loc("pid"(#loc201))
#loc456 = loc("acc"(#loc211))
#loc457 = loc("k"(#loc212))
#loc458 = loc("qk"(#loc213))
#loc459 = loc("qk"(#loc214))
#loc460 = loc("qk"(#loc215))
#loc461 = loc("m_ij"(#loc216))
#loc462 = loc("m_ij"(#loc217))
#loc463 = loc("m_ij_scaled"(#loc218))
#loc464 = loc("qk"(#loc219))
#loc465 = loc("qk"(#loc220))
#loc466 = loc("p"(#loc221))
#loc467 = loc("l_ij"(#loc222))
#loc468 = loc("alpha"(#loc223))
#loc469 = loc("alpha"(#loc224))
#loc470 = loc("acc"(#loc225))
#loc471 = loc("acc"(#loc226))
#loc472 = loc("v"(#loc227))
#loc473 = loc("l_i"(#loc228))
#loc474 = loc("acc"(#loc229))
#loc475 = loc("acc"(#loc230))
#loc476 = loc("acc"(#loc231))
#loc477 = loc("k_ptrs"(#loc232))
#loc478 = loc("k_ptrs"(#loc233))
#loc479 = loc("v_ptrs"(#loc234))
#loc480 = loc("v_ptrs"(#loc235))
#loc483 = loc("tensor"(#loc238))
#loc494 = loc("k_offs_n"(#loc253))
#loc495 = loc("k_offs_n"(#loc254))
#loc496 = loc("boundary_m"(#loc259))
#loc497 = loc("size_n"(#loc260))
#loc498 = loc("size_n"(#loc261))
#loc499 = loc("mask"(#loc262))
#loc500 = loc("mask"(#loc263))
#loc501 = loc("qk"(#loc264))
#loc502 = loc("causal_boundary"(#loc265))
#loc503 = loc("causal_mask"(#loc266))
#loc504 = loc("causal_mask"(#loc267))
#loc505 = loc("qk"(#loc268))
#loc507 = loc("mask"(#loc269))
#loc508 = loc("tensor"(#loc270))
#loc510 = loc("mask"(#loc271))
#loc511 = loc("tensor"(#loc272))
#loc512 = loc("continue_condition"(#loc311))
#loc513 = loc("continue_condition"(#loc337))
#loc514 = loc("n_extra_tokens"(#loc338))
#loc515 = loc("n_extra_tokens"(#loc339))
#loc516 = loc("n_extra_tokens"(#loc341))
#loc517 = loc("k_ptrs"(#loc354))
#loc518 = loc("v_ptrs"(#loc361))
#loc519 = loc("m_i"(#loc364))
#loc520 = loc("l_i"(#loc365))
#loc521 = loc("acc"(#loc366))
#loc522 = loc("block_min"(#loc376))
#loc523 = loc("block_max"(#loc377))
#loc524 = loc("l_i"(#loc378))
#loc525 = loc("block_min"(#loc380))
#loc526 = loc("l_i"(#loc381))
#loc527 = loc("block_max"(#loc382))
#loc528 = loc("k_ptrs"(#loc386))
#loc529 = loc("v_ptrs"(#loc388))
#loc530 = loc("l_i"(#loc389))
#loc531 = loc("acc"(#loc397))
#loc532 = loc("acc"(#loc405))
#loc533 = loc("o_ptrs_mask"(#loc420))
#loc534 = loc("o_ptrs_mask"(#loc422))
#loc535 = loc("pid"(#loc431))
#loc536 = loc("pid"(#loc432))
#loc537 = loc("l_i"(#loc456))
#loc538 = loc("qk"(#loc458))
#loc539 = loc("qk"(#loc501))
#loc540 = loc("continue_condition"(#loc512))
#loc541 = loc("acc"(#loc524))
#loc542 = loc("acc"(#loc526))
#loc543 = loc("acc"(#loc530))
#loc544 = loc("m_i"(#loc537))
#loc545 = loc("k_ptrs"(#loc544))
#loc546 = loc("v_ptrs"(#loc545))
